trained_models/epoch=980_bestloss=0.009196637198328972.pt (torch, 84423 bytes, 9 tensors)

weight_ih_l0 f4 [160, 1]
0	0x3d8093e6	0.062782094
1	0xbb28b797	-0.0025744194
2	0x3e5fd0bc	0.2185697
3	0xbada00ec	-0.0016632355
4	0xbe113a9d	-0.14182515
5	0x3f13d249	0.57742745
6	0x3e51a5cd	0.20473404
7	0xbd8ba598	-0.06818694
8	0x3e0b787c	0.1362018
9	0xbbb66f6e	-0.0055674827
10	0xbc146981	-0.009058357
11	0xbdbfcd32	-0.0936531
12	0xbd04e3b1	-0.032443706
13	0x3e19d276	0.1502169
14	0x3de2371c	0.110456675
15	0xbd413063	-0.047165286
16	0xba7c66da	-0.0009628363
17	0xbe9336c2	-0.28752714
18	0xbe74eedb	-0.23919241
19	0xbebcc8fa	-0.36872083
20	0x3e550078	0.2080096
21	0x3e9aa2d8	0.30202365
22	0x3d876737	0.066114835
23	0x3d846777	0.06465047
24	0x3ed857da	0.42254525
25	0xbe473225	-0.19452722
26	0xbd1cb944	-0.03826262
27	0x41167aeb	9.405009
28	0xbbba593b	-0.0056869066
29	0xbac903f5	-0.0015336262
30	0x3d3bcca3	0.045849454
31	0x3e951a7d	0.2912177
32	0x3b54366e	0.0032381075
33	0x3db69ec8	0.08917004
34	0xbc18f602	-0.009335997
35	0xbe1d2120	-0.15344667
36	0x3ec17974	0.37787974
37	0x3f12bc08	0.5731816
38	0xbbbbf4db	-0.005735976
39	0xbd591d14	-0.053006247
40	0xbfdf6ac9	-1.7454463
41	0x3e70095c	0.2344107
42	0xbc5ba17d	-0.013405201
43	0x3d30cdd0	0.043165028
44	0x3ecad349	0.39614323
45	0x3d6198fa	0.05507753
46	0x3e266aae	0.16251633
47	0x3cf0c1be	0.029389258
48	0x3db7e546	0.08979277
49	0x3d5b32fc	0.05351542
50	0xbe754eb8	-0.2395581
51	0x3ee6e4b3	0.4509636
52	0xbe4acceb	-0.19804733
53	0xbeabfc53	-0.33590946
54	0x3d6a1ffc	0.05715941
55	0xbe5bac96	-0.21452555
56	0x3deb61a4	0.11493233
57	0x3dde6d76	0.10860722
58	0x3edad1e5	0.42738262
59	0x3a6f6a00	0.00091329217
60	0x3f037abf	0.5135917
61	0x3d8497de	0.06474279
62	0xc0a7a785	-5.239199
63	0xbd001738	-0.031272143
64	0x3e984b51	0.29744962
65	0xbbcd449d	-0.006264283
66	0x3c1e75a5	0.009671603
67	0xbf0b3542	-0.5437814
68	0x3e19c72b	0.15017383
69	0xbe56915c	-0.20953888
70	0xbd639894	-0.05556543
71	0x3cb0a779	0.021564232
72	0x3d20165f	0.039083835
73	0xbb75b216	-0.003749018
74	0xbcd69e45	-0.026198516
75	0xbc09ad6c	-0.008403163
76	0x3f1a2719	0.6021591
77	0x3e952d5d	0.29136172
78	0xbe249a59	-0.16074504
79	0x3e92827d	0.2861518
80	0x3d8819f8	0.06645578
81	0xbd5624f4	-0.052281335
82	0x3d35e5d1	0.044408623
83	0x3db9397c	0.090441674
84	0xbf5b9fd9	-0.85790783
85	0xbf0255e2	-0.50912297
86	0x3d4fac55	0.050701458
87	0xbd1247f8	-0.035713166
88	0x3e417a6b	0.18894355
89	0xbd55fc63	-0.052242648
90	0xbda98876	-0.08277981
91	0x3e20ec91	0.15715243
92	0x3bddd93a	0.00677028
93	0x3ee40fa6	0.4454319
94	0xbd5e50a1	-0.054276112
95	0xbe08bc6d	-0.13353129
96	0xbe0b6b3d	-0.13615127
97	0x3f26343d	0.6492346
98	0xbd729e9e	-0.0592333
99	0xbe2aa667	-0.1666504
100	0xbe36477e	-0.1780071
101	0x3d174c3d	0.03693794
102	0x3d914974	0.07094088
103	0xbe79cf34	-0.24395448
104	0x3d9ac8e7	0.0755785
105	0xbde69a4a	-0.11259897
106	0x3b7f51f9	0.0038958772
107	0x3fbc8702	1.4728701
108	0xbdaf18f0	-0.08549678
109	0x3e2f7e91	0.17138125
110	0x3d504c27	0.050853875
111	0x3c8fef0c	0.017570041
112	0xbc95b333	-0.018273925
113	0xbc09b1e4	-0.008404229
114	0x3cc91003	0.024543768
115	0xbd8d9ced	-0.06914697
116	0xbbe823ad	-0.007084331
117	0xbfc42c23	-1.532597
118	0xbe2c991a	-0.16855279
119	0xbcf93539	-0.030420886
120	0x3e2bb7fc	0.16769403
121	0x3bf461c1	0.0074579422
122	0xbef6cbf8	-0.4820249
123	0x3cc65d34	0.024214365
124	0xbe35061e	-0.17678115
125	0xbf052429	-0.520083
126	0x3d99a8fc	0.07502934
127	0xbd02b523	-0.031911027
128	0x3e5efeb6	0.21776852
129	0x3f875749	1.0573512
130	0xbde7b50f	-0.11313831
131	0xbe269f79	-0.16271771
132	0x3f086575	0.5327981
133	0x3d0fea91	0.03513581
134	0xbf48b7cd	-0.7840546
135	0x3e89c998	0.26911616
136	0x3e0aed11	0.13566996
137	0x3e25e44c	0.1620037
138	0xbe38e8e3	-0.18057589
139	0xbdbbb614	-0.09165588
140	0x3ebc0227	0.36720392
141	0x3d8008c2	0.062516704
142	0xbf366d57	-0.7126059
143	0xbe4a3828	-0.19747984
144	0x3f19f938	0.601459
145	0x3d95c2cb	0.073125444
146	0x3cde38be	0.027126666
147	0x3f8f6925	1.1203963
148	0xbf29f203	-0.66384906
149	0xba680e76	-0.00088522525
150	0xbe98af4e	-0.29821247
151	0xbfb54b1d	-1.4163548
152	0xbb179e39	-0.002313508
153	0xbea59cf4	-0.32346308
154	0x3f85521e	1.0415685
155	0x3f8539d8	1.0408278
156	0xbd564776	-0.052314244
157	0xbe021386	-0.1270276
158	0xbd5583d9	-0.052127693
159	0xbe6caf06	-0.23113641

weight_hh_l0 f4 [160, 40]
0	0x3cad4004	0.02114869
1	0xbe3beb72	-0.18351534
2	0xbeafbb1c	-0.3432244
3	0xbeba9fdd	-0.3645009
4	0xbeeb2af6	-0.45931214
5	0xbf3a26c5	-0.7271541
6	0x3f2ef8fc	0.6834867
7	0x3ef1501c	0.4713143
8	0x3f752ea5	0.957743
9	0xbf258988	-0.6466298
10	0xbe7ac264	-0.24488217
11	0xbeca76e8	-0.39543843
12	0xbdb51a21	-0.08842874
13	0xbf7e2cc6	-0.9928707
14	0xc00c18de	-2.1890178
15	0xbf0c449f	-0.5479221
16	0xbf581246	-0.84402883
17	0x3ee1f73d	0.4413394
18	0xbf24907a	-0.64282954
19	0x3e9bf992	0.30463845
20	0xbfdff162	-1.7495539
21	0xbd5223cd	-0.051303674
22	0xbe9aba70	-0.30220366
23	0xbe43caa5	-0.19120272
24	0xbe4adcee	-0.1981084
25	0x3f7a7bc8	0.97845125
26	0x3e6c3a5e	0.2306914
27	0xbf8720b4	-1.0556855
28	0xbe64309a	-0.22284165
29	0x3f8ba3f6	1.0909412
30	0x3e5f24bf	0.21791361
31	0xbf439ad5	-0.7640813
32	0xbeb82f6f	-0.3597369
33	0x3f37efd1	0.71850306
34	0xbf270e90	-0.65256596
35	0x3ec602e3	0.38674077
36	0x40054c72	2.0827909
37	0xbe4e9a42	-0.20176032
38	0xbe92a1e2	-0.28639132
39	0xbedbc617	-0.42924568
40	0xbdb984e6	-0.090585515
41	0xbecf636e	-0.40505546
42	0x3f19a4b5	0.6001695
43	0xbf92c29e	-1.1465642
44	0x3f06d3c7	0.52666897
45	0xbdecb9d3	-0.11558881
46	0xbf0b2c38	-0.5436435
47	0x3e174f41	0.14776327
48	0x3d480bba	0.04883931
49	0xbde61884	-0.11235145
50	0xc0139bfc	-2.3063955
51	0xbf03b310	-0.514451
52	0x3fab6791	1.3390981
53	0x3eaf8b0e	0.34285778
54	0x3f11ab24	0.56901765
55	0x3f318539	0.69343907
56	0x3f37fe05	0.7187198
57	0xbf44ba63	-0.76846904
58	0x3f0a69d9	0.5406776
59	0xbf0fc66e	-0.56162155
60	0x3e9f25d1	0.3108354
61	0x3ba0a0ac	0.004901966
62	0xbea75329	-0.32680634
63	0x3ebf61cd	0.37379304
64	0xbf659bc3	-0.896908
65	0x3f22b8af	0.63563055
66	0xbf084ba7	-0.53240436
67	0x3e9b301a	0.30310136
68	0x3eb2a983	0.34894952
69	0x3fd63fdc	1.6738238
70	0xbee6124e	-0.4493584
71	0xbf03f455	-0.51544696
72	0x3d75cbcc	0.06000881
73	0x3ec32ee2	0.38121706
74	0x3e9e06a5	0.30864444
75	0xbd90273c	-0.07038733
76	0xbefb2a98	-0.49055934
77	0xbed283a4	-0.4111606
78	0x3d13505f	0.03596532
79	0x3f7e3ce0	0.9931164
80	0xbd45b4ab	-0.048268
81	0x3ed7df32	0.42162472
82	0xbe879acd	-0.2648529
83	0x3e5fefba	0.21868792
84	0xbe2179fe	-0.15769193
85	0xbf1adb53	-0.6049091
86	0x3e915176	0.28382462
87	0x3e658fa3	0.22418074
88	0xbe1cc8c2	-0.15310958
89	0xbf240179	-0.6406475
90	0xbf21fcc7	-0.6327633
91	0xbda0654c	-0.07831821
92	0x3d91f349	0.07126481
93	0xbe90a3d2	-0.28249985
94	0xbf4b6daf	-0.7946424
95	0xbb8140f4	-0.0039445106
96	0xbf2d2ca3	-0.67646235
97	0x3eae7166	0.3407089
98	0xbec2bfe4	-0.38037026
99	0x3f3ddb76	0.74162996
100	0xbf482300	-0.78178406
101	0x3e19dded	0.15026064
102	0xbc9f9913	-0.019482171
103	0xbeb02329	-0.34401825
104	0x3b504d8d	0.0031784505
105	0xbd6301cc	-0.055421636
106	0xbe14c7c8	-0.14529335
107	0xbf386752	-0.72032654
108	0xbdf4029a	-0.11914559
109	0xbd4b2723	-0.04959787
110	0x3ecd153c	0.40055263
111	0x3e96c8f6	0.29450196
112	0xbd1e56c1	-0.038656954
113	0x3f82176c	1.0163398
114	0xbe4e63c4	-0.20155245
115	0xbe32ee06	-0.17473611
116	0x3e789fe2	0.2427974
117	0xbdf98a70	-0.12184608
118	0xbe17235c	-0.14759582
119	0xbc8260d3	-0.01591531
120	0xbddc947e	-0.1077051
121	0x3e6bf21d	0.23041578
122	0xbcd4ae9d	-0.025962168
123	0xbe9948c3	-0.29938325
124	0x3e54c7a1	0.20779277
125	0x3e3b24dd	0.18275781
126	0xbc41ce59	-0.011828982
127	0xbdf9bfd3	-0.12194791
128	0xbead1310	-0.33803606
129	0xbdb52c30	-0.08846319
130	0xbe889b77	-0.2668111
131	0xbdeaad3d	-0.11458824
132	0x3dedfb50	0.116202
133	0x3ecbc90b	0.3980182
134	0xbea3767b	-0.3192633
135	0x3e5385e6	0.20656547
136	0x3e97eaf8	0.29671454
137	0xbf33273c	-0.6998174
138	0x3ec93b46	0.39303035
139	0xbebe76aa	-0.37199908
140	0xbd248ea3	-0.04017509
141	0x3e673944	0.22580439
142	0x3eba48e9	0.3638375
143	0xbe083fe6	-0.13305625
144	0xbe9aa280	-0.30202103
145	0x3eb4a72c	0.35283792
146	0xbecce8e9	-0.40021446
147	0x3e65ba6c	0.22434396
148	0xbf121e97	-0.57077926
149	0x3e4c76a4	0.19967133
150	0x3d801baf	0.0625528
151	0x3ea57083	0.32312402
152	0x3e94c37c	0.29055393
153	0x3f8fc57a	1.123214
154	0xbdeede82	-0.11663534
155	0x3c56e644	0.013116423
156	0xbf0bbc32	-0.5458404
157	0x3ebfd36d	0.37465993
158	0x3e5e0446	0.21681318
159	0xbe33588e	-0.1751425
160	0x3d8ed7cb	0.06974753
161	0x3f3e2349	0.7427259
162	0xbee64341	-0.44973186
163	0xbf52e235	-0.82376415
164	0xbf3c5099	-0.7356048
165	0xbecea44f	-0.40359733
166	0xbf0ca3c8	-0.5493741
167	0xbe042272	-0.12903765
168	0xbd901ede	-0.070371374
169	0x3e930343	0.28713426
170	0xbf0ef115	-0.5583661
171	0xbe4d207d	-0.20031925
172	0x3f46bf33	0.77635497
173	0x3d66535e	0.05623185
174	0x3fa64cff	1.2992247
175	0x3f0ffaeb	0.56242245
176	0xbf30e2a9	-0.69095856
177	0x3ec14cfa	0.3775404
178	0x3e3a2273	0.18177204
179	0x3f0bf018	0.5466323
180	0xbfa113ec	-1.2584205
181	0x3f42b090	0.76050663
182	0xbe24552d	-0.16048117
183	0xbf273170	-0.6530981
184	0x3f8576ac	1.0426841
185	0xbf292183	-0.6606676
186	0xbe34a948	-0.176427
187	0x3f3aa7a1	0.7291203
188	0xbf4b1536	-0.7932924
189	0xbeca7790	-0.39544344
190	0xbee47c79	-0.44626215
191	0x3f2763da	0.65386736
192	0xbea17f9d	-0.31542674
193	0xbe94397e	-0.28950113
194	0x3e15100e	0.14556906
195	0x3e87a782	0.26494986
196	0x3f8188df	1.0119895
197	0xbf99f305	-1.2027289
198	0x3ed75e1f	0.42063996
199	0x3f860b40	1.0472183
200	0x3f2875d9	0.6580482
201	0xbf18f369	-0.59746414
202	0xbe2d33eb	-0.16914336
203	0x3f4d7c82	0.8026811
204	0x3fabc77e	1.3420255
205	0x3f043c13	0.51654166
206	0xbd7f090a	-0.06226448
207	0xbf3fa8b1	-0.7486678
208	0x3e24ad42	0.16081718
209	0xbcb0dae4	-0.02158875
210	0x3f1f793a	0.6229435
211	0x3d175f21	0.036955956
212	0xbf2b48b3	-0.66907805
213	0x3e3110dd	0.17291589
214	0xbf126531	-0.57185656
215	0xbd4a3ac7	-0.04937246
216	0x3dc85054	0.097809464
217	0x3f05315a	0.5202843
218	0x3f4b9a1b	0.7953202
219	0x3f812379	1.008895
220	0x3e7fc888	0.2497884
221	0x3da1303a	0.078705266
222	0x3f72f437	0.9490389
223	0xbd72fc35	-0.059322555
224	0x3ecf4537	0.40482494
225	0xbf4ca24f	-0.79935163
226	0x3fa5828c	1.2930465
227	0x3f5b1667	0.8558106
228	0x3ea2a146	0.31763667
229	0xbf3c4814	-0.7354748
230	0xbf219add	-0.6312693
231	0x3e528b6c	0.20560998
232	0x3f0a9959	0.5414024
233	0x3f1f87cd	0.6231659
234	0x3dd94857	0.10609501
235	0xbe8d9236	-0.27650613
236	0xbd0e02d8	-0.03467068
237	0xbe66b50f	-0.22530006
238	0xbe717b4e	-0.23582193
239	0x3d001dc3	0.031278383
240	0x3d4612f8	0.048357934
241	0x3d3a1d05	0.04543783
242	0x3f1a93db	0.6038186
243	0xbe8ca7ec	-0.27471864
244	0x3e0a5ad9	0.13511218
245	0xbd07b349	-0.033129964
246	0x3ce8743a	0.028375734
247	0x3dfb1241	0.12259341
248	0xbc54a87d	-0.012979624
249	0x3cba6547	0.02275337
250	0xbe68ce98	-0.2273506
251	0x3e461c5a	0.19346753
252	0xbd2b386a	-0.041801848
253	0xbf707148	-0.93922853
254	0xbd3ab8aa	-0.045586266
255	0x3f19df4e	0.6010636

bias_ih_l0 f4 [160]
0	0x3ed48dae	0.41514343
1	0xbf341a63	-0.7035276
2	0x3e83bc46	0.2572958
3	0xbea41922	-0.32050425
4	0x3c61caa7	0.013781226
5	0xbe14a7a7	-0.1451708
6	0x3e2a2d0c	0.16618747
7	0xbddf002f	-0.10888707
8	0xbd2ce325	-0.04220881
9	0x3bf48dd2	0.0074631954
10	0xbea665e9	-0.32499626
11	0x3e5c2a20	0.21500444
12	0x3e354203	0.17700963
13	0xbd705bdf	-0.058681365
14	0x3e86b034	0.26306307
15	0x3eb6fb20	0.35738468
16	0xbcf1c82a	-0.029514391
17	0x3d1c124e	0.038103394
18	0x3e21166b	0.15731208
19	0xbdd10f8f	-0.10208046
20	0xbe5252ef	-0.20539449
21	0x3ec29b95	0.38009325
22	0x3f7373bf	0.9509849
23	0xbea7062e	-0.32621902
24	0xbc4fac4c	-0.012675356
25	0x3c1147e7	0.0088672405
26	0x3ec63ae3	0.38716802
27	0xbdc22d9b	-0.09481355
28	0xbe9e0116	-0.30860204
29	0x3e0a2480	0.13490486
30	0xbe07a7d1	-0.1324761
31	0x3f05cee6	0.52268827
32	0x3dbf55db	0.093425475
33	0x3ea1e98a	0.3162349
34	0xbe4da4d0	-0.20082402
35	0xbe737f5d	-0.23779054
36	0x3ed135df	0.40861413
37	0x3ece329e	0.40272993
38	0xbe6f4aad	-0.2336833
39	0xbe78d609	-0.24300398
40	0xbe7413c9	-0.23835672
41	0x3f36d484	0.71418023
42	0xbdb65705	-0.089033164
43	0x3f158c56	0.5841726
44	0xbe37b785	-0.17941101
45	0xbc81f4b1	-0.015863748
46	0xbdaa2a3e	-0.08308838
47	0x3efb3d36	0.49070138
48	0x3dc80f8a	0.09768589
49	0x3e8b785e	0.2724027
50	0x3f25dae9	0.64787155
51	0x3dc8af2f	0.097990386
52	0x3edb1993	0.4279295
53	0xbdc6c613	-0.097057484
54	0x3ecd56bd	0.4010524
55	0x3e87787d	0.26459113
56	0x3d91ad57	0.0711314
57	0x3d0b7a1f	0.03405201
58	0x3e2f7f40	0.17138386
59	0x3ed8b017	0.42321846
60	0x3d99be96	0.075070545
61	0x3d1b192e	0.03786581
62	0x3e20b71a	0.15694848
63	0x3f185908	0.5951085
64	0x3dc6db45	0.09709791
65	0x3edafc2d	0.4277052
66	0x3db46142	0.08807613
67	0xbf227c62	-0.63471043
68	0x3f28f61b	0.6600053
69	0x3ec066ff	0.3757858
70	0x3ecb9149	0.3975928
71	0x3e4ee354	0.20203906
72	0xbd1a782b	-0.037712257
73	0x3e678f87	0.22613345
74	0x3eb2062a	0.34770328
75	0x3e89476f	0.26812312
76	0x3e8370e3	0.25672063
77	0xbe64716b	-0.2230889
78	0x3f1b8364	0.6074736
79	0x3f0b5fc7	0.5444302
80	0x3e3c3bb9	0.18382157
81	0x3dbae39e	0.09125446
82	0xbe387b34	-0.18015748
83	0x3e164673	0.14675312
84	0xbb577d35	-0.0032881026
85	0xbe1a4ba7	-0.15067922
86	0x3e8c932c	0.27456033
87	0xbd163e82	-0.036680706
88	0x3d6eef4d	0.058333684
89	0x3d054936	0.032540523
90	0x3e0ee957	0.139562
91	0x3ed0ac6a	0.40756541
92	0xbd3427b1	-0.043983165
93	0x3bda8e34	0.006669784
94	0xbe002fcb	-0.12518232
95	0xbda8ff48	-0.08251816
96	0xbe898d5a	-0.26865655
97	0x3e9f0a4f	0.31062552
98	0x3e610da5	0.21977861
99	0x3e80b57e	0.25138468
100	0xbe165501	-0.14680864
101	0x3c1acc4b	0.009448121
102	0x3e17c197	0.14819942
103	0x3e38f2fb	0.1806144
104	0xbe0f6abd	-0.14005561
105	0x3d6692aa	0.056292213
106	0x3e6778d2	0.22604683
107	0xbd37bcbd	-0.04485773
108	0x3e1ff446	0.15620527
109	0xbe94b4e4	-0.2904426
110	0x3d8d6ac7	0.06905132
111	0xbdbf19d0	-0.09331095
112	0xbd3e9890	-0.046532214
113	0xbe05e73b	-0.13076489
114	0x3c8a3d6d	0.016874993
115	0xbe3e79bc	-0.18601125
116	0xbe8cda63	-0.27510366
117	0xb996db7e	-0.00028773764
118	0xbd1e3cc9	-0.038632188
119	0x3e788b15	0.24271806
120	0x3ec301c0	0.38087273
121	0xbe114421	-0.14186145
122	0x3f332122	0.6997243
123	0x3f0a9bb3	0.5414383
124	0x3ddd8768	0.10816842
125	0x3d86eb6c	0.06587872
126	0xbcd46a7c	-0.025929682
127	0x3ef1f0b2	0.47253948
128	0xbb49142e	-0.0030682194
129	0x3ef6d19d	0.48206797
130	0x3f03097e	0.5118636
131	0x3d93880b	0.072036825
132	0x3f5082be	0.81449497
133	0x3e9c8999	0.3057373
134	0x3f34524d	0.7043808
135	0x3eca4a55	0.39509836
136	0x3dfa3e50	0.122189164
137	0x3d8b22a1	0.06793714
138	0xbd768a6c	-0.060190603
139	0x3e276a8c	0.16349238
140	0x3e368086	0.17822465
141	0x3eedff6c	0.46483934
142	0x3f6bfa3a	0.9217869
143	0x3f11fc93	0.5702602
144	0x3d9c6f7b	0.07638451
145	0x3daae677	0.08344739
146	0x3eabf4c0	0.33585167
147	0x3e169efc	0.14709085
148	0x3ee1bd54	0.44089758
149	0x3eb44dae	0.35215515
150	0x3f24d91b	0.64393777
151	0x3f2ecc10	0.68280125
152	0x3e1909a6	0.14945087
153	0x3f65607e	0.8960036
154	0x3f0d4ab7	0.5519213
155	0x3ea4f536	0.3221833
156	0x3e25ebf7	0.16203295
157	0xbcd28983	-0.025700336
158	0x3f19c9e6	0.600737
159	0x3f8483ca	1.0352719

bias_hh_l0 f4 [160]
0	0x3e509627	0.20369779
1	0xbf575cf3	-0.84126204
2	0x3ea0989c	0.31366432
3	0xbe945c9f	-0.28976914
4	0x3c1bb57e	0.00950372
5	0xbe00a322	-0.1256223
6	0x3dd46ef7	0.10372727
7	0xbe93defa	-0.28881055
8	0x3e1a95b6	0.15096173
9	0x3e12f936	0.14352879
10	0xbf029268	-0.5100465
11	0x3eb51165	0.35364833
12	0x3e317f70	0.1733377
13	0x3e4cef72	0.20013216
14	0x3e210c85	0.15727432
15	0x3d815b85	0.06316284
16	0x3d481bff	0.048854824
17	0xbd6b2707	-0.057410266
18	0xbd9bf37c	-0.076148
19	0xbe1159d9	-0.1419443
20	0xbd45f5f8	-0.048330277
21	0x3ecaa378	0.39577842
22	0x3f318297	0.6933989
23	0xbedebf5f	-0.4350538
24	0x3e88b0a9	0.2669728
25	0xbddfe729	-0.10932762
26	0x3ec405c4	0.3828565
27	0xbc52acab	-0.01285855
28	0xbedbcd4b	-0.42930064
29	0x3e3e4804	0.1858216
30	0xbd8bc649	-0.06824929
31	0x3f097ff3	0.5371086
32	0x3df7ee19	0.121059604
33	0x3e319755	0.17342885
34	0x3d467d71	0.048459474
35	0xbd0e7ed8	-0.034788936
36	0x3ee55bf1	0.44796708
37	0x3e87b83c	0.26507747
38	0xbd4c1ef0	-0.04983419
39	0xbd6f647f	-0.05844545
40	0xbe5afe55	-0.21386082
41	0x3f45d4de	0.77277935
42	0xbd22ccc0	-0.039746046
43	0x3f36b457	0.71368927
44	0x3d231ca3	0.039822232
45	0x3d589832	0.05287952
46	0x3de3a9fc	0.11116406
47	0x3ea27b07	0.31734487
48	0x3e0c2ddc	0.13689369
49	0x3e855556	0.2604167
50	0x3f40ebd3	0.7535984
51	0xbe0796ac	-0.1324107
52	0x3f09ff16	0.53904855
53	0x3e4cc2f8	0.1999625
54	0x3eb09989	0.34492138
55	0x3eb776f2	0.35832936
56	0x3cdf1813	0.02723316
57	0x3e131443	0.14363198
58	0x3da91676	0.08256237
59	0x3ea819ff	0.32832333
60	0x3d5153de	0.051105373
61	0xbdd4cea4	-0.10390976
62	0x3e1d02e9	0.15333141
63	0x3f44d189	0.76882225
64	0x3ddff722	0.10935809
65	0x3f1369a0	0.57583046
66	0x3d8de111	0.06927694
67	0xbed95cb3	-0.42453536
68	0x3f000a57	0.5001578
69	0x3eb71b81	0.3576317
70	0x3ee8e362	0.4548598
71	0x3ea77cb9	0.32712343
72	0x3d8a0217	0.0673868
73	0x3e90544f	0.28189322
74	0x3ea6289c	0.32452857
75	0x3e8b6fde	0.27233785
76	0x3e9953a3	0.29946622
77	0xbe48b1bd	-0.19599052
78	0x3f1571a2	0.58376515
79	0x3ecb887d	0.3975257
80	0x3ba8efca	0.005155538
81	0xbcfb32ef	-0.030663935
82	0xbcdd2ded	-0.026999438
83	0x3dfe2897	0.12410086
84	0xbe3bc656	-0.18337378
85	0xbe2f2f73	-0.17107944
86	0x3e99ec12	0.3006292
87	0xbe55fa76	-0.20896325
88	0x3e1a88e2	0.15091279
89	0xbe444a9a	-0.19169083
90	0x3e319b5b	0.1734442
91	0x3efb955a	0.49137384
92	0xbdef8b92	-0.11696543
93	0x3e1703b9	0.14747514
94	0xbdee16c4	-0.11625436
95	0xbe2817d6	-0.16415343
96	0xbe2e4c35	-0.17021258
97	0x3e9163d0	0.28396463
98	0x3d036635	0.032079894
99	0x3d7d9a9a	0.061915018
100	0xbe31a19d	-0.17346807
101	0x3e01eaa6	0.12687168
102	0x3c201070	0.009769544
103	0xbc9c8e15	-0.019110719
104	0xbb19cbf1	-0.0023467506
105	0x3de27c96	0.11058919
106	0x3e4253cb	0.18977277
107	0xbd860c90	-0.06545365
108	0x3e3daa4a	0.18521991
109	0xbe538e99	-0.20659865
110	0xbdb36d3d	-0.0876107
111	0xbe5811e1	-0.2110057
112	0xbd98beee	-0.07458292
113	0x3dc2b719	0.09507579
114	0x3d038287	0.032106902
115	0x3c544342	0.012955489
116	0xbe9e8bf8	-0.30966163
117	0xbdf8f718	-0.121565044
118	0x3dccd777	0.10002034
119	0x3ddb3795	0.10703961
120	0x3e2b9643	0.16756539
121	0xbbc66bd2	-0.0060553337
122	0x3f0b167b	0.5433118
123	0x3ed31e5b	0.41234097
124	0xbcfa616f	-0.030564038
125	0x3d9b2fb4	0.07577458
126	0x3ddbb4a0	0.10727811
127	0x3e64843d	0.2231607
128	0xbcb14401	-0.021638872
129	0x3f08c3e4	0.53423905
130	0x3f16c9a0	0.58901405
131	0x3dc10c2e	0.09426151
132	0x3f6803ab	0.90630597
133	0x3e996e5d	0.29967013
134	0x3f10b253	0.565221
135	0x3ec27c9e	0.379857
136	0x3e572346	0.2100955
137	0x3e1fd62c	0.15609044
138	0x3beb35d9	0.00717805
139	0x3e718361	0.23585273
140	0x3dcbad9b	0.09945222
141	0x3ecfd2e0	0.40590572
142	0x3f628946	0.8849071
143	0x3f1d73ff	0.6150512
144	0xbc29d4bf	-0.010365664
145	0x3d8dd677	0.069256715
146	0x3eb871ce	0.36024326
147	0x3dc4a880	0.09602451
148	0x3e76afad	0.24090452
149	0x3ee19a73	0.44063148
150	0x3f5722d7	0.84037536
151	0x3f34e8ff	0.70668024
152	0x3e149ffc	0.14514154
153	0x3f4ce25b	0.8003289
154	0x3f075c9a	0.52875674
155	0x3ee7183b	0.45135674
156	0x3e83d6f9	0.2574995
157	0xbd4f35fd	-0.050588597
158	0x3f195b0d	0.5990456
159	0x3f93cbd9	1.1546584

weight_ih_l0 f4 [160, 40]
0	0xbfc268b4	-1.5188203
1	0xbf0f4149	-0.5595899
2	0x3f07f51f	0.531084
3	0x3e1cf83b	0.15329067
4	0x3e32cd64	0.17461163
5	0xbe837e9b	-0.2568253
6	0x3e71116c	0.23541802
7	0xbdeb4187	-0.11487108
8	0xbe6863db	-0.22694342
9	0x3f09662d	0.5367153
10	0xbda951a5	-0.082675256
11	0xbd880a58	-0.06642598
12	0x3f878aaa	1.0589192
13	0xbe00727c	-0.12543672
14	0xbe9c8ea3	-0.30577573
15	0x3e03e72e	0.12881157
16	0xbf199a4a	-0.6000105
17	0x3d9724ba	0.07380052
18	0xbe9ab987	-0.3021967
19	0x3e5bf8c2	0.21481612
20	0xbf29f15b	-0.66383904
21	0x3e9bfb99	0.3046539
22	0x3f5cd871	0.86267763
23	0x3e7bc523	0.2458692
24	0x3ed3fb58	0.41402698
25	0xbed86084	-0.42261136
26	0x3d40d4e5	0.047078032
27	0x3ed0a04c	0.40747297
28	0x3e426d64	0.18987042
29	0xbe9844ea	-0.29740077
30	0xbf14e676	-0.58164155
31	0xbf8ee4d9	-1.1163589
32	0x3e803a04	0.25044262
33	0xc0031337	-2.0480478
34	0xbea7f4ee	-0.32804054
35	0x3e96ade1	0.29429534
36	0x3e392bbe	0.18083093
37	0xbef08b8d	-0.4698147
38	0xbf426ba2	-0.75945485
39	0xbf2626a0	-0.6490269
40	0xbf19aa7f	-0.6002578
41	0xbfca8ebe	-1.5824811
42	0x3e97a134	0.29615176
43	0x3d4f7fec	0.050659105
44	0x3e724092	0.23657444
45	0xbe0e01f5	-0.13867934
46	0xbd4008d0	-0.046883404
47	0xbed80acc	-0.42195737
48	0xbf28d298	-0.6594634
49	0x3ebfaa2d	0.3743452
50	0x3f09d77a	0.53844416
51	0x3f32997c	0.6976545
52	0x3d12fb85	0.0358844
53	0x3eec04ee	0.4609751
54	0xbf63cea6	-0.88987195
55	0x3dc0dbfe	0.0941696
56	0x3e36412f	0.17798303
57	0xbdc09482	-0.094033256
58	0xbe63fc54	-0.22264224
59	0xbd3f3349	-0.04667977
60	0x3f8807ac	1.0627341
61	0xbf0df481	-0.5545121
62	0xbf250be8	-0.6447129
63	0xbea894bb	-0.32925972
64	0xbf32677a	-0.6968914
65	0xbe592984	-0.21207243
66	0x3e168f74	0.1470316
67	0x3f1fe610	0.6246042
68	0xbd0d34c3	-0.034474146
69	0x3dff5105	0.12466625
70	0xbfbaf846	-1.4607017
71	0xbf5426b7	-0.82871574
72	0xbe2c2c69	-0.16813816
73	0xbe8414db	-0.2579716
74	0xbf6956e7	-0.9114823
75	0xbf70d930	-0.940814
76	0xbe9e1d66	-0.30881804
77	0x3e693618	0.22774541
78	0xbf554af3	-0.8331749
79	0x3f199cdc	0.60004973
80	0x3cbe5219	0.023232507
81	0xbed25881	-0.41083148
82	0xbe11402f	-0.1418464
83	0x3da1db03	0.07903101
84	0xbe39113e	-0.18072984
85	0x3de15721	0.11002947
86	0xbe12137e	-0.14265248
87	0x3ede5afd	0.43428794
88	0x3ddd2081	0.10797215
89	0x3f85a13e	1.0439832
90	0xbe875500	-0.26432037
91	0x3c910c60	0.017706096
92	0x3efd503c	0.49475276
93	0xbec2f5dd	-0.38078204
94	0xbec84228	-0.39112973
95	0x3f76dde2	0.96432316
96	0xbe54e1a2	-0.20789197
97	0x3d146692	0.03623063
98	0xbe68d371	-0.22736908
99	0x3eb1e2ca	0.3474334
100	0xbe90c2bc	-0.2827357
101	0xbe14f50e	-0.14546606
102	0x3e6b4681	0.22976114
103	0xbcb673b6	-0.022271972
104	0x3de659ac	0.11247572
105	0xbe93e0b3	-0.2888237
106	0xbf982f2b	-1.1889395
107	0xbda21c42	-0.07915546
108	0x3e788757	0.24270378
109	0xbf044e0e	-0.516816
110	0xbf1d5c03	-0.61468524
111	0xbdfe4aa2	-0.12416579
112	0xbd0be60b	-0.034154933
113	0xbe843673	-0.2582279
114	0xbd8ad8f8	-0.06779665
115	0x3ea4213e	0.32056612
116	0x3e7d7dd9	0.24755038
117	0xbef7560e	-0.48307842
118	0x3ea3e764	0.32012475
119	0xbec0bae3	-0.37642583
120	0x3ec36f5a	0.38170892
121	0xbf8259e0	-1.0183678
122	0xbeffac2b	-0.4993604
123	0x3e17b58b	0.14815347
124	0x3ddd4b39	0.10805363
125	0xbe1f20ad	-0.15539809
126	0xbe0958d5	-0.13412793
127	0x3eb04a32	0.34431607
128	0xbe8b6ca1	-0.27231315
129	0xbefcd5af	-0.49381778
130	0xbee5bdfb	-0.44871506
131	0x3e2cc181	0.16870691
132	0x3f532105	0.8247226
133	0x3e1cf422	0.15327504
134	0x3ee911b4	0.4552132
135	0xbf44aec2	-0.7682916
136	0xbe44f684	-0.19234663
137	0x3e3ede27	0.18639432
138	0xbe87f423	-0.2655345
139	0xbe98a922	-0.29816538
140	0x3e0d88f7	0.13821779
141	0x3ecb8552	0.39750153
142	0x3eabe700	0.33574677
143	0x3f75f300	0.96073914
144	0x3d670056	0.056396805
145	0xbf21a459	-0.631414
146	0x3f573739	0.8406864
147	0xbf3b4308	-0.73149157
148	0x3feb7816	1.8396022
149	0x3d5188d0	0.051155865
150	0x3ed06ae2	0.40706545
151	0x3f823dee	1.017515
152	0xbdf1f20c	-0.11813745
153	0xbe7f573a	-0.24935618
154	0xbe9201b8	-0.28516936
155	0xbe9a8619	-0.30180433
156	0xbdb6ca3a	-0.089252904
157	0x3e55e1d6	0.20886931
158	0xbf96fb33	-1.179541
159	0x3e0c529e	0.13703391
160	0x3e0e02cc	0.13868254
161	0xbf10bba0	-0.56536293
162	0x3f8a3b0f	1.0799273
163	0xbd68ce03	-0.056837093
164	0xbeebd216	-0.4605872
165	0x3df08068	0.117432415
166	0xbd3bd916	-0.045861326
167	0xbd23f8e5	-0.040032286
168	0x3f2062e5	0.626509
169	0xbf5fcd69	-0.87422806
170	0x3fec9cb5	1.8485323
171	0xbdfbc42b	-0.122932754
172	0x3c538582	0.012910249
173	0xbeec83f0	-0.4619441
174	0xbc993b80	-0.01870513
175	0x3f20e64b	0.628514
176	0xbdd30961	-0.10304523
177	0x3e201a49	0.15635027
178	0xbe366f5d	-0.17815919
179	0x3ea17ecc	0.3154205
180	0xbf02cd42	-0.5109445
181	0x3e7e0a6b	0.24808662
182	0x3f99503c	1.197761
183	0xbe953562	-0.2914229
184	0x3f4c1b8a	0.7972952
185	0xbe6bb128	-0.23016798
186	0x3f7924af	0.973216
187	0xbf873d93	-1.0565666
188	0xbed49d2b	-0.4152616
189	0x3cee7c0f	0.02911189
190	0xbfef701c	-1.8706088
191	0xbf1f5f63	-0.62254924
192	0xbe2c173f	-0.16805743
193	0xbf0742b0	-0.5283613
194	0x3f508aa8	0.8146157
195	0x3efb45d1	0.49076703
196	0x3ead2785	0.33819214
197	0xbe42dda9	-0.19029869
198	0xbed694c4	-0.41910374
199	0xc0319f6d	-2.7753556
200	0xbdcb8b65	-0.09938697
201	0xbeea9190	-0.4581418
202	0xbeb05729	-0.34441498
203	0xbe8b74cd	-0.2723755
204	0x3e15a7f4	0.1461485
205	0xbe790788	-0.24319279
206	0xbdaf2125	-0.08551244
207	0x3ec95890	0.3932538
208	0xbee34d8d	-0.44395104
209	0xbf2000a2	-0.62500966
210	0x3fdd7380	1.7300873
211	0x3e581292	0.21100834
212	0xbedc17b1	-0.42986825
213	0xbf026dea	-0.50948966
214	0x3e5cde9e	0.21569297
215	0xbf53dc6c	-0.8275821
216	0xbf3bb048	-0.7331586
217	0x3e46abf8	0.19401538
218	0x3e434246	0.1906825
219	0x3e5ba7cb	0.21450727
220	0xbd384c45	-0.04499461
221	0x3f4ef79d	0.8084658
222	0x3f4fdc54	0.8119557
223	0x3e6651c7	0.22492133
224	0x3bee34fb	0.0072694994
225	0x3f1b2ca8	0.60615015
226	0xbf618117	-0.880876
227	0xbf04a3ea	-0.51812613
228	0xbfb579dc	-1.4177814
229	0xbe0f9b53	-0.14024095
230	0x3f8d6977	1.104781
231	0x3f3e8ca1	0.7443333
232	0xbdc08b4f	-0.09401571
233	0xbeb2a6d5	-0.34892908
234	0x3f876244	1.0576863
235	0x3fd661d3	1.6748604
236	0x3e58827f	0.2114353
237	0xbed10624	-0.40824997
238	0x3e6b8560	0.23000097
239	0x3f895379	1.0728599
240	0xbe190c5b	-0.1494612
241	0xbef1070a	-0.47075683
242	0xbf3f8757	-0.7481589
243	0x3ea1073e	0.31450838
244	0x3de6c782	0.11268522
245	0xbebef2db	-0.3729466
246	0x3e004c6b	0.12529151
247	0xbec7b5f6	-0.39006013
248	0xbec3123a	-0.38099843
249	0x3f140d96	0.5783323
250	0xbda9029b	-0.0825245
251	0xbd8ebbf6	-0.069694445
252	0xc0003be7	-2.0036561
253	0xbdf392d1	-0.118932374
254	0xbd70bf9a	-0.058776475
255	0xbcee6e57	-0.029105349

weight_hh_l0 f4 [160, 40]
0	0x3f465eb4	0.77488256
1	0xbe6a15ff	-0.22859953
2	0xbe4927ae	-0.19644043
3	0xbe6c4499	-0.23073043
4	0x3ec3517a	0.381481
5	0x3ed538cd	0.41644898
6	0xbd0d3d83	-0.03448249
7	0xbeeb8fbe	-0.46008104
8	0x3f1b9eb8	0.6078906
9	0x3e6b35c2	0.22969726
10	0xbde08cb7	-0.10964339
11	0x3f0186c7	0.5059628
12	0x3e166734	0.14687806
13	0x3e518122	0.20459417
14	0x3eed7e16	0.46385258
15	0xbe7320f7	-0.23743044
16	0xbcac7419	-0.021051453
17	0x3cdfd70d	0.027324224
18	0x3cc1ee69	0.023673253
19	0x3c38e6b5	0.011285474
20	0x3da86d43	0.08223965
21	0xbea12026	-0.3146984
22	0x3ebbf0a1	0.36707023
23	0x3e10f429	0.1415564
24	0xbe40bce7	-0.1882206
25	0xbf3e50b9	-0.74341923
26	0xbce573e3	-0.02800936
27	0xbe4000c9	-0.187503
28	0x3f510898	0.8165374
29	0x3f30b8c1	0.6903191
30	0x3ebbf3c6	0.36709422
31	0xbe56cabb	-0.20975773
32	0xbeafc42b	-0.34329352
33	0xbecfb393	-0.40566692
34	0xbe0d949d	-0.13826223
35	0xbee5eca5	-0.44907108
36	0xbe62348e	-0.2209036
37	0xbea7d2e7	-0.32778093
38	0xbd824aec	-0.063619465
39	0x3f4d0c62	0.8009702
40	0x3df64292	0.12024416
41	0xbec4a80b	-0.38409457
42	0xbeb42945	-0.35187736
43	0x3c502d82	0.012706162
44	0x3f0e3989	0.5555654
45	0x3e9719e4	0.2951194
46	0xbdc93d7e	-0.09826182
47	0x3e9ed96b	0.31025252
48	0xbe11a6be	-0.14223763
49	0xbf9a44ba	-1.2052224
50	0x3de2f659	0.11082143
51	0xbd52fb02	-0.05150891
52	0x3fb2891c	1.3948092
53	0x3e385ef9	0.18004979
54	0x3e27bad2	0.1637986
55	0x3eb3aaa1	0.35091117
56	0x3eaacda4	0.33360016
57	0x3e828756	0.25493878
58	0xbe0b5ab7	-0.13608824
59	0x3d3ff8f3	0.046868276
60	0x3e146138	0.14490211
61	0x3d9ef334	0.07761231
62	0xbe144970	-0.14481139
63	0xbe8cd59e	-0.27506727
64	0xbf0d4fff	-0.5520019
65	0xbf4eda38	-0.80801725
66	0xbe43e264	-0.1912933
67	0x3f4251e9	0.75906235
68	0xbe1a5ef8	-0.1507529
69	0x3ebd5a84	0.3698312
70	0xbde8e92d	-0.113726
71	0xbf25797f	-0.64638513
72	0xbf0c3c3e	-0.5477942
73	0x3dff0668	0.12452394
74	0x3f90e821	1.132084
75	0xbe946639	-0.2898424
76	0x3fc6b954	1.5525308
77	0xbd6f4171	-0.05841202
78	0x3f339cdb	0.7016122
79	0xbdf75d09	-0.12078292
80	0xbe1b33fd	-0.1515655
81	0x3d9cb0d0	0.07650912
82	0xbe997b97	-0.29977104
83	0xbf39cae9	-0.7257524
84	0xbe1bff89	-0.15234198
85	0xbe80246d	-0.2502779
86	0x3ec1d702	0.3785935
87	0xbf1bd367	-0.6086945
88	0xbde248c0	-0.11049032
89	0x3df1cce1	0.11806656
90	0x3f2ef977	0.68349403
91	0x3ea9a6fa	0.33135206
92	0xbf2345bc	-0.6377828
93	0xbeb9b338	-0.36269546
94	0xbb7a90fe	-0.0038233395
95	0x3e02404c	0.1271984
96	0x3d92d8f6	0.07170288
97	0xbdfafe3f	-0.12255525
98	0x3ee0a8ae	0.43878692
99	0xbef604a6	-0.4805042
100	0x3eeca58c	0.46220052
101	0xbe49bcc1	-0.1970091
102	0xbeae8d96	-0.34092396
103	0xbe729f88	-0.23693669
104	0xbe53587e	-0.20639226
105	0xbe89a950	-0.26886988
106	0x3da5dff0	0.08099353
107	0xbc4c4ce5	-0.012469505
108	0x3f5ec54d	0.8701981
109	0x3d809a77	0.06279462
110	0x3d9b015a	0.07568617
111	0x3d85e9f7	0.06538766
112	0xbd9512f1	-0.072790034
113	0xbe11a782	-0.14224055
114	0xbcacfdf8	-0.021117195
115	0xbeb44ef1	-0.35216478
116	0xbe570750	-0.20998883
117	0xbdd1bd1a	-0.102411464
118	0x38bfd994	9.148117e-05
119	0x3e86cad3	0.26326618
120	0x3e52e785	0.2059613
121	0xbe0d9926	-0.13827953
122	0xbe2656e4	-0.16244084
123	0xbed7a297	-0.42116234
124	0x3e4659de	0.19370219
125	0x3f291777	0.6605143
126	0x3e497bd8	0.19676149
127	0x3d9c4c5b	0.07631751
128	0xbd094793	-0.033515524
129	0x3e18be60	0.14916372
130	0x3c9b6b04	0.018971927
131	0x3f1fe860	0.6246395
132	0x3d5bf1e2	0.053697474
133	0xbea2715d	-0.31727114
134	0x3e6de540	0.23231983
135	0xbe141300	-0.14460373
136	0x3e59a995	0.21256097
137	0x3ea57ddf	0.32322595
138	0xba98336d	-0.0011612006
139	0x3f1fe1d4	0.6245396
140	0x3eb03e75	0.3442265
141	0xbd42fbf2	-0.047603555
142	0xbe8325e3	-0.25614843
143	0xbf51c36e	-0.8193883
144	0xbe5b6178	-0.214239
145	0xbee1540a	-0.4400943
146	0x3ed37afe	0.41304773
147	0x3da13a52	0.07872452
148	0x3f9b45a3	1.2130626
149	0x3e938318	0.28810954
150	0xbcd44141	-0.025910022
151	0xbf128b14	-0.57243466
152	0xbf4a679f	-0.79064363
153	0x3e64e311	0.22352244
154	0x3ec6f3f1	0.38857988
155	0x3d116c0c	0.035503432
156	0x3e01f570	0.12691283
157	0x3e4a2f66	0.19744644
158	0x3ed4b524	0.4154445
159	0x3f34e847	0.7066693
160	0xbe9a3921	-0.3012171
161	0x3f7746a9	0.96592194
162	0x3e50a906	0.20376977
163	0xbd607aa9	-0.054804478
164	0x3f0ddcae	0.55414855
165	0xbe9c923f	-0.30580327
166	0x3eb7dbda	0.3590992
167	0x3e19333c	0.1496095
168	0x3eb1609c	0.3464402
169	0x3de8879b	0.1135399
170	0xbeaf8ef9	-0.34288767
171	0x3e54a4c5	0.2076598
172	0xbdf64459	-0.12024755
173	0xbe139216	-0.14411196
174	0xbdeffc7b	-0.11718079
175	0x3e4cbca5	0.19993837
176	0x3ed590e2	0.417121
177	0x3e4ce189	0.2000791
178	0x3e4773e4	0.19477803
179	0xbd8df3f5	-0.06931297
180	0xbef0be45	-0.47020164
181	0x3eaf0307	0.34181997
182	0xbeec7cdd	-0.46189013
183	0x3e000355	0.12501271
184	0xbe998a0c	-0.29988134
185	0x3dfe44f6	0.12415497
186	0x3e82a27c	0.2551459
187	0x3dc6204a	0.096741274
188	0xbe4daa8c	-0.2008459
189	0xbe3a1eda	-0.18175831
190	0x3d9ed278	0.077549875
191	0xbe12df87	-0.14343081
192	0x3f3580fc	0.7089994
193	0x3a1703ac	0.000576074
194	0x3f069857	0.525762
195	0xbe1ed6ce	-0.15511629
196	0x3f1cb25d	0.6120966
197	0xbf560b95	-0.8361142
198	0xbec08f5e	-0.3760938
199	0x3dc0028a	0.09375484
200	0xbe7a20c5	-0.24426563
201	0x3ca77821	0.020443024
202	0xbe0124c1	-0.12611677
203	0x3e33c61d	0.17556043
204	0x3ec64f3a	0.3873232
205	0xbe3b4efd	-0.1829185
206	0x3dab7969	0.083727665
207	0xbe866ed0	-0.26256418
208	0xbeadb593	-0.33927593
209	0xbedd7a35	-0.432573
210	0x3e3e44c5	0.18580921
211	0xbd49b29f	-0.049242612
212	0x3f6f989e	0.9359225
213	0x3e2d9867	0.16952668
214	0x3d8b4bd5	0.06801573
215	0xbe3a5809	-0.18197645
216	0xbd4beade	-0.049784534
217	0x3db9749a	0.09055443
218	0x3eba8c96	0.36435384
219	0x3d663188	0.05619958
220	0xbe2eef60	-0.17083502
221	0xbc82f061	-0.015983762
222	0xbdaa00dc	-0.08300945
223	0x3d1a5ca5	0.03768601
224	0xbc8fb072	-0.01754019
225	0xbe803f9f	-0.2504854
226	0xbdaac152	-0.08337654
227	0x3e79266f	0.24331068
228	0xbe378e38	-0.17925346
229	0x3c8e6860	0.017383754
230	0xbe637c93	-0.2221549
231	0x3d37bd17	0.044858065
232	0x3b942b9b	0.0045217997
233	0xbf1aa18e	-0.6040276
234	0x3db90f4e	0.09036122
235	0xbe0fd338	-0.14045417
236	0x3ece0dcc	0.402449
237	0x3de50e6e	0.11184393
238	0x3ba90d84	0.005159082
239	0xbd11c802	-0.035591133
240	0x3e659f4f	0.22424053
241	0xbe233d9d	-0.15941472
242	0xbea6cc93	-0.32577953
243	0x3d35a34d	0.04434519
244	0x3bf27f2c	0.007400414
245	0x3e5def02	0.21673205
246	0x3f01fdc7	0.5077786
247	0xbf0b61b9	-0.5444599
248	0xbee6db7e	-0.45089334
249	0xbbcaab71	-0.006184988
250	0xbedb3d26	-0.4282009
251	0xbe004251	-0.12525298
252	0xbee0590d	-0.4381794
253	0xbee419a5	-0.44550815
254	0xbdfddfbb	-0.12396189
255	0x3e9f6e2d	0.31138745

bias_ih_l0 f4 [160]
0	0x3e1f6114	0.15564376
1	0xbe031185	-0.12799652
2	0x3de83861	0.113388784
3	0x3d4c1f91	0.04983479
4	0x3dd72335	0.10504762
5	0x3da62420	0.08112359
6	0x3db82331	0.08991087
7	0xbc948b22	-0.01813275
8	0x3e122bc7	0.14274512
9	0x3d2ec22b	0.04266564
10	0x3e82f021	0.2557383
11	0x3d8b8d82	0.068141
12	0x3d89abd8	0.0672223
13	0xbdd4042d	-0.10352359
14	0x3dec2a85	0.115315475
15	0x3e9dc068	0.30810857
16	0xbdd542fd	-0.104131676
17	0x3bad69e7	0.0052921656
18	0x3d19f0b1	0.037583057
19	0x3ebd503e	0.36975282
20	0x3e69094c	0.22757453
21	0x3df2ab2b	0.11849054
22	0x3e7ca2d7	0.24671493
23	0x3e880db4	0.26572955
24	0xbd255969	-0.04036847
25	0xbb55ffe3	-0.003265374
26	0x3dbaa096	0.091126606
27	0x3b9fcab3	0.0048764586
28	0xbddf3a1e	-0.10899757
29	0x3ecec4c0	0.40384483
30	0x3f09cf51	0.53831965
31	0x3e43820e	0.1909258
32	0x3e763c2f	0.24046396
33	0x3d8578d0	0.06517184
34	0x3d1602aa	0.036623634
35	0xbcf0e6aa	-0.029406864
36	0x3d7e2d8e	0.062055163
37	0x3d280c76	0.04102751
38	0xbda22ac8	-0.07918316
39	0x3e443fcb	0.1916496
40	0xbdbee478	-0.09320921
41	0x3cbbe537	0.022936447
42	0xbd499d67	-0.049222376
43	0xbd798e19	-0.06092653
44	0x3d79f8e4	0.061028376
45	0xbc0ca144	-0.008583371
46	0x3d13b5e6	0.036062144
47	0xbe92c772	-0.2866779
48	0x3e2ec5d1	0.17067648
49	0x3df2cb6d	0.11855207
50	0x3c790565	0.01519904
51	0x3e37c7c1	0.17947294
52	0x3d3a1038	0.045425624
53	0x3c4c635d	0.012474862
54	0x3e0e8598	0.1391815
55	0x3c4cbf88	0.0124968365
56	0x3e2471fb	0.16059105
57	0x3e95db72	0.29268986
58	0x3d81164f	0.06303083
59	0x3cf115fd	0.02942943
60	0x3d460ccd	0.04835205
61	0x3e126c33	0.14299087
62	0xbd817ca7	-0.06322604
63	0x3e286385	0.16444214
64	0xbdcb514d	-0.09927616
65	0x3e58aeda	0.2116045
66	0xbd3b5776	-0.045737706
67	0xbc0e26f6	-0.008676281
68	0x3e4ecc57	0.20195137
69	0x3e202aa2	0.15641263
70	0xbe1cb7f9	-0.15304555
71	0x3eac46d3	0.33647785
72	0xbaed5621	-0.0018107333
73	0x3e20725f	0.15668629
74	0xbe353100	-0.17694473
75	0x3c67e7c8	0.014154382
76	0xbd1a2926	-0.0376369
77	0xbed8d16f	-0.42347285
78	0xbca77f7f	-0.020446537
79	0x3e4d5cfd	0.20055003
80	0x3dda32aa	0.10654195
81	0x3dfaca39	0.12245602
82	0xbcf8b592	-0.030360017
83	0xbe9f1f80	-0.3107872
84	0xbdb79012	-0.08963026
85	0xbe448867	-0.19192658
86	0xbdd6a1d1	-0.10480083
87	0xbe41abec	-0.18913239
88	0x3e4f5e9c	0.20250934
89	0xbe948587	-0.29008123
90	0xbd292c11	-0.04130179
91	0x3cbfb578	0.02340196
92	0xbd1b8ddf	-0.037977096
93	0xbe9edacc	-0.31026304
94	0x3db5d2c1	0.08878089
95	0x3e40e3bb	0.18836872
96	0xbd7bafbf	-0.0614469
97	0xbdfc7f43	-0.12328961
98	0x3e22ee49	0.15911211
99	0xbdcd3fa0	-0.10021901
100	0xbcb17b95	-0.021665374
101	0xbe21d650	-0.1580441
102	0xbe525413	-0.20539884
103	0x3c7d1b4f	0.015448405
104	0xbdf00117	-0.11718958
105	0xbb1575bb	-0.0022805769
106	0x3e2581fb	0.16162865
107	0xbd2bead1	-0.041971985
108	0xbe734463	-0.23756556
109	0x3de00beb	0.10939773
110	0xbc343129	-0.010998049
111	0x3d7f185b	0.062279087
112	0x3d10f262	0.035387404
113	0x3d4123bc	0.04715322
114	0xbc56f194	-0.01311912
115	0x3e030f9a	0.1279892
116	0xbd2fd221	-0.042925004
117	0x3caf7ca1	0.021421732
118	0x3db6474f	0.0890032
119	0xbc66baee	-0.014082653
120	0x3e483fb5	0.19555552
121	0x3da72ca2	0.0816281
122	0x3e9567ce	0.2918076
123	0x3e14e08a	0.1453878
124	0x3dfb9f62	0.12286259
125	0x3e9c64bd	0.30545607
126	0x3d3c2411	0.045932833
127	0xbdd15aa2	-0.10222365
128	0x3d361227	0.044450905
129	0xbca49ae0	-0.020093381
130	0x3dc287df	0.094985716
131	0x3e7bd2ac	0.24592084
132	0x3da20289	0.0791064
133	0xbc0148e2	-0.007890912
134	0x3e591dfe	0.21202847
135	0x3e20d20a	0.15705124
136	0x3e2636fb	0.16231911
137	0x3e8b10df	0.2716131
138	0x3c150c5f	0.009097188
139	0x3e41aaaf	0.18912767
140	0x3d9b28b7	0.07576125
141	0x3e4dfb66	0.20115432
142	0x3ecc4b27	0.39901087
143	0x3e759489	0.23982443
144	0xbdfab874	-0.12242213
145	0xbcc4e54b	-0.024035117
146	0xbe18b40c	-0.14912432
147	0x3cd76dfc	0.026297562
148	0x3e05734b	0.13032262
149	0x3e5418e1	0.20712616
150	0x3e2d2bc6	0.1691123
151	0x3f04d4b8	0.51887083
152	0x3e09900c	0.13433856
153	0xbdd1d8ff	-0.10246467
154	0x3d6b8ac1	0.057505373
155	0x3ec9ee48	0.39439607
156	0x3e1d080e	0.15335104
157	0x3e460b93	0.19340353
158	0x3de16f60	0.11007571
159	0x3cdada61	0.02671546

bias_hh_l0 f4 [160]
0	0x3eac8dd6	0.33701962
1	0xbdc07132	-0.0939659
2	0x3e758cb0	0.2397945
3	0xbd38b292	-0.045092173
4	0xbb19d413	-0.0023472353
5	0xbcde7210	-0.027153999
6	0x3e6236f6	0.22091278
7	0x3e5ff87f	0.21872137
8	0x3e160e50	0.14653897
9	0xbe29a28b	-0.16565911
10	0x3e7f1314	0.24909621
11	0x3dcd047a	0.100106195
12	0x3ea71b20	0.32637882
13	0x3dab00ec	0.08349785
14	0x3e084f28	0.13311446
15	0x3e660228	0.2246176
16	0xbd25be7f	-0.040464874
17	0xbced0d57	-0.028937025
18	0x3d97015a	0.07373305
19	0x3e4fe3fa	0.2030181
20	0x3e73dac8	0.23813927
21	0x3e06509b	0.13116686
22	0x3e87f076	0.26550645
23	0x3d960fd7	0.0732724
24	0xbd88641e	-0.06659721
25	0x3d3db634	0.04631634
26	0x3e655b74	0.22398168
27	0xbd991d17	-0.074762516
28	0xbcda0f39	-0.026618587
29	0x3e02d031	0.12774731
30	0x3f03ce01	0.5148621
31	0xbdb0e1dc	-0.08636829
32	0x3e158c62	0.14604333
33	0x3de823e1	0.11334968
34	0xbd753a2c	-0.05986993
35	0x3bd6eba6	0.006558853
36	0xbd6ff389	-0.058581863
37	0x3d4cb650	0.049978554
38	0xbdf408be	-0.1191573
39	0x3eab7c3d	0.33493224
40	0xbd9a39d7	-0.07530563
41	0xbe398a70	-0.18119216
42	0x3e37909a	0.17926255
43	0x3ce6f833	0.028194522
44	0x3cdf7358	0.02727668
45	0x3d6dc93b	0.058053236
46	0xbd8c8f7c	-0.06863305
47	0xbdbaf43a	-0.09128614
48	0x3e1964ee	0.14979908
49	0x3ca18f50	0.019721657
50	0x3e13f334	0.14448243
51	0x3b96f783	0.0046071424
52	0x3d8b2cb8	0.06795639
53	0x3e3eea60	0.18644094
54	0x3d8a8d68	0.06765252
55	0x3e0fd678	0.14046657
56	0xbd510d40	-0.051038027
57	0x3db38a56	0.0876662
58	0x3d878dc9	0.0661884
59	0xbe322941	-0.1739855
60	0xbe5786d2	-0.21047524
61	0x3e713312	0.23554638
62	0x3d2fbf3c	0.042906985
63	0xbe0f51ec	-0.13996094
64	0xbe0edf29	-0.13952316
65	0x3da6c723	0.08143451
66	0xbd91ed36	-0.071253225
67	0x3e80fab4	0.2519127
68	0xbd6eb75e	-0.05828034
69	0x3e6a31fc	0.2287063
70	0x3e10f2f9	0.14155187
71	0x3e8527bb	0.26006874
72	0x3d67225d	0.056429256
73	0x3e578a20	0.21048784
74	0x3c75ae96	0.014995238
75	0xbac295bf	-0.0014845653
76	0xbe2597c5	-0.16171177
77	0xbee58008	-0.44824243
78	0xbd8ecd1e	-0.06972717
79	0xbd88c1c8	-0.06677586
80	0x3e7e8387	0.24854861
81	0x3d5acb27	0.053416397
82	0xbdf661fd	-0.120304085
83	0xbe46a383	-0.19398312
84	0xbca0b5cd	-0.01961794
85	0xbe019f24	-0.12658364
86	0xbd418832	-0.047249027
87	0xbe0fea0d	-0.14054127
88	0x3e3095c2	0.17244628
89	0xbcb50d67	-0.022101117
90	0x3dd32cc2	0.10311271
91	0xbd360db5	-0.044446666
92	0xba0d11cb	-0.00053813745
93	0xbe84cad1	-0.25935987
94	0xbd1eb55f	-0.038747188
95	0xbb8562f2	-0.004070633
96	0x3dbdee5e	0.092739806
97	0xbdc2561c	-0.0948908
98	0x3da34567	0.07972222
99	0xbe36ed13	-0.17863874
100	0x3e88c7d6	0.26714963
101	0xbe02537c	-0.1272716
102	0xbde962f3	-0.11395826
103	0xbd269bfc	-0.040676102
104	0xb9a3791e	-0.00031180022
105	0x3badc144	0.00530258
106	0x3e42550d	0.18977757
107	0x3e3a561a	0.18196908
108	0xbe5da0d7	-0.21643387
109	0xbcdeeb3c	-0.027211778
110	0x3d8571b2	0.06515826
111	0x3e51f275	0.20502646
112	0xbd6c2560	-0.05765283
113	0xbd79a8a4	-0.060951844
114	0x3de327e1	0.11091591
115	0x3d05bea7	0.032652523
116	0xbdb002f1	-0.08594311
117	0xbdcac9ea	-0.09901793
118	0xbd9e958d	-0.07743368
119	0xbd037abd	-0.032099474
120	0x3e2ce813	0.16885404
121	0xbcba5aaa	-0.02274831
122	0x3e91b807	0.28460714
123	0x3e1142c0	0.1418562
124	0xbd0917fc	-0.03347014
125	0x3e203d7b	0.15648453
126	0x3e13de6b	0.14440314
127	0x3d84fe88	0.064938605
128	0xbd3c21f8	-0.045930833
129	0xbd17f912	-0.037102766
130	0xbc1e4185	-0.009659176
131	0xbd176cd5	-0.036969025
132	0x3d72d174	0.05928178
133	0x3e1dc1bf	0.1540594
134	0x3c99aecd	0.01876011
135	0x3e6bd420	0.23030138
136	0x3e6bf549	0.23042788
137	0x3e4342f1	0.19068505
138	0x3ce8c313	0.028413331
139	0x3e27d037	0.16388021
140	0x3dbce583	0.092234634
141	0x3e84c80a	0.25933868
142	0x3ec467a2	0.38360316
143	0x3e5bbcd2	0.21458748
144	0x3d5c0fb5	0.053725917
145	0x3b2deec7	0.0026540027
146	0x3e0dd895	0.1385215
147	0x3e509315	0.20368607
148	0x3e2c537e	0.16828725
149	0x3ec744f2	0.3891979
150	0x3eabba1f	0.33540437
151	0x3eabb76c	0.33538377
152	0x3d7da98e	0.061929278
153	0x3e124ec4	0.14287859
154	0x3e52d92d	0.20590658
155	0x3e9399b1	0.28828195
156	0xbcd8131e	-0.026376303
157	0x3cbda17e	0.023148295
158	0xbd5ca6cf	-0.05387002
159	0xbc27a735	-0.010232736

weight f4 [1, 40]
0	0xbec04d7b	-0.37559113
1	0x3e21dde2	0.15807298
2	0xbe2d1474	-0.16902333
3	0xbd7ae861	-0.06125677
4	0xbc62aafb	-0.01383471
5	0x3d4a155b	0.049336772
6	0x3e165bf8	0.14683521
7	0xc03705da	-2.8597322
8	0xbf8e53cb	-1.1119322
9	0x3c031bd9	0.008002245
10	0x3dfdd52d	0.12394176
11	0x3be809ba	0.0070812376
12	0xbdd05633	-0.10172691
13	0xbe0e5f0a	-0.13903442
14	0xbeac1f32	-0.3361755
15	0x3dff1178	0.12454504
16	0x3d4a345b	0.049366336
17	0x3e17d955	0.14829
18	0x3ce98a53	0.028508341
19	0xbdfb0c76	-0.12258236
20	0xbf42430c	-0.75883555
21	0xbdd2ce3f	-0.102932446
22	0xbeaab900	-0.3334427
23	0x3f0f8cc0	0.5607414
24	0x3edc3da1	0.4301577
25	0x3d459d5d	0.048245776
26	0x3f3fbc45	0.7489665
27	0xbbe5853c	-0.007004408
28	0x3cd14569	0.025545793
29	0x3bd814c4	0.0065942723
30	0xbf7710c3	-0.9650995
31	0xbe120e51	-0.14263274
32	0xbe6498e1	-0.22323944
33	0x3e3572ad	0.17719527
34	0x3e2b00ca	0.1669952
35	0xbf4a0b12	-0.7892314
36	0xbd1ecad3	-0.038767647
37	0xc006f9ea	-2.1090035
38	0xbd6bb695	-0.05754717
39	0x3d5be38c	0.053683802
