trained_models/snp500_reconstruction_lr=0.0001.pt (torch, 704927 bytes, 9 tensors)

weight_ih_l0 f4 [480, 1]
000000 85 29 81 bf 72 69 dd 3b fd 95 8e be 2a 89 a2 bf
       -1.0090796 0.006756955 -0.27848807 -1.2698109
000010 47 e1 76 be 26 05 83 be d3 b7 25 bf cb 00 4f be
       -0.24109374 -0.25589865 -0.6473362 -0.20215146
000020 7b c1 8f bf 1c e4 4a be 7f 56 53 be b6 6d 8a 3e
       -1.123092 -0.1981358 -0.20638464 0.27036828
000030 27 7c 0d 3e 35 7b be bf 86 65 23 bf 2c 1f bb 3e
       0.13816892 -1.488135 -0.6382679 0.3654722
000040 31 6c f6 3e 11 ea 4b bf 82 5d 43 be f8 54 1a bf
       0.48129418 -0.7965403 -0.19078639 -0.602859
000050 a2 08 e7 be 85 f7 3a be e6 5d 07 bd 4e 06 13 bf
       -0.45123774 -0.18258484 -0.033048533 -0.57431495
000060 46 b2 f9 3d 33 2b 67 bd 59 eb a9 3e 8f df f6 3c
       0.12192206 -0.056437682 0.3318737 0.030135898
000070 ea 7a 22 bd c5 77 f1 be 9a 46 aa be b9 da b9 be
       -0.039668 -0.4716169 -0.3325699 -0.36299685
000080 2b 31 aa bf 84 f1 0c bf 9e 2b f5 be 69 00 51 be
       -1.3296255 -0.55056024 -0.4788484 -0.20410313
000090 83 a2 40 bf 4b c6 97 be ff 6d a6 bb 6b 05 98 bf
       -0.75247973 -0.29643473 -0.0050790305 -1.1876653
0000a0 25 e3 16 bf 8f af a9 be 20 19 8d be d8 3e 18 3d
       -0.58940345 -0.33141753 -0.2755823 0.037169307
0000b0 31 3f 29 3f e6 25 88 bf 0b d9 bc be b5 da 97 3c
       0.6611205 -1.0636566 -0.3688434 0.018536905
0000c0 a0 6d 83 3c b9 d5 d2 be 16 c0 c0 be 52 0b 4a bc
       0.016043484 -0.41178682 -0.3764655 -0.012331801
0000d0 0b 60 aa 3e 1a 28 9b 3e e9 16 93 3e 06 a6 ad bf
       0.332764 0.30304033 0.28728417 -1.3566291
0000e0 6d 22 4a be 08 fb 97 bf f0 e1 26 3c 59 9d b6 bd
       -0.19739695 -1.1873484 0.010185704 -0.089167304
0000f0 ff 4f 9f bf ac 05 7c bd bf 42 77 bf f7 be a6 bf
       -1.2446288 -0.061528847 -0.9658622 -1.3027028
000100 ec 26 1f 3e 70 f1 13 3e 80 9c a1 be 07 c3 1f bd
       0.15542191 0.1444757 -0.31564713 -0.039004352
000110 78 19 89 bd 9b 62 95 bf 9a 4e 26 be 68 25 01 bf
       -0.06694311 -1.1670717 -0.16240922 -0.504477
000120 55 34 0b bc 7d 41 9a be 1e d7 50 be e4 1c d0 be
       -0.008496364 -0.3012809 -0.2039456 -0.40647042
000130 88 8e c5 3e 97 7c 21 3e 0c 98 9d bf 90 a9 56 bf
       0.38585305 0.15770184 -1.2312026 -0.8385248
000140 ee 1e 73 bf 2f 58 db bd 8b f1 62 bf 35 62 3e bd
       -0.9496907 -0.10710179 -0.88649815 -0.046480376
000150 7f cd 26 be 36 05 2d be b3 78 2f bf 7d a4 35 bd
       -0.16289328 -0.16896519 -0.6854355 -0.04434632
000160 db ed 58 be f3 39 67 be 3d e7 a7 be cd 79 07 bf
       -0.21184485 -0.225807 -0.32793608 -0.5292023
000170 42 4b 6a bf bf 28 83 bb f2 27 9c bf 0d ae 90 bf
       -0.91521084 -0.00400266 -1.219969 -1.1303116
000180 61 a6 cc bf b0 f5 96 be f7 55 70 be 1c 6d b7 be
       -1.5988275 -0.2948432 -0.23470293 -0.3582543
000190 5f 74 48 bf f4 81 4e be 5b 19 e2 be 1a 61 5c be
       -0.7830257 -0.2016676 -0.4415997 -0.21521416
0001a0 e2 f4 7d bf 8c e3 5d 3e 2e 4c 9f bf b2 78 c1 be
       -0.99201787 0.21668833 -1.2445123 -0.37787396
0001b0 c3 18 e2 be 34 bb a5 bf e2 50 58 be 36 5f 13 bf
       -0.44159517 -1.2947755 -0.21124604 -0.57567155
0001c0 ec 65 6b bf 17 62 8a be 28 2e 1e bf 3a 1a db be
       -0.91952395 -0.27027962 -0.6178918 -0.42793447
0001d0 1b bb 82 bf 31 9a a1 bd 01 2e 2c be b5 8d 83 3e
       -1.021335 -0.07890738 -0.16814424 0.2569405
0001e0 ee 7d b8 be bd 19 66 be 16 2c 2a be 54 30 86 bf
       -0.36033577 -0.22470756 -0.1661838 -1.0483499
0001f0 42 d7 0b 3e 5d 6b 55 be 87 f8 10 bf 23 2b 64 be
       0.13656333 -0.20841737 -0.5662922 -0.2228208
000200 c5 e8 60 bf d4 5d 34 be d0 9c 79 3c f6 b1 79 3e
       -0.8785518 -0.17613918 0.015235141 0.24384293
000210 7b bb 20 3d 05 59 95 bf 9c b9 9b be 4e 3a e7 3e
       0.039241295 -1.1667792 -0.30415046 0.4516167
000220 59 73 01 3f b9 f9 24 bf c2 64 3f be 43 56 af be
       0.5056663 -0.64443547 -0.1869078 -0.342455
000230 e6 7d 86 be 97 0b 86 3e 3c 72 ea 3d 02 c3 8d bd
       -0.26267928 0.26180717 0.1144757 -0.069219604
000240 d4 3c 88 3e 35 f7 69 3e ea 6a 30 bd ab 74 a3 bc
       0.26608908 0.22848208 -0.04307071 -0.019953093
000250 5e 1a 56 3e 09 6c d1 be 2c 6c 95 3d c7 ec 30 be
       0.20908496 -0.40902737 0.07296023 -0.17277823
000260 81 ea 97 bf cf 4f 13 be 25 72 00 bf 8c 78 72 3c
       -1.186844 -0.14385913 -0.5017417 0.014799248
000270 eb 3e 17 bf 7d 4e 55 bd 21 3b bd 3c 86 a2 5a bf
       -0.5908038 -0.052076805 0.023099484 -0.8540424
000280 3c f0 91 be 22 d3 3e be 79 0e 3e be d3 8a 99 3e
       -0.28503597 -0.18635228 -0.18560208 0.29988727
000290 23 1a 22 3f c2 c6 3f bf 54 58 a5 bd 81 e9 5e 3e
       0.6332113 -0.74912655 -0.08073488 0.21768762
0002a0 7b 82 4d be 17 e1 c3 be c3 00 d9 be 31 cb 8c 3e
       -0.20069306 -0.38257667 -0.42383394 0.27498773
0002b0 56 54 00 3f 3b 5d 83 3e 80 27 88 3e a2 0e 85 bf
       0.50128686 0.25657067 0.26592636 -1.039509
0002c0 46 5c fc 3d a5 1c 4b bf 1f 61 37 be 23 54 94 bd
       0.12322287 -0.79340583 -0.17908143 -0.0724261
0002d0 32 7c df be a6 cb 4e be 08 33 7b bf db 52 41 bf
       -0.4364944 -0.20194873 -0.9812474 -0.7551705
0002e0 48 10 00 be 09 a9 a7 bd 85 fb c8 be ac 5e c7 3d
       -0.12506211 -0.08186538 -0.39254394 0.09734854
0002f0 c8 7d 0d be 10 f2 ce be d8 44 fb 3d 96 52 06 bf
       -0.13817513 -0.40419054 0.1226899 -0.52469766
000300 f4 46 bd 3d c7 ff e9 3d de 44 ee bd f5 5f c5 be
       0.09242049 0.11425739 -0.11634229 -0.38549772
000310 e3 f4 95 3e 54 57 ab 3e 63 1b 7d bf 11 c7 aa be
       0.29288396 0.33465064 -0.98869914 -0.33355
000320 1c 5f c7 bd e8 d1 04 be 58 b1 2b bf c3 46 62 3e
       -0.097349375 -0.12970698 -0.6706748 0.22097306
000330 6b 15 7f be 70 cb 1d 3d f6 06 b9 be d9 cc f1 3e
       -0.24910514 0.03852409 -0.36138123 0.472266
000340 16 86 dc 3d 21 ca 45 be fd f0 94 be 50 05 77 be
       0.10767762 -0.19315387 -0.2909011 -0.2412312
000350 45 a4 ec be 65 9f 88 bd e7 5a e3 be 9f f4 31 bf
       -0.46219078 -0.06671027 -0.4440529 -0.6951389
000360 99 53 82 bf 70 53 b0 3d c5 cd 1c be ec 91 a2 be
       -1.0181762 0.086096644 -0.1531287 -0.31751955
000370 54 a6 23 bf 86 78 33 3e 2a 18 61 be 1c 1b f9 3e
       -0.6392567 0.17526445 -0.21981874 0.48653495
000380 5a ab 4d bf 4e 2d 61 3e af 64 2c bf 11 5e f0 be
       -0.80339587 0.21989939 -0.6734113 -0.46946767
000390 5b 81 1c be d7 87 3d bf 18 83 60 bd e9 71 58 bd
       -0.1528372 -0.740354 -0.05481252 -0.05284301
0003a0 bb d5 e1 be 29 fa ae be c7 4a f5 be e1 eb 32 bd
       -0.44108376 -0.34175232 -0.47908613 -0.043681983
0003b0 12 e1 70 be a1 9f 4f 3e b6 6f 6b be 88 90 d1 3d
       -0.23523358 0.20275737 -0.22991833 0.10232645
0003c0 f2 b6 03 bf 52 5a ab be 2f 24 1c 3e 93 00 45 bf
       -0.5145103 -0.33467346 0.15248178 -0.76954
0003d0 31 2d 28 3e cc 6c b6 be bd b8 04 be 4f e5 40 bd
       0.16423489 -0.3562988 -0.12961097 -0.047093686
0003e0 76 79 30 be 3a a7 34 3e 1d ac c0 3c 64 a5 c1 3d
       -0.17233834 0.17641917 0.02351957 0.09455374
0003f0 11 37 25 3d 34 f9 fe be a2 fd 6a 3e 12 c6 b7 be
       0.04033572 -0.49799502 0.22948316 -0.35893303

weight_hh_l0 f4 [480, 120]
000000 81 06 62 bd 4d 8a 0f 3e e2 60 33 3e 7a ac 92 be
       -0.055181984 0.14017601 0.17517427 -0.28647214
000010 b6 76 9e 3e 12 f8 d5 bc cf 5b 02 bf 95 56 a5 bd
       0.30949944 -0.026119266 -0.5092134 -0.08073155
000020 89 b0 e0 bd 28 0b 43 3e db 0a 80 3e 4e be 76 be
       -0.109711714 0.19047225 0.25008282 -0.24096033
000030 f7 d1 af 3e b2 e8 36 be 6b 8a 45 3e 6c ca 2b 3e
       0.34339878 -0.17862204 0.19291084 0.16776437
000040 79 55 8c be 28 e5 01 3e 1f 2a ce 3e a4 c2 f5 be
       -0.2740896 0.12685072 0.4026651 -0.48000062
000050 9e ea 18 3f 22 2b a8 3d 66 56 a3 bb c6 a1 18 bf
       0.59733 0.08211352 -0.0049846647 -0.59621847
000060 ed d0 f6 bc 4c 92 d3 3d 39 8a 07 3e b3 a4 79 3d
       -0.03012892 0.10330638 0.13236322 0.060948085
000070 5b 2d 35 be 2a b2 95 3e 7c 22 dc bd d6 22 94 3e
       -0.17693083 0.2923749 -0.10748765 0.28932828
000080 5f cd 96 3e 5b df c4 3e b7 8a 76 3e 1f 82 bf bc
       0.2945356 0.38451657 0.24076353 -0.023377476
000090 02 79 2c 3c e3 11 a9 3d f0 67 aa bd c5 3b c6 3d
       0.010526897 0.08255365 -0.08320606 0.09679369
0000a0 41 c6 9f be ef 4b f8 3c d0 18 dd bd 6b 15 19 be
       -0.31205943 0.030309645 -0.10795748 -0.14949577
0000b0 17 4f f4 bd df 63 27 3e 41 fe 52 bd b8 c3 9e be
       -0.11929148 0.16346692 -0.051512007 -0.31008697
0000c0 82 8f cd 3e fc 45 37 be c2 4e 6d 3e d0 70 76 3e
       0.4014855 -0.1789779 0.23174575 0.24066472
0000d0 10 55 9b bc 30 6b fe 3d 3d db 11 3d 87 db 93 3e
       -0.01896146 0.12422788 0.035609473 0.28878424
0000e0 86 94 8e be 38 5c 2b 3d e0 c4 88 3e b9 d9 56 3d
       -0.2784769 0.041835994 0.26712704 0.05245373
0000f0 d1 f8 f4 be c6 9e a4 3e 73 6d 89 be c3 e5 a4 be
       -0.47846082 0.32152385 -0.26841316 -0.32206544
000100 79 92 9c 3e 34 38 a5 be 63 16 82 3e d7 ad 6e 3e
       0.305805 -0.32269442 0.25407705 0.23308502
000110 b8 33 ea 3e 0f f4 c6 be ef 6a a6 3e 33 e8 a0 bb
       0.45742583 -0.38858077 0.3250346 -0.004910493
000120 82 62 8f bd 5e cc d8 3c d1 66 a0 be d5 d8 61 3e
       -0.07001211 0.026464637 -0.31328443 0.22055371
000130 38 ae cb be 71 a1 ca 3d 80 bd 86 3d a9 ed b5 bd
       -0.39781356 0.09894074 0.06579113 -0.08883221
000140 eb 10 c2 3e b2 a8 fe 3d b2 e3 08 bf d9 6c 1f 3e
       0.37903532 0.1243452 -0.53472435 0.15568866
000150 c3 be 2d 3d 6d e6 2c bd 1b 98 96 3d aa da 91 3d
       0.042418253 -0.04221194 0.073532306 0.07121785
000160 3c 1c c7 bb 0f 5d 19 bd fd 9f 4b 3d af 16 51 3e
       -0.006076364 -0.037442263 0.049713124 0.2041881
000170 6a 0b d5 bd e9 a3 88 3d 10 cd 8c bd a8 00 60 be
       -0.10402568 0.066718884 -0.0687505 -0.2187525
000180 de b0 ca bd 90 81 85 3e 68 96 10 be 15 43 10 be
       -0.09897016 0.2607541 -0.14119875 -0.1408809
000190 ae 9e c5 3e 39 47 9a 3d ae b5 b7 bc 38 7e c3 bd
       0.38597625 0.07533116 -0.022425499 -0.09545559
0001a0 01 b2 00 bf eb ec 39 3e 50 3b dc bc eb 1b 8b bd
       -0.5027161 0.18156783 -0.026883751 -0.06792434
0001b0 ea ad 24 3e 7c 5e 19 bd 0b 99 66 be 12 f0 02 bf
       0.16081968 -0.037443623 -0.22519319 -0.5114757
0001c0 c9 94 96 3d 5f dd ea be 56 1d 20 3d 3f 44 bd 3e
       0.07352597 -0.45872018 0.039090477 0.3696613
0001d0 6d 92 8f be ff 0c 81 bc c3 a8 b3 bd f9 a1 52 be
       -0.28041402 -0.015753267 -0.08772423 -0.205696
0001e0 60 8a 87 3e 3b c3 e3 3d 65 2b 84 be 15 1f ae 3e
       0.2647276 0.11121222 -0.25814357 0.3400809
0001f0 01 72 d3 3e 06 36 85 be 8e 39 b8 be 34 16 6c 3e
       0.41297916 -0.2601778 -0.3598141 0.23055345
000200 44 f3 84 3e fb bc b1 bd 83 2a 9b be f2 3e aa 3c
       0.25966847 -0.08678623 -0.3030587 0.020781968
000210 d6 09 17 3e 78 79 b5 3e 13 fc d8 be c2 36 dd 3e
       0.14749846 0.35444236 -0.42379817 0.4320584
000220 b7 60 bf 3d af 28 e9 be c1 ea 87 3e 2b bc 71 3e
       0.09344619 -0.45538852 0.2654629 0.23606937
000230 7e 49 93 3c 3c ab 82 be b8 6d 9b be 51 ed b2 3b
       0.01797938 -0.25521266 -0.30357146 0.005460419
000240 43 b2 d1 3d 85 48 87 3e 75 04 2a be 6f 58 8d 3e
       0.10239079 0.26422516 -0.16603263 0.27606532
000250 90 14 96 3e 96 f4 c2 3e 24 7e a7 3e bc 85 33 3e
       0.29312563 0.3807723 0.32713425 0.17531484
000260 48 7c f4 3d 82 4b ac 3e 76 4a 8e 3e e7 ec 9b be
       0.11937767 0.33651358 0.27791184 -0.3045418
000270 79 98 9d 3e 2c 24 e1 3e d5 28 89 be ad f1 d1 be
       0.3078039 0.4397291 -0.26788965 -0.41004696
000280 26 87 ac 3e 5b 2b db be 13 14 b4 bd b9 38 86 be
       0.3369686 -0.42806515 -0.08792891 -0.2621515
000290 fe 87 dc bc 61 c1 63 3e 82 86 9b 3d 51 b9 82 3e
       -0.026920315 0.22241737 0.07594015 0.2553201
0002a0 05 95 65 bd 07 d2 f9 3d 91 14 b3 3e 90 2f 37 3e
       -0.05605032 0.12198263 0.34976628 0.17889237
0002b0 0e 3d 8e bd de f3 5b be 20 cf 80 3d d5 b9 9f 3d
       -0.06945239 -0.21479747 0.06289506 0.077991165
0002c0 60 c6 9b 3e f5 77 d9 be 04 0d ed 3d fa 92 9a 3e
       0.30424786 -0.42474332 0.11574748 0.3019026
0002d0 36 98 b1 3e f2 42 21 3e 82 33 c6 3d 75 51 86 be
       0.3468644 0.15748194 0.09677793 -0.26234022
0002e0 65 47 be 3d 29 c9 36 3e db 9b 66 be 42 fd 33 bd
       0.09290961 0.17850174 -0.22520392 -0.043942697
0002f0 91 8e d9 bc a2 ce ae 3e 96 b0 47 3d e3 63 a4 be
       -0.026557239 0.34142023 0.04875239 -0.32107458
000300 e8 dd 55 be 20 85 0a be 83 4d a8 be 08 03 72 3e
       -0.20885432 -0.13527346 -0.32871637 0.23633969
000310 a5 91 9c bc 18 7c 29 3e 6d 1c 20 3e 83 63 b4 3e
       -0.019112417 0.16551244 0.15635844 0.3523217
000320 d4 f2 05 3e 16 f4 d2 3e f7 89 2e be 18 78 67 3d
       0.13080913 0.41201848 -0.17044817 0.056511015
000330 cd c3 54 3e 5d 42 d9 3e 06 70 c2 be 9f 95 5b be
       0.20777817 0.42433444 -0.37976092 -0.21443795
000340 e8 36 3b be 41 0b 43 3e d2 b9 ab 3e 94 ac 55 3d
       -0.18282664 0.19047262 0.33540207 0.052166536
000350 f9 5d d6 3e 6d 61 28 be 2e 09 8d be 6b 92 2d be
       0.4186857 -0.16443415 -0.27546066 -0.16950385
000360 72 da e4 bc 5f 8f 29 be 15 22 ac be a8 79 0f be
       -0.027936194 -0.16558598 -0.33619753 -0.14011252
000370 81 17 79 3e e1 52 aa be ef d9 6e be 20 fa 0f 3d
       0.24325372 -0.33266357 -0.23325323 0.035150647
000380 9b 44 ce 3d 1d 49 80 3d fd 3b 8b bc 8b a9 92 be
       0.10071679 0.06263945 -0.016996378 -0.28644976
000390 0a 47 99 3c 77 69 d3 bd cc 4b c4 3e 55 89 01 3d
       0.018710632 -0.1032285 0.38339078 0.03162511
0003a0 11 ce f6 3c 61 c5 ad be 1e 60 95 be 0c 4d 81 be
       0.030127557 -0.3393965 -0.29174894 -0.25254095
0003b0 b0 69 07 3e bf 3a 50 3e b6 f6 d8 3b e4 44 02 3e
       0.1322391 0.2033491 0.006621207 0.12721592
0003c0 89 37 a3 be 7f 1e f0 bd e0 fd ab 3c 73 42 24 bf
       -0.31878307 -0.11724567 0.02099508 -0.64163893
0003d0 0e 02 5a bc 76 95 f1 bc c0 6b 1e 3e ec f3 05 3d
       -0.013306154 -0.029490214 0.15470791 0.032703325
0003e0 0c c4 b5 be 8e 5a 2d bd 2c 9a 83 3e 63 4d 33 3e
       -0.35501134 -0.042322688 0.2570356 0.1750999
0003f0 a9 7f 97 3d b7 ec 19 bf 85 9e a2 3e 21 de 43 be
       0.07397396 -0.60126823 0.31761566 -0.19127704

bias_ih_l0 f4 [480]
000000 5a ea f3 be 08 e9 61 3e 56 91 70 be ac d9 95 be
       -0.47639734 0.2206155 -0.23492941 -0.29267633
000010 25 2f db bd bb b9 89 be b3 09 73 be b8 9b 0c be
       -0.107023515 -0.26899514 -0.23734169 -0.13731277
000020 06 93 a5 be 3c 07 76 be 39 39 e6 bd e8 52 fc bd
       -0.32338732 -0.24026197 -0.11241383 -0.123205006
000030 be 9d d5 bd 13 a1 05 bf f7 75 38 3c 16 bb 68 3d
       -0.104304776 -0.52198905 0.011258594 0.056819044
000040 c8 18 32 be 13 7b cc bd 03 ed dd be 2b 6d e1 be
       -0.17392266 -0.09984412 -0.43344888 -0.440286
000050 78 b1 1f be 2d e5 90 be ee c7 01 ba 35 b7 54 be
       -0.15595043 -0.28299847 -0.00049507513 -0.20773013
000060 86 ea 92 be e5 c9 7a be df b3 2d 3d b9 2c 0c 3d
       -0.28694552 -0.24491079 0.042407867 0.03422234
000070 92 b9 d0 be b8 7d ab be 7b a7 64 be 4d d1 aa be
       -0.4076658 -0.33494353 -0.22329514 -0.3336281
000080 af 7b e0 be 63 32 96 be bf 60 72 be 6e d9 6a be
       -0.43844363 -0.29335317 -0.23669718 -0.22934505
000090 36 e6 0a be eb d2 af be 55 d7 06 be cc 0f d7 be
       -0.13564381 -0.34340605 -0.1316808 -0.4200424
0000a0 b0 82 9d be 7a b3 43 be c0 99 41 be 04 a1 61 be
       -0.3076377 -0.19111434 -0.18906307 -0.22034079
0000b0 50 64 e8 bd 44 10 0c be e3 c6 5e 3c b6 b0 81 bd
       -0.11347258 -0.1367808 0.013597223 -0.06332533
0000c0 ac 5c 89 be 86 7d 58 be 1e 43 16 be bd 0c 11 be
       -0.26828516 -0.21141633 -0.1467404 -0.14165016
0000d0 51 c7 03 be 4c 6b 8f bd 04 5a d3 bc 75 25 de be
       -0.12869002 -0.07002887 -0.025799759 -0.43387952
0000e0 54 9e 01 bd 87 06 f0 be 40 70 ed ba 45 b3 25 be
       -0.031645134 -0.4687998 -0.0018115118 -0.16181667
0000f0 7c 09 05 bf 9e f4 f8 bd 86 17 3f be 8d 02 e1 be
       -0.51967597 -0.12156032 -0.18661317 -0.4394726
000100 d2 c4 b8 3d 5a 2b 5c be 1c c2 fb 3c 0c d7 af be
       0.090219155 -0.21500912 0.030732207 -0.34343755
000110 48 ee 43 3d 90 d6 e1 be 4c d6 ef bd 9e 8b 83 3c
       0.047834665 -0.4410901 -0.11710796 0.016057786
000120 fe e7 3c be 7d 9c 79 be 0e 8d 0f be ca 32 39 be
       -0.18447873 -0.24376102 -0.14018652 -0.1808578
000130 6d e6 46 be 3c e4 00 be 45 2d ac be 8b cf e4 be
       -0.19423838 -0.12587065 -0.33628288 -0.44689593
000140 08 16 08 bf 43 33 44 bd b4 be d2 be 4c d1 8e be
       -0.53158617 -0.04790045 -0.4116112 -0.27894056
000150 0e 56 9f be 70 5a 3c bc ab 95 0e be 35 0c 23 be
       -0.31120342 -0.011496171 -0.13924281 -0.15922625
000160 30 9d 37 be ad 27 8e be 5b e5 bb be 78 91 62 be
       -0.17931056 -0.27764645 -0.36698422 -0.22125804
000170 69 47 7e be a4 e9 48 be 98 4f e1 be 9f b4 ae be
       -0.24831928 -0.19620377 -0.44006038 -0.34122178
000180 76 02 ab be 86 0c 8d be d0 62 ac be ba c2 9e be
       -0.33400315 -0.27548617 -0.33669138 -0.3100794
000190 87 7d 84 be 9d 91 10 bd cb b6 2e be 07 98 cc be
       -0.2587702 -0.035295118 -0.17061917 -0.39959738
0001a0 77 b9 a3 be ae d1 b7 3c 3a 30 e4 be 84 82 94 be
       -0.31977436 0.02243885 -0.44568044 -0.29005826
0001b0 fa 62 be be 29 40 c3 be 9c 58 0c be de 48 84 be
       -0.37184888 -0.38134888 -0.13705677 -0.25836843
0001c0 b0 d8 bf be 40 9d 91 3d 67 f9 42 be 0f aa 98 be
       -0.37470007 0.07110071 -0.19040452 -0.29817244
0001d0 d1 f0 18 bf c0 06 ab be 4b 77 3a be 04 5f 13 be
       -0.59742457 -0.33403587 -0.18209569 -0.14391714
0001e0 10 f3 d9 3c 76 2a 76 3d 01 08 ad bd f9 3c e3 3d
       0.026605159 0.060099088 -0.08448792 0.11095614
0001f0 02 d2 48 3c 76 db 1f be 08 7a 0e bd 88 bf 24 be
       0.012257101 -0.15611061 -0.034784347 -0.16088688
000200 0e 3d 2a be 4a d7 78 be 0f cf 69 bd 65 95 b4 bd
       -0.16624853 -0.24300876 -0.057082232 -0.08817557
000210 15 dc 94 bd 35 9b 2e be 61 bc 43 3e 23 c0 25 3e
       -0.0726854 -0.17051394 0.1911483 0.16186576
000220 9a b4 d4 3b 66 95 f2 3d db 36 7d be 98 27 3a be
       0.006491256 0.11844902 -0.24727957 -0.18179166
000230 ff 62 72 be b1 75 a5 3d 1a 75 b9 bd 37 b5 06 be
       -0.23670577 0.080790885 -0.090555385 -0.13155065
000240 f2 42 48 3d bb 8c c5 bd 40 15 38 bd a8 c9 19 3e
       0.04889197 -0.09645983 -0.04494214 0.15018332
000250 42 7b a5 bd a6 c8 6f bd 38 65 21 3e 0a e3 87 bd
       -0.0808015 -0.058540963 0.15761268 -0.06635101
000260 ec f6 dc bd d5 6e a0 bd 48 ef 90 bd d3 55 43 be
       -0.10789284 -0.078336395 -0.07076889 -0.19075708
000270 a4 47 2e 3c 84 5d 21 be 56 c5 6a 3c ab c6 13 be
       0.010637198 -0.1575833 0.014329275 -0.14431255
000280 29 7b 19 bd 45 d7 bb bd ba 38 d5 bd 25 c3 14 bd
       -0.03747097 -0.09171919 -0.1041121 -0.036318917
000290 4f ae 88 bc 25 cf ea 3c 06 14 3c 3e 44 29 82 3e
       -0.01668468 0.028663227 0.18367013 0.25422108
0002a0 04 b9 8a be cb 5a a3 bd 62 6f 0d bd b2 56 c2 3d
       -0.2709428 -0.07976302 -0.03453005 0.09489192
0002b0 be e7 57 3e e4 aa da bc bd 3b 14 3e 46 a8 cf bd
       0.21084496 -0.026692815 0.14475913 -0.101395175
0002c0 86 d6 60 bd d1 41 b7 bd 82 27 57 bc da 0a 15 bd
       -0.054892085 -0.089481 -0.013131978 -0.036387302
0002d0 04 7f 3a 3e 93 2d 52 3d 3f 2a 19 be a7 40 6d bd
       0.18212515 0.051312994 -0.14957522 -0.057922985
0002e0 be 42 d1 3d 6f df 59 be 4c bf 01 3e 75 ee c5 3c
       0.10217808 -0.2127664 0.1267063 0.024161557
0002f0 9f ec 38 39 ab dc 02 3e e7 da 87 3d 29 b3 8a 3d
       0.00017635756 0.1277949 0.06633549 0.06772453
000300 57 0d 83 3b 76 a1 88 bd 5b 84 ec bc 55 4a 01 be
       0.003999393 -0.06671421 -0.028871706 -0.12626012
000310 bd b0 af 3c b3 19 84 3e f7 a0 73 bd f5 41 6b bd
       0.02144658 0.25800857 -0.05947968 -0.05743595
000320 7c e3 87 3d 34 b6 04 3c 3b 32 dc bd dc 76 f5 bd
       0.06635186 0.008100081 -0.10751768 -0.11985561
000330 61 78 88 be 13 85 f5 3d 6a a5 19 3e 1a e2 dc 3d
       -0.26654342 0.119882725 0.15004507 0.10785313
000340 6a b4 55 bd 14 96 85 3c 3c cf 08 be bf aa 9c 3b
       -0.05217401 0.016306914 -0.13360304 0.0047810967
000350 75 4d dd 3d 5d b9 9d be 0e 18 44 3e 84 fb b4 3d
       0.108057894 -0.30805483 0.19149801 0.08837035
000360 87 d0 04 be 37 e3 e8 3d cb 50 c5 bd 73 0e 72 be
       -0.12970172 0.11371463 -0.09634551 -0.23638324
000370 2a e8 0a be 85 8e 90 3d 78 08 76 3d 1e 3f 03 3e
       -0.13565126 0.070584334 0.06006667 0.12817046
000380 b5 fb 5e be c8 7c 47 3d 75 3a 10 3e f3 04 7c be
       -0.21775706 0.048702985 0.140848 -0.24611263
000390 97 45 aa 3c fa 50 5f 3d 13 a6 4e be 88 6b 5a bd
       0.020785136 0.054520585 -0.2018054 -0.053325206
0003a0 de 3b d9 3d 0e f1 e6 3d 80 06 57 bd 68 b4 b7 bc
       0.10607122 0.11276446 -0.052496433 -0.022424892
0003b0 0f d6 13 3e c6 5e 80 bd 02 64 c1 bd 6a 12 92 bd
       0.14437126 -0.062680766 -0.09442903 -0.071324185
0003c0 ff 92 13 3d 92 d1 cf 3e 95 c6 77 bc 9f ee 58 3e
       0.03602886 0.40589577 -0.015123029 0.21184777
0003d0 38 80 96 3e 40 95 ab be f5 89 ad be d8 bd 72 be
       0.29394698 -0.33512306 -0.33894315 -0.23705232
0003e0 5c cb 98 3e d3 cd b3 bd f6 19 e4 bd d8 ab 86 bd
       0.2984265 -0.08779492 -0.11137764 -0.06575745
0003f0 b2 54 39 3e ef 34 0e 3e e5 f4 b0 be 3e ca 84 3d
       0.18098715 0.1388738 -0.3456184 0.06483887

bias_hh_l0 f4 [480]
000000 52 38 17 bf 80 e6 7f 3e 96 9c 15 be ae 7a 8b be
       -0.5907031 0.24990273 -0.14610514 -0.27242035
000010 e0 78 8b bd 80 4b 01 be 08 44 3c be 9d 2b 52 bd
       -0.068101645 -0.12626457 -0.18385327 -0.051311124
000020 62 05 a9 be 73 71 69 be a4 b7 10 be 9b 01 08 be
       -0.3301192 -0.22797184 -0.14132553 -0.13281862
000030 31 17 8b bd f1 06 09 bf 31 65 a9 bd 37 8b 1c 3d
       -0.06791533 -0.53526217 -0.08271254 0.038218703
000040 ed 50 cd bc e0 60 48 3c 20 f9 cc be 48 3e f8 be
       -0.025063002 0.012230128 -0.40033817 -0.48485017
000050 18 a5 97 be 94 1f 2f be 5c f5 ca 3c bb 82 38 be
       -0.29618144 -0.1710189 0.0247752 -0.1801862
000060 92 38 21 be 31 92 4f be 17 3f d0 bb 7c 6c 2e 3d
       -0.15744236 -0.20270611 -0.006355177 0.042583928
000070 b0 9d e1 be 9f 5b 4e be fd 42 8e be 22 30 97 be
       -0.4406562 -0.20152138 -0.27785483 -0.2952891
000080 75 a3 c0 be a0 11 47 be b4 f6 35 be 58 5e 7b be
       -0.37624708 -0.19440317 -0.17769891 -0.24547708
000090 33 44 d2 bd a6 67 99 be 58 b8 f8 bd b5 e0 f1 be
       -0.10266914 -0.2996189 -0.12144536 -0.4724175
0000a0 10 c5 85 be b1 a9 04 be 6c 74 ce bd 60 8d 5d be
       -0.2612691 -0.12955357 -0.100807995 -0.21635962
0000b0 96 ba 3c be 9d 6d 1c be 74 7f ca bd 90 04 06 3b
       -0.18430552 -0.15276189 -0.09887591 0.0020449497
0000c0 81 9a 11 be 6b 7a 09 be 90 5f 89 bd f9 fa f7 bd
       -0.14219095 -0.13425605 -0.0670768 -0.12108416
0000d0 5e db 30 be 57 9a a1 bd 6a 4e c2 bd fd 6e e3 be
       -0.17271182 -0.07890766 -0.094876125 -0.44420615
0000e0 53 9d a2 bd ae a1 19 bf 22 12 d6 bc 4e bb 2d be
       -0.079401635 -0.6001233 -0.026131693 -0.16965982
0000f0 c2 29 18 bf 0f 9e 82 3b c1 48 9b be 03 a2 a7 be
       -0.5943872 0.003986127 -0.30328944 -0.32740793
000100 17 92 00 3e 8e 57 02 be 48 6e a9 bc c0 73 6e be
       0.12555729 -0.12728712 -0.020682469 -0.23286343
000110 42 2f 96 bc 0c 1e ff be c0 28 39 be f2 3d a9 3d
       -0.018333081 -0.4982761 -0.18081951 0.08263768
000120 aa c8 23 be a9 d1 68 be de 66 ed bd 97 4b 15 be
       -0.15994516 -0.22736229 -0.11591886 -0.14579616
000130 fd bd 7b be 79 d3 00 be 45 4e 93 be 16 eb f7 be
       -0.24584194 -0.1258067 -0.28770652 -0.48421544
000140 29 24 ea be 05 58 fb bc 17 58 91 be b2 e1 30 be
       -0.45730713 -0.03068162 -0.2838752 -0.17273596
000150 05 60 21 be d1 cb c7 bd 4f 9d 8b bc 07 f5 4d be
       -0.15759285 -0.09755672 -0.017042784 -0.20113002
000160 79 14 82 be b9 93 6e be b3 ea a2 be a8 17 20 be
       -0.25406244 -0.23298539 -0.31819686 -0.15634024
000170 a7 e6 93 be 61 b5 b6 be 15 ec 10 bf 0a 9b b0 be
       -0.2888691 -0.35685256 -0.5661023 -0.34493285
000180 97 09 ed be 97 65 c3 be 18 70 82 be e9 08 a4 be
       -0.4629638 -0.38163444 -0.25476146 -0.32038048
000190 d5 89 79 be ef 60 6a bd c6 24 22 be a6 0b 8a be
       -0.24368985 -0.05722135 -0.1583434 -0.26962012
0001a0 e6 20 9a be a1 d6 c6 3c d9 b0 cc be 11 09 3c be
       -0.30103225 0.024272265 -0.39978674 -0.18362834
0001b0 e0 0e ad be 2d ff b8 be 33 49 32 be eb 2d 61 be
       -0.3380041 -0.36132184 -0.17410736 -0.21990173
0001c0 94 b9 95 be c3 ac c5 3d 0e 5a ac bd 8e 6d 83 be
       -0.29243147 0.09652092 -0.08415614 -0.2566952
0001d0 88 45 1a bf 1e e5 b7 be 78 8e c6 bd f2 20 46 be
       -0.60262346 -0.3591699 -0.096951425 -0.19348505
0001e0 3b a3 bd 3c cb aa d8 3d 47 de 8b bd 37 a9 c7 3c
       0.023149123 0.10579451 -0.068295054 0.02437268
0001f0 4c 0c 23 3e eb f8 d9 bd e5 e7 2b be 95 1a 78 bd
       0.1592266 -0.106431805 -0.1678768 -0.060572226
000200 55 90 44 be 50 6a e9 bd 2c 7d a7 3a 9c 50 44 bb
       -0.19195683 -0.113972306 0.0012778393 -0.0029955273
000210 91 69 5f bc 7e 32 22 be f8 33 1f 3e d3 57 28 3e
       -0.013636009 -0.15839574 0.15547168 0.16439752
000220 91 83 0b 3d 8f d1 1c bd ae 7e 9d be 46 ea f0 bd
       0.03406102 -0.03828579 -0.3076071 -0.11763434
000230 0f 86 8c be 7a 33 0e 3d ab e5 ed 3c 32 09 05 be
       -0.2744603 0.03471706 0.029040178 -0.12991789
000240 4b 35 82 3d ab a7 1c bd 1a 4c 14 3d e7 34 38 3e
       0.06357821 -0.038245838 0.03620539 0.1798893
000250 91 ce d9 bd bf 82 6c 3c 54 4c cf 3d f7 52 2a be
       -0.106351025 0.014435469 0.1012198 -0.16633211
000260 6e 3d 58 be ac c6 09 be 97 a9 22 be b3 63 0e be
       -0.21117184 -0.13454694 -0.15885006 -0.1390522
000270 7c 5c af 3d 83 dd 23 be 0f b2 c3 3c d6 4e 35 be
       0.08562562 -0.16002469 0.023888616 -0.17705855
000280 58 a1 2e 3d b7 7c 0d bd 0a 2b 0f bd 68 02 c3 3d
       0.04263434 -0.034542765 -0.034953155 0.09521943
000290 4b af 06 3e ae 92 83 bd ec 8b 1d 3e ff 3d 8e 3e
       0.13152806 -0.06424461 0.15385407 0.27781674
0002a0 bd 6e a2 be 77 77 a6 bc 5f a7 0e be 30 57 b2 3d
       -0.31725112 -0.020320637 -0.13931035 0.08708036
0002b0 16 1b f0 3d 22 0f 8a bc 54 5b 4b 3d d9 bf 1c bc
       0.11723916 -0.016852919 0.049647644 -0.009567224
0002c0 82 dc d2 3d 10 88 85 bd 80 bc 89 3d ed e4 8b bd
       0.10295965 -0.065200925 0.06725407 -0.068307735
0002d0 c5 5f 1e 3e af 24 34 3d 52 8f 08 be e7 3f c8 bd
       0.1546622 0.043980297 -0.13335922 -0.097778134
0002e0 48 ca ff 3d 0b 29 20 be 02 91 5b 3d ae 58 1e be
       0.12489754 -0.15640657 0.053605087 -0.15463516
0002f0 93 1f 0d 3d 7a 0d 89 bb ae 87 00 3d 8f 0d 2b 3e
       0.03445394 -0.0041825147 0.031379394 0.16704391
000300 03 4a 6a 3c 5f 2e 96 bd 6b 3f ca bd b1 dd ee bc
       0.014299872 -0.07333063 -0.09875377 -0.029158445
000310 c1 40 3d bd 17 f0 11 3e 75 96 10 bd ca 31 4d bd
       -0.046204332 0.14251743 -0.035299737 -0.05009631
000320 f7 34 1d 3e 60 f1 d5 3c a8 9f 0f be af 25 50 bd
       0.15352236 0.026116073 -0.14025748 -0.050817188
000330 0d e0 5d be 6e ed 4e 3e 30 01 43 3e c8 15 04 3e
       -0.216675 0.2020776 0.19043422 0.12898934
000340 de ee 6f bd e3 64 ca bd 3b 81 f5 bd a4 20 c8 3c
       -0.05857741 -0.09882524 -0.119875394 0.024429627
000350 d2 e0 fb bc b2 6d aa be 08 6e 3d 3e 99 83 1e 3e
       -0.030746851 -0.33286816 0.18499005 0.15479888
000360 ae 8f e7 bd d6 75 70 3e 84 d1 e2 bd f6 6d 49 be
       -0.113067016 0.23482451 -0.11075118 -0.19670853
000370 a3 27 7c bc 69 f5 c9 3d 03 91 11 3d 9e b0 38 3e
       -0.0153903095 0.098612614 0.035538685 0.18036124
000380 60 14 96 be 51 ce a8 3d 62 0e 30 3e b1 cc 99 be
       -0.2931242 0.08242477 0.17192987 -0.3003898
000390 4d b0 93 3d 68 cf 0e 3e 31 37 35 be d8 c6 59 bd
       0.07211361 0.13946307 -0.17696835 -0.053168148
0003a0 92 b7 b7 3d 04 16 bf 3d c2 df 9f 3d 71 c7 af bd
       0.0897056 0.09330371 0.0780635 -0.08582962
0003b0 65 67 cc 3d cb 86 05 be a3 7b e6 bd 7c fe cb bd
       0.099806584 -0.130397 -0.112540506 -0.099606484
0003c0 80 cf f5 3d 4e 56 af 3e 34 ef ee 39 79 47 18 3e
       0.12002468 0.34245533 0.00045573118 0.14871015
0003d0 47 c0 74 3e 96 ee a6 be 58 ff d1 be 9a 1f 9a be
       0.23901473 -0.32603902 -0.41015124 -0.30102235
0003e0 e1 50 30 3e 0a 2e e4 bd b7 d5 23 be 36 ec 3f 3a
       0.17218353 -0.11141594 -0.15999494 0.000732127
0003f0 e6 0b 8a 3e 1c b2 46 3e dd 4c a2 be 9c 5b b4 3d
       0.26962203 0.19403881 -0.31699267 0.088065356

weight_ih_l0 f4 [480, 120]
000000 86 e9 83 bd 72 ee c6 be 71 77 2e 3e ef 24 2b bd
       -0.064410254 -0.38853794 0.17037751 -0.04178327
000010 c5 00 cd 3e 91 71 86 be 28 4c 95 3c 65 a8 14 3b
       0.4003965 -0.2625852 0.01822479 0.0022683379
000020 dd ee 95 be 01 c3 d6 3d 74 75 98 bb 9d 85 ed 3e
       -0.292838 0.10486413 -0.0046526734 0.46391
000030 dd 78 f0 3c 7f 2e 8d bd 49 83 f3 3e 6e 44 2a 3e
       0.029354507 -0.06893634 0.475611 0.16627666
000040 d1 04 54 3e 6e 17 00 be 81 b5 93 3e 27 9c 1a 3e
       0.20704962 -0.12508938 0.28849414 0.1509863
000050 dd 02 c4 be fa ad 1b be 14 74 53 bd 7a 4f 8d 3e
       -0.38283435 -0.15203086 -0.051624373 0.27599698
000060 9c 68 9e 3e b7 13 a7 bd 3d ac b2 be a2 fd ae bd
       0.30939186 -0.08158057 -0.34897032 -0.0854447
000070 bd a9 de 3d 9c 9e 9c 3e d4 ac 87 3c ff e3 83 be
       0.10872219 0.3058976 0.016561903 -0.25759885
000080 fa 83 04 be 3c cf 10 3e 5c e5 bb 3e 82 48 de 3c
       -0.1294097 0.14141554 0.36698425 0.027134184
000090 37 46 82 be c2 69 96 3e e8 42 3d bc 25 d5 20 bd
       -0.25444195 0.29377562 -0.011551596 -0.03926577
0000a0 de 5c eb be 72 ad 62 3e ef 55 36 3e bf 12 7c bd
       -0.4596929 0.22136477 0.17806219 -0.061541315
0000b0 26 ca ae bd 41 f8 96 be 4c b2 3f be d4 32 91 3e
       -0.085346505 -0.29486278 -0.18720359 0.2835909
0000c0 9a 4e a3 be 12 56 ef bd f8 4a 72 3e cf 18 02 3e
       -0.31895906 -0.116863385 0.23661411 0.12704776
0000d0 c2 9c d0 3d 8a 2d c7 bd e0 d6 12 bd 28 9f 97 be
       0.10186149 -0.09725483 -0.035849452 -0.29613614
0000e0 a4 4f f6 3e c2 b5 96 3e c4 11 05 3e 2d d9 66 3e
       0.48107636 0.29435545 0.12995058 0.22543783
0000f0 03 78 19 3d e5 14 16 bd a1 7c 99 be ec 71 1e 3e
       0.037467968 -0.03664102 -0.29977897 0.15473145
000100 76 16 36 bd b1 c7 ca 3e 08 71 d9 bd 74 00 d4 bd
       -0.044455014 0.39605477 -0.10617262 -0.10351649
000110 dc 83 3c be fc cf 24 bb 38 ad 87 bc 7a 22 54 bd
       -0.18409675 -0.0025148382 -0.01656209 -0.051790692
000120 70 43 f6 be e1 45 28 3e dc 4e 9e be 15 9c 27 3c
       -0.48098326 0.16432907 -0.3091954 0.010230084
000130 bc 41 7e be c1 9b 2f bf de eb a9 be 51 09 fb bd
       -0.24829763 -0.68597037 -0.33187765 -0.12257636
000140 ac 2e ad bd 1f 6f 89 3e fa 97 2e be 82 bb a0 3d
       -0.084561676 0.2684259 -0.17050162 0.07848264
000150 9d e3 e7 3e 51 c1 81 bc bf 8d e4 3e 5f 63 8d be
       0.45290843 -0.01583925 0.44639394 -0.27614877
000160 78 b5 4a bd 8e ff ca bd b7 b6 a9 3e 16 32 e4 bd
       -0.04948947 -0.099120244 0.33147213 -0.11142366
000170 3c fe c5 bc fc 47 50 be 0f a7 ad bd d0 a4 2a 3c
       -0.02416908 -0.2033996 -0.084791295 0.010415271
000180 7c 66 d3 3e 09 ca 32 3d bb 89 54 3c 7a fa 56 3c
       0.41289127 0.043649707 0.012972291 0.013121242
000190 e8 d4 ae ba dd d1 cb bd 3e 39 c5 be 7e 5b ac 3e
       -0.0013338597 -0.099521376 -0.38520235 0.33663553
0001a0 76 1c 8b be 28 7f 28 be 68 f1 c9 be 25 d5 19 3e
       -0.2717015 -0.16454756 -0.3944199 0.15022714
0001b0 db 66 d6 3d 66 23 09 3e 6e ef 49 be 26 72 79 be
       0.10468837 0.1339241 -0.19720241 -0.2435995
0001c0 9b f6 28 3e 38 4d 0b be 7f 24 c1 3d 42 36 34 3d
       0.16500323 -0.13603675 0.09430789 0.043997057
0001d0 13 c4 26 be f2 7f 17 3e d3 82 6c bd 1f d4 a9 3e
       -0.16285734 0.14794901 -0.05774195 0.33169648
0001e0 0f 29 c7 3d 1f 01 49 bd 1f 9e 71 3e 68 fc fb 3d
       0.09724628 -0.049073335 0.23595475 0.12304002
0001f0 96 44 d7 3d 02 0b f0 bd 8f 75 79 be 58 de 43 be
       0.105111286 -0.117208496 -0.24361251 -0.19127786
000200 8f a8 2d 3e f0 92 da bd 4b 31 32 bd b0 82 28 bd
       0.16958831 -0.10672557 -0.04350404 -0.04114026
000210 60 a8 91 3d cd f5 8f 3e 3f b3 3b 3e 14 76 62 3d
       0.07112193 0.2811722 0.18330096 0.05528839
000220 f6 6f ab bd 34 13 d8 bd 38 28 3e 3e 45 5a 42 3e
       -0.08370964 -0.10550538 0.1857003 0.18979748
000230 a4 ec f7 bd 00 b6 13 be f8 53 6b 3d b2 ec a0 3c
       -0.121056825 -0.14424896 0.057453126 0.019644115
000240 92 0b 07 3e 71 f8 c2 bd 05 99 77 be 8f d9 28 bd
       0.13188007 -0.09520043 -0.24179466 -0.041223105
000250 30 89 e6 bc 19 72 05 3e 40 eb 09 be 79 3d bc be
       -0.028141588 0.13031806 -0.13468647 -0.3676565
000260 34 c9 00 3e 9b d5 2f bd dc 8e 85 bc b1 6c 3b 3e
       0.12576753 -0.04292832 -0.016303472 0.18303181
000270 79 65 9d 3c 1b e4 63 3d c1 9c 7a 3a da 62 bf 3e
       0.019213425 0.05563746 0.00095601013 0.37380105
000280 94 9c 57 be c0 33 13 bd 35 0c 34 be 26 ad 13 3e
       -0.21055824 -0.035938025 -0.17582782 0.1442152
000290 5a e7 2d bd 1e 76 c5 bc 8c 5a f5 3d 20 b3 aa 3a
       -0.042456962 -0.024104174 0.11980161 0.0013023354
0002a0 23 bb 0e 3e 4e 2b 34 3d e4 58 38 3e 0e 62 61 39
       0.13938574 0.04398661 0.18002659 0.000214942
0002b0 6e be 52 3e 58 38 92 3d b5 1d 9d bd 92 8b f0 3d
       0.20580456 0.07139653 -0.07671682 0.11745371
0002c0 65 f8 48 bc dd 0f 3b be 57 1c fb bd 29 60 ed 3d
       -0.012266253 -0.1826777 -0.12261265 0.11590607
0002d0 09 b5 39 bd 63 c5 15 be 8a 6d 21 bc 4f 07 88 3e
       -0.045338664 -0.14626078 -0.009852776 0.26568076
0002e0 f9 e7 9c 3d 30 91 a2 3c b4 87 45 3e f8 f7 c1 3c
       0.07661433 0.019844621 0.19290048 0.023677811
0002f0 12 6a 49 bd 87 95 6b bd 1c 0e 97 3d f7 1d 96 be
       -0.049173422 -0.057515647 0.07375738 -0.29319736
000300 f5 d7 58 bd 28 4a 7c 3e 58 48 32 bd 3b 24 69 3e
       -0.052940328 0.24637663 -0.043526024 0.22767727
000310 f4 d2 9e be e1 3d 95 be 9a 51 ff bd 56 6e d4 3e
       -0.3102032 -0.29148772 -0.12466736 0.4149043
000320 09 c5 90 3e 86 77 08 3e 50 de a5 be f6 3a a5 bd
       0.28275326 0.13326845 -0.32396173 -0.080678865
000330 c2 92 a3 bd d0 6e 23 3e f5 18 86 bc b1 62 b5 be
       -0.07986976 0.1596024 -0.016369322 -0.35426858
000340 80 e9 a1 bd 63 eb f7 3d 77 ca 8c 3e 8b 1d 8e be
       -0.07905865 0.12105443 0.27498218 -0.27756914
000350 67 50 1e 3d d9 80 4c 3e 3f 31 d0 3c 1d 58 66 bc
       0.038650896 0.19971026 0.025414107 -0.014059094
000360 9d eb 52 3e 42 6c af be 59 5c da bd c2 b1 f3 3c
       0.20597692 -0.34262282 -0.10662145 0.029747847
000370 a4 ff 83 be aa d7 40 bd 59 e0 82 be dd 29 52 be
       -0.25780976 -0.047080673 -0.2556179 -0.20523782
000380 c8 8c 0e be 75 dd 8f bc c3 b6 45 3f b8 bb be bd
       -0.13920891 -0.017561654 0.77232 -0.09313148
000390 78 12 a4 3d c1 91 85 3e 66 df b5 bd 36 75 a4 bd
       0.08011335 0.26087764 -0.088805005 -0.08030169
0003a0 5f 87 d8 bd 68 84 1c 3e 5f 56 2b 3e a7 3e 68 3e
       -0.10572695 0.15284884 0.16732167 0.2268015
0003b0 27 61 b0 bd 43 43 ac 3d fa c1 88 3c 23 2c e4 bd
       -0.0861228 0.08411267 0.016694058 -0.11141231
0003c0 10 3d 41 3d a1 e2 28 be ed 8a 93 3e 4c 11 94 3c
       0.047177374 -0.16492702 0.2881693 0.018074654
0003d0 03 76 47 3e ef 05 58 be dc e3 0f bd 9c 16 70 be
       0.19478612 -0.21096013 -0.035129413 -0.23446125
0003e0 a4 8a 34 be 29 9a d0 3d d2 85 ba 3c 76 35 27 3e
       -0.17631012 0.10185654 0.022768889 0.16328987
0003f0 26 3a e3 3d 5d bb d1 bd 6c 81 96 3e 64 13 bf 3d
       0.11095075 -0.10240815 0.29395616 0.0932987

weight_hh_l0 f4 [480, 120]
000000 ad 62 90 be c7 65 a9 3d 75 cd b3 3e 95 44 db 3e
       -0.28200284 0.082713656 0.3511769 0.4282576
000010 40 4b 25 be da cb 84 bd 5c 31 4f 3e c0 e2 75 bc
       -0.16141987 -0.06484194 0.20233673 -0.015007675
000020 a9 79 19 39 a0 41 66 be e5 a0 64 be b8 20 f5 3e
       0.00014636539 -0.22485971 -0.22327001 0.47876525
000030 8e 5c c0 3e 9e db cd 3d 0d c4 99 3e 0e b7 a1 3e
       0.37570614 0.10051654 0.30032387 0.31584972
000040 96 be 94 3e db 1c 63 be b4 d6 fb be 4f 3b 90 be
       0.29051656 -0.22178976 -0.49187243 -0.2817025
000050 50 b6 95 3e 53 24 b2 be 6f 2a 09 bf ac 8d 32 3e
       0.29240656 -0.34793338 -0.53580374 0.17436856
000060 fe 6b 81 be d3 bc 1e 3f 07 5a 12 39 2f 1f 34 3e
       -0.25277704 0.6200687 0.00013957183 0.1759002
000070 d0 ef 7c 3d 73 a0 ba be 63 17 1c bd c9 91 a9 be
       0.06175214 -0.36450538 -0.03810824 -0.33119038
000080 8a dd 1c 3e 68 a7 db bd d5 bb 9a bd 0f 3b 46 be
       0.15318885 -0.107252896 -0.07555357 -0.19358467
000090 1d 8e d2 3e a9 f0 f0 bd 70 6d 15 3e a0 11 c6 3e
       0.4112405 -0.11764652 0.14592528 0.38685322
0000a0 02 cf e7 be 17 d4 1e bf ad 12 4b be 65 6c ec be
       -0.45275122 -0.62042373 -0.19831343 -0.46176448
0000b0 c1 46 43 bd 8f 51 37 3c d7 36 15 3b ea 2c 0e 3e
       -0.047674898 0.011188879 0.0022768283 0.13884321
0000c0 fe a5 ab bd 52 83 bb 3e 8b 97 6d be 74 2b ee be
       -0.0838127 0.36623627 -0.2320234 -0.46517527
0000d0 1f 3e 12 be 2c fd 01 3c f5 8e fe bc 44 1f b0 be
       -0.1428151 0.007933896 -0.031074027 -0.34398854
0000e0 34 ea 39 3e 81 40 25 be 17 ad ef be 00 fc 14 bd
       0.18155748 -0.16137888 -0.46811745 -0.03637314
0000f0 79 52 27 3f e5 9a 93 be 6b 0a 17 be 63 f2 ad 3e
       0.6536022 -0.28829113 -0.14750068 0.3397399
000100 74 a3 60 be 42 a7 a2 3e fa f2 05 bf ee 11 df bd
       -0.21937352 0.31768233 -0.5232388 -0.10892092
000110 5a 12 a7 be 61 64 e5 3e e7 16 bf 3e 87 67 53 bc
       -0.3263119 0.44803146 0.3732216 -0.012903101
000120 1d 3d cb bd 6f 60 54 3f 34 d2 37 be 12 09 69 3e
       -0.09923766 0.82959646 -0.1795128 0.22757366
000130 e3 90 8b be 94 97 e4 3e ea ca 22 3d 4a 85 b4 3d
       -0.27258977 0.44646895 0.039744295 0.08814485
000140 28 d3 32 bd 41 1c 0b bf 67 47 15 3f 6a ac d6 be
       -0.043658406 -0.5433999 0.58312076 -0.41928416
000150 f7 35 32 bd dc 8d f5 3e 65 5f fa be 0b 34 a4 3e
       -0.043508496 0.47959793 -0.48900905 0.32070956
000160 df 0b 5a be b9 89 96 be 81 32 11 bd bc aa 78 bc
       -0.21293591 -0.2940195 -0.035448555 -0.015177425
000170 d1 28 13 3e 65 13 4d be f7 d6 bb be 16 d7 97 bc
       0.14371039 -0.2002693 -0.36687443 -0.018535178
000180 fb bb 8b 3e 67 b8 d6 3e c6 71 fe bd 78 5e a1 3d
       0.27291855 0.41937563 -0.12424044 0.078793466
000190 2d bb 5a 3d 46 aa 25 3e cd df 06 3e 01 02 1a be
       0.05340116 0.16178235 0.1317131 -0.15039827
0001a0 58 53 ad be 43 2b 8e be b0 d2 f4 be 20 e7 85 3e
       -0.3385265 -0.2776738 -0.47816992 0.26152897
0001b0 93 a1 8e be b6 50 95 3e 72 ea 93 bd 14 80 88 3d
       -0.27857646 0.2916314 -0.07222451 0.06665054
0001c0 22 c7 85 3d 9d 46 ec 3c a4 1b 4c 3d 45 45 10 bf
       0.06532122 0.028842265 0.049831048 -0.56355697
0001d0 ea d8 f5 3d d2 8f e9 bd 23 6d a3 bd c5 47 14 3f
       0.12004264 -0.11404385 -0.079798006 0.5792201
0001e0 9c 27 b7 3d 6f 71 3e 3e a8 99 8b 3e 6b 5c ae 3d
       0.08943102 0.18597959 0.27265668 0.08513721
0001f0 f5 d6 75 3d 8b fa 11 be 9d 18 41 3d ec 5f cf bd
       0.060019452 -0.14255731 0.047142614 -0.101257175
000200 df f3 50 be 19 8a f6 3d 92 fc 94 3e 70 ce 03 3f
       -0.2040553 0.12038059 0.29098946 0.51486874
000210 96 af 39 3d c5 b5 b5 3c ac 85 a1 3e 6f 42 f1 3d
       0.045333467 0.022181401 0.31547296 0.11780249
000220 bf 22 15 be c1 4f 71 be 7a eb 91 bd d8 c8 d3 3c
       -0.14564036 -0.2356558 -0.07124992 0.025852606
000230 fe e4 bb 3e 76 8e 9e be 1c 89 f9 be 1e 60 a6 3e
       0.36698145 -0.30968064 -0.4873742 0.32495207
000240 37 00 b8 be 24 8d 3c 3d 7b fd 69 3c 2e e2 93 3e
       -0.35937664 0.04603304 0.014281626 0.288835
000250 e2 78 3a 3e 92 30 9f be e0 01 1a be 88 45 95 bc
       0.18210176 -0.31091744 -0.15039778 -0.018221632
000260 b8 77 b0 3e 42 13 22 be 23 fd a4 be d7 e1 b4 be
       0.34466338 -0.15827659 -0.32224378 -0.35328552
000270 54 6c c8 3e 4e 01 8d be fd 15 6c 3d 1e 29 33 3e
       0.39145148 -0.27540058 0.057638157 0.17496154
000280 1d ce 4d be c4 6c 05 be 8d 74 71 be 5d e9 c4 be
       -0.20098157 -0.13029772 -0.23579617 -0.38459292
000290 ef 87 68 bd 1b 56 a6 be 61 23 29 3c 76 f2 06 3c
       -0.05677026 -0.32487568 0.010323376 0.008236518
0002a0 a8 98 2a bd 67 9d 35 bd 3a cb 5e be 96 9a 51 be
       -0.04164949 -0.044339564 -0.21757212 -0.20469126
0002b0 c3 b3 8d be 3b fa 12 3e 0b 74 d5 3d e9 ab 87 be
       -0.2767621 0.14353268 0.10422524 -0.26498345
0002c0 bc 30 80 3e d0 da 96 3d eb 58 12 3d 5c 2f d7 37
       0.2503718 0.07365954 0.03572933 2.565205e-05
0002d0 e5 e8 fd 3d 54 8e 2a be c2 34 be be 7d b6 9f 3e
       0.12397937 -0.16655856 -0.37149626 0.31193915
0002e0 e2 9e a1 bd f4 c7 41 3e dd 4f 1e be cd 09 90 be
       -0.078916326 0.18923932 -0.15460153 -0.28132477
0002f0 4c 0f b2 bd e0 8d f0 3d 41 88 2f 3e 12 36 81 be
       -0.08694324 0.117458105 0.1714182 -0.25236565
000300 f8 50 88 be 57 02 16 3e 89 5c c4 bd 10 d4 a4 3e
       -0.26624274 0.1464933 -0.09587962 0.3219304
000310 3e bf aa be 63 d6 82 3e 06 bc 1d be 91 db 66 be
       -0.3334903 0.2555419 -0.15403756 -0.22544695
000320 6d 97 00 be 35 48 fb be 94 4f d1 bd 7a 53 4c be
       -0.12557764 -0.49078527 -0.102202564 -0.19953719
000330 16 1f 46 be c0 09 9c 3e 83 34 80 be 22 d6 48 3e
       -0.19347796 0.3047619 -0.25040063 0.19612935
000340 54 c0 4c be 0b 7f f5 bc 0a bb d1 3e 50 88 29 3e
       -0.19995242 -0.029967805 0.40963012 0.16555905
000350 11 e2 ad 3e 4e 2f 89 be de 8b 06 bf e0 2a d5 be
       0.33961537 -0.26793903 -0.5255717 -0.41634274
000360 6f 60 a1 3e 77 c3 cf 3e c5 a9 ed be 8c c8 97 3d
       0.31518885 0.40578815 -0.46418586 0.07411298
000370 c6 11 bf 3d 27 46 df 3d 53 31 69 3e 86 17 7c bc
       0.09329562 0.109020524 0.22772722 -0.015386468
000380 7b ed 62 be 2a 65 1b bd e7 c7 c9 bd b9 72 d9 be
       -0.22160904 -0.037938274 -0.098525815 -0.4247034
000390 c5 55 3c be 66 9b 96 3e f9 c3 c9 bd b2 4a a0 3e
       -0.18392093 0.29415435 -0.09851832 0.31306988
0003a0 37 3f 11 be e3 ca 83 bd 4b 08 ad 3e 7e ae 46 bf
       -0.14184271 -0.06435182 0.3379539 -0.77610004
0003b0 f8 32 c0 3c 4f 92 78 be 68 68 76 3e 87 6b bf 3e
       0.023461804 -0.24274562 0.24063265 0.37386724
0003c0 de 49 46 be 2f dd 04 3f 3d fc a4 bd 2d 3c a9 3e
       -0.19364116 0.519 -0.08055923 0.33053723
0003d0 81 05 9e 3d e8 b6 a5 be ad 31 ed bd 6d 02 63 bd
       0.077158935 -0.3236611 -0.115817405 -0.055422235
0003e0 e1 56 19 be ea 96 9a be 3e 17 02 3e 10 55 6d 3d
       -0.14974548 -0.30193263 0.12704179 0.05794245
0003f0 fc 6a 73 3e c6 74 68 bd ed 79 dd 3e 43 a1 44 3e
       0.2377128 -0.05675199 0.43257084 0.19202141

bias_ih_l0 f4 [480]
000000 9c 0b 47 3d 0e bd 4a be 32 ad a4 be 5d fe 47 bd
       0.048595056 -0.19798681 -0.32163388 -0.048826564
000010 3e b1 20 be f3 1d be bd 9a 6e f1 bd fc c8 a3 be
       -0.15692613 -0.09283056 -0.11788674 -0.31989276
000020 e2 af 85 be 11 cb 9c bd d4 ee fc bd e8 f4 4e be
       -0.2611075 -0.07655919 -0.1235024 -0.20210612
000030 8f dc 31 be 06 46 c4 be 8f 68 a0 bd 38 17 95 be
       -0.17369293 -0.38334674 -0.07832443 -0.29119277
000040 2a 71 b0 be df 15 8b bd 66 21 82 be 16 5b b0 be
       -0.34461337 -0.06791281 -0.25416106 -0.34444493
000050 05 0d b5 be 13 62 2b be 90 f7 f8 be 5c bf 1b be
       -0.35361496 -0.16736631 -0.48626375 -0.15209717
000060 da 28 01 be dd 12 9a bd 25 b7 fb b9 14 2f ca be
       -0.1261324 -0.07523129 -0.00048010904 -0.39489043
000070 8a 2d b0 be 5d ec 1f 3d 9c 14 a4 bd 5d 06 6c be
       -0.34409744 0.039043773 -0.080117434 -0.23049302
000080 1d bf 00 bf 13 8e 36 be d6 e6 49 be b7 ba a0 be
       -0.50291616 -0.17827635 -0.19716963 -0.31392452
000090 a7 0f bb be d3 42 76 be 9c 36 e3 bd 40 52 90 be
       -0.3653538 -0.24048929 -0.110944 -0.28187752
0000a0 b1 9b 9e bd 73 a2 37 be fd 94 40 be 05 53 fc be
       -0.077445395 -0.17933063 -0.18806835 -0.4928209
0000b0 b1 c1 3f be 0c cd 64 be f9 42 8e be 3d 4a ce be
       -0.18726231 -0.22343844 -0.2778547 -0.40291014
0000c0 ab f5 44 be 50 0a 91 be e0 00 00 be 96 39 11 be
       -0.1923434 -0.2832818 -0.12500334 -0.14182124
0000d0 23 74 c0 be 22 15 4d be 93 dc 4c be 88 2d 9b be
       -0.37588605 -0.20027593 -0.20006017 -0.30308175
0000e0 b5 05 8d be be 02 97 be 9f aa 1c be 1b 42 34 be
       -0.27543417 -0.2949428 -0.15299462 -0.17603342
0000f0 59 d7 02 3e 82 1a 03 bf ed f9 16 be e7 6c c1 be
       0.12777461 -0.5121232 -0.14743777 -0.37778398
000100 f8 6f 32 be cb c6 8f bc 71 50 dd bd b7 0f 20 be
       -0.17425525 -0.017550847 -0.108063586 -0.15630995
000110 8f 72 ea bd 73 56 04 be 82 2e 33 be 14 99 3d be
       -0.114476316 -0.12923603 -0.1749821 -0.18515426
000120 39 b4 52 be a9 52 88 be 8e 27 a6 bd 84 15 69 be
       -0.20576562 -0.26625565 -0.08113013 -0.22762114
000130 ff c6 40 be 40 a3 9e be 53 7e 3f be fb d5 27 be
       -0.18825911 -0.30983925 -0.18700533 -0.16390221
000140 ee a8 a2 be db 8d 72 be d6 aa 5a be ca 0c 92 be
       -0.31769508 -0.23686926 -0.21354231 -0.28525382
000150 3c 49 c4 be d4 1a 3f bd ef 42 96 be 7b 1b a2 be
       -0.38337123 -0.046656445 -0.2934794 -0.3166159
000160 4c 57 d6 be 8f ba 7f be 03 35 8e be 5e 71 7e be
       -0.41863477 -0.2497351 -0.2777482 -0.24847934
000170 58 0d 02 bf f3 48 87 be b6 5f 1b be ee 44 95 bd
       -0.5080161 -0.26422843 -0.1517323 -0.07288538
000180 de 59 af be 32 1f 23 be 9b c2 57 be 55 31 c0 be
       -0.3424825 -0.15929869 -0.2107033 -0.37537637
000190 a3 9e ab be fe 50 87 be 1a 12 69 bd 5d 42 a8 be
       -0.33519468 -0.2642898 -0.05690203 -0.3286313
0001a0 a0 cd 60 be b4 e4 29 be bc 53 90 be fb 75 87 be
       -0.2195344 -0.1659115 -0.28188884 -0.264572
0001b0 83 70 fa bd 83 8d 86 be c7 a8 7b be d1 c2 a7 bc
       -0.12228491 -0.2627984 -0.24576102 -0.020478638
0001c0 60 49 90 be 78 8a b0 bc 07 6c b9 bd b8 30 eb be
       -0.2818098 -0.021550402 -0.09053808 -0.45935607
0001d0 ad 52 88 be 71 7f 92 be ef 40 e0 be 4c 50 4c be
       -0.26625577 -0.28612855 -0.4379954 -0.19952506
0001e0 91 d6 87 bc 17 3c d0 bc 33 58 a3 be 62 18 9e 3e
       -0.016581805 -0.025419278 -0.31903228 0.30877978
0001f0 32 f1 e3 bd f3 80 df 3c b8 63 4c be bf 00 52 bd
       -0.11129989 0.027283167 -0.19959915 -0.051270243
000200 e4 19 56 be 30 96 66 3e 9a 66 21 be 94 0f a7 be
       -0.20908314 0.2251823 -0.15761796 -0.32629073
000210 5c f7 35 3d 4b bb 3b bd f9 40 85 3e 04 99 c8 bd
       0.044425353 -0.045832913 0.26026133 -0.097948104
000220 06 de 9b bd 10 d1 ef bd d5 30 7b bd 1c de 22 be
       -0.07610707 -0.117097974 -0.061325867 -0.1590504
000230 3e 85 5e be e7 94 52 be 36 e9 27 bd 64 a7 52 be
       -0.21730515 -0.20564614 -0.04099389 -0.20571667
000240 fd b9 ce 3b 85 e8 66 3e 85 dd 09 be 8b ed 2a be
       0.0063087926 0.22549637 -0.13463409 -0.16692178
000250 97 91 84 be a0 9b 6d 3e 79 e3 67 3c 47 6b ff bd
       -0.25892326 0.23203897 0.014153355 -0.124716334
000260 10 01 8f be 46 10 3a 3d dc 1b df 3d 65 d2 86 be
       -0.27930498 0.045425676 0.10893986 -0.26332393
000270 a4 e2 d4 bd 72 02 b1 be a9 88 d8 3a f3 7c ce 3e
       -0.10394791 -0.34572178 0.001652022 0.40329704
000280 63 e6 ff 3d 38 8d f4 ba 20 5b 19 be 42 af a2 3d
       0.12495115 -0.0018657809 -0.14976168 0.07943584
000290 7f f4 8f be 93 40 49 be 37 20 0f be ac 4a bb be
       -0.28116223 -0.1965354 -0.13977133 -0.36580408
0002a0 c2 4e 3b be e9 b0 29 be a8 f1 5a be 8f c7 87 be
       -0.18291762 -0.16571392 -0.21381247 -0.2651944
0002b0 2d 12 89 be d7 ca 1c be e9 a3 11 be 18 3b 6c be
       -0.2677168 -0.15311752 -0.14222683 -0.23069417
0002c0 55 1e 1d be 8a e8 07 be d9 fe 95 bc 5e 7d 3e 3d
       -0.15343602 -0.132723 -0.018309997 0.04650628
0002d0 fb 09 a1 3e 64 d3 5b 3e 80 d5 2c be 2e 98 f6 bd
       0.31452927 0.21467358 -0.16878319 -0.12040745
0002e0 69 24 21 be 18 6d 0c be 37 fb 29 3b c0 94 54 bd
       -0.15736546 -0.13713491 0.002593709 -0.05189967
0002f0 81 a1 15 bd 11 43 f1 3d da 98 f8 bc 87 87 49 be
       -0.036530975 0.1178037 -0.030346323 -0.19680606
000300 de 09 86 be 2e dd 4e 3e 49 29 1c be 02 1c 7c be
       -0.26179403 0.20201561 -0.15250124 -0.24620059
000310 48 2e 31 3e 52 b9 ee bd 17 f2 90 be 1e 84 40 3e
       0.17302811 -0.11656441 -0.283097 0.18800399
000320 c2 14 d5 3d 6f ed 10 3f ef 14 69 bd 31 b5 12 be
       0.1040435 0.56612295 -0.05690473 -0.14326932
000330 e5 de 86 3d bc b1 0a 3e 28 d7 14 be 92 4a 3c be
       0.065854825 0.13544363 -0.145352 -0.18387821
000340 28 e2 dc bc 51 56 f1 bd 03 25 fc bd a8 48 01 be
       -0.026963308 -0.11784042 -0.12311747 -0.12625372
000350 3e e8 94 bd f7 27 5f be c5 a5 70 be c5 34 a3 be
       -0.07270859 -0.21792589 -0.23500736 -0.31876197
000360 9d 25 da bb c5 aa d9 bd ec 73 a9 be cb 98 bf bd
       -0.006657316 -0.10628275 -0.33096254 -0.09355315
000370 14 e2 46 3e aa da fd bd 33 ab d7 3c 73 59 fc b9
       0.1942218 -0.123952225 0.026326751 -0.0004813183
000380 0f d6 e3 3e 03 65 d1 bd b6 1a fd 3d 9c e2 d5 3e
       0.4449925 -0.102243446 0.1235861 0.41774452
000390 bb 89 43 3c 39 ec 42 be 39 31 31 be 6b 54 e6 3d
       0.011934693 -0.19035424 -0.17303933 0.1124657
0003a0 cc b1 84 be 4e cf ed bd 1c eb b6 bd 49 51 00 3f
       -0.25916898 -0.11611806 -0.08931562 0.5012403
0003b0 23 5f 6d be 11 4f c7 be c0 f1 c1 bd 03 11 ab bd
       -0.23180823 -0.3892751 -0.09469938 -0.08352854
0003c0 99 33 02 be b7 7c 57 be 3c 1e 14 3d 20 e1 b6 bd
       -0.12714995 -0.21043669 0.036161646 -0.08929658
0003d0 22 d1 6e 3c c9 23 bf 3e 92 39 f0 3c 3a 31 63 3d
       0.014576228 0.3733199 0.029324327 0.055466868
0003e0 02 b2 0d 3e 18 1f fb ba 27 eb 9d 3d a2 56 00 3d
       0.13837436 -0.0019159047 0.077108674 0.03133262
0003f0 f3 39 02 3e 77 b7 1d 3d d3 68 24 be fc a4 bf bd
       0.12717418 0.038505044 -0.16055612 -0.0935764
