trained_models/snp500_prediction_3000_epochs.pt (torch, 706455 bytes, 10 tensors)

weight_ih_l0 f4 [480, 1]
000000 f6 6d 0f bf 8c 51 71 be ff b9 29 bd 4c 2c f9 bd
       -0.5602716 -0.23566264 -0.041437145 -0.12166652
000010 d1 b7 6b be 34 e4 8e 3d d1 14 a2 be 25 1a 03 bf
       -0.23019339 0.0697712 -0.31656507 -0.5121177
000020 b8 7b 8d bd 12 78 ae be c2 3c e6 be ae 4c 9a be
       -0.06908363 -0.3407598 -0.4496823 -0.30136627
000030 0c 8a f1 bd df da b1 be f5 2a 49 be 08 f2 cc bd
       -0.117939085 -0.34737298 -0.19645293 -0.10007101
000040 81 2a 8f bd 5a b0 64 3d 91 c4 0e be 6e 07 88 be
       -0.06990529 0.055832244 -0.13942172 -0.26568168
000050 38 87 c5 bb 7c b9 8c be 90 5e 3b be 81 f1 3d be
       -0.006028082 -0.27485263 -0.18297791 -0.18549158
000060 bd 4b c9 bd d6 b4 99 be 96 3f f8 bd db 44 1f be
       -0.09828899 -0.3002078 -0.12121503 -0.1555361
000070 d1 d4 be be e9 5a e0 3d 87 21 d5 be 89 4f 93 be
       -0.3727174 0.1095484 -0.41627142 -0.28771618
000080 ca 7f 9d be e9 de 14 bf 81 24 0b be eb 55 1d be
       -0.30761558 -0.58152634 -0.13588144 -0.15364806
000090 cb a7 34 be 80 40 0c 3c 50 ca b9 3d 51 b1 fc bd
       -0.17642133 0.0085603 0.09071791 -0.12338508
0000a0 71 8f 96 be 0a e0 d6 ba a2 cb 18 3e 60 fb 6b be
       -0.29406312 -0.0016393673 0.1492143 -0.2304511
0000b0 a7 f1 e4 bd 49 e3 dc be 5f d6 13 be 18 9b de bd
       -0.11178904 -0.43142155 -0.14437245 -0.108694255
0000c0 7e 04 19 3c 11 69 6c 3d a9 2c 72 be 47 4e 09 be
       0.00933945 0.057717387 -0.23649849 -0.13408767
0000d0 80 1d af be 03 7a 9f be a9 1e c9 bd 11 51 ed be
       -0.34202194 -0.31147775 -0.09820301 -0.4635091
0000e0 48 6f 98 be ed 99 8f 3b eb 86 98 be f8 27 17 bf
       -0.297724 0.004382363 -0.29790434 -0.5904536
0000f0 64 c2 c7 be 15 42 82 3c c0 b3 83 bc 45 e6 b0 bd
       -0.39015496 0.015900651 -0.016076922 -0.086376704
000100 68 f3 71 be a6 8a 99 bd 5d c5 8d be 1b d9 1d be
       -0.23628008 -0.07497148 -0.2768964 -0.1541485
000110 a3 42 81 be 72 d4 e4 be 49 5e da be e6 31 68 be
       -0.25246152 -0.44693333 -0.4265006 -0.22675285
000120 7a d7 ce be f9 23 c5 bc 90 74 26 bd ef 58 b9 be
       -0.4039877 -0.024065005 -0.040638506 -0.36200663
000130 90 28 9b be 52 bd 01 bf ca aa 50 be 65 bf a2 be
       -0.30304384 -0.50679505 -0.20377651 -0.31786647
000140 e9 ae c5 be 8f 88 08 bf 53 c7 05 3d 5b f1 68 3c
       -0.38610008 -0.5333337 0.032660794 0.0142177
000150 0d ea 71 be 51 29 b4 bd 44 ba 76 be 0f 26 f8 bc
       -0.2362444 -0.08796943 -0.24094492 -0.030291585
000160 eb cb 97 bd 38 d6 d3 be 69 06 ae 3d ac 5d 43 bd
       -0.07411941 -0.41374373 0.084973164 -0.047696754
000170 dd 2f 13 be 38 0f bb be 4a ec 8f be 39 97 90 be
       -0.14373727 -0.36535048 -0.28109962 -0.28240374
000180 a4 8f b8 be 28 86 74 be 29 66 17 bd 80 cd 33 3e
       -0.3604709 -0.23879302 -0.036962662 0.17558861
000190 95 5c c6 3d ac 47 43 bd c4 ef fc bb 74 9b 33 3d
       0.09685627 -0.047675774 -0.007719012 0.043849424
0001a0 d0 da c3 be 85 3f 64 3d 57 2a 21 3e 17 d4 df 3b
       -0.38252878 0.05572464 0.15738808 0.006830703
0001b0 aa 1a dc be 78 f7 05 bf 96 ac 85 be 73 aa 45 be
       -0.42989093 -0.5233073 -0.26108235 -0.19303302
0001c0 1e 74 97 bd a2 c7 29 be 35 4a f9 be 60 cb 64 be
       -0.073951945 -0.1658006 -0.48689428 -0.22343206
0001d0 b5 41 21 be 3f 57 83 be fb cb 84 be 2e 23 8d 3e
       -0.15747721 -0.256525 -0.25936875 0.27565902
0001e0 cd 63 e4 be 74 be 97 3d 58 6b 0a 3e d6 9c 50 bc
       -0.44607392 0.07409373 0.13517511 -0.012732705
0001f0 a7 0f 7b be 05 3a 83 3e 46 5e b0 be 93 d7 c7 be
       -0.2451769 0.25630203 -0.34446925 -0.39031658
000200 00 0c 30 3e 65 1b b6 bc 1d bb fe be 4a d4 e0 3e
       0.17192078 -0.02222986 -0.4975213 0.43911964
000210 22 2d 97 3d 1d 71 9b be 5c d2 66 be e0 b2 97 3b
       0.07381655 -0.30359736 -0.22541183 0.004629478
000220 9b ee f1 3a b3 e4 c2 3e 2c 92 c6 bd 3b 87 51 be
       0.0018457951 0.3806511 -0.09695849 -0.20461743
000230 58 5f 40 3d 74 e6 c0 bd ce 4f 8f be 43 1e 21 be
       0.046965927 -0.094189554 -0.27990574 -0.157342
000240 7a 73 8a 3d 73 8e 52 be 15 ae e8 bd 7b 99 5e be
       0.06760307 -0.20562153 -0.113613285 -0.21738236
000250 e8 18 b4 be 04 ed 10 3d 6f 32 b7 be a3 ae 48 be
       -0.35175252 0.035382286 -0.35780665 -0.19597869
000260 f2 4b 5c be c3 3a f9 be 7d ef 05 bd e9 a4 ae bd
       -0.21513346 -0.48677644 -0.032699097 -0.08527548
000270 a8 10 71 3d 3c 65 7b bd 10 e0 82 3e 3e 81 2f bd
       0.058853775 -0.06137584 0.2556157 -0.042847864
000280 ae 82 84 be 63 5d ad 3c 48 8f 5b 3e 0b 28 b5 be
       -0.2588095 0.021162694 0.21441376 -0.35382113
000290 78 4d d9 bd b4 5a f2 be eb b2 00 be e5 9a 67 3c
       -0.10610479 -0.47334826 -0.12568252 0.014136051
0002a0 3c a3 7c 3d 17 59 8b 3c 9e ba a3 be 2a 48 6f be
       0.06167911 0.017010255 -0.31978315 -0.23367372
0002b0 fd 42 83 3e 70 60 36 be 90 07 56 3d 31 98 dd be
       0.25637046 -0.17810225 0.052253306 -0.43280175
0002c0 90 6c 2c be d2 a0 a9 3d b9 ae 9b be c5 24 0d bf
       -0.16838288 0.08282627 -0.3040674 -0.5513423
0002d0 11 bc 9d be 21 99 0f bd e1 8c af bd c9 25 9e bd
       -0.30807546 -0.035058144 -0.085717924 -0.07722051
0002e0 ba c2 1e be f5 81 d4 3d 50 ae 96 be 41 81 e5 bc
       -0.1550397 0.1037635 -0.29429865 -0.028015735
0002f0 b9 ee b2 3d 8b a5 e7 be 77 28 cf 3e 58 dc b6 be
       0.08736939 -0.45243487 0.4046056 -0.35714984
000300 51 d9 68 3e d5 98 8e 3d d2 48 3a 3d c4 74 75 be
       0.2273915 0.06962744 0.045479603 -0.23970324
000310 de 72 5b be c6 5e b3 be ff 61 ef bd 2e d9 1d bd
       -0.21430537 -0.35033244 -0.11688613 -0.038537197
000320 2c 23 a8 be 1a 2a fd be 1e e8 da 3d d5 87 9f bd
       -0.32839334 -0.49446183 0.10688804 -0.0778958
000330 00 b9 6e be db 9d b7 bd 10 21 14 be 69 e8 58 3c
       -0.2331276 -0.089656554 -0.14465737 0.013239005
000340 83 f0 0f bc ea 02 dc bd 13 0c 2f 3e c7 78 de bd
       -0.00878537 -0.10742743 0.1709445 -0.1086288
000350 df b1 2c bd 2d be 39 be 96 0b 93 bd 9f 9f bb be
       -0.04216182 -0.18138953 -0.07179944 -0.3664522
000360 f2 7b 60 be 26 67 32 be 33 f5 1c be fd 03 0a 3e
       -0.21922281 -0.1742216 -0.15327911 0.13478084
000370 28 cf e4 bb c3 ac b2 3e ba 3d 3e 3e 1e fe 89 bd
       -0.0069827028 0.34897432 0.18578234 -0.06737922
000380 6d 9e 82 be b6 e9 e5 3c a3 cf 3c 3e c2 aa d3 3b
       -0.25511494 0.028065544 0.18438582 0.006459565
000390 8a e1 b4 be 74 cc e5 be 51 a0 58 be 81 9d 47 be
       -0.35328323 -0.44882548 -0.21154906 -0.19493677
0003a0 de 1f 24 3e 31 4f 66 be 00 d8 a5 be 3a 38 9b bd
       0.16027781 -0.22491147 -0.32391357 -0.07579084
0003b0 0b 2e 03 be cb 38 3f be 6a 38 60 3e 9d fb cd 3e
       -0.12810533 -0.18674009 0.2189652 0.40231028
0003c0 5d fe 97 bb 30 55 e2 bd 33 b5 da bd 4e 77 b4 3d
       -0.0046384768 -0.110514045 -0.10679092 0.08811818
0003d0 bb ea 24 be 4c 1f 0f be 47 a7 8e bd 6c 85 81 3d
       -0.16105168 -0.13976783 -0.06965499 0.06324276
0003e0 98 43 c8 bd 22 fb d7 bd 94 5a 7d 3e cb 32 7e be
       -0.097785175 -0.10545947 0.24741584 -0.24824063
0003f0 37 6a 26 be 14 56 9c bb c4 ac d1 bd b9 eb ef 3d
       -0.16251455 -0.0047710035 -0.102380306 0.117148824

weight_hh_l0 f4 [480, 120]
000000 ce 98 12 be e4 52 25 3e a7 06 43 bd e2 59 01 3d
       -0.14316103 0.16144902 -0.047613766 0.03157986
000010 a9 60 bd bd 5e 9b b8 3e 48 66 3d bc 74 99 b3 bb
       -0.09246952 0.36056036 -0.01156003 -0.0054809395
000020 f6 55 b0 bd 48 b2 59 3b 02 30 1f be 7b 93 d4 3e
       -0.08610146 0.0033217836 -0.15545657 0.4151877
000030 72 8e 98 3e bf 6c 0d 3e e1 ad b3 3d 30 56 fd bc
       0.29796177 0.13811015 0.08773399 -0.030924886
000040 1a 75 29 3d 56 e7 82 3e b0 14 0e bc fd ac 39 3b
       0.041371442 0.2556712 -0.0086719245 0.0028331869
000050 3b be df 3d e7 94 3c 3e 7f b7 20 3d 63 eb 49 bd
       0.109249555 0.18416177 0.039237496 -0.049296748
000060 b5 e9 b3 3c 14 2e e9 bd 46 e1 a1 bd 34 ff e2 3c
       0.021962026 -0.11385742 -0.079042956 0.027709581
000070 84 d5 39 3d 85 e3 6c 3c 3c f0 09 be 4a bc 8b 3b
       0.04536964 0.014458542 -0.13470548 0.004264389
000080 16 a5 5f 3e 72 f3 95 3d 52 20 a5 3e 35 fb 23 be
       0.21840319 0.07321824 0.3225122 -0.16013797
000090 a3 32 fa bd 87 1b b3 bd da 1a 75 3c 94 b4 32 3e
       -0.122166894 -0.08745485 0.014960015 0.17451698
0000a0 bb a6 10 3e f9 f2 3f be b2 98 10 3e 24 e4 46 3e
       0.14126103 -0.1874503 0.14120749 0.19422966
0000b0 7c 58 8a 3d 75 05 3e bc 0e 85 1a be e9 14 43 bd
       0.06755158 -0.011597981 -0.15089819 -0.047627363
0000c0 5f 46 dc bb 2d b9 6d 3d 0d 9f 9b bc cf 68 43 be
       -0.006722256 0.058037926 -0.01899674 -0.1908295
0000d0 36 31 55 3e f0 bb b1 3d 59 f9 72 be 21 bb 82 be
       0.20819554 0.08678424 -0.23727931 -0.25533393
0000e0 33 d8 90 bc 86 bc 84 be 6e 9a 44 bc 09 d4 b6 bc
       -0.017681217 -0.25925082 -0.0119997095 -0.022317903
0000f0 d2 f6 9d be b6 3d 9b 3d 10 22 80 3d 30 f6 f3 3c
       -0.3085237 0.0758013 0.06256497 0.029780477
000100 b8 0e 36 bc 38 64 73 3e 5c c9 d8 bc 76 41 9a bd
       -0.011111908 0.23768699 -0.026463203 -0.07532017
000110 90 97 9b bd 81 73 3a be 25 7b 43 3e a5 a8 31 3e
       -0.07597268 -0.18208124 0.19089945 0.17349489
000120 38 88 d9 be a5 f8 e2 bd 31 42 3e bd fe 3e b0 bd
       -0.4248674 -0.110825814 -0.046449844 -0.08605765
000130 7a d9 52 3d 1a 65 71 be 78 4c 24 3e 24 db 20 3e
       0.051476933 -0.23573723 0.16044796 0.15708596
000140 89 de e2 3c 92 c4 10 3e 49 b0 77 3e 8b cb e6 3d
       0.027694004 0.14137486 0.24188341 0.112692915
000150 81 39 50 3d 43 74 00 3d 6f e0 01 be f4 d0 8b bd
       0.05083609 0.031360876 -0.12683271 -0.06826964
000160 74 aa 0a 3d 33 60 2a bd 59 fd 2b be 79 6f a5 bb
       0.033853963 -0.04159565 -0.16795863 -0.005048689
000170 69 5e 89 3e d8 b4 33 be 19 34 73 3e 95 a4 a1 be
       0.26829842 -0.17549455 0.23750342 -0.3157088
000180 e3 9d 95 3d 81 22 67 3e 47 5c 39 be b0 87 5c 3c
       0.07305505 0.22571756 -0.18101607 0.013460085
000190 fb 0b 82 3e 8f 2d 06 3e 59 20 8f 3e 93 ca 97 bc
       0.25399765 0.13103317 0.27954367 -0.018529212
0001a0 4e f7 a6 3b 38 56 33 be a9 a2 c9 3d 68 43 e7 3d
       0.005095399 -0.17513359 0.09845478 0.112921536
0001b0 ea 48 55 3e 18 15 a6 bd 33 ed 08 3e b8 71 0e be
       0.20828596 -0.08109492 0.13371734 -0.13910568
0001c0 4e 7d 51 be 38 0d 49 3c bf c6 42 be c6 59 1b be
       -0.20457956 0.012271218 -0.19021128 -0.15170965
0001d0 f9 55 2e bc f8 bb 43 bd a0 6e 42 be 17 d1 84 be
       -0.010640615 -0.047786683 -0.18987513 -0.25940773
0001e0 4b ed 1b 3e ad 8b e6 be 96 34 82 3a 50 3c 79 3e
       0.15227239 -0.4502844 0.0009933885 0.24339414
0001f0 2e dd 55 3d 1e 51 13 3e 0e ac 1f 3e 76 a0 d5 3d
       0.052212887 0.14386413 0.15592977 0.10430996
000200 d2 86 be 3d 68 c1 3c 3e f8 b4 14 3e ec b1 17 be
       0.09303059 0.18433154 0.14522159 -0.14813966
000210 49 0d 19 3e 5c 6e fa 3d 59 1a a1 be 32 2d 60 3d
       0.14946474 0.12228081 -0.31465414 0.0547306
000220 5b e7 28 bd f2 b3 58 be b6 e9 9b bd b2 7b 11 be
       -0.041236263 -0.21162394 -0.07612936 -0.14207342
000230 83 e7 e6 3c 73 62 9b bc b2 26 03 be 46 42 59 be
       0.028186565 -0.018967843 -0.1280773 -0.21216688
000240 bb f6 af be 03 05 fc bd a6 12 e6 3d d5 f2 16 be
       -0.34367928 -0.123056434 0.11234026 -0.1474107
000250 9c 75 f0 bc 4a 8d f0 3d a8 48 f8 3c e8 0e 1e 3e
       -0.029352956 0.11745699 0.030308083 0.15435374
000260 a8 38 2c be ae b1 45 3d 44 02 8f 3d 98 e9 aa 3d
       -0.16818488 0.04826515 0.06982854 0.08345336
000270 e9 32 4a bd 49 b9 8c be 67 d9 24 3e 9b 11 6b bb
       -0.049364958 -0.2748511 0.16098557 -0.0035868648
000280 fa de 9a bc a8 8d 3d be d2 24 93 3e 78 72 38 3e
       -0.018905152 -0.18511069 0.2873903 0.18012416
000290 0a 0b c3 bd 2b cb 6f bc c5 23 cb 3d 1e 64 a8 be
       -0.0952359 -0.014635841 0.09918932 -0.32888883
0002a0 f2 f9 a6 3d 7f 3d 1c be e0 e8 5b bd e4 2f 9e ba
       0.08153142 -0.15257834 -0.053688884 -0.0012068716
0002b0 c3 6b 3a be 3f 94 f8 3d af 0d 1c bd 16 9e 3f 3e
       -0.1820517 0.12137651 -0.038098987 0.18712649
0002c0 44 c1 49 be 68 61 3c bd f8 6f 91 bd fe 69 f4 bd
       -0.19702631 -0.04599133 -0.071014345 -0.11934279
0002d0 47 49 10 3d 17 9d a8 3d d8 6e 5f 3c 29 a9 7b be
       0.035226133 0.082330875 0.013637267 -0.24576248
0002e0 60 09 1f bc 2d 09 5d 3e 55 a2 04 3e 79 5e c9 3d
       -0.009706825 0.21585532 0.1295255 0.09832472
0002f0 e4 e6 d1 3b 7b 3e b9 3c b5 d8 51 3e 2d b8 a9 bd
       0.006405698 0.0226128 0.20492823 -0.08287082
000300 9b 42 1b be 4b 0f 13 3d 5c 59 b0 3e d5 94 d2 bd
       -0.15162127 0.035903256 0.34443176 -0.10282294
000310 6b b3 37 3e bc 7d 51 3e 71 a0 95 be 04 43 a0 3e
       0.17939536 0.2045812 -0.2922397 0.3130113
000320 78 eb 82 bd 91 fd 99 3d 71 43 4b 3d 33 8f 1a 3e
       -0.06392568 0.07519067 0.049624864 0.15093689
000330 31 d7 bd bd ef 0a 1f be d6 e5 69 3d 10 7c 4c bd
       -0.0926956 -0.15531515 0.057103954 -0.049923003
000340 63 2c 19 3e 40 1e 7c 3e 17 c7 ec bc d1 2f 7e bd
       0.14958338 0.24620914 -0.028903527 -0.06205732
000350 16 fc 73 3d bd a3 bc bd 20 fd 58 be e8 63 25 bd
       0.05956658 -0.09210918 -0.2119031 -0.04037848
000360 f1 a1 91 bd 23 35 d5 bd 56 b0 65 bd 8c 1f 38 3d
       -0.07110966 -0.10410526 -0.05607637 0.04495196
000370 7c e7 8c 3e 52 3c c1 be 1a b7 af 3d 01 82 ea 3d
       0.2752036 -0.37741333 0.08579846 0.114505775
000380 c0 4a 5c be 9d 72 3e be 8f 80 00 bf 1a 7a 00 3d
       -0.2151289 -0.18598409 -0.50196165 0.031366445
000390 94 ab 2e be 5a 15 38 ba 95 61 b6 bd c1 49 c6 bc
       -0.1705764 -0.00070222246 -0.08905331 -0.02420509
0003a0 8a 05 0c be 84 bf e0 3d 36 10 1b 3d d3 29 8a 3e
       -0.13673988 0.10974029 0.037857257 0.26985034
0003b0 02 23 cc bd 3f b3 8f 3e 13 9b e9 bd 9b cd f0 bd
       -0.09967615 0.2806644 -0.11406531 -0.11757966
0003c0 90 ea 01 be f9 9d 6b 3d 87 b6 d6 bd 18 51 8c 3e
       -0.12687135 0.0575237 -0.10484033 0.2740562
0003d0 04 8b 9f bd 2d 39 ca bd 37 6c 93 3d ef 61 a9 ba
       -0.07790187 -0.09874187 0.07198375 -0.0012922863
0003e0 88 25 96 be 9f 9b 67 be 84 42 0d be 15 63 05 3e
       -0.2932551 -0.22617958 -0.13794905 0.13026078
0003f0 a3 0f b9 3b 3d 05 b8 bd 9b fb 56 bd 75 81 ac 3d
       0.005647616 -0.08985374 -0.052486043 0.084231295

bias_ih_l0 f4 [480]
000000 1b b3 05 bd c2 e0 26 be e1 1f 90 3d 9c b1 ea bd
       -0.03264151 -0.16296676 0.070373304 -0.114596575
000010 f5 de 9a 3b 6f 5b ba bd de 5f 52 bd 67 d1 c4 bd
       0.0047262856 -0.09099471 -0.051360957 -0.09610253
000020 cb 44 96 bd af 08 c1 bd 14 e7 18 be 6f 4e ca be
       -0.0733734 -0.094254844 -0.149319 -0.39512965
000030 59 9d 52 be 96 5e 62 be b5 66 34 be 00 17 36 3b
       -0.20567836 -0.22106394 -0.17617305 0.0027784705
000040 0f aa 9f bd 47 d1 c1 bd 50 00 38 be 03 54 f3 bd
       -0.07796108 -0.094637446 -0.17968869 -0.11881258
000050 59 b4 64 be 96 72 5a be 8b 5b c6 bd 93 e2 79 be
       -0.22334422 -0.21332774 -0.09685429 -0.24402837
000060 ee 5a 42 be 19 5a 03 be 76 82 48 bd 27 62 db bd
       -0.1898 -0.12827338 -0.048952542 -0.107120804
000070 b4 a9 82 be 98 68 2d bd 1b 83 3f be 3d 49 06 be
       -0.25520098 -0.042336076 -0.18702357 -0.13113876
000080 f2 58 2f 3c fb d3 6f be 76 fe 2a be 2c 05 32 bd
       0.010702359 -0.23420708 -0.16698632 -0.043461964
000090 e5 09 01 be 6d ea de 3c 11 9f 6a 3e 41 a8 01 be
       -0.1260143 0.027211392 0.22912242 -0.1266184
0000a0 7d 1c 0c be 39 4a 4f 3d 21 5c 25 be a5 cc 23 be
       -0.13682742 0.050607894 -0.16148426 -0.15996034
0000b0 51 02 83 3b 77 e3 96 be f7 3f 28 bd d7 40 ac bd
       0.003998079 -0.29470417 -0.041076627 -0.08410805
0000c0 58 a7 50 bb 1c d8 81 bd 25 33 73 bd c5 d3 37 bd
       -0.0031838026 -0.06340048 -0.059374947 -0.044879694
0000d0 df 1b 87 be 47 cb 18 be ae c0 35 bd 40 cd 82 be
       -0.2638845 -0.14921294 -0.044373207 -0.25547218
0000e0 1f e1 fd bd 06 7a 14 be 95 70 a7 bd 98 52 38 be
       -0.12396454 -0.14499673 -0.0817577 -0.18000257
0000f0 d4 bd 24 be 78 dd 04 3e f5 2f 28 be 52 c8 b7 bd
       -0.16088039 0.12975109 -0.16424544 -0.08973755
000100 25 f8 07 be 5a cd 4c bd 22 fa ec bd 5c e4 70 be
       -0.13278253 -0.050000526 -0.115711465 -0.23524612
000110 df 61 fd bd 3e 3f 3f be f4 0f b2 be 7d 84 22 be
       -0.12372183 -0.18676469 -0.34777796 -0.15870853
000120 59 08 90 be 14 df 92 bd cf 64 2f be cc 34 2f be
       -0.2813137 -0.07171455 -0.17128299 -0.17109984
000130 3a 1c 54 be db 44 3f bd 2f 17 47 be be 37 9c bd
       -0.20713893 -0.046696525 -0.19442438 -0.076278195
000140 e8 51 44 be 72 c5 48 be d9 d0 81 bd 57 57 83 3c
       -0.1917187 -0.1960657 -0.06338663 0.016032858
000150 b7 a0 7f bd 50 66 ba 3d 57 3d 1f bd b6 67 8d 3c
       -0.06240913 0.09101546 -0.038876858 0.017261367
000160 8b bc 35 3c 26 31 f4 bd ca b9 52 3c 9a 10 b1 bd
       0.011092315 -0.11923437 0.012861678 -0.086457446
000170 4f ad 1c be 0a 20 97 bd e8 6f 24 be d6 dd 30 bd
       -0.15300487 -0.07379158 -0.16058314 -0.04318031
000180 b0 38 1f be 92 0b 50 be 63 a8 aa bd d3 ac 0e 3e
       -0.15548968 -0.20316914 -0.083328985 0.13933115
000190 6b ac 27 be 66 07 02 be eb 79 c7 bd 11 01 de 3c
       -0.16374366 -0.12698135 -0.09740051 0.027100118
0001a0 68 2e 24 be c9 97 10 bd 27 3c c2 bd de 1c dd 3d
       -0.16033328 -0.035301004 -0.094841294 0.107965216
0001b0 b7 95 3f be 47 26 8a 3c 72 23 11 be e8 31 6c be
       -0.18709455 0.016863955 -0.14173678 -0.23065913
0001c0 44 b6 b4 bc 1c 2f 0f bd 56 ed 30 be e5 e2 1d 3d
       -0.022059567 -0.034957036 -0.17278036 0.03854646
0001d0 50 ae 83 bc de 3b 0e be ee 41 09 be e0 d0 9e bd
       -0.01607433 -0.13890025 -0.13404056 -0.077546835
0001e0 b6 ff fd bc a1 77 49 bd d4 a7 6d 3d b6 da 0b be
       -0.031005722 -0.049186353 0.05802138 -0.1365765
0001f0 6b 27 50 3c c9 07 93 3d e7 7d 8e bc 8e d5 41 be
       0.0127047105 0.07179219 -0.01739402 -0.18929121
000200 79 b9 5c 3c 7d 8f ee 3d a8 b3 0d be 7a b3 53 3e
       0.0134719545 0.11648462 -0.13838065 0.20673934
000210 f3 d4 23 3e 10 86 e5 bd 8c a9 ec bc 69 7d fb bd
       0.15999202 -0.11207211 -0.02888944 -0.122797795
000220 87 8b d0 bd 4b d1 17 3e 9f 4b a2 bd 9d 84 1f be
       -0.10182863 0.14825933 -0.0792458 -0.15577932
000230 94 fa 4c be b2 7f 2a be 5c fb af bd 2d 50 01 be
       -0.20017463 -0.16650274 -0.08592865 -0.12628241
000240 e3 c1 6c bd a1 0a 82 bd df 5b e2 bd 73 03 db bd
       -0.057802092 -0.063496836 -0.11052679 -0.10694017
000250 c3 d7 10 be 04 d5 4d bc 0f 88 8e bd bf 77 68 3d
       -0.14144807 -0.012562994 -0.06959545 0.056754824
000260 5f 50 0d 3d ef 6e 02 be 89 0c 38 be ae 9d 39 3b
       0.034500476 -0.1273763 -0.17973532 0.0028322744
000270 57 04 21 3c 4a ca 30 3d bd 80 f5 3e cb f2 12 3c
       0.009827695 0.043161668 0.47949782 0.008969019
000280 4e b9 03 be 5a 67 9c 3b 60 d8 17 bd 85 6b 0a be
       -0.12863657 0.0047730627 -0.037071586 -0.13517578
000290 ee 10 03 bd 26 14 fa bd d0 70 dd bd 6b 1f d1 bd
       -0.031998567 -0.12210874 -0.10812533 -0.102110706
0002a0 04 cd e7 3d 1b 0b 65 bd 25 aa b4 bc 8e 30 32 bd
       0.113184005 -0.055918794 -0.022053787 -0.043503337
0002b0 a6 3c b2 3e 25 af 54 be 2b 23 05 bd ac 91 94 3c
       0.34811896 -0.20769937 -0.032504242 0.018135868
0002c0 3b 33 8c 3d 9a 43 ab 3d e5 8c 44 3d bd 3a ce bc
       0.06845709 0.08362503 0.04798593 -0.025174493
0002d0 ce ba d7 bd 56 9d 22 3d cf 79 ea bd 5d 63 1b be
       -0.10533677 0.03970083 -0.114490144 -0.15174623
0002e0 27 34 df ba 47 34 c9 3d 13 95 0b be 36 b0 36 be
       -0.0017029092 0.09824424 -0.13631086 -0.17840657
0002f0 94 a7 56 3e 36 d6 75 bd 1d 53 a5 3e 7f 5b e6 bd
       0.20962363 -0.06001874 0.32289973 -0.1124792
000300 8b 78 67 3e b6 f3 d0 bd 6c 2a 1c be df 2d dc bd
       0.22604577 -0.10202734 -0.15250558 -0.10750937
000310 8c ab 17 be c3 5a b2 bd 89 2b 28 be 34 63 c5 bd
       -0.14811534 -0.08708718 -0.16422857 -0.09638062
000320 2b 8d e7 bd 9b 82 18 be 1e 88 a3 3d 93 57 6d 3d
       -0.113062225 -0.14893572 0.07984947 0.057944845
000330 52 43 14 bd 5e e1 10 bd 0b 67 f1 bd ca eb 51 bd
       -0.036197014 -0.035371177 -0.11787232 -0.051250257
000340 4b 65 bf bd 86 96 d4 3c bd 41 c1 3c 1b 1f a1 bd
       -0.09345492 0.025950681 0.023590917 -0.07867261
000350 8f 16 d6 3b dc d8 13 3d 40 d1 4e bc ee 23 8e bd
       0.006533451 0.036095485 -0.012623131 -0.06940447
000360 e5 d3 7f bd 7e eb 11 be 40 ee c6 bd 87 05 59 3e
       -0.062457938 -0.1424999 -0.09713411 0.21193515
000370 19 88 e7 bd 27 9b 3b 3e 24 96 f1 3d c0 33 d4 3c
       -0.113052554 0.18320905 0.11796215 0.025903583
000380 47 bc ac bd 33 da 96 bd 1e eb 33 bd 13 24 c5 3b
       -0.084343486 -0.07365837 -0.043925397 0.0060162633
000390 e4 0c 5c be 1d fb f8 3d 60 b3 49 be f8 3a 4c be
       -0.21489292 0.12157271 -0.19697332 -0.1994437
0003a0 c7 f4 67 3d e8 f4 00 be aa ba df bd 63 d5 e9 3d
       0.056629922 -0.12593424 -0.10924275 0.114176534
0003b0 f5 b3 f2 3c e3 2a 85 3c 9d ae 01 3e de 81 63 3e
       0.029626826 0.016255802 0.12664266 0.22217509
0003c0 35 37 61 bc c7 06 5e 3d 2b 92 26 bb 88 12 24 3d
       -0.013746073 0.054205682 -0.0025416713 0.040056735
0003d0 3b 07 8f 3b ef ea 7f 3d 9d 57 50 be e6 f4 97 bc
       0.0043648756 0.06247991 -0.20345922 -0.018549394
0003e0 7c e3 79 3d 01 43 76 3c 80 df 52 bd e4 5d 5d 3d
       0.06100796 0.015030623 -0.051482677 0.05404462
0003f0 b1 8d ae 3d e3 04 16 3c 46 14 15 be 52 89 b2 3d
       0.08523119 0.0091564385 -0.14558515 0.08717598

bias_hh_l0 f4 [480]
000000 be eb d3 bd 17 26 72 be e0 ab 39 bc 1f 16 1c bd
       -0.10347699 -0.23647343 -0.011332482 -0.038107034
000010 69 18 44 bc f6 74 26 bd 3b 79 8d bc 99 80 57 be
       -0.01196871 -0.040638886 -0.017269721 -0.2104515
000020 c5 34 7e bd bf 76 27 be 55 89 3b be c4 92 c8 be
       -0.062062044 -0.16353892 -0.18314107 -0.39174473
000030 c9 88 0c be 27 6c 86 be 1b 48 f0 bd 0b b3 5e bd
       -0.13724054 -0.2625439 -0.11732503 -0.054369967
000040 f1 7a ea bd 34 1f 3a be ca eb 66 be 00 a1 2f be
       -0.114492305 -0.18175966 -0.22550884 -0.1715126
000050 b3 a6 31 be 24 3f 5b be 14 63 a9 bd ba 9c 11 be
       -0.17348747 -0.21410805 -0.08270851 -0.14219943
000060 d5 e9 34 be 06 0c d1 bd e0 df 88 bc 12 45 64 bd
       -0.17667325 -0.102073714 -0.016708314 -0.055729933
000070 c0 08 43 be b9 1d 5a bc 1f 83 33 be 0a d0 89 be
       -0.19046307 -0.0133127505 -0.17530487 -0.26916534
000080 d1 30 f4 bd 51 e1 92 be 7e 30 5c be 3e 2d b8 bd
       -0.119233735 -0.28687528 -0.21502873 -0.08993004
000090 c3 bd 06 be 29 25 7d bd fe 99 99 3e 18 eb 03 be
       -0.13158326 -0.061803017 0.300003 -0.1288265
0000a0 b0 c0 8c be 08 50 67 bd fe c5 9f bd 97 64 48 be
       -0.2749076 -0.056472808 -0.07801436 -0.19569622
0000b0 d8 e0 db 3d cb 61 74 be d9 95 e2 bc 6c 49 d6 bd
       0.10736245 -0.2386543 -0.027659344 -0.10463223
0000c0 cc 0c 76 bd f0 81 21 be 4b ba dc bd e1 c2 ac bd
       -0.060070798 -0.15772223 -0.1077772 -0.08435608
0000d0 2e ef 9e be f4 02 29 be 2b e4 8d bd f7 10 19 be
       -0.31041855 -0.16505033 -0.06928285 -0.14947878
0000e0 ed 2b 47 be 0f 13 8a bc ef b8 90 bd 67 a1 ab bd
       -0.1945035 -0.016854791 -0.07066523 -0.083803944
0000f0 5e a2 20 be bf 8f 32 3e 8d 29 1f bd 1f 0a 64 be
       -0.15686938 0.17437647 -0.038857985 -0.22269486
000100 d0 6a ee bd dd d8 41 be 63 ac 1b be 3e 63 6f be
       -0.116414666 -0.18930383 -0.15202479 -0.23377702
000110 16 35 90 be 5a 94 5a be 08 95 c5 be 8e 3b 4a bd
       -0.281655 -0.21345654 -0.38590264 -0.049373202
000120 65 c7 8c be d6 bf 04 be 8a 23 3a be 0a 31 1d be
       -0.27495876 -0.12963805 -0.1817762 -0.15350738
000130 ba fe 50 be 7f 3f 54 bc 11 01 70 be 14 38 30 be
       -0.2040967 -0.012954592 -0.23437907 -0.17208892
000140 90 d1 d4 bd 7e e8 ee bd bc f3 88 3c 76 3c 8a bd
       -0.103915334 -0.11665438 0.016717784 -0.06749813
000150 16 86 42 3b df 19 23 3d 67 89 3c be 71 2e 68 bd
       0.0029681972 0.039819594 -0.1841179 -0.056684915
000160 45 3f 8a bd 48 fb 6a bd fb 72 97 3d 35 96 42 bd
       -0.06750349 -0.057368547 0.07394978 -0.04750653
000170 ba f3 10 bd 3e 2a 66 bd 36 2d b6 bd 35 c6 76 bd
       -0.035388686 -0.05619263 -0.08895342 -0.06024762
000180 c3 37 5c be 91 d2 4b be f9 30 60 bd 0a 54 cf 3d
       -0.21505646 -0.19904543 -0.054734204 0.10123451
000190 13 23 ae bc b4 a9 18 be 90 d5 00 be d3 33 bd bd
       -0.021256959 -0.14908487 -0.12581468 -0.092384
0001a0 05 13 54 be af 55 28 be 3f 5c 50 be c0 56 35 3d
       -0.2071038 -0.16438936 -0.20347689 0.044272184
0001b0 69 8b 8f be 13 9c 80 bd a2 17 e2 bd 1d 5e 9d bd
       -0.2803605 -0.06279769 -0.11039664 -0.07683966
0001c0 54 fb 7e bc d7 78 28 be d5 93 2a be 10 f3 6f 3c
       -0.015562851 -0.16452347 -0.16657956 0.014645353
0001d0 80 e9 a8 3c 45 b9 ea bd 32 e9 99 be 1e 7d be bc
       0.020619154 -0.114611186 -0.30060726 -0.02325302
0001e0 6b 1d fb bc 73 a1 11 3c bb 2f 24 3e ee 31 1f be
       -0.030653676 0.00888859 0.16033833 -0.1554639
0001f0 ef 00 97 bc b8 a8 3d 3e af 82 bf bc d1 4d 4f be
       -0.018433062 0.18521392 -0.023377744 -0.20244528
000200 52 37 ea 3c 57 03 7a 3d 49 82 86 bd fd b8 43 3e
       0.028590832 0.06103834 -0.06567819 0.19113536
000210 8e cb 29 3c 48 01 0d be da 44 50 be df d9 dd bc
       0.010363473 -0.1377002 -0.20338765 -0.027081428
000220 fc 6e 70 3c c5 65 8c 3d a0 c5 41 bd 23 4f 8c bd
       0.014674898 0.068553485 -0.04730761 -0.06851032
000230 0e 04 20 be 89 3b 42 bd 02 75 3a be 48 93 92 bd
       -0.15626547 -0.04742006 -0.18208697 -0.07156998
000240 16 68 c0 bc 67 bc 45 bd d4 16 08 be 4b fd ef 3c
       -0.023487132 -0.048275378 -0.13289958 0.029295584
000250 18 6d e6 bd 5e 77 c8 bc 92 af b0 bd de 58 a3 bd
       -0.11251277 -0.024470981 -0.086272374 -0.079759344
000260 df cc d6 3c 74 c6 ee bd e8 5e 21 be 83 db 1c 3d
       0.026220737 -0.11658946 -0.1575886 0.03829528
000270 4b b9 7c bd 31 b4 46 bd 25 86 ef 3e 51 8d 30 3c
       -0.061700147 -0.048511688 0.46782032 0.01077588
000280 64 85 0d be bd 07 ef 3d 51 c0 fe bc 8f be ad bd
       -0.13820416 0.11671398 -0.031097563 -0.08483612
000290 f8 aa 44 bc 68 15 38 be eb 2a 92 3c da f4 0e be
       -0.012003653 -0.17976916 0.01784273 -0.13960591
0002a0 24 0f 7c 3d 54 1c 3b be 0d 98 6d bd 97 35 e1 bd
       0.061537877 -0.18272525 -0.058006335 -0.109965496
0002b0 8d 06 c0 3e a0 50 24 be 3d 3f 15 bc 2f 69 95 bd
       0.37504998 -0.16046381 -0.009109315 -0.07295453
0002c0 84 83 a4 3d 0f b3 42 3d 22 63 84 bd 0a 14 52 bd
       0.08032897 0.047534045 -0.064642206 -0.051288642
0002d0 c2 06 e8 bd 17 2d 15 3e 04 16 59 3d bf 86 da bd
       -0.11329414 0.14567982 0.05299951 -0.10670232
0002e0 cf 46 82 3c 65 ca 1c 3e c1 d4 25 be c6 86 86 bd
       0.015902905 0.15311582 -0.1619444 -0.06568675
0002f0 17 50 e0 3d f4 bf 09 be 4d 17 36 3e 51 2d aa bd
       0.10952776 -0.1345213 0.17782326 -0.08309425
000300 83 87 81 3e f2 4f b8 bc 53 59 55 be 87 7b 43 be
       0.252987 -0.022499058 -0.20834856 -0.1909009
000310 86 f1 27 be 69 e3 6b 3d 8b 5c 20 be d7 46 ab bd
       -0.16400728 0.057589922 -0.15660302 -0.08363121
000320 0a 58 0c bc 08 0e af 3c 83 25 07 3e ab a5 c9 bd
       -0.008565912 0.021368995 0.13197903 -0.09846052
000330 d3 0d d5 bd 29 40 17 bd de 9c 32 be b9 ac 82 bc
       -0.104030274 -0.036926422 -0.17442653 -0.015951501
000340 a2 d8 a3 bd 69 bb 61 bc 15 7f c8 3d a2 c4 85 3a
       -0.08000304 -0.013777592 0.09789864 0.0010205696
000350 d3 1d 48 3d e1 e7 9c bd 35 f7 3e bc dd 76 25 3d
       0.048856568 -0.07661415 -0.011655618 0.04039656
000360 8e 2e 07 be 69 85 98 be b8 18 80 bd 98 a3 68 3e
       -0.13201353 -0.29789284 -0.06254715 0.22718656
000370 8d f8 f7 bd 7c 6f 69 3e ed f1 a6 38 27 1e b4 bd
       -0.12107954 0.22796434 7.960559e-05 -0.087948136
000380 b4 8e 01 bd c3 7d 0c be 62 52 38 bd e7 d3 cf 3c
       -0.031630233 -0.1371985 -0.04500044 0.025369598
000390 23 c6 d2 bd 94 55 00 3e 1e a8 38 be 5a b1 e0 bd
       -0.10291698 0.12532645 -0.18032882 -0.10971327
0003a0 ab 89 5f 3c df a0 01 bd 16 5d fc bd c8 46 a6 bb
       0.013643662 -0.03164756 -0.12322442 -0.0050743558
0003b0 06 e4 59 ba 40 8b f7 bd 55 5a d5 3d 7c 8b 88 3e
       -0.0008311871 -0.12087107 0.1041762 0.26668918
0003c0 ca 39 d8 bc 07 39 60 3d 9c 6c bf b8 e0 f6 87 3d
       -0.026394743 0.054741886 -9.12782e-05 0.066388845
0003d0 57 17 8b bc 8c 88 d1 bc 8e 8b ae bd 4b ed dd bd
       -0.016978903 -0.025577806 -0.08522712 -0.10836276
0003e0 af f8 20 ba d1 80 79 3d 7c 86 c6 bd 2c 70 3a 3d
       -0.00061405724 0.060913865 -0.096936196 0.04551713
0003f0 d3 e0 4d 3d 09 3e d8 bd e0 3d c2 bc d0 da d4 3d
       0.050263237 -0.10558707 -0.023711145 0.10393298

weight_ih_l0 f4 [480, 120]
000000 84 1c 0f 3d 0f bd e1 bd b3 8a 4b bd 28 c9 43 3c
       0.034939304 -0.11022388 -0.04969282 0.011949815
000010 ec c9 f8 bc 44 3b 1a 3d dc 5b 25 3e e2 4b 85 3d
       -0.030369721 0.037654176 0.16148323 0.06508614
000020 2c fe ee 3c 8a 86 ab bd 32 63 5b 3e 6e e5 c1 bd
       0.029173933 -0.08375271 0.21424559 -0.09467588
000030 b2 8b a9 3c 1b 92 0a 3e 78 01 3f bd d1 69 53 be
       0.020696495 0.13532297 -0.04663226 -0.20645835
000040 be e2 2e 3e 24 c9 44 3e 65 7a 03 3e 48 56 9d bd
       0.17078683 0.19217354 0.12839659 -0.076824725
000050 f8 e9 6c 3d 73 f2 6d bd 08 5f 34 3d cc 26 6a 3d
       0.057840317 -0.058092546 0.04403594 0.057165906
000060 df f6 1c be e9 5a 11 be 70 18 cf 3d 20 41 4a bd
       -0.15328549 -0.14194836 0.10112083 -0.049378514
000070 9e 15 e3 3c ee 27 0a 3e 55 55 35 bd 16 52 63 bd
       0.027720269 0.13491794 -0.044270832 -0.055498205
000080 f5 0b 46 be d8 f6 a5 3d 66 03 af bd 67 16 e5 3d
       -0.19340499 0.08103722 -0.0854557 0.111859135
000090 1e 0f ac 3e 0b 74 80 be 5c 02 ea 3c 03 e8 04 be
       0.33605283 -0.25088534 0.028565578 -0.1297913
0000a0 f3 ba 04 be 70 4e a8 bd 6a 35 b6 bd 0e cd 34 bd
       -0.1296194 -0.08218086 -0.08896907 -0.044140868
0000b0 5c 78 3a bd d3 81 dd bd 5b 66 14 3e 25 94 88 be
       -0.04552494 -0.10815778 0.1449217 -0.26675525
0000c0 ea 41 d3 3c 99 73 58 bd f4 5c 80 3d 77 24 0e 3e
       0.025788266 -0.052844618 0.062677294 0.13881098
0000d0 29 07 ac be b5 9c fc bc f3 9a 88 bd 7c 4e 16 be
       -0.33599213 -0.030836442 -0.06670179 -0.14678377
0000e0 a1 8b 17 be c6 aa c9 3d 29 9c e6 3d 4b c2 e3 3d
       -0.14799358 0.098470256 0.11260254 0.11121043
0000f0 21 2b 12 bd 6f 3e 05 3e a1 32 c1 bd 0c d9 4a bc
       -0.035685662 0.13012098 -0.09433485 -0.01238085
000100 78 2e cd bb 4b c0 5b 3e c4 5b bf 3d 8e b1 ef 3d
       -0.006261643 0.21460073 0.09343675 0.11703788
000110 0c 75 93 be 7e b1 20 3d 88 29 f0 3b ce 2f 23 be
       -0.28800237 0.03923177 0.0073291697 -0.15936205
000120 b7 cf a5 be 27 44 a9 3d df e8 4b bd af 4e 22 be
       -0.32385036 0.08264952 -0.04978263 -0.15850328
000130 49 26 51 3d 45 b4 e1 3c 04 0f b7 3d 26 bc 2d be
       0.051061902 0.02755178 0.08938411 -0.16966304
000140 a9 b5 c1 bc e4 7b 7f 3c 60 a5 55 3d d2 7b 1f 3d
       -0.023646193 0.015593503 0.052159667 0.038936444
000150 19 cd 3c be 6c 1f 67 bd 32 3b 1d 3e ac 41 09 bc
       -0.18437614 -0.05642645 0.15354612 -0.008377474
000160 e3 16 83 bd 5c 62 07 3f 55 dc 88 bd f3 b7 23 3e
       -0.0640085 0.5288446 -0.0668265 0.1598814
000170 33 24 dd bd 61 e4 64 3e 71 fa f4 bc 19 47 f5 3d
       -0.1079792 0.22352745 -0.029904576 0.119764514
000180 de 2d b5 bc 4b 3e 29 3d 71 5f 94 3d ab 7f 27 3d
       -0.022116598 0.041319173 0.072447665 0.040893238
000190 a6 1e 78 bd 0c ff 73 3d b6 a3 05 3e 88 55 75 bd
       -0.060576104 0.059569404 0.13050732 -0.059896022
0001a0 38 a5 10 be 24 b3 56 3d 39 2f 3d be 50 48 f1 bc
       -0.14125526 0.052416936 -0.18475045 -0.029453427
0001b0 bd e2 9e bd f5 8e 76 3d 51 71 c3 bd 8b 3a 53 3d
       -0.07758091 0.06019493 -0.09543098 0.051569503
0001c0 4f 31 d7 bc 86 f8 46 3d 95 fc a7 3d d2 df 80 bd
       -0.02626863 0.048576854 0.08202473 -0.0629269
0001d0 eb 16 05 be 7d 5d d0 3d af bc e2 bd 46 81 81 3d
       -0.12997024 0.101740815 -0.11071145 0.06323485
0001e0 cd 22 73 3e 9f 6b 39 3d 42 a2 01 be 16 a4 2d be
       0.23743744 0.04526865 -0.12659553 -0.16957125
0001f0 9e 90 1b 3e ce 8d 8e 3e 7b ee 33 3e 35 a7 97 3d
       0.15191886 0.27842563 0.17571442 0.07404939
000200 ee 62 04 bd 55 4a 6b 3e db d6 96 3d a9 09 23 3d
       -0.03232091 0.22977574 0.07365199 0.039804135
000210 18 32 2b 3e fc d5 de 3a 04 ac 75 3e 98 65 c2 bd
       0.16718328 0.0017001028 0.239914 -0.09492034
000220 25 21 e1 3c ce 42 11 3e 53 01 ba 3d 01 9b 9b bc
       0.027481625 0.1418564 0.09082284 -0.01899481
000230 47 36 be bc 7b 6d b3 3a b3 4e 0e be 12 19 db bd
       -0.02321924 0.0013689244 -0.13897209 -0.10698141
000240 d1 a6 29 3e 2d 09 83 3c c7 e5 9d 3c ee 4d a0 bd
       0.16567542 0.015995586 0.019274605 -0.07827364
000250 97 3e 4f be 95 f5 3d 3e c4 24 a9 3d 4b 5f 40 3e
       -0.2023872 0.18550713 0.082589656 0.18786351
000260 75 61 71 bd 02 67 dc bc 7d d4 33 3d 14 8c 10 3c
       -0.058930833 -0.026904587 0.043903816 0.00882246
000270 df 8e c7 3c c8 1c 4e 3d 1a 87 13 3e c0 46 25 be
       0.024360118 0.050320417 0.14407006 -0.1614027
000280 44 70 fb bd 82 a1 c1 3c bc 3a 8c bc a2 40 2b bd
       -0.12277272 0.023636583 -0.01711785 -0.041809686
000290 00 b1 09 be 93 94 60 be 73 67 e7 3d b1 5d 35 bb
       -0.13446426 -0.21931677 0.11299028 -0.0027674253
0002a0 4c 17 92 3e 9d 30 e5 bd b9 c6 74 bc 7e 14 0b bd
       0.285334 -0.11190913 -0.014939957 -0.03395509
0002b0 eb ba de 3d e5 e9 0c bd 0b a4 01 3e 6b a5 eb 3d
       0.108754955 -0.034402747 0.12660234 0.1150616
0002c0 e9 d6 cb 3c 0c 43 38 be 66 41 7b be 38 94 2f 3b
       0.02488275 -0.17994326 -0.24536666 0.0026791226
0002d0 06 34 8b bd c8 87 55 3d e4 6c dc 3d b3 55 93 bd
       -0.06797032 0.052131444 0.10762957 -0.0719408
0002e0 76 91 c1 bd 2b ef 96 bd d4 60 89 3d f7 5d 7e 3d
       -0.094515726 -0.073698364 0.067079216 0.06210133
0002f0 b1 5d cf bb 2f 28 09 3e 93 73 8d be 7c ac 19 be
       -0.0063283076 0.13394235 -0.2762724 -0.15007204
000300 70 e5 0f be 3b 88 60 3b bc 4e 1c be 40 ee fb bc
       -0.14052367 0.0034260887 -0.1526441 -0.030753255
000310 48 c2 d1 3d 00 45 54 3e d6 0d ea 3d 4a 5e 44 be
       0.10242134 0.20729446 0.1142842 -0.19176593
000320 db df 4e bd 2f 6c 10 be ca 4b 10 3e f5 c2 f5 3b
       -0.050506454 -0.14103769 0.14091411 0.0075000473
000330 d0 00 f3 bd b7 fc 8c ba c2 52 04 bb bd 53 dd bd
       -0.11865389 -0.0010756467 -0.002019093 -0.108069874
000340 3d 04 03 3d de bb 50 3e 05 86 f4 bd 2d b5 63 3e
       0.031986464 0.20384166 -0.11939625 0.22237082
000350 9d ad 45 be 83 bb 68 bd 61 d7 0d be 1a cf cb 3d
       -0.1930451 -0.05681945 -0.13851692 0.09951611
000360 12 a4 ce bd 2c 6c 76 bd eb 95 a4 bd 2e 65 8d 3d
       -0.10089888 -0.060161754 -0.08036407 0.06904064
000370 39 2c 90 bd 15 54 a3 3e ab 4b 6b 3e bc 32 d4 bd
       -0.07039685 0.31900087 0.22978084 -0.10361239
000380 e7 81 b8 bd 3a 2d 4f 3d 9d c8 d4 3d 62 1c 20 3d
       -0.09009152 0.05058024 0.103898264 0.039089568
000390 01 0a 45 bd 11 cd 3c 3e ab 13 07 be f8 fe 1a 3d
       -0.048105244 0.18437602 -0.13191096 0.037840813
0003a0 8b 4f 1a be 55 46 4c 3e 5f 87 f6 3c 29 82 34 3b
       -0.15069406 0.19948705 0.030093847 0.0027543402
0003b0 52 66 9b bd 83 cf 31 be 8b c5 c9 bd 42 77 15 be
       -0.075878754 -0.17364316 -0.098521315 -0.14596274
0003c0 a8 5d 22 3e 08 0c 18 be d8 62 57 be a1 0d dc bc
       0.1585604 -0.1484834 -0.210338 -0.026861968
0003d0 8c db 00 3e 67 a7 c0 3d 58 ac ec 3d 58 88 ef 3d
       0.1258375 0.094069295 0.115563095 0.116959274
0003e0 ae 81 bd 3d f7 34 a2 bd fb 32 2f 3e 29 bb 9f 3c
       0.0925325 -0.079202585 0.17109291 0.019498425
0003f0 83 c1 a2 3d 26 28 06 3e ae cc b0 3d a3 d3 ef bd
       0.07947066 0.13101253 0.086327896 -0.117102884

weight_hh_l0 f4 [480, 120]
000000 d9 53 ff bd 09 72 ba bc 18 9d b1 3a e0 28 64 be
       -0.124671645 -0.022759454 0.0013550846 -0.22281218
000010 06 a1 3b be 74 9c 4c 3e ce dd 92 be a3 ec 4c 3e
       -0.18323144 0.19981557 -0.2868485 0.20012145
000020 a6 8f 0f be 95 56 f9 bd 0d f2 3a 3d 2b 9e 84 be
       -0.14019641 -0.12174717 0.045640994 -0.25901923
000030 3b 84 04 3e d2 4a 02 3c 38 98 04 bf 11 d1 8e bd
       0.12941067 0.007952409 -0.5179477 -0.0697347
000040 c1 51 e6 bd 69 8c 86 be 3b 30 ea be 06 d7 3c 3e
       -0.11246062 -0.26279 -0.45739922 0.184414
000050 fb d9 bd bd 13 11 64 be fd bc b9 3d 5c 1e 66 3e
       -0.09270092 -0.22272138 0.0906925 0.22472519
000060 ce 55 83 3e a5 6b 45 3e 52 92 da 3c 6f 5c 8f 3e
       0.256514 0.19279344 0.0266811 0.2800021
000070 47 c7 87 3d bb 53 11 be 9d 2e ac 3e a2 e2 91 bd
       0.06629806 -0.14192097 0.33629313 -0.07123305
000080 c9 70 c2 bd 00 53 ed 3c 55 77 0e be 73 c6 5e be
       -0.09494168 0.028970242 -0.13912709 -0.2175539
000090 b7 11 71 be 53 6b 88 3e 84 7a 68 3e 79 0f 19 bd
       -0.23541914 0.26644382 0.22702986 -0.03736827
0000a0 a4 d6 e0 3a 29 bf 93 3d 4e fd 15 be 6d ba 88 be
       0.0017153812 0.07214195 -0.1464741 -0.26704732
0000b0 4b f7 d4 be fe dc 4e 3e de 3f e2 bd 52 73 aa bd
       -0.4159492 0.2020149 -0.11047338 -0.08322777
0000c0 77 a3 c2 bd b2 6b 24 3e 92 4f a2 bd e4 b9 af 3d
       -0.09503835 0.16056708 -0.07925333 0.08580378
0000d0 ed 50 32 3e e7 52 ff 3d 67 92 0a bf 8d 6f d4 3c
       0.17413683 0.12466984 -0.5412964 0.025932098
0000e0 e2 03 97 3e fe 0f e6 3d 29 98 8f 3d b5 37 35 3d
       0.2949515 0.11233519 0.07011444 0.04424258
0000f0 28 96 2f be 93 97 30 3e a5 f5 93 3e 5e 6b fe bc
       -0.17147124 0.17245321 0.2889835 -0.031057056
000100 b9 b4 2c be 19 d0 63 3e 7c c6 57 3e a7 53 ac be
       -0.16865815 0.22247352 0.2107181 -0.33657572
000110 95 2e 68 3e 7a 96 e1 3d 1c b9 36 be cc 17 63 bc
       0.2267402 0.11015029 -0.17844051 -0.013860654
000120 f7 22 ab be b1 68 bb be ed 7b 82 bd bd b1 10 bd
       -0.33425114 -0.3660331 -0.06371293 -0.035325754
000130 ba ce 98 bc 07 8f 13 3c 90 b5 34 3e 7d 56 f0 3d
       -0.018653262 0.009006268 0.17647386 0.11735246
000140 99 ad 14 be 15 7c 05 3c 5b ca 39 3e bc 53 84 be
       -0.14519347 0.008147259 0.18143599 -0.25845134
000150 12 1f 25 be 3f b9 10 3d 24 88 5a 3e 65 3e 2f be
       -0.16125134 0.035332914 0.21340996 -0.17113645
000160 8c 2b b6 bd 7f 19 b4 bd dd e7 e2 bb cc 5a 2b 3d
       -0.08895025 -0.087939255 -0.006924613 0.041834638
000170 54 99 fc bd 7d 0f 84 3d c3 9d 1f be 5d d8 2f 3e
       -0.123339325 0.06448267 -0.15587525 0.1717238
000180 60 fd 8e 3e 98 c3 1b be 7f af 54 bd 91 1b 00 be
       0.27927685 -0.15211332 -0.05192518 -0.12510516
000190 07 46 80 3e 9d 4f 21 3e e2 60 7d 3d 76 9c 51 be
       0.25053427 0.15753026 0.061859973 -0.20469841
0001a0 4c 15 5d 3e 6e c2 83 3e f6 f8 84 bd 33 ba b1 bd
       0.21590155 0.25734276 -0.06492798 -0.08678093
0001b0 58 10 07 3e 7c 76 77 3d de 07 4c bd ae 81 77 be
       0.13189828 0.06041573 -0.04981219 -0.24170563
0001c0 a6 e0 0e bf 95 db f1 bd af 3c 82 3e 4b e3 fb 3d
       -0.55811536 -0.1180946 0.25436923 0.12299212
0001d0 00 0b 82 3e cb 24 85 3d 5f 18 4f 3e 60 32 23 bb
       0.25399017 0.06501158 0.2022414 -0.0024901852
0001e0 30 25 a2 3c 82 57 b9 bd 55 06 3b 3e fe ab 25 3d
       0.019793123 -0.09049894 0.18264134 0.040447228
0001f0 23 46 83 3e fe 1f 3e 3b 85 92 0a be 60 20 1d bd
       0.25639448 0.0029010768 -0.13532455 -0.038360953
000200 e9 a9 ba bd 6c 84 a6 bc ac 81 cb 3c a5 18 97 bd
       -0.09114439 -0.020326816 0.024842106 -0.073777474
000210 7c ca 6e 3d 20 16 74 bd de 2a 21 3e b8 86 06 bd
       0.058298573 -0.059591413 0.15739009 -0.03284332
000220 f3 cf 51 be 84 2a de bd 1a f1 19 bd 46 81 18 3d
       -0.20489483 -0.10847953 -0.037583448 0.03723266
000230 23 41 1d be bf e8 ed 3c 2f c6 71 3d 7d 9f 13 bd
       -0.15356879 0.029041646 0.059026893 -0.03604077
000240 f9 6f b1 bc d2 37 30 3c 02 01 03 be 92 9d 39 bd
       -0.021659838 0.010755496 -0.12793353 -0.045316286
000250 04 72 6a bd b2 62 8d bd 24 1a 8d 3e 15 9e b0 bd
       -0.05723764 -0.0690359 0.27559006 -0.08623902
000260 35 60 d1 bd 69 c2 c4 bd bb 90 91 bd ff 6a 06 3c
       -0.10223428 -0.09607393 -0.07107683 0.008204221
000270 8f ef 87 37 4e 5f 82 3e a3 e8 25 3d 81 4e c0 3d
       1.6204807e-05 0.25463337 0.040505063 0.093899734
000280 a9 cb 80 3c e3 75 b3 3d 51 c6 dd bd 4a 7d 3f 3b
       0.015722113 0.087627195 -0.108288415 0.0029218965
000290 4a af 2e bd 04 56 d0 3c af a3 e6 3c 9c 36 da bd
       -0.042647637 0.02543164 0.028154222 -0.10654947
0002a0 41 37 bf bd 18 a1 eb bc 0a b1 c6 3c aa 35 73 3d
       -0.09336711 -0.028763339 0.02425434 0.05937735
0002b0 1c c6 7d 3d 72 e2 b9 3c 00 18 07 bd 62 ba dd 3d
       0.06195651 0.022690985 -0.032981873 0.10826565
0002c0 da 6e 7c bc 3d b7 08 3e dd 65 1d 3d f4 71 b9 3d
       -0.015407288 0.1335115 0.038427223 0.09054938
0002d0 3f 92 fb bd f0 fc a0 3d 50 30 56 3d 4f 2f 6b 3d
       -0.122837536 0.07860744 0.05229217 0.057418164
0002e0 1c a5 93 bd e5 27 5b bc e7 af 8a bd f2 eb b8 bd
       -0.072092265 -0.013376211 -0.06771832 -0.09029378
0002f0 c9 02 94 3d fb ab 2a bd ca 12 bb bd b2 d3 a0 3d
       0.07227094 -0.04166792 -0.09134443 0.07852878
000300 c4 dc d9 3d 1a 40 a4 3e 69 19 96 bd ac 3c 8b bd
       0.10637811 0.32080156 -0.07329065 -0.067986816
000310 be 72 e3 bd 33 29 29 3e 72 65 0e bd d7 cc 3f 3c
       -0.1110587 0.16519623 -0.034764715 0.0117065525
000320 98 ee 57 3b bf 27 b4 3d 5b 45 71 3d 57 a6 14 bd
       0.003294861 0.087966435 0.058904033 -0.036291447
000330 dc 81 ac bd 2f 88 1d 3e a3 27 0b bc 1a 4f 26 bd
       -0.08423206 0.15383981 -0.008493337 -0.04060278
000340 21 bd e9 3d 01 a4 c2 3d e5 ed 10 be db 66 38 bd
       0.114130266 0.095039375 -0.1415325 -0.045019966
000350 a6 35 f5 3b dd ef 35 bc 96 fb 2c bd c4 93 85 bd
       0.007483202 -0.011104551 -0.04223212 -0.06522325
000360 b4 e8 34 be 27 70 d1 3c b5 8b 07 3c 94 5a b0 bd
       -0.17666894 0.025566174 0.008273055 -0.086110264
000370 77 6d d1 3d ad c7 88 3d 6a 27 9e 3e 33 c8 83 3d
       0.10225957 0.0667871 0.30889446 0.06434669
000380 33 06 1a 3e d6 17 b2 bd 63 08 15 be a9 68 5a be
       0.15041427 -0.086959526 -0.1455398 -0.21328987
000390 30 3f 70 3d 3c d0 33 3d 06 ff ef bd 50 da 5a be
       0.05865401 0.04389976 -0.11718564 -0.21372342
0003a0 f6 82 aa 3c a9 bc c8 bd c7 f5 71 3d 3e 88 d1 3d
       0.0208144 -0.09801609 0.059072282 0.10231064
0003b0 27 f1 06 3e bc 40 8b 3d 39 7e 44 3c 85 31 d3 3c
       0.1317793 0.067994565 0.011992984 0.025780449
0003c0 ed 66 1e be f4 bb 0c bd 1e 20 a0 3e 9e cb 0c 3e
       -0.1546895 -0.034358934 0.31274503 0.13749549
0003d0 1d c8 95 3d 21 50 ce 3c 20 6e 70 bd dc 38 a0 3d
       0.07313559 0.025184693 -0.058698773 0.07823345
0003e0 26 2a 72 3e 02 cd 8c 3c e3 eb c5 bd 65 2e 29 3e
       0.23648891 0.0171876 -0.096641324 0.16521604
0003f0 ab e0 08 be 42 88 3c be ed 84 d5 3c 85 df 0e be
       -0.13366954 -0.18411353 0.02606436 -0.13952453

bias_ih_l0 f4 [480]
000000 f5 75 27 bd b1 1e 15 be 14 75 28 be 60 24 c2 bd
       -0.040883977 -0.14562489 -0.16450912 -0.09479594
000010 82 03 94 3c da fd 16 3c 5e 38 14 3d e8 b3 8a bc
       0.018068079 0.009215796 0.03618657 -0.01693149
000020 ee 7e 36 bd 7f 79 e2 bd a2 8d 40 be c6 a0 48 bd
       -0.044554643 -0.1105833 -0.18804029 -0.04898145
000030 1a ba ae bd 10 05 de bd d4 ca 0c be 20 51 0f be
       -0.0853159 -0.10840809 -0.13749248 -0.1399579
000040 bc 46 36 bd 9c c9 ac bd 21 78 c6 3d 8d ab c3 3d
       -0.04450105 -0.084368914 0.096908815 0.09554205
000050 43 3f 1f be 8d cb 41 bd 72 17 76 bc 51 ae 16 be
       -0.15551476 -0.04731326 -0.015020238 -0.14714934
000060 7d 9a 13 be 26 ec 1c bd 29 62 5a bd ec 9a c2 3c
       -0.14414401 -0.038311146 -0.05331627 0.023755513
000070 cf 19 e5 bc b9 72 89 be 38 a9 fc 3c ca cb 31 be
       -0.027966408 -0.2684534 0.030842409 -0.17362896
000080 d0 52 ac bd f4 b6 88 bd f9 07 a3 bd d7 8d 39 be
       -0.08414233 -0.066755205 -0.07960505 -0.18120514
000090 c1 56 6d bd ca 85 d6 bd a2 ba ba bd d4 fd 21 be
       -0.057944063 -0.10474737 -0.09117629 -0.15819484
0000a0 8a 24 26 bd 2d 5d c9 3b 64 85 2c be 5a 49 c6 bd
       -0.04056219 0.0061451406 -0.1684776 -0.096819595
0000b0 50 86 05 3d 67 dc ce 3d bd 68 0a be 9a dc c4 bd
       0.032598794 0.10100632 -0.13516517 -0.09612389
0000c0 b9 04 99 be c3 da 3a bd fb 65 a0 bd 02 9d 6d bd
       -0.29886416 -0.045618784 -0.07831951 -0.058011062
0000d0 b0 2b 19 bd 96 89 31 be df 3a 86 3c f2 e3 d9 bd
       -0.03739518 -0.17337641 0.016385494 -0.1063918
0000e0 78 5d f5 bd 6c cc d9 bd 07 3e a7 bd 77 b5 60 bd
       -0.119807184 -0.106346935 -0.08166128 -0.05486056
0000f0 c5 b2 57 bc cb 01 f0 bd e8 43 4c bd bf de e5 bd
       -0.013165181 -0.11719092 -0.049869448 -0.11224126
000100 72 bd 6d bc 54 da 36 be 53 bb 33 bb 93 28 a9 be
       -0.014510499 -0.17856723 -0.0027424886 -0.33038768
000110 88 a6 58 bd b4 ee 84 bd b7 5e 11 be b3 a0 05 be
       -0.05289319 -0.064908415 -0.14196287 -0.13049583
000120 6c aa 20 bd 59 44 d0 bd 14 eb 3b be 90 8a b0 bd
       -0.039225027 -0.10169286 -0.18351394 -0.08620179
000130 e5 06 bc bd b1 52 fa bd 06 ad 52 bd d6 af 3e be
       -0.091810025 -0.122228034 -0.05143454 -0.18621764
000140 b0 7a 1b 39 b3 17 48 3d 11 9e 3f 3d 7c 7c df 3c
       0.00014827657 0.048850726 0.046781603 0.027281038
000150 c6 4f ff bd 07 17 fe 3d 00 0f 91 bd 1e ad 53 bd
       -0.124663875 0.12406736 -0.07082939 -0.05167877
000160 42 a3 f0 bc 53 fe d1 bd 61 cd cd bd 8c 3f 4e bc
       -0.029374722 -0.102535866 -0.100489385 -0.012588393
000170 a8 db 8a 3c ac 2b 43 3d dc e5 2e be 90 96 f2 bd
       0.016950443 0.04764907 -0.17079872 -0.11845124
000180 2a be 10 bd 66 3b 0c be 03 1c d5 bd ae 83 86 be
       -0.035337605 -0.13694534 -0.104057334 -0.2627234
000190 a5 cb 77 3d 41 51 7f bd 50 50 11 be dc d5 4a be
       0.060496945 -0.06233335 -0.14190793 -0.19808143
0001a0 6d ab de bd 4e e7 2d 3c 31 d8 b5 3d ba cf 21 bc
       -0.108725406 0.010614229 0.08879126 -0.009876186
0001b0 c1 28 5f be cb cd d1 bd f1 60 68 be e3 34 f9 bd
       -0.2179289 -0.1024433 -0.2269323 -0.121682905
0001c0 e2 2b 2c be e6 db 54 bd a2 d3 b4 bd 84 fb 84 bd
       -0.16813615 -0.051967524 -0.08829428 -0.06493285
0001d0 ff 9a 36 be 1b a9 9f bd 1b de b3 3b aa 24 98 be
       -0.17832564 -0.07795926 0.0054891235 -0.29715472
0001e0 8f 72 e6 3c 09 57 c1 3a ee 7a b3 3d 02 61 58 3d
       0.028130798 0.001475067 0.08763681 0.05282689
0001f0 d0 5d 8c bd 7c ae 8b 3c 1d 48 98 bc 23 d8 31 3e
       -0.06853831 0.017050974 -0.018589074 0.17367606
000200 17 c2 03 bd a3 4f dd bd d4 fa 31 3e 78 85 a2 bc
       -0.03216752 -0.10806205 0.1738084 -0.019839033
000210 2b 52 f5 3d 99 ac 7c 3d 20 08 6d 3e 95 6f 5d 3d
       0.11978563 0.06168804 0.2314763 0.05406149
000220 0c c0 35 3d 5a 9d 0c 3d 57 82 9d 3c 8a 95 fe bb
       0.044372603 0.03432975 0.01922719 -0.0077692913
000230 7a 52 80 bc f1 6e e4 bd b8 b0 3c bd 0f a3 29 bd
       -0.015664328 -0.11153973 -0.04606697 -0.04141527
000240 4b dc 3b bd 14 49 e3 3c dc 7c 00 be f6 f7 d7 3d
       -0.045864385 0.027744807 -0.1254763 0.10545342
000250 d2 ca d1 3d e2 ed 11 be df 4e b4 3d 4a d6 9a 3d
       0.10243763 -0.14250901 0.08804106 0.07560404
000260 cb 6c 29 bd 46 b8 f7 3d fd c3 eb bc d5 60 76 bd
       -0.04136352 0.12095694 -0.028779978 -0.06015094
000270 02 42 4f 3d b9 cb 18 bd 0b 6a 9e bd 99 ec 11 3e
       0.05060006 -0.03730366 -0.0773507 0.14250411
000280 65 26 d1 3d 38 e2 32 3e 31 f6 17 bd d4 d4 36 bc
       0.10212401 0.17469108 -0.03710002 -0.011159141
000290 d0 d3 76 bd 23 61 cd 3d f3 bb 1a bd 6e 36 39 3e
       -0.060260594 0.10028293 -0.0377769 0.1808717
0002a0 4e e8 fb bb fa 3a cd 3d 3c 7b 92 bc 73 1a 0b bd
       -0.007687605 0.100210145 -0.017881028 -0.03396077
0002b0 63 e6 8f 3c c2 3e ba bd e3 32 c8 bc 4a 0e 4d bd
       0.017565912 -0.09094001 -0.024438327 -0.050062455
0002c0 62 ac 09 bc 62 1c a1 bc 96 d7 1d 3d 2f 18 fa bd
       -0.008402916 -0.019666854 0.038535677 -0.12211644
0002d0 7a 1d f2 3c f1 d5 37 bc 3c a9 98 3d de 94 23 bc
       0.029555071 -0.011220441 0.07454154 -0.009984223
0002e0 1e d2 89 3d de 48 aa bc 5c 2e b3 3b ef 82 2a bc
       0.0672953 -0.020786699 0.005468173 -0.010407194
0002f0 c4 a5 33 3d e3 69 cd 3d c9 b7 10 3e bb a3 23 3e
       0.04385926 0.10029962 0.14132608 0.15980427
000300 e2 77 1f 3e 8a d4 53 3e ef 17 51 3d 07 63 5e bd
       0.15573075 0.20686546 0.051048215 -0.05429366
000310 b6 e7 3b 3d 75 09 fa bd b5 ae 25 be 68 f0 a6 bc
       0.045875274 -0.12208835 -0.16179927 -0.020378307
000320 ec 69 ef bd 39 dd 7d 3d 9e 77 dd 3c 58 98 92 3d
       -0.11690125 0.061978552 0.027034577 0.071579635
000330 71 0b cc 3c 6d 30 e2 3c c6 e3 0d 3d 28 e2 cc bc
       0.0249078 0.027610982 0.03464105 -0.025010183
000340 f7 70 08 3e f7 b7 b7 3d 41 54 59 3c e1 ea 03 3e
       0.13324343 0.089706354 0.013264717 0.12882568
000350 3e f0 b5 3d 33 72 9f ba e1 d0 fd 3d 23 b7 72 3d
       0.08883713 -0.0012164771 0.12393356 0.059256684
000360 9d 68 04 3e d4 a1 71 3d 28 f3 55 3c 63 86 27 3e
       0.12930532 0.058992222 0.013058461 0.16359858
000370 39 88 24 bd 14 72 3a bd d8 e6 84 3d 24 a1 9e bd
       -0.040168975 -0.04551895 0.064893425 -0.07745579
000380 95 b2 7b 3d 98 f8 cc 3c 6d 31 af 3d f4 40 45 3c
       0.061449606 0.025020882 0.08554349 0.012039412
000390 6b 62 da 3d 7f 25 a8 3d 74 d6 2b be 03 4d d3 3d
       0.10663303 0.08210277 -0.16781026 0.10317423
0003a0 35 14 55 bc 16 c7 46 bd 40 e6 e6 bd c2 f5 af bc
       -0.013005306 -0.048529707 -0.112743855 -0.021479491
0003b0 f4 c4 c4 3c 40 72 3f be fd 1b d2 3d 55 36 dc 3d
       0.024019696 -0.18695927 0.102592446 0.107525505
0003c0 bf 3b 02 be 93 c2 84 bd 5d 06 d5 bd 17 0f 29 bd
       -0.12718104 -0.064824246 -0.10401604 -0.041274156
0003d0 e8 4b 31 be 0b 47 94 3d 98 62 2a 3e 05 0c ec 3c
       -0.17314112 0.07240113 0.16639173 0.028814325
0003e0 ca 73 06 3e ca 57 8f bd ac e7 99 3c cb d6 be 3c
       0.13130108 -0.06999166 0.018787228 0.02329578
0003f0 ee 07 87 bb a8 b9 8d bd ea a9 aa bd 59 a0 57 bd
       -0.0041208183 -0.06920177 -0.0833319 -0.052643154
