saved_models/ae_mnist/epoch=0_bestloss=inf.pt (torch_old, 46391 bytes, 12 tensors)

weight_ih_l0 f4 [60, 28]
000000 82 5b 0e be b0 93 6d 3e 0e 14 51 3e 0d 51 52 3e
       -0.13902095 0.2320087 0.20417807 0.20538731
000010 e9 15 4e 3e 71 b8 32 be 68 bb ee 3d c5 cd 34 be
       0.20125546 -0.17453171 0.11656839 -0.1765662
000020 11 87 25 be d6 ed 40 bd 16 ee de bd e9 d0 7b 3e
       -0.16164805 -0.047101818 -0.10885255 0.24591412
000030 7c 32 5f 3d 4d cb 9e 3d ba b7 04 3d 23 87 21 3e
       0.054491505 0.0775362 0.032401778 0.15774207
000040 6a 82 80 3e 52 31 24 be bf 8a 5b 3e d0 d6 46 3e
       0.25099498 -0.16034439 0.21439646 0.19417882
000050 3e c5 5d be c2 b3 76 be 4e 0b 44 3e ed 9c f9 bd
       -0.21657273 -0.2409201 0.19144937 -0.12188134
000060 c2 8b fa bd f5 f3 3f 3e 40 be 3d 3e 44 fc a7 3d
       -0.12233688 0.18745406 0.18529606 0.08202413
000070 f8 dd 60 be 60 b2 f1 3c 80 3b 7c be be ba 84 3d
       -0.21959674 0.029504001 -0.24632072 0.06480931
000080 0e 37 d6 3d f4 b3 21 be bd e1 1a 3e 61 e5 80 3e
       0.104597196 -0.15791303 0.15125175 0.25175002
000090 1e 4a 22 be 5b e1 67 3d 79 c9 36 3e a9 24 93 3d
       -0.15848586 0.0566114 0.17850293 0.07184727
0000a0 4a b0 32 bd 87 cc 70 be f8 46 1c be f1 5e 4d be
       -0.043625154 -0.23515521 -0.15261447 -0.20055749
0000b0 12 6a e0 3c 0c d9 5c be 49 4a 6b be 1b 2c d8 bd
       0.027394328 -0.21567172 -0.22977556 -0.105552875
0000c0 9c ba 73 bd 10 b4 fe bd 06 e0 0d 3c 3e 4a bc 3c
       -0.059504136 -0.12436688 0.008659368 0.02298462
0000d0 c2 03 fe bd 17 1d 3f 3d f0 56 3f 3d 46 74 11 3e
       -0.124030605 0.0466586 0.04671377 0.14204511
0000e0 00 9e ab 3d 94 d0 45 be da c7 b7 bd 3f 1b cc bc
       0.083797455 -0.19317847 -0.089736655 -0.024915336
0000f0 21 d9 5a 3e dd 1f 48 3d 5d 72 41 be 41 ce 0c be
       0.2137189 0.048858512 -0.18891282 -0.13750555
000100 fe 2c 1b 3e 74 8d 99 bd 7a dd d2 bd 84 fc 67 3e
       0.15153882 -0.07497683 -0.102961496 0.22654921
000110 60 a9 b6 bd e6 8b 5f 3e 14 18 82 3e d8 a2 db bb
       -0.089190245 0.21830711 0.25408995 -0.006702762
000120 34 3c 0f bd 6c 06 5f be e5 ad a0 bd 0a 53 7b ba
       -0.034969524 -0.21779794 -0.07845668 -0.0009587264
000130 30 05 13 3e dd f0 72 3e e5 84 81 3e 15 74 0d 3d
       0.14357448 0.23724695 0.25296703 0.034534533
000140 93 fd 6d be 5e e4 14 3e 1c 3a c7 3d c0 0a e8 bd
       -0.23241262 0.1454024 0.0972788 -0.113301754
000150 44 34 a7 3d e0 d4 4e bd 64 34 fc 3d 00 d6 48 be
       0.08164266 -0.050495982 0.1231468 -0.19612885
000160 c5 9b de 3d 56 23 a9 3d ee b4 fa 3d 9a cd 5b 3e
       0.108695544 0.08258693 0.12241541 0.2146515
000170 f5 05 3b be 0d e1 8d 3d b1 bf a4 3d 98 32 98 3d
       -0.18263991 0.06927691 0.08044375 0.07431525
000180 1e eb f7 bc c6 94 09 3d 50 77 5a be 85 cc 5f be
       -0.03026348 0.033589147 -0.21334577 -0.21855362
000190 fe b0 f3 3d 25 ec ed bd 06 ad fa 3d bd 05 88 bd
       0.11898993 -0.116173066 0.12240033 -0.066417195
0001a0 e0 5d d5 bc 1e fe 80 be ea b5 5c 3e 15 ff 09 3e
       -0.02604574 -0.25193876 0.2155377 0.13476212
0001b0 e7 43 00 3e b1 96 11 3e 16 b4 7e be 86 15 bc bd
       0.12525903 0.1421764 -0.24873385 -0.09183793
0001c0 68 92 a9 bc 04 c8 2c 3e 24 1c 57 3e be af 88 3d
       -0.020699695 0.16873175 0.21006829 0.06674145
0001d0 f8 47 b4 bc ea da dd bd 30 b0 83 bd 3b 5c 31 3e
       -0.022006974 -0.1083277 -0.064300895 0.1732034
0001e0 4d d5 6a bc 5c 73 a8 3d 72 8a 5c be ce e1 45 be
       -0.014333081 0.08225128 -0.21537188 -0.19324419
0001f0 09 7c b5 3d f2 64 3d be c7 78 3b be a7 2a 08 3e
       0.088615485 -0.18495539 -0.18307792 0.1329752
000200 fd a0 6f 3e 9b 08 36 3d b3 da 25 be 69 af fb 3d
       0.23401256 0.0444418 -0.16196708 0.12289316
000210 0e 75 98 bd 60 56 c3 bd 5d 87 c1 3c 7d 14 43 3e
       -0.074442014 -0.09537959 0.023624117 0.19050784
000220 d8 d6 0e 3e 90 ab 8a 3d f4 b6 3b be 8e 30 0f be
       0.13949144 0.06771004 -0.1833151 -0.13983366
000230 80 b3 86 bb 3a 8e f1 bd 80 8d 19 3e b8 ce 42 be
       -0.0041107535 -0.11794706 0.14995384 -0.1902417
000240 f0 85 44 be 7c f8 7e 3e 31 80 08 3d d4 b9 29 3d
       -0.19191718 0.24899477 0.033325378 0.041436985
000250 f1 f0 71 be 63 05 41 be bb 7a 15 3e 90 3f 4f 3e
       -0.23627068 -0.18849711 0.14597599 0.20239091
000260 b0 11 d4 3c 1a 09 fe 3d 82 30 23 3e 67 c9 a6 bd
       0.02588734 0.1240408 0.15936473 -0.08143883
000270 0c 2b 32 be 2c 3b dd bd 30 97 81 be c7 02 e6 bb
       -0.17399234 -0.10802302 -0.2531066 -0.007019374
000280 19 43 3e be c7 2a c6 3b ea cf dc bd 6c 67 cd 3c
       -0.18580283 0.00604758 -0.10781844 0.02507373
000290 76 19 86 3d b3 6b 5b bc b9 26 7e be 30 e1 49 bd
       0.06547825 -0.013392377 -0.24819459 -0.04928702
0002a0 08 35 a6 3d d2 c5 1d be c0 91 ad bd 56 fd 09 3e
       0.08115584 -0.15407494 -0.08475065 0.13475546
0002b0 7a 90 ba 3d 19 0d 02 be 46 bc a0 3d 7f 9c 7c 3e
       0.09109588 -0.12700309 0.0784841 0.24669074
0002c0 4b c4 47 3e ea d2 11 3b 3d 32 50 be d7 90 7f 3e
       0.19508474 0.0022250959 -0.20331664 0.24957596
0002d0 49 73 00 be 34 f3 e4 bd 8e f1 8f 3d 70 48 2d bd
       -0.12543978 -0.111792 0.07028495 -0.04230541
0002e0 ec 4e 7d 3d 64 34 d1 3d f0 d6 fc bd df 7c cc 3d
       0.061842844 0.10215071 -0.123456836 0.09984755
0002f0 51 b6 3d 3e 50 25 1d be 7f 42 89 bd 25 ac db 3d
       0.1852658 -0.15346265 -0.06702136 0.10726193
000300 6c ac 6c 3e 50 24 6f bc 9a 5f 18 3e b8 50 8b bd
       0.23112649 -0.01459606 0.14880219 -0.06802505
000310 00 dc 0a 3a cb e7 6b be 64 31 2a be 41 2b 97 3c
       0.0005297065 -0.23037641 -0.16620404 0.018453242
000320 31 96 15 be 3c 5c 3c 3e b6 51 92 bd e8 30 7f bd
       -0.14608075 0.1839456 -0.071444914 -0.0623025
000330 a0 36 78 be 0c 68 6f be 48 80 ae bd b5 15 54 3e
       -0.24239588 -0.23379534 -0.085205615 0.20711406
000340 53 04 7a be 7d 80 17 3e 74 4c 82 3e 13 99 ab bd
       -0.24415712 0.14795108 0.25448954 -0.08378806
000350 6a 1d 0b be 5e 85 6e be d8 e9 d9 3d 20 d5 80 be
       -0.1358544 -0.23293063 0.10640305 -0.251626
000360 50 45 3e be 9a 56 bf bd 0b b3 28 be dc 8b 80 be
       -0.18581128 -0.0934269 -0.1647455 -0.25106704
000370 3b fb 73 3d c6 a8 1a 3e 30 11 f9 3d 30 3b ec 3d
       0.059565764 0.15103444 0.121614814 0.115347266
000380 2e 78 19 3e 3c ab 73 bd 34 e7 13 be 30 ef f4 bc
       0.14987251 -0.059489474 -0.14443666 -0.02989921
000390 f1 81 7b bd 09 f6 ff bc 4b 7e 0f be 9f eb cf 3d
       -0.06140322 -0.031245248 -0.1401302 0.10152363
0003a0 f2 55 20 be c9 63 14 3e f4 71 44 3d 05 a6 59 3e
       -0.15657786 0.1449119 0.047960237 0.21254738
0003b0 a5 4e 3c be 3c 53 60 3e 10 80 96 3d 0d e8 0e 3d
       -0.18389376 0.21906751 0.07348645 0.03488927
0003c0 e5 ed 7a 3e 37 7b 48 3e 29 19 85 bd 59 b2 44 3e
       0.24504812 0.19578253 -0.064989395 0.19208659
0003d0 8d d1 2f 3e 63 2b d4 bd 9f 6b 6f 3e c5 a7 81 3e
       0.17169781 -0.10359838 0.23380898 0.2532331
0003e0 79 16 7d be 2b b6 01 3e b6 1a 42 3e 11 a1 83 be
       -0.24715604 0.12667148 0.18955502 -0.2570882
0003f0 08 a5 c1 3d d0 2d 29 be 74 0b 95 3d 0c f1 1e 3e
       0.09455305 -0.16521382 0.07277575 0.1552164

weight_hh_l0 f4 [60, 15]
000000 2a c4 63 3e 82 ac d4 bd 5e f4 ea 3d 27 dd 97 3d
       0.222428 -0.10384466 0.114723906 0.07415228
000010 05 74 00 3e 09 1a 1c 3e 06 3d 80 3e 49 88 18 3d
       0.12544258 0.15244307 0.25046557 0.037239347
000020 03 13 2f 3e ab e3 5a 3e e2 1b 7f 3e ed 2f 71 3e
       0.17097096 0.21375911 0.2491298 0.23553438
000030 95 a0 66 3d 12 38 ba bd 16 8a b4 3d 1b c0 ce bd
       0.056305487 -0.09092726 0.088154 -0.10095235
000040 34 b3 58 be b5 a6 95 3d 19 8d 4d be 6a 79 10 3e
       -0.2116211 0.073071875 -0.20073356 0.14108816
000050 d5 8d d8 bd 64 94 b8 bd d8 38 3b be 5f 8b 02 be
       -0.10573927 -0.09012678 -0.18283403 -0.12748478
000060 ab d8 53 be 5e 55 01 be 0e 57 0e 3e bd b9 2b 3e
       -0.20688121 -0.12630221 0.13900396 0.16770072
000070 6c b7 c4 bc 9e 59 4c 3e 60 5f b4 bd d1 08 2f be
       -0.024013244 0.19956061 -0.08807254 -0.17093207
000080 86 dc 08 be 75 49 97 bc 1c 24 dd 3d f0 ab 39 3e
       -0.13365373 -0.018467644 0.10797903 0.18131995
000090 71 53 88 3d e2 d0 eb 3d 1a 64 ae 3d 44 71 d3 3d
       0.0665654 0.115144506 0.085151866 0.10324338
0000a0 28 bf 17 be a7 31 03 be ae 55 35 bc 38 27 6e bd
       -0.14819014 -0.1281191 -0.011067791 -0.05814287
0000b0 81 44 3c be 91 03 30 bd a1 5c 31 3e f8 8d 3a be
       -0.18385507 -0.04297215 0.17320491 -0.1821822
0000c0 e5 15 dd 3d 6d 86 db bd 8b 1a dc 3d 04 80 c6 bd
       0.10795192 -0.10718999 0.1074725 -0.09692386
0000d0 6a 20 73 3e 4f fe 1f be e5 c3 77 be ef 71 84 be
       0.23742834 -0.15624355 -0.24195822 -0.25868174
0000e0 a1 01 82 bd e6 ea e0 bc 7b c8 9e 3c e0 db 14 3e
       -0.06347967 -0.027455758 0.019382706 0.14537
0000f0 9c d9 40 3e 57 bf 09 3e df f9 21 3d b8 11 6d 3d
       0.18833011 0.13451897 0.039544936 0.057878226
000100 4f 38 f9 bb 40 f8 5d bc 9f 6a 57 3e 36 4a 4a 3e
       -0.0076055895 -0.013547957 0.21036766 0.19754872
000110 bb 54 30 3e 58 3b 11 3e d0 ef cb 3d 25 02 c2 bd
       0.17219822 0.14182794 0.0995785 -0.09473065
000120 63 e0 d5 bd f7 09 05 be 7a fd 32 be ff 3e eb bd
       -0.10443189 -0.12992083 -0.17479506 -0.11486625
000130 10 ac 3a be f8 c9 6c 3e 30 9e eb bc bc 28 af 3d
       -0.18229699 0.2312392 -0.028761953 0.08552691
000140 34 d9 7b 3e 8a 27 59 3e ea 21 92 bc 5a e8 67 bd
       0.24594575 0.21206489 -0.017838437 -0.056618072
000150 a3 0f 71 3e 0e 28 20 3e 79 3e 51 3e 82 da 81 3e
       0.23541121 0.1564028 0.20433988 0.2536202
000160 d6 e6 55 be d9 ae 73 3e 8c 75 e4 3d b4 10 0d 3e
       -0.20888838 0.23797168 0.11155233 0.13775903
000170 c1 55 48 be 1f 3b 91 3d 96 e8 02 bd ff 2a 03 be
       -0.19563963 0.070913546 -0.031960092 -0.1280937
000180 c1 96 84 3e df b0 79 be 2d be 07 3e c8 68 c2 bd
       0.25896266 -0.24383877 0.1325614 -0.09492642
000190 6e 0a a9 bc 36 b2 04 3e 37 27 24 3e 54 76 6c be
       -0.020634856 0.12958607 0.16030584 -0.23092014
0001a0 51 3b e7 bd 59 13 4f 3e 05 98 72 3e 79 ac a5 bd
       -0.112906106 0.20222224 0.23690803 -0.08089537
0001b0 15 b3 a1 bc 4b 52 1d be 48 7e 73 3d 9b 14 f6 3d
       -0.019738713 -0.15363424 0.059446603 0.12015649
0001c0 48 f0 6f be d1 ce 1c 3e a3 3e ee 3d c1 07 4c be
       -0.23431504 0.15313269 0.11633041 -0.19924833
0001d0 cb f8 03 3e 37 03 c7 3b 96 6b 4d bd f1 19 d2 3d
       0.12887876 0.0060733813 -0.05015143 0.10258854
0001e0 da bb 51 3e 89 11 97 3c e9 d0 4b 3e 31 6f 60 bd
       0.20481816 0.018440979 0.19903912 -0.05479354
0001f0 09 6f c1 bd ef aa 66 bd 8e 5c 04 ba f4 4e 5a 3b
       -0.094450064 -0.05631536 -0.0005049192 0.003331122
000200 2a 12 91 3d 3a 7b 55 3e fa 94 f6 bd 50 67 4f be
       0.07083543 0.20847788 -0.12040134 -0.20254254
000210 07 83 a6 bd 17 87 2b be 52 e8 03 3e 23 96 12 3d
       -0.0813046 -0.16750751 0.12881592 0.035787713
000220 ea cd b2 3d 00 f9 34 3e e1 a0 bc 3d c5 6c 5e be
       0.08730681 0.17673111 0.09210373 -0.2172118
000230 ff cc b6 3d 62 c4 6b be d5 4c 0b 3e 53 ac 26 be
       0.08925819 -0.23024133 0.13603528 -0.16276674
000240 a9 cd 2d bd d0 ef 0f 3e 5f 3e 44 3e 0a d6 57 3e
       -0.04243246 0.14056325 0.19164418 0.21077743
000250 44 73 6d 3e 2b ff 0b 3e 74 fb 8c 3c 3c a9 70 be
       0.23188502 0.13671558 0.017209746 -0.23502058
000260 7f 68 20 3d aa dc ab 3d f4 2c 1e 3e 9c 0e 8d 3d
       0.039162155 0.08391698 0.15446836 0.06887552
000270 20 85 82 bc e2 f0 42 3e 5e f2 09 3c 82 64 b9 3c
       -0.01593262 0.19037202 0.008419601 0.022630934
000280 1e 4c 25 bb 45 1d 83 3e df 19 a7 bc 8a a9 97 bb
       -0.0025222371 0.25608268 -0.020398078 -0.004628365
000290 82 21 5f be 6f 8a b8 bd ca c0 a7 bd 64 75 42 bd
       -0.21790126 -0.09010779 -0.081910685 -0.047475234
0002a0 79 d1 14 3d cd d1 20 be 09 98 26 be d9 43 48 3e
       0.03633258 -0.15705033 -0.16268934 0.19557132
0002b0 f0 ff 15 3e 93 cb 30 3e b3 58 8b 3d e0 ec 82 be
       0.14648414 0.17265157 0.068040274 -0.25571346
0002c0 7f 86 43 3d d1 52 61 be 10 1d 3c 3c 1a d2 80 3e
       0.047735687 -0.22004248 0.011481538 0.25160295
0002d0 28 7f 81 bc 50 0d 76 be 76 87 81 be 49 b7 ef 3d
       -0.015807703 -0.24028516 -0.2529866 0.11704881
0002e0 2e 4c ed bd 35 4e d0 bd d1 4b 11 bd 6c 1f 96 3d
       -0.11586796 -0.10171167 -0.035472695 0.07330212
0002f0 d6 dd 1c be 8b d3 78 3e d8 90 3f be 58 22 b9 bd
       -0.15318999 0.24299447 -0.18707597 -0.09039754
000300 0b 4e 75 be 16 ac 53 3e 46 25 70 be 41 c8 6c be
       -0.23955552 0.20671114 -0.23451719 -0.23123266
000310 1e 59 b6 bd 88 e7 06 3d 27 7c 5f 3d bd 6f c5 bc
       -0.089037165 0.03293565 0.05456176 -0.024101133
000320 41 b8 44 bd 59 10 59 bc 3e b9 cf bd 0c c6 3d be
       -0.04802728 -0.0132485265 -0.10142754 -0.1853258
000330 ad 3c 70 be 69 47 66 bd 92 8f 5f 3e 8f 80 59 be
       -0.23460646 -0.056220446 0.21832111 -0.21240447
000340 95 6e 17 3e 09 31 f5 3d f3 c4 44 bd b2 7c 05 3e
       0.14788277 0.11972243 -0.048039388 0.13035849
000350 2d e4 7e be 8a d6 29 be 74 e5 57 3c 05 2c eb 3d
       -0.2489173 -0.16585746 0.0131772645 0.114830054
000360 3b ec ac 3d 64 d0 68 3d a5 68 84 bd 00 6c 7a 3d
       0.08443495 0.05683936 -0.06465272 0.061138153
000370 91 9d 60 3e 8e 88 5a bd d8 88 7c bd bc fd 4f be
       0.21935107 -0.053352885 -0.061653942 -0.20311636
000380 f4 fe 7a be 6d 60 75 3e 1e 7c cc bd fc 5e 1f 3e
       -0.2451132 0.23962565 -0.09984611 0.15563577
000390 7f fb 15 be 5f 2d 6c 3e d1 6e 1d 3e cf db 4e be
       -0.1464672 0.23064183 0.15374304 -0.20201038
0003a0 c4 79 e5 3d a1 8a 56 be 6c 9f 2d 3e 16 aa 61 3e
       0.112048656 -0.2095132 0.16955346 0.22037539
0003b0 44 f6 5a be c5 b7 ee ba c5 be ab 3d a1 de b6 bc
       -0.21383005 -0.0018212727 0.08385996 -0.022322955
0003c0 21 93 80 be 5f 07 0c 3e e8 4c 21 3e 98 57 7e be
       -0.2511225 0.13674687 0.15751994 -0.24838102
0003d0 88 c0 d9 3d db dc 0f 3e fd 3c 3a be 05 68 e8 bd
       0.106324255 0.14049093 -0.18187328 -0.11347965
0003e0 9a 33 d9 bc 1e 06 74 be 36 f9 38 be 08 42 ab bd
       -0.026513863 -0.23830459 -0.18063816 -0.08362204
0003f0 79 de 25 be af 2b 1d 3e 13 ae 3c be e9 d6 01 3e
       -0.16198148 0.15348695 -0.18425779 0.12679638

bias_ih_l0 f4 [60]
000000 ac 75 66 3e b1 00 bd bd 23 43 7e 3e 51 a7 3c be
       0.22505826 -0.092286475 0.24830298 -0.18423201
000010 1b 11 3d be 0f 9e 84 bd dc 5d 31 3e 6c c5 27 be
       -0.18463556 -0.0647546 0.17320961 -0.16383904
000020 61 d7 7c be 54 6a 95 bd d8 0d 65 3d 71 6c 64 3e
       -0.24691536 -0.07295671 0.055921406 0.22306992
000030 2c 08 b1 bd 50 40 1a bd 11 ae 6a 3e 34 d5 5b bd
       -0.08644137 -0.03765899 0.22917964 -0.053670123
000040 dc 4d 5a be 51 1e 83 3e 8d e8 20 3e 98 fa 81 be
       -0.21318763 0.25609067 0.15713711 -0.253865
000050 b6 70 ff bc 7d 2a 2c be ef 58 6f 3e d0 35 8b 3d
       -0.031181674 -0.16813083 0.23373769 0.06797373
000060 20 a6 31 be 33 99 18 be 77 67 29 3d b2 05 4f be
       -0.17348528 -0.14902191 0.041358437 -0.20217016
000070 c2 97 33 3e 50 cf 6f be e8 58 b5 bc 0a 58 04 3e
       0.1753836 -0.23418927 -0.02213712 0.12924209
000080 9c 44 1d 3e 6a 3c 4f 3e 0d 9d 6e bd 36 bb 0d 3e
       0.15358204 0.2023789 -0.058255244 0.13840947
000090 46 6d 38 bc af 2f 8d bd c4 39 0f be 41 00 98 bd
       -0.011256522 -0.068938605 -0.1398688 -0.074219234
0000a0 37 69 4f 3e 71 30 7d be 09 dd 3b 3d e5 8c 95 bd
       0.2025498 -0.2472551 0.045865092 -0.07302264
0000b0 42 fe 0f 3d fe 14 5c be a2 62 15 bd ef d0 5e 3e
       0.03515459 -0.21492383 -0.036471017 0.2175939
0000c0 cd e6 78 bd 1a e8 80 3d 2c 41 5f 3b f6 39 1f be
       -0.060766984 0.0629427 0.0034065945 -0.15549454
0000d0 e5 8b 26 be 1c 85 26 bb a8 84 12 3d 25 bb 83 be
       -0.16264303 -0.002540893 0.035771042 -0.25728717
0000e0 fd df 63 be f2 2c 37 3e 0f 55 73 bd 42 4d fe bc
       -0.22253413 0.17888239 -0.05940729 -0.031042699

bias_hh_l0 f4 [60]
000000 7c d5 7f 3c 22 ef 04 be 61 3d 26 3e a4 09 33 be
       0.0156148635 -0.12981847 0.16234352 -0.17484146
000010 63 b6 ba 3d 25 13 9f bc fd fc 7b be 53 c9 d5 3c
       0.09116819 -0.019418309 -0.24608226 0.026096975
000020 7e d1 09 be 1a a5 d3 3d d8 7b e5 bc 5d d1 86 3d
       -0.13458821 0.10334225 -0.028013155 0.065829016
000030 6b 62 07 be 6b ec 78 be c7 7a 27 3e 52 4c 78 3e
       -0.13221137 -0.24308936 0.1635543 0.24247864
000040 7c 83 63 3e 8a 49 d7 3d 8f 63 f5 bd a8 fd 43 ba
       0.22218126 0.10512073 -0.1198188 -0.00074764574
000050 80 aa 6a 3e f9 5b 38 3e c2 ff 13 be 2a c2 69 be
       0.22916603 0.18003835 -0.14453033 -0.22827974
000060 5b 46 83 3e 11 7e cb 3d 6f 0b b5 3d 6e 73 fe bd
       0.25639614 0.09936155 0.088400714 -0.1242436
000070 26 16 56 3e b7 2b b5 bd 14 0a 30 be ee ac cd 3c
       0.20906886 -0.088462286 -0.17191344 0.025106873
000080 40 a5 f1 3c 5d af e8 bd 1b 81 7f be ac 3a 1c 3e
       0.029497743 -0.11361573 -0.24951594 0.15256757
000090 71 61 67 be 11 d2 c1 bd 5f 65 98 3d 7e 59 5d 3e
       -0.22595765 -0.09463895 0.0744121 0.2161617
0000a0 5b d2 1e 3e 6f 12 89 bb a5 32 2a 3c 93 48 88 3c
       0.15509932 -0.0041831057 0.010388051 0.016636169
0000b0 a1 27 73 be c8 81 4e be f6 c2 59 be 1d 46 83 be
       -0.23745586 -0.20166695 -0.21265778 -0.2563943
0000c0 33 2e a8 3d da 7f b5 3d b1 4b 54 3e f6 9a 3e 3d
       0.08211937 0.088622764 0.20731999 0.0465345
0000d0 a5 82 12 be 0e 77 05 3d f0 2b 70 bd d2 03 9b bd
       -0.1430765 0.032584243 -0.058635652 -0.07569088
0000e0 42 8e 1a 3e f9 95 2c bb 75 ba 37 be a9 f3 62 3e
       0.1509333 -0.0026334508 -0.17942221 0.22163261

weight_ih_l0 f4 [60, 15]
000000 74 6f 23 be 61 b7 29 be b4 6f 3d be a9 ab 82 be
       -0.15960485 -0.1657386 -0.18499643 -0.2552159
000010 7a f8 e1 3d c4 37 1f bc c8 35 8a bc c6 a0 38 3e
       0.11033721 -0.009717885 -0.016871348 0.1803008
000020 2d d4 3e 3e d0 8c a8 bc a2 bc e5 bd f8 19 26 be
       0.18635626 -0.020574957 -0.112176195 -0.16220844
000030 bc 0a 00 be d5 6b cb bd 0c c9 68 3e db de d2 bd
       -0.12504095 -0.09932677 0.22732943 -0.102964126
000040 19 b3 35 3d d2 39 4b 3d d7 cf 0c be b3 11 1d 3d
       0.044360254 0.04961569 -0.1375116 0.038346957
000050 f2 68 55 be db ef ca bd c7 03 72 3e 2c 59 56 bd
       -0.20840815 -0.0990903 0.23634253 -0.052331135
000060 7a f7 15 be b2 27 49 be 21 26 45 3d af 12 5f bd
       -0.14645186 -0.19644049 0.048132066 -0.054461177
000070 c0 1e 6d 3e fe 9a 5c 3e ca 4b 29 be 7d be 4f bd
       0.23156261 0.215435 -0.16532817 -0.050718773
000080 29 60 e4 3d a9 8f 11 bc 11 56 4d bd 12 af c2 3d
       0.111511536 -0.008884349 -0.050130907 0.09506048
000090 ea 2c 97 bd c8 31 59 be 5b d1 41 3e be 2e 51 bd
       -0.073816136 -0.21210396 0.18927519 -0.051069967
0000a0 f8 78 b3 3d ce 6b 7d be 8e c1 ab bd c8 aa 20 3e
       0.08763307 -0.24748155 -0.08386527 0.15690148
0000b0 f2 4d f1 bc 40 26 28 be 71 00 ee bd 05 c3 32 be
       -0.029456113 -0.16420841 -0.11621178 -0.17457207
0000c0 4f 77 07 3e 97 f6 63 be 78 73 9f bd 09 21 17 be
       0.13229106 -0.22262035 -0.07785696 -0.14758696
0000d0 ac 3d 0f be 2f 44 28 be c7 02 ef 3d bd 45 de 3b
       -0.1398837 -0.1643226 0.116704516 0.006783216
0000e0 d8 3c 24 3e c7 20 ab 3d 8a 99 44 be d2 f2 a3 ba
       0.16038835 0.08355861 -0.19199196 -0.0012508279
0000f0 48 5c dc 3d b8 a1 8e 3d 5e 4f 6e 3e 86 34 6a bd
       0.10759789 0.06964439 0.23272464 -0.057178997
000100 2c 68 7b 3e fd c3 5a 3e c7 90 d7 bd 34 54 2b 3e
       0.24551457 0.21363826 -0.10525661 0.1673134
000110 a2 43 37 3d fd 12 2c be ed 36 54 3e 14 54 0e 3d
       0.044742234 -0.16804118 0.20724078 0.034748152
000120 9a 16 21 3d 3b c2 cb bb 6e 3d 5a 3e 85 2d 5b be
       0.039328195 -0.0062182224 0.21312496 -0.21404083
000130 31 b9 1f 3d a7 6d df 3d 14 64 41 be de 91 52 3d
       0.03899497 0.109095864 -0.18885833 0.05140864
000140 ae 82 da bc b8 a4 37 3e d0 cc 78 be 90 22 0a 3c
       -0.026673641 0.17933929 -0.2429688 0.008431092
000150 81 cf 4b 3e 60 f4 c2 bd f9 c2 16 3e 96 d6 82 3d
       0.19903375 -0.09519267 0.14722814 0.06388585
000160 38 ba 31 bd 86 c3 40 3d 47 1e 77 3d f6 48 22 3e
       -0.043390483 0.047061466 0.06033161 0.15848145
000170 6e 93 5b be 9d 52 bf bd 42 22 71 3b d6 ab ea 3c
       -0.21442959 -0.09341929 0.00367941 0.02864639
000180 32 71 d4 3d 62 c4 64 be 3a c9 31 be fd 20 4e 3d
       0.10373153 -0.22340539 -0.17361918 0.05032443
000190 fc a2 6a be 5e 52 01 3b 10 44 92 3d 06 5d a9 bd
       -0.22913736 0.0019732933 0.07141888 -0.08269696
0001a0 7a 17 5b be 84 a9 43 3d 94 7c 80 3e 8e 7a 54 bc
       -0.21395674 0.047769085 0.25095046 -0.012968672
0001b0 5b 79 86 bd 51 26 b9 bd 20 41 a6 bd c4 3a 26 bb
       -0.065661155 -0.090405114 -0.0811789 -0.0025364617
0001c0 fc 27 66 be f7 1a 5e be a8 1f e6 3c e7 15 4a be
       -0.2247619 -0.21689974 0.028091267 -0.19734918
0001d0 33 c7 2f 3e 08 b5 39 be 73 60 bb 3d 15 b8 62 3e
       0.17165832 -0.18135464 0.091492556 0.22140534
0001e0 04 78 73 be 39 9b 3f 3e 7a 25 b3 bc d7 00 82 be
       -0.23776251 0.18711556 -0.021868456 -0.25391266
0001f0 d7 18 5f bd fe e6 90 3d 9a 60 7e be 44 b1 5b 3b
       -0.05446705 0.07075308 -0.24841538 0.0033522407
000200 ad 39 08 3e 3d 62 ca 3d 0b fd 6e 3e b4 2a 52 3d
       0.13303252 0.09882019 0.23338716 0.051310256
000210 75 52 9d 3d d8 42 ed 3d d4 76 73 be 93 ad 56 bc
       0.07681743 0.11585015 -0.23775798 -0.013102907
000220 3d 8b 25 be e6 4f ce 3d cd 28 2a 3e e7 75 56 3e
       -0.16166396 0.10073833 0.16617127 0.20943414
000230 3a a6 2f 3d 60 7a 6b 3e 08 13 11 3d 6e 29 ee 3d
       0.042883135 0.22995901 0.03541854 0.11628996
000240 ae d3 8e bd c3 ea 4b 3e 3c 97 23 be 6b 53 6b 3c
       -0.069739684 0.19913773 -0.1597566 0.01436315
000250 62 9b 96 bd d8 24 14 bd fa 20 db 3d 60 20 13 3e
       -0.07353856 -0.03616795 0.10699649 0.14367819
000260 4e 29 42 be db 18 55 3e bf ee 73 be 99 a4 a2 3d
       -0.18961069 0.20810263 -0.23821543 0.07941551
000270 96 dc 60 be 88 8f 3e be 8d 7e 1d 3e 9b d0 64 bc
       -0.21959147 -0.1860944 0.15380307 -0.013965751
000280 49 06 d5 bb 7e 27 24 3e ce 26 f3 3d 05 38 c2 3d
       -0.0065009934 0.1603069 0.11872636 0.09483341
000290 a6 92 b8 3d 97 4f 0b 3e ab d1 15 3e 84 f4 76 3e
       0.09012346 0.1360458 0.14630763 0.24116713
0002a0 4b 7a c3 bd ea 21 c7 3d 6c b5 b8 bd 54 a7 46 3e
       -0.0954481 0.097232655 -0.090189785 0.19399768
0002b0 71 9e c3 bd 93 57 82 be b0 a6 9b 3d 19 b4 38 be
       -0.09551705 -0.2545744 0.076001525 -0.18037452
0002c0 b0 d7 44 be c5 3c f6 3d 88 58 45 be 8d 36 84 3e
       -0.19222903 0.120233096 -0.19272053 0.2582287
0002d0 cc 2b 6f be 57 13 09 3e 5f b3 02 3d 0e 08 b1 bd
       -0.23356551 0.13386284 0.031909343 -0.086441144
0002e0 d7 6d 2c 3b 41 9b 13 be a1 14 d1 bb 18 dd 29 be
       0.0026310587 -0.14414693 -0.006380633 -0.16588247
0002f0 27 df 82 3e fd 94 66 3e d3 ed 6d 3e 41 46 59 3e
       0.25560877 0.22517772 0.23235254 0.21218206
000300 b7 f0 64 3e be e5 3c be 4f 63 bf bd 7e ff 16 bc
       0.2235745 -0.18447015 -0.093451135 -0.0092161875
000310 99 ff 01 be c1 0a 72 be 49 33 60 3e d1 a4 6a be
       -0.12695159 -0.23636915 0.21894564 -0.22914435
000320 61 3d 9f 3d 5b 95 67 be d1 ce 95 3d 4f 75 20 3e
       0.07775379 -0.22615568 0.07314838 0.1566975
000330 9b 6a c1 bd a2 37 74 be 28 42 02 3e f0 8d 23 bd
       -0.094441615 -0.23849347 0.12720549 -0.039930284
000340 b6 1b 32 3e c6 d5 6b be f7 b6 09 3e 82 fe 5d 3e
       0.17393383 -0.23030767 0.13448702 0.21679118
000350 61 e1 18 3e 4d 77 81 3c 36 3b 06 3e a6 20 a9 3d
       0.14929725 0.015803957 0.13108525 0.0825818
000360 78 df 00 3e 60 91 73 be 42 7d a9 bd e0 e7 3f 3e
       0.12585247 -0.23785925 -0.08275844 0.18740797
000370 59 16 1d 3e e0 cc 0a 3e 36 b5 82 bc 64 8f 0d bb
       0.15340556 0.13554716 -0.015955549 -0.002160036
000380 ad 56 ca 3d f3 05 0f 3c 3c 34 2b be 94 a7 10 3e
       0.09879813 0.008729446 -0.16719145 0.14126426
000390 2b 06 0a 3e 82 cc dc 3d c4 1c 12 be 81 54 0a be
       0.13478915 0.10781194 -0.14268786 -0.13508798
0003a0 9a 19 15 3d 8d eb d0 bc 88 ff c0 bc ac d7 fc 3d
       0.03640137 -0.025502944 -0.023559347 0.12345824
0003b0 47 ac 14 bd 4c 7e 83 3e ec 90 31 bd 23 19 e5 3d
       -0.03629711 0.25682294 -0.0433511 0.11186435
0003c0 f0 c9 34 3e db aa a3 bd e9 c9 79 be 9b f1 b0 bd
       0.17655158 -0.079915725 -0.24393429 -0.086398326
0003d0 cf c9 2e be 4c 15 20 be 35 53 4e 3e 5f 1f fc 3c
       -0.17069171 -0.15633124 0.20148928 0.030776678
0003e0 0d 16 82 be eb 1b e0 3d 2c 32 6e 3e f1 61 04 3e
       -0.25407448 0.10942825 0.23261327 0.12927987
0003f0 02 67 36 be 61 36 ef 3d fa b9 2e 3e 9b 66 5a 3e
       -0.17812732 0.11680294 0.17063132 0.21328203

weight_hh_l0 f4 [60, 15]
000000 31 b7 2d 3e 67 a5 06 be 78 1a 96 bd 6c 89 c6 3d
       0.16964413 -0.13149033 -0.07329267 0.0969418
000010 e7 1a 18 be 92 87 41 be f7 03 0e be 52 69 f2 3d
       -0.14854012 -0.18899372 -0.138687 0.118364945
000020 36 0d 80 be 2e cb 07 3e 8b dd 82 3e 7a f2 0a be
       -0.2501008 0.132611 0.2555965 -0.1356906
000030 0d 64 09 bd 8e fd 02 be 1c 51 c1 bd a3 81 76 bd
       -0.03354268 -0.12792036 -0.094392985 -0.060182225
000040 e2 ea 38 3e 1a 03 5e 3e 9e ef 6a bb 0f 79 98 3d
       0.1805835 0.2168087 -0.003584839 0.07444965
000050 5e 02 45 3e 4f 11 41 be 2c e6 1a be b9 61 88 3d
       0.19239184 -0.18854259 -0.15126866 0.06659264
000060 58 53 69 bb fc b0 02 bd 43 8e c9 3d 64 c6 31 be
       -0.0035602655 -0.031907067 0.098415874 -0.17360836
000070 21 2c 02 be 0b 05 7f bd 9a 9c a4 bd 11 5d 16 be
       -0.12712146 -0.06226067 -0.08037682 -0.1468394
000080 e8 ef 69 3d a5 b9 b4 3d 09 1c 0e 3d 60 3d 58 be
       0.057113558 0.088244714 0.034694705 -0.21117163
000090 c6 78 9c bd 17 90 60 be b0 2d 14 3e ae d4 bd 3c
       -0.07640223 -0.21929966 0.14470553 0.023172703
0000a0 d0 d3 31 3e a7 2f 3a 3d 9a db 4f 3b 09 f8 5c be
       0.17365956 0.0454556 0.0031716586 -0.21578993
0000b0 73 b1 d7 bc 79 3e c4 3d 5a 0b 35 be 4d 1e 87 3d
       -0.026329732 0.09582228 -0.17680112 0.06597576
0000c0 79 34 1c 3e 98 25 29 be 98 36 71 be c2 9a 46 3e
       0.15254392 -0.16518247 -0.23555982 0.19394973
0000d0 cd 71 54 3e 65 74 c6 bd 10 36 f3 bb 2e 77 8c 3b
       0.20746537 -0.09690169 -0.0074222162 0.0042866683
0000e0 a8 27 0e 3e a7 aa 95 bd 41 8b 1c bc ec da d5 bd
       0.13882315 -0.0730794 -0.009554685 -0.10442147
0000f0 a8 33 84 3d f6 56 ff 3d d8 5b 55 be d0 0a 66 be
       0.06455165 0.12467758 -0.20835817 -0.22465062
000100 d4 c8 d1 bb 38 d5 5c 3e fa 32 4c 3e 70 8e 56 be
       -0.0064021144 0.21565711 0.19941321 -0.20952773
000110 70 eb c9 3d fe 09 ba bd 07 b3 00 3c 02 66 6f be
       0.09859359 -0.09083937 0.007855183 -0.23378757
000120 66 75 ad 3d 0f eb 36 bb 01 84 00 3e 76 80 45 be
       0.084696576 -0.0027911102 0.12550355 -0.19287285
000130 5c 98 61 bd 8e 22 11 3d 3e 91 e6 3d cc 5d 81 be
       -0.05507694 0.035433345 0.112581715 -0.25266874
000140 d9 cb 24 3e 20 66 ba 3d ba fd de 3d 62 3b 60 be
       0.16093387 0.0910151 0.10888238 -0.21897653
000150 61 e6 8f bd 5e 73 25 3e 66 a1 be bd 06 2f 6b 3e
       -0.07026363 0.1615729 -0.09308128 0.22967157
000160 7d 96 2f be 81 19 e8 3c 83 92 e5 bd e3 c5 e1 bd
       -0.1714725 0.028332474 -0.112095855 -0.11024072
000170 23 7d 8b 3d 31 2f 7a bd 86 8e 37 be 40 de 6c 3e
       0.06810977 -0.06108016 -0.17925462 0.23131657
000180 86 1e 59 bd 90 cd 76 3d d4 d5 1f 3d 79 f5 93 3d
       -0.053007625 0.060254633 0.03902228 0.072245546
000190 06 ea 4a be 4e 97 32 3e cf 07 5f 3e 74 05 8e bd
       -0.19815835 0.1744053 0.21780322 -0.06934634
0001a0 d7 7d 03 3e f1 52 e1 bd 5e f9 19 3c e4 c2 48 be
       0.12840973 -0.11002148 0.009397833 -0.19605595
0001b0 4e 4e f4 bc eb 51 0c be 07 79 aa bd 82 40 43 3e
       -0.029822495 -0.13703124 -0.083238654 0.19067577
0001c0 0f 99 a7 bd 46 0e 93 bd cc fa 11 3d e0 df 08 bd
       -0.081834905 -0.07180457 0.03563957 -0.03341663
0001d0 36 37 7b be e2 21 e6 3d 6d d8 71 3e db 92 f3 3d
       -0.2453278 0.112369314 0.23617716 0.11893245
0001e0 01 ba 24 be 7e 29 13 be 3d 51 fd 3d 9f 42 80 be
       -0.1608658 -0.14371297 0.123690106 -0.25050828
0001f0 0c 1b d7 bb bc 5b d9 bd cc 0a 74 be 83 2e ee bd
       -0.0065645035 -0.106132 -0.23832244 -0.11629965
000200 b5 c9 5e be 2e c1 b5 bd 61 49 30 be d4 01 71 be
       -0.21756633 -0.08874737 -0.17215492 -0.23535854
000210 5c ed 5c 3e 48 e3 93 bd 07 a0 ad 3c 0b 1a 20 3d
       0.2157492 -0.07221085 0.021194471 0.039087337
000220 d9 48 cd bd 6d 46 9e 3c 92 9d 87 bc 4a bc 64 3e
       -0.1002366 0.019320691 -0.016554628 0.22337452
000230 b4 f0 10 3a 2d 97 a0 bd d2 fb 3d be 58 7c 21 3e
       0.00055290316 -0.078413345 -0.18553093 0.1577009
000240 f6 ed 61 be 43 08 1e 3d 8d 4e 9d 3c 4e 76 0c be
       -0.22063431 0.038582098 0.019202495 -0.13717005
000250 88 65 68 3e fd e0 01 be 31 29 d8 3d a0 2e 65 be
       0.22694981 -0.12683482 0.10554732 -0.22381067
000260 b1 a0 78 be 34 c8 5e 3e 62 2f 04 3e d1 b8 c6 bd
       -0.24280049 0.21756059 0.129087 -0.0970322
000270 df 7d 24 be 3a 8a 3e 3d ba bc ec bd be 41 9e bc
       -0.16063641 0.046518542 -0.11559434 -0.019318458
000280 01 a2 38 be 1d 3e f3 bd 53 18 3a be c1 cb 4b 3e
       -0.1803055 -0.118770815 -0.18173341 0.19901945
000290 e8 48 c3 bd 96 6e 59 be 79 ca 45 3e 06 44 2a be
       -0.0953539 -0.21233591 0.19315518 -0.16627511
0002a0 1f 39 3b 3e 3f ee b3 bd f8 9a 01 be fb 24 1a 3e
       0.18283509 -0.08785676 -0.12656772 0.1505317
0002b0 43 79 7b 3e b7 6e ad bc 2c ad 99 bd 9d f4 4c 3e
       0.24557976 -0.021170957 -0.07503733 0.20015188
0002c0 95 4a 10 be 9b 03 ce bd b9 55 1a 3e 21 71 11 3d
       -0.14090951 -0.100592814 0.15071763 0.03550828
0002d0 f1 92 1b be 6f 93 4c be 2e 4d fa 3c 2a 1f a3 3c
       -0.15192772 -0.19978116 0.03055438 0.019912321
0002e0 fc 75 ea bd b3 b1 7a be 0a 2f 97 bd 89 bc 21 3e
       -0.11448285 -0.2448185 -0.07382019 0.15794577
0002f0 c4 b7 54 be d6 bf ee bd e3 5b 29 3e 2a 4f 5a be
       -0.20773226 -0.116576836 0.16538958 -0.21319261
000300 38 f6 9c bb f5 00 64 3e ed a5 28 be 90 01 fe 3b
       -0.0047900937 0.2226599 -0.16469546 0.007751651
000310 8e 5a 98 bd 5c 95 02 3e 2d 29 c6 bd 01 48 69 be
       -0.07439147 0.12752289 -0.096758224 -0.22781374
000320 b6 a3 79 be 54 ff 5d 3d da 34 3e bc 26 ca 82 be
       -0.24378857 0.054198578 -0.0116092805 -0.25544852
000330 41 42 c1 3d 6a c4 28 3e dc e2 03 3e 7d ca 43 be
       0.09436465 0.16481176 0.12879509 -0.19120212
000340 77 09 70 be fd 37 72 be 71 ec 24 3e 2f 58 44 3d
       -0.2344111 -0.2365417 0.1610582 0.04793566
000350 8d 9b 0c 3e e2 6b 76 3e 18 38 10 3e e7 dd 2d 3e
       0.13731213 0.24064592 0.14083898 0.1697918
000360 60 4a 52 3e d1 54 02 be ba 5d 2e be 78 a9 ff bd
       0.20536184 -0.12727667 -0.17027941 -0.124834955
000370 19 84 5e 3e 24 ea 34 3e cc 2f 37 3d 05 d5 64 be
       0.21730079 0.17667443 0.044723317 -0.22346886
000380 ba 97 51 3d e6 df ab bd af e9 6e 3e 5d d4 1d 3d
       0.05117009 -0.083923146 0.2333133 0.038532604
000390 8e d4 e3 3d 01 c5 3f be 58 74 a7 3d d7 46 88 3d
       0.11124526 -0.18727495 0.08176488 0.06654137
0003a0 66 cd 31 be 18 5e ed 3d 3c fd 63 bc 73 bf 41 3e
       -0.1736351 0.115902126 -0.013915356 0.18920688
0003b0 01 d8 97 bd 99 ea 94 bd 9d 00 37 3e 13 6d 1c 3d
       -0.07414246 -0.072713085 0.17871328 0.03818996
0003c0 df b1 a5 bc d5 18 31 be d6 0c cc bd e0 0a 31 3e
       -0.020226417 -0.17294629 -0.09963386 0.17289305
0003d0 3a 45 2f be c8 86 74 be 74 ec 30 3e 38 4d fa bc
       -0.17116252 -0.2387954 0.172777 -0.030554399
0003e0 18 d7 34 be 98 78 45 3e 6c 6a ec 3c b7 bc 5f 3e
       -0.17660177 0.19284284 0.02885934 0.21849333
0003f0 90 11 39 3e cc b7 70 3e ff 29 a9 bd 6f 7b 24 3e
       0.18073106 0.23507613 -0.08259963 0.16062711

bias_ih_l0 f4 [60]
000000 68 48 76 3b 97 76 8f 3d 61 74 16 be fa a9 3b be
       0.0037579779 0.07005041 -0.14692833 -0.1832656
000010 6f a7 96 3d c0 9e 2b 3d 07 c2 52 be 30 dc 59 be
       0.07356154 0.041899443 -0.20581828 -0.21275401
000020 e1 6c 83 3e fa 80 29 be 4c bd 14 3e 58 62 3f 3c
       0.25669006 -0.16553107 0.14525336 0.011681162
000030 1d 5a 1e bd 4b b5 f8 bd 9b 9f 93 bd e0 09 05 be
       -0.038660157 -0.12143954 -0.07208177 -0.12992048
000040 7f ff 72 3d 65 5e 70 be 6e 1e 98 3d 98 8c d7 3d
       0.05932569 -0.23473509 0.07427679 0.10524863
000050 20 14 3b 3e 77 7e 44 3e 02 ef 2a 3e 1c bb a0 3d
       0.18269396 0.19188868 0.16692737 0.07848188
000060 f6 fe 6d 3e 62 85 21 bd 96 00 cb bd 1d bd fa 3c
       0.23241791 -0.039433844 -0.09912221 0.030607754
000070 84 aa 46 3d 9c 48 0b 3e 8d 52 3d bd 32 d2 07 bd
       0.04850246 0.13601917 -0.046221305 -0.033159442
000080 4b f2 95 bd b5 91 98 3c 28 82 69 3e 8d 5e 7f 3e
       -0.07321604 0.018624166 0.22803557 0.24938412
000090 11 c1 69 bd 06 49 1e be 57 2b 5c be 37 3e 1f bd
       -0.057068888 -0.15457544 -0.21500908 -0.038877692
0000a0 53 b5 41 3d 09 85 ea bd 5a 56 84 3b db 7f ee bc
       0.047292065 -0.11451156 0.004038614 -0.0291137
0000b0 f3 f2 2a 3e aa d2 27 3e ff 03 72 be 5e 77 81 3e
       0.1669424 0.16388956 -0.23634337 0.25286382
0000c0 5d 3f e6 3d 29 9b 23 3e 92 15 a1 bc 5f a7 24 be
       0.11242554 0.15977158 -0.019663606 -0.16079472
0000d0 34 f2 c2 bc 81 ff 2a be 79 35 9b bd a5 ee 58 be
       -0.023797132 -0.1669903 -0.075785585 -0.21184786
0000e0 fc 3f 55 be e7 bb f3 3d 92 40 19 be 61 da 52 be
       -0.2082519 0.11901074 -0.14966038 -0.20591117

bias_hh_l0 f4 [60]
000000 a3 58 e0 3d ae 1a 16 3e 7a 6e 79 3d 1f 07 06 be
       0.10954406 0.14658615 0.060896374 -0.13088654
000010 5f 6e 43 3e a0 d5 95 3d e1 74 a3 3d 09 52 15 bd
       0.19085072 0.07316136 0.07981277 -0.036455188
000020 3c c6 fc bd be 6d 2a 3e a2 d9 18 3e d4 85 04 be
       -0.12342498 0.16643426 0.1492677 -0.12941676
000030 8a 19 25 3e 3b d1 f6 bd 51 da 07 3e 06 57 20 3e
       0.16123024 -0.12051626 0.13266875 0.15658197
000040 66 4a 13 be e6 ea 81 3e c1 f8 5e 3e ec f1 78 bd
       -0.1438385 0.25374526 0.2177458 -0.06077759
000050 e8 0c fa bd 2a 18 9e 3c 87 02 78 3d 62 a4 58 3e
       -0.12209493 0.019298632 0.060549285 0.21156457
000060 a4 5b 1a 3e 93 0a c8 3d 4a 09 d4 bd 9d 48 12 be
       0.1507402 0.09767642 -0.10353334 -0.14285512
000070 4f c8 62 be 38 0a 0f 3d 17 54 be bd f3 53 44 3e
       -0.22146724 0.034921855 -0.092933826 0.19172649
000080 f9 aa df bd 5b c9 69 3e 88 99 67 be d8 85 a9 bd
       -0.10921282 0.22830717 -0.22617161 -0.08277482
000090 42 27 23 3e f7 75 9f bd 9d 29 39 bd 75 da 18 3e
       0.15932944 -0.07786172 -0.0452057 0.14927085
0000a0 73 da c7 bd 3a 01 a6 bd 1d e8 2a be 59 15 74 3e
       -0.09758463 -0.08105703 -0.16690107 0.23836268
0000b0 35 35 e2 bd a2 6b 3d 3a 67 6b 93 bc 3f b1 79 3d
       -0.11045305 0.00072258164 -0.01799555 0.06096005
0000c0 bb 3d 0e 3e a2 a7 41 3d ca a8 f2 bd 9d 5c 93 3d
       0.13890736 0.047279008 -0.118486 0.07195399
0000d0 3c 5c 3e 3e 02 eb 18 3e 43 88 5e 3e 3d 28 5b 3e
       0.18589872 0.14933398 0.21731667 0.21402068
0000e0 4f da 40 be b8 24 6b be 7a 4a 86 3c 2d da 2e 3e
       -0.18833278 -0.22963226 0.016392935 0.17075415

weight f4 [28, 15]
000000 e4 89 54 3e 15 09 22 be bd a2 55 3e dd a7 74 3e
       0.20755726 -0.15823777 0.20862861 0.2389216
000010 35 9b be bd 20 b5 22 3e 9e 09 0a 3e 32 28 34 3e
       -0.09306947 0.15889406 0.13480231 0.17593458
000020 39 b0 d8 3d aa 1b 93 bc 90 ca 09 be b0 d5 93 3c
       0.10580487 -0.017957527 -0.13456178 0.01804623
000030 58 81 54 be cb 27 16 bd a8 32 cd 3d 36 f8 36 be
       -0.20752466 -0.036659043 0.100194275 -0.17868122
000040 74 c6 27 3e 50 3b 83 be f7 8d 29 be ad 9c 19 be
       0.16384298 -0.2563119 -0.16558062 -0.15001173
000050 41 04 fe 3c 7f 7c e9 bd 7c c0 85 3d 71 9b 65 3d
       0.031007888 -0.11400699 0.06530854 0.056056444
000060 f8 07 dd bd 0e 88 38 3e 7b f5 56 3c b6 18 99 bd
       -0.107925355 0.1802065 0.013120051 -0.07475416
000070 ee 8b 6b bc a1 89 3c 3d 7b 66 59 be f9 43 17 be
       -0.014376624 0.04602969 -0.212305 -0.14772023
000080 6e 0f 1b be 84 5c 12 be 28 77 33 3e 9f ec 3d 3e
       -0.15142605 -0.14293104 0.17525923 0.18547295
000090 a2 d1 29 3e 03 de c3 3d 79 7d 1a be c7 4e 2b 3e
       0.16583875 0.0956383 -0.15086927 0.1672927
0000a0 89 b1 15 be 51 60 39 3e 93 38 35 be ce 11 26 be
       -0.14618506 0.18103148 -0.17697363 -0.1621773
0000b0 7e 37 38 be b7 40 5e 3e 09 a4 15 3e 04 0d 99 bc
       -0.17989919 0.21704374 0.14613356 -0.018682964
0000c0 91 ff 52 be a8 8a 6e be e5 51 88 3c 07 06 f8 3d
       -0.20605303 -0.2329508 0.016640613 0.121105246
0000d0 e2 9e 62 3e 24 0f 44 bd 02 75 2b 3e 83 04 04 bd
       0.22130921 -0.047866 0.16743854 -0.032230865
0000e0 64 41 ec 3d 4b 2a 92 3d a5 02 5b be 9e 0c 32 be
       0.1153591 0.07136973 -0.21387728 -0.17387626
0000f0 04 fc fd 3d c4 4d 85 bd 78 86 19 3e f0 09 23 3e
       0.12401584 -0.06508973 0.14992702 0.1592176
000100 02 0d 6a be e8 80 24 be 4a cc 76 ba fa 35 49 3e
       -0.22856525 -0.16064799 -0.0009414597 0.19649497
000110 0b bb c7 3d fc 3f a3 3d 8b 54 30 be 5d 98 9e 3c
       0.097524725 0.079711884 -0.1721975 0.019359762
000120 22 b3 17 3e f4 6b 44 be 00 f8 49 3e ce 36 dd bd
       0.14814427 -0.19181806 0.1972351 -0.10801469
000130 6a a7 26 be fc cb da bd 05 08 16 bc 9e 6e b6 3c
       -0.16274801 -0.10683438 -0.009157185 0.022269543
000140 58 01 51 bd b3 f4 62 3e d4 f5 75 3b 36 5a b1 bd
       -0.051026672 0.22163658 0.0037530558 -0.086597845
000150 ea 21 81 3e 2f 0b 73 be fa 46 65 be 16 f7 56 3e
       0.25221187 -0.23734735 -0.22390357 0.20992693
000160 90 82 a3 3d 7a b8 39 3c 2f d3 73 3e 3b cb 32 be
       0.07983887 0.011335487 0.23811029 -0.17460339
000170 8c 99 5b be 94 26 ab 3c 07 b3 48 3c 9e ab b9 3d
       -0.21445292 0.020892419 0.012249715 0.090659365
000180 1c d5 82 3e f8 77 65 3e af a8 8b 3c c2 fc 3f 3d
       0.25553215 0.22409046 0.017048208 0.046871908
000190 c7 ef 66 be 72 63 9a bd fa 73 43 bc 6d 64 0a 3e
       -0.22552405 -0.07538499 -0.011929506 0.13514872
0001a0 34 88 9f bd 8e f8 35 be 22 ce 63 3e 6c 5a 07 3e
       -0.077896506 -0.17770597 0.22246602 0.13218087
0001b0 ba 41 4f 3e d5 84 34 3e d4 f5 32 be f5 13 35 be
       0.20239916 0.17628796 -0.17476588 -0.17683394
0001c0 04 42 24 3e b2 c5 30 3e 7a 48 42 be c2 63 36 be
       0.16040808 0.17262915 -0.1897296 -0.17811492
0001d0 5a c8 1f 3e c0 61 76 3c 08 ea d4 3d 52 fd 22 3e
       0.15603772 0.015037954 0.103962004 0.15916947
0001e0 3d 6c 6b be e9 4b 5a 3d 8a f1 4d 3e 94 b4 71 be
       -0.22990508 0.05329505 0.20111671 -0.23604041
0001f0 76 06 5b be 4d 6f 84 3e 96 d1 41 3e 43 72 ba 3d
       -0.21389183 0.25866166 0.18927607 0.09103825
000200 c3 56 90 bd 27 16 4c be 5d 00 59 be 5e c3 fd 3d
       -0.070477985 -0.19930325 -0.21191545 0.12390779
000210 ac 0d 4a 3e 74 c9 62 be 42 3a 3c 3e fe 97 5d 3e
       0.19731778 -0.22147161 0.18381599 0.21640012
000220 d1 ae cf 3c 20 a3 0d be 1d 48 a8 3d 7b 0f 65 3d
       0.025351914 -0.13831758 0.082168795 0.055922966
000230 63 41 14 3c 9c 56 02 be 26 3a 63 be 43 81 ad 3d
       0.0090487925 -0.12728351 -0.2219015 0.0847192
000240 a8 fb 25 3e f7 0f 02 3d 77 0c 52 3c 32 2d 66 be
       0.1620928 0.031753507 0.012820355 -0.22478178
000250 b3 c5 11 be 1a e3 98 bd 19 08 13 be b9 9f 09 be
       -0.14235573 -0.07465191 -0.14358558 -0.13439836
000260 da 3f 79 be 4c 7c 4f 3e 60 4a 45 bd 53 a1 b2 3d
       -0.24340764 0.20262259 -0.048166633 0.087221764
000270 82 d4 58 be 85 57 1f 3c 00 f3 4a be 08 9d 4d 3e
       -0.21174815 0.009725456 -0.1981926 0.20079434
000280 f1 85 36 be 44 f3 94 bd 95 e8 db 3d d7 dd d2 3d
       -0.17824532 -0.07272962 0.10737721 0.10296219
000290 13 b7 4b 3c 4c 16 02 be 24 d3 f7 3d 75 35 53 be
       0.012433785 -0.12703818 0.12100819 -0.20625861
0002a0 9a 15 2d be 51 75 45 3e d8 66 90 bd 5f 5c 40 3d
       -0.16902772 0.19283034 -0.07050866 0.046963092
0002b0 27 50 2e 3d 9a 89 5b bd 39 1e a8 3d 87 94 ea 3d
       0.042556908 -0.053598024 0.082088895 0.114541106
0002c0 43 64 43 3e ea cd 36 be ef de 3e be 9e bc 11 3e
       0.19081216 -0.17851987 -0.1863973 0.14232108
0002d0 94 b3 2b bc 06 b3 2f 3e 1d 03 82 3e e5 ed f9 3d
       -0.0104798265 0.17158136 0.25393 0.12203578
0002e0 af 98 bd bd 70 da 64 be e0 ae a9 3c 02 d0 61 be
       -0.09257638 -0.22348952 0.02071327 -0.22052005
0002f0 a7 5e 37 be 07 ea 80 3e fc 61 69 3e 3f f4 66 bd
       -0.17907201 0.2517855 0.22791284 -0.056385275
000300 c9 fc 26 bd 4f 49 20 bd 2e 04 0c be 12 2f 32 bd
       -0.04076842 -0.039132413 -0.1367347 -0.04350192
000310 87 0a d5 3d 90 ba 94 3d d5 35 9d 3d c4 c3 d4 bd
       0.104023986 0.072621465 0.07676283 -0.10388902
000320 23 5f 2e 3e f8 d0 35 3e 44 7d 6f be 6b 52 50 be
       0.1702848 0.17755497 -0.23387629 -0.2034394
000330 9e 4f 55 3e 88 64 e9 3c 27 6c a1 bc e8 e6 0b 3d
       0.20831153 0.02849032 -0.019704891 0.034155756
000340 2c 3d 32 3e ab 6a 83 3d 9b cc dc bd e3 01 ac bd
       0.17406148 0.0641683 -0.10781213 -0.08398797
000350 5e 57 5c be 5c 63 4a be d6 0e 66 be 56 e1 12 be
       -0.21517703 -0.19764465 -0.22466597 -0.14343771
000360 70 aa 66 bb 44 1e cb bc 8f 44 07 3e 90 06 dd 3b
       -0.0035196804 -0.024794705 0.13209747 0.006745167
000370 39 4c b0 bd cd 16 d5 3d 3e 1d 34 3e a3 0e 17 be
       -0.08608288 0.104047395 0.1758928 -0.14751677
000380 ae 8b 3e 3e bf 9e c9 bc 72 a3 91 3d dc b3 61 be
       0.18607971 -0.024611829 0.07111253 -0.22041267
000390 86 4a 5d be 71 85 75 3d 9d 7d d8 3d 6f 11 fc bd
       -0.2161046 0.059941713 0.10570834 -0.12308013
0003a0 06 12 5c be 13 f3 cc bd e2 29 1f 3e f0 12 b4 3d
       -0.2149125 -0.100073 0.15543321 0.087926745
0003b0 5c 39 13 3d 62 69 64 bb a5 6a 4a be 7c f7 96 bd
       0.035943374 -0.0034852852 -0.19767244 -0.07371423
0003c0 61 40 6c be df 93 df 3d 55 ef 1f be 70 b4 38 be
       -0.23071434 0.10916876 -0.15618642 -0.18037581
0003d0 20 38 f6 bc e7 18 2f 3e 5a 1c 22 bd 26 0f 80 be
       -0.03005606 0.17099343 -0.03957782 -0.25011557
0003e0 00 51 c7 3d 6f b9 73 3e fa 61 44 3d 28 05 10 3c
       0.097322464 0.23801206 0.047945 0.008790292
0003f0 b8 9f 46 be a9 67 cd 3d e2 3b 80 be ab 18 98 3d
       -0.19396865 0.10029537 -0.25045687 0.0742658

bias f4 [28]
000000 fd cb 5f 3c a5 19 52 3e 72 ea 33 bd c1 64 54 3e
       0.013659474 0.20517595 -0.043924756 0.2074156
000010 ca f2 58 be 9d b3 b4 bd 23 7b 4a 3e b8 4c 9a bd
       -0.21186367 -0.08823321 0.19773535 -0.07534164
000020 04 b6 4c be e0 8b 17 be a4 99 8b ba 8a 76 a7 bd
       -0.19991308 -0.14799452 -0.0010650647 -0.081769064
000030 0c ac 08 be dd 6a de 3d 3e 07 06 be d5 21 80 3e
       -0.1334688 0.10860226 -0.130887 0.25025812
000040 97 fb 57 3e 32 a1 51 be 86 15 80 3c 9e ad c3 bd
       0.21092068 -0.20471647 0.015635263 -0.09554599
000050 24 81 50 be 45 0a 96 bd a0 bb f9 bd 2d 90 54 be
       -0.20361763 -0.073261775 -0.1219399 -0.20758124
000060 fc 9f b1 bd 81 98 dc bd 2e ba 82 be 64 ff 80 bd
       -0.08673093 -0.10771275 -0.2553267 -0.06298712

weight f4 [10, 15]
000000 a5 5b 09 be 06 72 ca bd b1 f6 26 bd be f8 36 3e
       -0.13413866 -0.098850295 -0.040762607 0.17868325
000010 94 98 49 3e c5 fe 60 be e8 f6 1f 3e 36 41 2f 3e
       0.1968711 -0.21972187 0.15621531 0.1711472
000020 0a 79 67 3e b9 48 13 be 31 21 64 3e 2f cb 20 be
       0.22604766 -0.1438321 0.22278287 -0.15702508
000030 bc f7 8e 3d d2 32 00 3e 8c 3d 61 3e 0a eb 5f 3e
       0.06980845 0.12519386 0.21996135 0.21867004
000040 76 ba 77 3e 20 02 3a be bd 56 a2 bd 15 f9 d3 3d
       0.24192223 -0.18164873 -0.079267 0.10350243
000050 f6 bc 5d 3d 0c a8 a3 3d ae 1d 1d 3e eb ab 34 3e
       0.054135285 0.07991037 0.15343353 0.17643707
000060 4e e5 5c 3d da 66 37 bd 56 c5 e1 bd e2 ea 77 bb
       0.05392962 -0.04477582 -0.11023967 -0.003782921
000070 b0 fb 38 be c2 87 41 be 33 ab b9 bd 76 3d 41 bd
       -0.18064761 -0.18899444 -0.09065857 -0.047177754
000080 1d 2b 4a 3d e1 e4 f7 3d 93 97 5d be 72 59 11 be
       0.049357522 0.12104202 -0.21639852 -0.14194277
000090 bd 46 90 bd 7b a2 1e bd 13 a7 30 be ed 4c 95 3d
       -0.07044742 -0.038729172 -0.17251234 0.07290063
0000a0 86 6e 32 3e a8 c6 1a be d9 28 76 3e e5 36 1c 3e
       0.17424974 -0.15114844 0.2403902 0.15255316
0000b0 5f 72 1b 3e 3b c7 f9 bd fc ea 5d be e1 d0 40 3e
       0.15180348 -0.12196203 -0.2167167 0.18829681
0000c0 29 6a a8 bd 04 71 92 bd 67 ae 5b 3e f1 24 89 bd
       -0.082233734 -0.07150462 0.21453248 -0.06696499
0000d0 17 2a a5 bd 53 c9 f0 bd 4d cb 71 3d 23 04 64 be
       -0.080646686 -0.117571495 0.059031773 -0.22267203
0000e0 70 26 fc bd dd 0e fa bd 5f 2e 41 bd 5f c8 65 3e
       -0.12312019 -0.12209866 -0.047163364 0.22439717
0000f0 be 06 2e 3d be 2c e6 ba 0d 49 a2 bd 02 50 16 bd
       0.0424869 -0.0017560942 -0.079240896 -0.036697395
000100 6a ec dc 3d 7d 8c 8d bd e3 a2 2e bd f5 e0 0d 3e
       0.1078728 -0.06911562 -0.04263581 0.13855346
000110 7b e5 2f 3e ae 6f 6e bd fd 65 0b bd 82 92 31 be
       0.17177384 -0.058211975 -0.03403281 -0.17341045
000120 a1 d1 81 3e 11 01 3d be 71 30 9f 3d 98 55 5b be
       0.25355247 -0.18457438 0.07772911 -0.2141937
000130 f6 34 65 3e 09 ed 58 be 5b 9f ea 3d 32 eb 61 be
       0.22383484 -0.21184172 0.11456176 -0.22062376
000140 db fd 91 3d fb 7f da 3d 82 ed 4a 3d f7 d1 2b be
       0.07128497 0.106689416 0.04954291 -0.16779314
000150 73 2a c3 3d 1f d0 fb bd 49 19 1c be 05 12 91 3c
       0.09529581 -0.12295555 -0.1524402 0.017708788
000160 af cc 9c 3d 67 0e ff 3d a3 00 28 3e a7 c6 30 3e
       0.07656228 0.12453919 0.16406493 0.1726328
000170 be 0c 1a be f9 62 9c 3d 55 6a bc 3d 75 1b f0 3c
       -0.15043923 0.07636065 0.09199969 0.029309968
000180 89 cf e7 bd c7 3f 84 be bb e7 08 3e a1 85 dd bd
       -0.11318881 -0.25829908 0.13369648 -0.10816503
000190 1f 19 8e bd b8 46 1d 3e b7 b8 63 bd b7 ca 21 3e
       -0.06938385 0.15359008 -0.05559608 0.15799986
0001a0 35 0d 52 bd ee 2b 37 3e ca e1 58 3e ca 11 2a be
       -0.051282126 0.17887852 0.21179882 -0.16608348
0001b0 49 e9 b6 bd a6 c5 e5 bd cc 67 88 3d 5a a0 5f be
       -0.08931214 -0.11219339 0.06660423 -0.21838513
0001c0 b1 1d 3b 3d 15 b1 df bd 1e fc 15 3e f3 f9 83 be
       0.045682613 -0.109224476 0.14646956 -0.25776634
0001d0 d0 14 39 be 86 c1 78 be cc 73 ca 3d d4 e9 e5 3d
       -0.18074346 -0.24292573 0.09885368 0.1122624
0001e0 d4 b1 8e bc ef 79 1a 3e 58 7d 0a 3e ba 03 ec bd
       -0.01741878 0.15085576 0.13524377 -0.11524148
0001f0 2e 1f 9e 3b 1e 71 71 3e 00 2d 6b 3e 10 df 49 3e
       0.0048254943 0.23578307 0.22966385 0.19713998
000200 94 ad 0f bd 1d 8b 02 be 44 55 a4 3c b8 94 76 3d
       -0.035077646 -0.1274838 0.020060189 0.060200423
000210 9f 36 00 3c c9 05 be bd 36 ec 78 be 38 1c c7 3d
       0.007825523 -0.09278447 -0.24308857 0.09722179
000220 67 54 16 bd 89 d1 3f 3d 7e b1 36 3e 75 87 22 3e
       -0.036701586 0.046830688 0.17841145 0.15871985
000230 bd d1 91 3c 68 74 44 bd d0 70 4f 3d c2 2f 26 3c
       0.017800206 -0.047962576 0.050644696 0.010143222
000240 41 ae 7b be 62 6b 2a 3e 95 de 57 bd 10 e3 32 be
       -0.24578191 0.16642526 -0.052702505 -0.1746943
000250 0c a9 5e be 19 32 f0 3d
       -0.21744174 0.11728305

bias f4 [10]
000000 ca 5d e4 3d ad bc 42 3d 97 83 7c 3e 19 e4 8b 3c
       0.11150701 0.047543216 0.24659573 0.017076539
000010 be 41 a1 bd c4 3b 9f bd 6d 41 19 be 49 1f 7e be
       -0.078738675 -0.07775071 -0.14966364 -0.24816622
000020 07 0c f2 3d 2f 90 25 3e
       0.118187 0.16168283
