Assignmentt2/trained_models/mnist_reconstruct_1000_hidden=20_batch=32_gradientclip=1_lr=0.001.pt (torch, 36039 bytes, 10 tensors)

weight_ih_l0 f4 [80, 28]
0	0xba46dd46	-0.0007586073
1	0xbed4fc03	-0.4159852
2	0x3d8ddf67	0.06927376
3	0x3b63e0c8	0.0034771431
4	0xbc763efd	-0.015029666
5	0xb9729b2f	-0.00023136729
6	0xbcccf273	-0.025017953
7	0xbc554a5c	-0.013018217
8	0xbccce9ef	-0.025013892
9	0xbd286fe4	-0.041122332
10	0xbd0e7de6	-0.034788035
11	0xbd0ffbb0	-0.035152137
12	0xbd8a47c0	-0.067519665
13	0xbe1bc48f	-0.152117
14	0xbe8e1a5c	-0.27754486
15	0xbe43085e	-0.1904616
16	0xbe109ba1	-0.14121868
17	0xbdc5b3d1	-0.09653438
18	0xbd8f111f	-0.069856875
19	0xbda9f5b7	-0.082988195
20	0xbd6425a8	-0.055699974
21	0xbc932e19	-0.017966317
22	0xbd19c320	-0.0375396
23	0xbdf16173	-0.11786165
24	0xbe04d1d3	-0.12970667
25	0x3e07dcd2	0.1326783
26	0x3db57e4b	0.08861979
27	0x3f1997af	0.59997076
28	0x3f4c8d26	0.79902875
29	0xbdab092c	-0.08351359
30	0xbe0e7384	-0.13911253
31	0x3d27357c	0.04082249
32	0xbdc508a4	-0.09620789
33	0xbe1e1955	-0.15439351
34	0xbe4fbe3e	-0.20287415
35	0xbe3d427f	-0.18482397
36	0xbe34c380	-0.17652702
37	0xbdab603c	-0.083679646
38	0xbd62c774	-0.055365995
39	0x3cdb4a43	0.02676881
40	0x3e67ce10	0.226372
41	0x3dc728f0	0.09724605
42	0xbc557ca0	-0.013030201
43	0x3b6924d9	0.0035574941
44	0xbccaea24	-0.02476985
45	0xbc686951	-0.014185266
46	0xbc083e1f	-0.008315592
47	0x3b4a85ce	0.0030902508
48	0xbb7cfc5b	-0.0038602564
49	0x3d3c194a	0.045922555
50	0x3d8118f4	0.063035876
51	0x3d67f804	0.05663301
52	0x3da2bfd1	0.07946742
53	0x3cab35da	0.020899702
54	0xbe35a283	-0.17737775
55	0x3e858014	0.26074278
56	0xbef69384	-0.4815942
57	0xbdd9f1b5	-0.10641805
58	0xbe03d9a2	-0.12875989
59	0xbc34789b	-0.011015083
60	0xbd1be204	-0.038057342
61	0xbd585828	-0.052818447
62	0xbd99c9cc	-0.07509193
63	0xbd7f9fe2	-0.062408336
64	0xbce3ad73	-0.027792668
65	0x3cb66937	0.022266967
66	0x3d0200c5	0.031739015
67	0x3cd9ec8d	0.026602054
68	0x3c7b94a7	0.015355266
69	0x3c152df7	0.009105197
70	0x3aa6d61d	0.0012728606
71	0xbbaddfb3	-0.005306208
72	0x3c76fd4e	0.015075041
73	0x3c1d499a	0.0096000675
74	0x3ca3288e	0.019916799
75	0xbb115bf4	-0.0022180052
76	0xbc0b0885	-0.008485918
77	0xbd1a4951	-0.037667576
78	0xbd6bf0b4	-0.0576026
79	0xbd587fc5	-0.052856226
80	0xbd509cdc	-0.050930843
81	0x3d37c27c	0.04486321
82	0x3d6fc855	0.05854066
83	0x3e1c600f	0.15271018
84	0xbefc3477	-0.49258777
85	0x3df692f6	0.12039749
86	0x3d831412	0.064003125
87	0x3d636cde	0.055523746
88	0x3ce0fba5	0.027463743
89	0x3c2b547d	0.010457155
90	0x3d2ae051	0.04171783
91	0x3d4d6c26	0.050151967
92	0x3d0cb739	0.034354422
93	0x3cb9b7f2	0.02267072
94	0x3d312cb1	0.04325551
95	0x3d5fd883	0.05464984
96	0x3d335b74	0.04378839
97	0x3df1bef0	0.118039966
98	0x3d94f90e	0.07274066
99	0x3d031bd3	0.032008957
100	0x3d239de7	0.03994551
101	0x3cf55fed	0.029952968
102	0x3ccc14e0	0.024912298
103	0x3c918819	0.017765092
104	0x3cb60414	0.022218741
105	0x3d230677	0.039801087
106	0xbc3a42c7	-0.01136846
107	0xba5843d6	-0.00082498544
108	0x3bc9891e	0.006150379
109	0x3da735bd	0.08164547
110	0xbd3b994a	-0.045800485
111	0x3f379f33	0.71727294
112	0x3f03537d	0.5129927
113	0x3dbb7c52	0.091545716
114	0x3e1fbe94	0.15600044
115	0x3e0fc544	0.14040095
116	0xbc9e2856	-0.019306343
117	0x3c0fe57b	0.00878274
118	0x3cef1bfc	0.029188149
119	0x3da37dc6	0.07982974
120	0x3e2bdd7a	0.16783705
121	0x3dfe23d7	0.1240918
122	0x3e5c9b8f	0.21543716
123	0x3c1961f7	0.009361736
124	0x3e100307	0.14063655
125	0x3f4b11d4	0.7932408
126	0x3f5f0634	0.8711884
127	0x3f0e7a20	0.556551
128	0x3f0c47c8	0.5479703
129	0x3f143b86	0.57903326
130	0x3edfb661	0.43693832
131	0x3ef6f353	0.48232517
132	0x3f37a75f	0.71739763
133	0x3df7c7e2	0.120986715
134	0x3ed321cb	0.4123672
135	0x3e8f5d35	0.280008
136	0xbd64a49f	-0.055821057
137	0x3dab0c72	0.08351983
138	0xbfb19f71	-1.3876783
139	0xbfe92551	-1.8214513
140	0xbeba95ad	-0.3644232
141	0xbd1e3140	-0.038621187
142	0xbd498878	-0.049202412
143	0x3d447a98	0.047968477
144	0x3db05b49	0.08611161
145	0xbcf98567	-0.030459119
146	0x3c99047f	0.018678902
147	0xbd69936c	-0.057025358
148	0xbd60633a	-0.05478213
149	0xbd6637e0	-0.05620563
150	0xbdd8fbc8	-0.105948985
151	0xbdb51e03	-0.08843615
152	0x3b3fa5b8	0.0029243063
153	0x3ced0a01	0.028935434
154	0x3d827a59	0.06370992
155	0xbd56f4e0	-0.052479625
156	0xbd8f77b7	-0.07005256
157	0xbd61a9a5	-0.055093426
158	0xbcf74f58	-0.030189201
159	0xbd4e4000	-0.050354004
160	0xbb002262	-0.0019551744
161	0x3c3cd672	0.011525737
162	0x3da7d2ff	0.08194541
163	0x3d546eb2	0.05186338
164	0x3dd72803	0.105056785
165	0x3c17bdb9	0.009261542
166	0x3b780603	0.003784538
167	0x3ed4293a	0.41437703
168	0x3e334b08	0.17509091
169	0xbea982d2	-0.3310762
170	0x3decd36c	0.11563763
171	0xbe7bb3f1	-0.24580361
172	0xbcfcfa8b	-0.030881187
173	0x3c8b072f	0.016971199
174	0xbd433d52	-0.0476659
175	0x3d4804e3	0.048832785
176	0xbd7fd043	-0.062454473
177	0xbca0d047	-0.019630564
178	0x3e029d1d	0.12755246
179	0x3e4f6065	0.20251615
180	0x3e1e03f1	0.15431191
181	0xbd221802	-0.039573677
182	0xbe8189e9	-0.2530053
183	0xbe3115d1	-0.17293479
184	0xbd98c57b	-0.074595414
185	0xbcef66d0	-0.02922383
186	0xbc2a6cfe	-0.010401962
187	0xba52d01c	-0.0008041875
188	0xbb502ebc	-0.0031766137
189	0x3dd1ef4f	0.102507226
190	0x3dcd5d6d	0.10027585
191	0x3e555996	0.20834956
192	0x3de05987	0.10954576
193	0x3ea142bf	0.31496236
194	0x3e014f7b	0.12627976
195	0x3dcfb95a	0.10142775
196	0x3c1de7a8	0.009637751
197	0xbc347465	-0.011014079
198	0xbeea3538	-0.45743728
199	0x3d8473ae	0.06467377
200	0xbcdcc67f	-0.026950119
201	0xbd1fc785	-0.039008636
202	0xbcb90cd1	-0.02258912
203	0xbbd67373	-0.0065445243
204	0xb9c59d1b	-0.0003769182
205	0x3cfd0a12	0.030888591
206	0x3d95a2a8	0.07306415
207	0x3d3bfb00	0.04589367
208	0x3e22ac7c	0.1588611
209	0x3e14bd35	0.14525302
210	0x3cae71ea	0.021294553
211	0x3cd27d50	0.02569452
212	0x3bc3805a	0.0059662284
213	0xbbf2cead	-0.0074098916
214	0x3cb1853a	0.021669973
215	0xbbb21752	-0.005434909
216	0x3b6f9adc	0.003656081
217	0xbd1306f4	-0.035895303
218	0xbd5cc609	-0.0538998
219	0xbd8d6b16	-0.06905191
220	0xbda5278b	-0.08064183
221	0xbcdc6973	-0.02690575
222	0x3f13d2ca	0.57743514
223	0xbf1d9750	-0.6155901
224	0xbf5ea242	-0.86966336
225	0x3e910b44	0.28328907
226	0x3d260ec5	0.04054143
227	0x3b57ec49	0.0032947233
228	0xbd9e60a2	-0.07733275
229	0xbd6996d1	-0.057028595
230	0xbd456490	-0.048191607
231	0xbcad4872	-0.021152709
232	0x3c61bbeb	0.013777713
233	0x3d0e9e4a	0.034818925
234	0x3cc9dbb4	0.024640895
235	0x3d979e0d	0.07403193
236	0x3d588bc4	0.052867666
237	0xbdc8d59b	-0.09806367
238	0xbdc17599	-0.09446258
239	0x3e1649bd	0.14676566
240	0x3e282390	0.16419816
241	0x3e1a180e	0.15048239
242	0x3d585a04	0.05282022
243	0x3d34f478	0.044178456
244	0xbd3d075b	-0.046149593
245	0x3cb85546	0.022501599
246	0xbccddffd	-0.02513122
247	0xbe025cd8	-0.1273073
248	0x3df4497a	0.11928077
249	0xbcdf2c78	-0.027242884
250	0x3e0e518b	0.13898294
251	0x3f19a65f	0.6001949
252	0xbeb27021	-0.34851173
253	0xbe082290	-0.13294435
254	0x3d560d7a	0.052258946
255	0x3c77f0f4	0.015133131

weight_hh_l0 f4 [80, 20]
0	0x40510b80	3.266327
1	0xbf948c53	-1.1605324
2	0x3f9c959b	1.2233156
3	0xbec71549	-0.38883427
4	0x3ffcf9c1	1.9763719
5	0x3f2c8a71	0.67398745
6	0xbd89f88e	-0.06736861
7	0x3e411bc5	0.1885825
8	0xbf72b346	-0.948048
9	0x3e3702fb	0.1787223
10	0x3f7d5d66	0.9897064
11	0x40242737	2.5648935
12	0x3f0e2d27	0.55537647
13	0xbf7171f4	-0.94314504
14	0xbf020d79	-0.5080181
15	0xbfda16ed	-1.7038246
16	0x3eb3f8db	0.351508
17	0x3ee03f31	0.4379821
18	0xbef120c8	-0.47095323
19	0x3d564e43	0.05232073
20	0x3fb284c8	1.3946772
21	0x405b1bfb	3.4235828
22	0x3ec87085	0.39148346
23	0x3eb32773	0.34991035
24	0x3e0d325b	0.1378874
25	0xbeba067a	-0.36333066
26	0xc03ef471	-2.9836695
27	0x3fcb5e63	1.588818
28	0xbfc4a6f7	-1.5363454
29	0xbe9bbd62	-0.30417925
30	0xbe7b9cde	-0.24571559
31	0x403b06f8	2.9223003
32	0x3ee7f3bd	0.45303145
33	0xc01fae65	-2.4950192
34	0x3d494a88	0.049143344
35	0xbfa16095	-1.26076
36	0x3e05b9b5	0.13059123
37	0xbe2d93a5	-0.16950853
38	0xbf3e34e9	-0.74299484
39	0x40af4a00	5.477783
40	0x3f0a8578	0.5410991
41	0xbe243e73	-0.16039447
42	0x40126de0	2.2879562
43	0x401afd6c	2.4217176
44	0x3e2ef1be	0.17084405
45	0x3dafd06d	0.08584676
46	0x3f524950	0.82143116
47	0x3f3f878e	0.74816215
48	0xbf027dee	-0.50973403
49	0xbe355577	-0.17708384
50	0x3f8f4e64	1.1195798
51	0x3f8e1a71	1.1101819
52	0x3ffbe1b0	1.9678249
53	0xbd948d61	-0.072535284
54	0x3e66d208	0.22541058
55	0xbfe5279a	-1.790271
56	0x3e2fac32	0.17155531
57	0x3f4dfe35	0.80466014
58	0xbe8bbf36	-0.2729432
59	0x3f80df3c	1.0068126
60	0x3f741f9d	0.9536074
61	0xbf0e28b4	-0.5553086
62	0x3f3927be	0.72326267
63	0x3fca2852	1.5793555
64	0x3dcdd270	0.100499034
65	0x3eb1324e	0.34608692
66	0x3f1d076b	0.61339444
67	0x3c65ddfd	0.014029977
68	0xbf875e94	-1.0575738
69	0xbedfb1d1	-0.4369035
70	0xbf977a2d	-1.183416
71	0x3f530b4c	0.8243911
72	0x3f4d786f	0.8026189
73	0xbe532cc0	-0.2062254
74	0x3e1d058f	0.15334152
75	0xbe6a7e8b	-0.22899835
76	0x3f4c967a	0.7991711
77	0x3c0bbcec	0.008528929
78	0xbc6fcaba	-0.014635736
79	0xbf37a0fd	-0.71730024
80	0xbeaf92d3	-0.34291705
81	0xbe72426c	-0.2365815
82	0x3f010fbd	0.5041464
83	0x3f747013	0.9548351
84	0xbe4a5398	-0.19758451
85	0x3e2bfb1e	0.16795012
86	0xbead878d	-0.3389248
87	0xbf88099b	-1.0627931
88	0xbfcd2371	-1.6026441
89	0xbfc08ad6	-1.5042369
90	0x3fac9f0f	1.3486041
91	0xbe3387d7	-0.17532288
92	0x3f894b84	1.072617
93	0x3f944f17	1.1586636
94	0xbf0848ae	-0.532359
95	0x3e309315	0.17243607
96	0x3db27a6c	0.08714756
97	0xbfa269cc	-1.2688537
98	0x3eb3c9c7	0.3511488
99	0xbf0071b1	-0.5017348
100	0x3f18a591	0.59627634
101	0xbf5be94d	-0.85902864
102	0x404164ba	3.0217729
103	0xbf91d8c0	-1.1394272
104	0xbf4c72cb	-0.7986266
105	0x3fe95902	1.8230288
106	0x3f15172c	0.5823848
107	0xbf832637	-1.0246037
108	0xc09980d5	-4.7969766
109	0x40145972	2.3179593
110	0x3f140e23	0.5783407
111	0x3e33e84d	0.17569084
112	0x407e741a	3.9758363
113	0xbef3a47c	-0.4758643
114	0x3e646edb	0.22307913
115	0x407ab1fa	3.9171128
116	0x3ff75470	1.9322643
117	0x3f112035	0.5668977
118	0x3e97ca9f	0.29646775
119	0xbf6d0f48	-0.9260144
120	0x4050c6c1	3.262131
121	0x3d78ca47	0.06073978
122	0x40991875	4.7842355
123	0x40cda777	6.4266925
124	0x40a74e70	5.228325
125	0xc002292d	-2.0337632
126	0xc08d4200	-4.4143066
127	0xbeba3197	-0.3636596
128	0xc0afc460	-5.4927216
129	0x3f37642b	0.7163722
130	0xbf938cd7	-1.1527356
131	0x403d7eaf	2.9608572
132	0x3fd22d4d	1.6420075
133	0x3f0dd31e	0.55400264
134	0xbfcf7531	-1.6207639
135	0xc086f934	-4.2179203
136	0x3fe99856	1.8249614
137	0x3f121904	0.5706942
138	0xbff343ad	-1.9005028
139	0x3f6f1533	0.9339172
140	0x3f505f3c	0.81395316
141	0x3faa4481	1.3302156
142	0xbecdcb66	-0.40194243
143	0xbdf62456	-0.12018649
144	0x3fa399f8	1.2781363
145	0x401b665f	2.4281232
146	0x3fe1898d	1.7620102
147	0x4018eca3	2.3894432
148	0xbff89335	-1.9419924
149	0xbf0503b4	-0.51958776
150	0xc008f0d2	-2.1396985
151	0x4024da3a	2.5758195
152	0x40568ab3	3.3522155
153	0xbff65f03	-1.9247745
154	0x3f5b3332	0.8562499
155	0xc0114ec2	-2.270432
156	0xbeb1e842	-0.3474751
157	0xbe9c59d3	-0.3053728
158	0x3e5e5146	0.21710691
159	0x3ecaba43	0.3959523
160	0xbf0558a2	-0.5208837
161	0x3f35c18f	0.7099847
162	0xc00a3cbc	-2.159957
163	0xc08700f4	-4.2188663
164	0xbfd89466	-1.6920288
165	0xbf90b860	-1.1306267
166	0x3f4f862d	0.8106411
167	0x3fbf5c34	1.4950013
168	0x40298785	2.6488965
169	0xbfb04b99	-1.377307
170	0xc09cc278	-4.898739
171	0x3ed7b8eb	0.4213327
172	0xbf8db70a	-1.1071484
173	0xbf956132	-1.1670287
174	0x3ee3dbf7	0.44503757
175	0x408c3b75	4.382258
176	0x409b299b	4.848829
177	0xbec963d4	-0.39333975
178	0x3f52cab1	0.8234053
179	0x4008c03f	2.1367338
180	0x3d06c323	0.03290094
181	0xbe211fc1	-0.1573477
182	0x3e7ee2c7	0.24891196
183	0x3e890a09	0.2676547
184	0xbae29a47	-0.001728841
185	0xbce65998	-0.028118894
186	0x3e15e88d	0.14639492
187	0xbe22307d	-0.1583881
188	0xbf3b58f6	-0.7318262
189	0x3f880aa1	1.0628244
190	0xbe6351ab	-0.22199123
191	0xbea772a9	-0.32704666
192	0x3ec1cd2b	0.37851843
193	0x3f1f6ec2	0.6227838
194	0x3e5cb558	0.21553552
195	0x3f169a36	0.5882906
196	0x3eea449b	0.45755467
197	0xbe2c76ae	-0.16842148
198	0xbc536621	-0.012902767
199	0xbe81ca05	-0.2534944
200	0x3f7d7b2f	0.9901609
201	0x3e3299c9	0.17441477
202	0xbe638f26	-0.22222576
203	0x3f02c9a9	0.5108896
204	0xbf1d2720	-0.61387825
205	0x3f06050b	0.52351445
206	0x3f0bc44e	0.5459641
207	0xbe58bdd4	-0.21166164
208	0xbe87ebdf	-0.26547143
209	0xbfe857c0	-1.8151779
210	0xc06a7578	-3.6634197
211	0x400de159	2.2168791
212	0xbf1120d6	-0.5669073
213	0xbf97e6df	-1.1867331
214	0x3a4061f7	0.00073388166
215	0xbf893889	-1.0720378
216	0x3e294234	0.1652916
217	0x3c22dd81	0.009940506
218	0x3f85ef54	1.0463662
219	0xbf418f9e	-0.7560977
220	0xbe0e36d7	-0.13888107
221	0x3e49be7e	0.19701573
222	0xbfa7ea5a	-1.3118393
223	0xbede3de8	-0.43406606
224	0x3e15d0f1	0.14630486
225	0x3f8a335a	1.0796921
226	0x3e865123	0.26233777
227	0x3f04fe81	0.5195084
228	0xbfc03eac	-1.5019126
229	0xbfc3e8c0	-1.5305405
230	0xc01ae659	-2.4203093
231	0x40251435	2.5793583
232	0x3f7231e7	0.94607395
233	0xbf9ad4b9	-1.2096168
234	0x3eb85dad	0.3600897
235	0xc028aabd	-2.635421
236	0x3f12bfb0	0.5732374
237	0x3f1d7a0e	0.61514366
238	0x3ed7bfcd	0.4213852
239	0xbf96acf0	-1.1771526
240	0x3f0a27ee	0.5396718
241	0xbd961f1d	-0.07330153
242	0x3efe8b8f	0.4971585
243	0x3ea95667	0.33073732
244	0xbf44607a	-0.7670971
245	0x3ee188e1	0.44049743
246	0x3e29c66e	0.16579601
247	0xbd9ba456	-0.07599704
248	0xbee7cef1	-0.4527507
249	0xbfacdf72	-1.350569
250	0x3f5eae37	0.8698458
251	0x3f577185	0.8415759
252	0xbfaba991	-1.3411123
253	0xbf57e553	-0.84334296
254	0x3fc2ae9f	1.520954
255	0xbfc3319c	-1.5249515

bias_ih_l0 f4 [80]
0	0xbf229aef	-0.6351766
1	0xbf92406b	-1.1425909
2	0xbfbef03f	-1.4917067
3	0xbfb04a63	-1.3772701
4	0xbf105347	-0.5637707
5	0xbfcc88c2	-1.5979235
6	0xbf04bb54	-0.5184834
7	0xbf58afcc	-0.84643245
8	0x3d9dfe23	0.07714488
9	0xbfbbc954	-1.4670815
10	0xbfa7581e	-1.3073766
11	0xbf67dabe	-0.9056815
12	0xbfb5f991	-1.4216787
13	0xbfa4ab53	-1.2864784
14	0xbf3da6df	-0.7408275
15	0xbf9f7b15	-1.2459437
16	0xbface52d	-1.3507439
17	0xbebc35de	-0.36759847
18	0xbf5d7e47	-0.8652081
19	0xbf9267bc	-1.1437907
20	0x3f954a9a	1.1663392
21	0x3f87a94e	1.0598543
22	0x4022a558	2.5413418
23	0x40196a7f	2.397125
24	0x3f4420cb	0.7661254
25	0x402cfbcf	2.7028692
26	0x3ff81322	1.9380839
27	0x3f8eda50	1.1160374
28	0x3edd3df1	0.4321132
29	0x400f6226	2.2403655
30	0x3fd86343	1.6905292
31	0x3ead49e2	0.3384543
32	0x3f7a802b	0.9785182
33	0x3f17a7ec	0.59240603
34	0x3f2dbf1e	0.67869747
35	0x3fcb84cb	1.58999
36	0x3fa3a9ba	1.2786171
37	0x3f8e9023	1.1137737
38	0x3f382d21	0.7194386
39	0x3f7acdf9	0.9797054
40	0x3e4a77df	0.1977229
41	0x3d8eff2c	0.06982264
42	0x3d9eddbc	0.07757136
43	0x3e089c5b	0.13340895
44	0x3d4cf222	0.050035603
45	0xbe0c8cdd	-0.1372561
46	0xbd185a65	-0.037195582
47	0x3dd11cd4	0.10210577
48	0xbedc89e8	-0.43073964
49	0xbe3749c3	-0.17899232
50	0xbda36024	-0.07977322
51	0x3f81a11a	1.0127289
52	0xbe40fda4	-0.18846756
53	0x3ef05455	0.4693934
54	0x3e444c10	0.1916964
55	0xbdc0d83e	-0.09416245
56	0x3f200a22	0.6251546
57	0xbccc32dc	-0.024926595
58	0x3ea77089	0.32703045
59	0xbec09744	-0.37615407
60	0x3fba276c	1.4543281
61	0x3f1b72cc	0.6072204
62	0x3fe6fbf6	1.8045642
63	0x3fe45c8a	1.7840741
64	0xbd9d6140	-0.076845646
65	0xbe04b361	-0.12959053
66	0xbea0785d	-0.3134183
67	0xbefb0ef8	-0.49034858
68	0x3ea5179c	0.32244575
69	0x3fb021cd	1.3760315
70	0x3fb05529	1.3775989
71	0x3e34266c	0.17592782
72	0x3fdd4ebe	1.7289655
73	0x3f20dd0a	0.6283728
74	0xbdc33e3e	-0.09533356
75	0x3f62d5a1	0.8860722
76	0x3d188b1c	0.03724204
77	0x3e058ce1	0.13042022
78	0xbe80b9a5	-0.25141636
79	0x3ea8fb5b	0.3300427

bias_hh_l0 f4 [80]
0	0xbf42462a	-0.7588831
1	0xbf6b299a	-0.91860354
2	0xbfdb698e	-1.7141588
3	0xbfb5962c	-1.4186454
4	0xbf01c7b6	-0.5069536
5	0xbfb5224d	-1.4151093
6	0xbf2400eb	-0.640639
7	0xbf9c69dd	-1.2219807
8	0xbc70cd43	-0.014697376
9	0xbf9bd87c	-1.2175441
10	0xbfaac2c8	-1.3340693
11	0xbf50da8e	-0.8158349
12	0xbfd511f2	-1.6646101
13	0xbf8302da	-1.0235245
14	0xbf0de501	-0.5542756
15	0xbf6b18e7	-0.9183487
16	0xbfb6f656	-1.4293926
17	0xbebab5bb	-0.36466774
18	0xbf4f4f0a	-0.8097998
19	0xbfb5138f	-1.4146594
20	0x3f9dfa3c	1.234199
21	0x3f75b385	0.9597705
22	0x40218874	2.5239534
23	0x401b011c	2.4219427
24	0x3f5c96a2	0.8616735
25	0x4041fe12	3.0311322
26	0x3fe9cadb	1.8265032
27	0x3fbc86d5	1.4728647
28	0x3ef2b8bb	0.47406563
29	0x400e5598	2.2239742
30	0x3fda0b00	1.7034607
31	0x3ecc2c90	0.39877748
32	0x3f56fbb2	0.83977807
33	0x3f1bc426	0.60846174
34	0x3f4707a9	0.77746063
35	0x3fe8452e	1.8146112
36	0x3f8dbfd3	1.1074165
37	0x3f9426ee	1.157438
38	0x3f3442ca	0.7041441
39	0x3f9879fc	1.1912227
40	0x3f132ab5	0.5748704
41	0x3e6bef60	0.23040533
42	0x3e9fce65	0.31212154
43	0x3ea1fd62	0.31638628
44	0x3ccc2f8e	0.02492502
45	0x3dd3b26c	0.10336766
46	0xbd605adb	-0.054774147
47	0x3e2ae0c1	0.166873
48	0xbf041a11	-0.51602274
49	0x3dba0486	0.09082894
50	0xbe91f3e6	-0.28506392
51	0x3f2e919c	0.6819093
52	0xbe047df4	-0.12938672
53	0x3ebf0484	0.37308133
54	0x3dc6586f	0.09684836
55	0x3d8f9795	0.07011334
56	0x3f4f5695	0.8099149
57	0xbe50a057	-0.20373665
58	0x3ebc2280	0.3674507
59	0xbe12a2b0	-0.14319873
60	0x3f9baaac	1.216146
61	0x3f221103	0.6330721
62	0x3fc00f24	1.500462
63	0x3fb93ca5	1.4471632
64	0xbe5896f4	-0.21151334
65	0x3cb8d2c4	0.022561438
66	0xbc92fd85	-0.017943153
67	0xbec76b97	-0.38949272
68	0x3ec9e7b9	0.39434603
69	0x3fb8ee48	1.4447718
70	0x3fa87e70	1.3163586
71	0x3da8045b	0.08203956
72	0x3ffb0df4	1.9613633
73	0x3f3e4d26	0.7433647
74	0xbdae12ec	-0.08499703
75	0x3f8f740b	1.1207289
76	0x3c28dfd3	0.01030727
77	0x3ecff665	0.40617672
78	0xbd9aecb3	-0.07564678
79	0x3e70df25	0.23522623

weight_ih_l0 f4 [80, 20]
0	0xbe8da9c1	-0.27668574
1	0x3f0f39b1	0.55947405
2	0xbfef53bf	-1.8697432
3	0x3f80c58d	1.0060288
4	0xbd4d957f	-0.0501914
5	0xbfa9bce4	-1.326077
6	0xc0051b7b	-2.0798023
7	0x3de6d51d	0.11271117
8	0x3e9b41cf	0.30323645
9	0x3e87a263	0.2649108
10	0xc029cccf	-2.6531255
11	0x3e02e911	0.1278422
12	0xbeb0e164	-0.3454696
13	0xbeb6cb88	-0.35702157
14	0xbeddc39b	-0.43313298
15	0x3fc63884	1.5485997
16	0x3f84ca7d	1.0374295
17	0x3f56b59c	0.83870864
18	0x3f9cace6	1.2240264
19	0xbfb15bcb	-1.3856138
20	0x3e6c2655	0.23061498
21	0x3e111ded	0.14171572
22	0xc0559a23	-3.3375328
23	0xbfd50ba9	-1.6644183
24	0xbeefd5d9	-0.4684284
25	0x3f14d6a3	0.5814001
26	0x40978688	4.7351723
27	0x3f1df299	0.616983
28	0xbff6c7cb	-1.9279722
29	0xbf3be9af	-0.7340345
30	0x3fa21e90	1.2665577
31	0x3f2e415b	0.68068475
32	0xbf00ac4d	-0.5026291
33	0xc01bd7cd	-2.4350464
34	0xbe17256c	-0.14760369
35	0xbfa067e1	-1.2531701
36	0xbeb0de85	-0.3454477
37	0x3f0e3b4e	0.5555924
38	0xbfd6a6f6	-1.6769702
39	0x3f394e41	0.7238503
40	0xbfc74fb7	-1.5571202
41	0xc00f78d7	-2.2417505
42	0x4009954f	2.149738
43	0x3d6a7f4c	0.057250306
44	0xbf34e6d1	-0.706647
45	0x3f83d5ea	1.0299656
46	0xc07062a1	-3.7560198
47	0xbfd689ed	-1.6760842
48	0x3eb3418a	0.3501094
49	0x3ec35edf	0.38158318
50	0xbf160ed2	-0.58616364
51	0x3f688994	0.9083493
52	0x3fc2c5ec	1.5216651
53	0x402e2318	2.720892
54	0x3f8988d0	1.0744877
55	0x3ef62e61	0.4808226
56	0x3d3db9e9	0.046319876
57	0x3d4accb4	0.049511626
58	0xbd615ebb	-0.055021983
59	0x3efe38fe	0.49652857
60	0xbf9b3534	-1.2125611
61	0xbebd5700	-0.36980438
62	0x3f60e630	0.8785124
63	0xbe76ccba	-0.24101534
64	0xbe0ffc6d	-0.14061137
65	0x3ed582cd	0.41701356
66	0x3f00e307	0.50346416
67	0xbfa02b25	-1.2513167
68	0xbf5decdd	-0.8668955
69	0x3f2d8f2a	0.67796576
70	0xbdfdf472	-0.1240014
71	0xbea59df6	-0.32347077
72	0x3f5c970f	0.86168
73	0x3f031f41	0.51219565
74	0x3f0729f6	0.527984
75	0xbf866087	-1.0498208
76	0x3f4314a1	0.7620335
77	0x3e289d2f	0.16466211
78	0xbda3daa6	-0.08000688
79	0x3f021044	0.5080607
80	0x3fbda28c	1.481523
81	0xbf5c3088	-0.8601155
82	0xc01f5868	-2.489771
83	0xbeec94c5	-0.46207252
84	0x3ec8f5e2	0.39250094
85	0xbf56432f	-0.83696264
86	0xc0835587	-4.1041903
87	0xbda8d16b	-0.08243068
88	0xbfea5fbd	-1.8310467
89	0x3fb0efc8	1.3823175
90	0xbf58b748	-0.84654665
91	0x3d96bc53	0.07360139
92	0x3f807c52	1.003794
93	0x3fc13eef	1.5097331
94	0xbf2c778d	-0.6736992
95	0xc0189820	-2.384285
96	0xbf3cd1e7	-0.73757786
97	0x3ea69771	0.32537416
98	0x3f38f203	0.7224428
99	0xbfa5dc47	-1.2957848
100	0xbf99bc88	-1.201066
101	0xbf238f93	-0.6389095
102	0x4021799e	2.523048
103	0x3f9e4bdd	1.2366902
104	0x3eaf8cd0	0.3428712
105	0xbc9a9505	-0.018869886
106	0x3f91e1b0	1.1396999
107	0xc019b7d4	-2.401845
108	0xbee1a3a4	-0.4407016
109	0x3fa5ec4a	1.2962735
110	0xbe8a12e8	-0.2696755
111	0xbf956f0d	-1.1674515
112	0x3f290a5c	0.6603143
113	0xbefede8f	-0.49779174
114	0x3f1310a0	0.5744724
115	0xbf0338ac	-0.5125835
116	0x3fb8ef70	1.444807
117	0x3f210023	0.62890834
118	0xbf664bc9	-0.8995939
119	0xbe7c058f	-0.24611495
120	0xbfbf8e4c	-1.49653
121	0xbea6e8ed	-0.32599583
122	0xbf0b5f3b	-0.54442185
123	0x3fc9f9e8	1.577939
124	0x4006222a	2.0958352
125	0xbfc67b20	-1.5506325
126	0xbcbc8ac4	-0.023015387
127	0xbefc7351	-0.4930673
128	0x3fa0667d	1.2531277
129	0xc00f395f	-2.2378767
130	0x3f8ee50a	1.1163647
131	0xbfbfb75e	-1.4977834
132	0x3da13370	0.07871139
133	0x3fb1e3e7	1.3897675
134	0xbf4109b5	-0.75405437
135	0x3fcf2f8a	1.6186383
136	0x3eff8cad	0.49912015
137	0x3fbd83be	1.480583
138	0xbf728437	-0.94732994
139	0xbf018426	-0.5059227
140	0xbfc04c54	-1.5023293
141	0x40346f72	2.819302
142	0x404fb020	3.2451248
143	0xc0a26709	-5.0750775
144	0x3f3c22ce	0.7349061
145	0x403400da	2.812552
146	0xbfafed6b	-1.3744329
147	0xc02c2b8d	-2.6901581
148	0x3f25a096	0.6469816
149	0x407614e8	3.845026
150	0x401ab800	2.4174805
151	0x4006c18c	2.1055632
152	0x3f9df36d	1.2339913
153	0xbe73d44c	-0.23811454
154	0x3e28792b	0.16452472
155	0xbfc42fb0	-1.5327053
156	0xbfa9e2ca	-1.3272336
157	0x3f9d1c17	1.2274197
158	0x3e30eb03	0.1727715
159	0xbf81c8c8	-1.0139399
160	0xbfc1a1a5	-1.5127455
161	0xbe464a2b	-0.1936423
162	0x3f74aeb6	0.9557909
163	0x3e1220a6	0.14270267
164	0x3e2c88af	0.16849016
165	0xc004bcce	-2.0740237
166	0xbf63890c	-0.8888099
167	0xbed3570f	-0.41277358
168	0xbf675196	-0.90358865
169	0x3f1506ec	0.58213687
170	0x3f67d13e	0.90553653
171	0xbf8d89c3	-1.1057667
172	0x3e2bce14	0.16777831
173	0xbe402954	-0.18765765
174	0x3ddd2357	0.10797756
175	0x3efefd40	0.4980259
176	0x3f962b0f	1.173189
177	0x3d760fdf	0.06007373
178	0xbe2547fb	-0.1614074
179	0xbee27c51	-0.4423547
180	0x3e854ea6	0.26036566
181	0x3e8a183c	0.26971614
182	0xbf36d263	-0.71414775
183	0x3c8426a5	0.016131708
184	0xbdddd2e1	-0.108312376
185	0x3e89846f	0.2685885
186	0xbded330e	-0.115820035
187	0xbff929c1	-1.9465867
188	0x3ee5a33f	0.4485111
189	0xbf085957	-0.5326132
190	0x3eea1aab	0.4572347
191	0x3f1d255d	0.61385137
192	0xbfebbfab	-1.8417867
193	0x3d50710d	0.050889064
194	0xbe35f175	-0.1776789
195	0xbf45c78c	-0.7725761
196	0xbfd817f8	-1.6882315
197	0xbd0fd2d1	-0.03511316
198	0xbdb13836	-0.086532995
199	0x3ef932f9	0.48671702
200	0x4042f9f4	3.046506
201	0xbf593a27	-0.8485436
202	0xc05f2c7f	-3.4870908
203	0xc0b867f5	-5.76269
204	0xbf7a3d65	-0.9774993
205	0xc144407c	-12.265743
206	0x4044d091	3.07523
207	0x3fc81e26	1.56342
208	0xbe82c898	-0.25543666
209	0x407722df	3.8615034
210	0xbff2e5e9	-1.8976413
211	0x406d1794	3.704564
212	0x40296d79	2.6473067
213	0x3fd11b9c	1.6336551
214	0x400ba5e5	2.1820004
215	0x3eefc7ce	0.46832126
216	0xc09b92df	-4.8616786
217	0xbfc9aa1f	-1.5755042
218	0x3f314b77	0.69255775
219	0x3f823bcd	1.01745
220	0xbed5cceb	-0.41757903
221	0xbfa84a93	-1.3147758
222	0x400b4136	2.1758552
223	0xc01bd46d	-2.4348404
224	0xbd8143b2	-0.0631174
225	0x40a8b4f7	5.2720904
226	0xc002c7f9	-2.0434554
227	0x3fc67482	1.5504305
228	0xbda49f91	-0.080382474
229	0x402eb9bb	2.730086
230	0x40277e8a	2.6170983
231	0x3fe8d042	1.8188555
232	0xbebd4918	-0.3696983
233	0x3f0f86f3	0.5606529
234	0x3dcff4eb	0.10154136
235	0xc021fec0	-2.5311737
236	0xbeef839a	-0.46780092
237	0xbe8bd102	-0.27307898
238	0x3e041785	0.12899597
239	0x3fff72b4	1.995688
240	0x3e4457dd	0.19174142
241	0xbe175a68	-0.14780581
242	0x3ea7249d	0.3264512
243	0xbd87082b	-0.06593355
244	0xbda8f61b	-0.08250066
245	0x3e88fe85	0.26756683
246	0x3eca9969	0.39570168
247	0x3c1cb7c6	0.009565299
248	0xbeb3cc0a	-0.35116607
249	0xbe1a89e2	-0.1509166
250	0xbec84abc	-0.39119518
251	0xbdc99d99	-0.098445125
252	0x3e30f83e	0.17282197
253	0xbec6edb9	-0.38853243
254	0x3e88821e	0.26661772
255	0x3efd6cc0	0.49497032

weight_hh_l0 f4 [80, 20]
0	0x409b031e	4.8441305
1	0x3e49c89a	0.1970543
2	0x3fc50565	1.5392271
3	0xbe04a4be	-0.12953469
4	0x3f08a364	0.53374314
5	0x3f0c6c69	0.5485292
6	0x3f4fa6c7	0.8111386
7	0x3e877d33	0.26462707
8	0x40a89537	5.2682147
9	0x3dd42e11	0.10360349
10	0xbdb6d1a5	-0.08926705
11	0x3f04eb75	0.5192178
12	0xbe375b67	-0.17905961
13	0xbe272f21	-0.16326572
14	0xbeabbbd3	-0.33541736
15	0x3da13067	0.0787056
16	0xc00ec5db	-2.2308261
17	0x3e715b51	0.2356999
18	0xbfb2b913	-1.396273
19	0x3daed5b5	0.08536855
20	0xbed9bb1b	-0.42525563
21	0x400b38f6	2.1753516
22	0x3f6e998b	0.9320304
23	0xbd8d7fd8	-0.0690915
24	0xbf623e3a	-0.883762
25	0x40832501	4.098267
26	0xc080523b	-4.010038
27	0x3fe7d1a3	1.8110851
28	0xbf96a701	-1.1769716
29	0x3f135073	0.5754463
30	0xbee671b8	-0.45008636
31	0xbd7bcd39	-0.061475012
32	0xc10dbb54	-8.858234
33	0xc01ee44c	-2.4826841
34	0xc033e216	-2.8106742
35	0x3d1c8271	0.038210336
36	0xc0107134	-2.2569094
37	0xbde95ad5	-0.11394278
38	0xc10687ba	-8.408136
39	0xbf8ca2a6	-1.0987136
40	0x3ea08089	0.31348065
41	0x3ea60f04	0.3243333
42	0xc0c94ade	-6.290389
43	0xbf29182b	-0.660525
44	0xbddaf819	-0.10691852
45	0x405da5af	3.4632375
46	0x3fa4dbc2	1.2879565
47	0x3f4520a2	0.7700292
48	0x405fa548	3.494463
49	0x4082cd6e	4.087577
50	0xbcecdfef	-0.028915374
51	0x3f97ca1f	1.1858557
52	0xbd9c5940	-0.076342106
53	0xbfce8b49	-1.6136256
54	0xc02ec634	-2.7308474
55	0x3d67176a	0.056418814
56	0xbf9f4832	-1.2443907
57	0x3ec1a9bd	0.37824813
58	0x3ff81f98	1.9384642
59	0x3f165c30	0.58734417
60	0x3f4104fc	0.7539823
61	0x3f53b1dd	0.8269327
62	0xc01878e6	-2.382379
63	0x3e2223c5	0.15833957
64	0x41c9d103	25.227057
65	0x3fcf423d	1.6192089
66	0x403ec64b	2.9808528
67	0x3e55283b	0.20816128
68	0x3fbc9e30	1.4735775
69	0x3f9ea7f6	1.2395008
70	0x3ee6df23	0.45092115
71	0x400286e1	2.0394824
72	0x3c6aa2d6	0.01432105
73	0xbf2b3fe6	-0.66894376
74	0xc000cc7a	-2.0124803
75	0x3f66c19c	0.90139174
76	0xbf926b38	-1.143897
77	0x402a8b45	2.6647503
78	0x3e0de885	0.1385823
79	0xbf29fbb7	-0.6639971
80	0x40b41345	5.627352
81	0xbe8048b6	-0.25055474
82	0x3ff6c9ae	1.9280298
83	0x3fb347ba	1.4006264
84	0xbea5fbd1	-0.32418683
85	0xbf668a34	-0.9005463
86	0xc0760451	-3.8440135
87	0xbe1cadf7	-0.15300737
88	0x40e8cfa5	7.275347
89	0xbf8cf8f4	-1.1013474
90	0xc01f82af	-2.4923513
91	0x40beb4bf	5.9595637
92	0xbead8fca	-0.33898765
93	0x3e3d8033	0.18505935
94	0xc04be0cf	-3.1855962
95	0xbe066191	-0.13123156
96	0xbf8d903d	-1.1059643
97	0xbfafca33	-1.3733581
98	0x3f1a4141	0.6025582
99	0xbdee218f	-0.116274945
100	0xbf9db903	-1.2322086
101	0xbd7aabd7	-0.061199035
102	0x3e4e0b5d	0.20121522
103	0x3f300ee0	0.687727
104	0xbf55ded8	-0.8354316
105	0x3e73c2e7	0.23804818
106	0x3edfcab3	0.43709335
107	0xbe12afb8	-0.14324844
108	0xbdbcf09c	-0.0922558
109	0x3fd3f508	1.6559153
110	0xbd801860	-0.06254649
111	0xbee54978	-0.44782615
112	0x3f81f311	1.0152303
113	0xbeac2153	-0.33619174
114	0xbfd219cc	-1.6414123
115	0xbe07d019	-0.13262977
116	0xbf9b5378	-1.2134848
117	0xbea84d1e	-0.32871336
118	0x3f1328ec	0.57484317
119	0x3e1fa294	0.15589362
120	0xc040ae1f	-3.0106275
121	0xbd2bf4fb	-0.04198168
122	0xbf340554	-0.7032063
123	0x3eaf4970	0.34235716
124	0x3e249be0	0.16075087
125	0xc003d724	-2.0600061
126	0x407c7fa7	3.9452913
127	0x3eed97e9	0.4640496
128	0x400681a9	2.1016638
129	0xbf582afd	-0.84440595
130	0xbec914ed	-0.39273778
131	0xbeaca4f5	-0.33719602
132	0x3f4faab9	0.8111988
133	0x40204a69	2.5045416
134	0x3f52bbbc	0.8231771
135	0xbdd07f8c	-0.10180578
136	0xbdd441e1	-0.10364128
137	0xbe2dd0de	-0.16974208
138	0xbf9fcc18	-1.248416
139	0x3e131625	0.14363916
140	0x3f785d11	0.9701701
141	0x40455273	3.0831573
142	0x4093206e	4.5977087
143	0xc0a93f2c	-5.2889614
144	0xc097ef17	-4.747936
145	0x412c6ed0	10.777054
146	0xc10a6b6e	-8.651228
147	0x40647361	3.5695422
148	0xc076c96a	-3.8560433
149	0x40474da3	3.1141136
150	0xbf199cab	-0.6000468
151	0xbf8a1b57	-1.0789593
152	0x41838038	16.437607
153	0x3fc6c640	1.5529251
154	0x40069298	2.1026974
155	0x3ca6c878	0.020359263
156	0xc05f2302	-3.4865117
157	0xbf4304fa	-0.7617947
158	0x3f9af629	1.2106372
159	0xc10f0fa3	-8.941318
160	0x3ed6de06	0.41966265
161	0xbd9d0a8c	-0.07668027
162	0xbf243894	-0.6414883
163	0x3c334f79	0.010944241
164	0x3ea3bf4e	0.3198189
165	0x3ec14e33	0.37754974
166	0xbefc2454	-0.49246466
167	0x3e4364b1	0.1908138
168	0x3f2205d6	0.63290155
169	0x3f699d6b	0.91255826
170	0x3cd37b0b	0.025815507
171	0x3df32c86	0.118737265
172	0xbf408bcd	-0.7521332
173	0xbf14a1d2	-0.5805942
174	0xbeeebed6	-0.4662997
175	0x3d254024	0.040344372
176	0xbf61d39e	-0.8821353
177	0x3d9a5ba4	0.0753701
178	0xbecc0ade	-0.3985204
179	0x3e9273fa	0.28604108
180	0x3ef8962a	0.48552066
181	0x3d1a2019	0.037628267
182	0xbf347bd5	-0.7050145
183	0x3ed29c60	0.4113493
184	0x3e1e908c	0.15484828
185	0x3f039a06	0.51406896
186	0x3f60d6ca	0.8782774
187	0x3d738336	0.059451304
188	0x3fae45ac	1.3615012
189	0x3f90dbe7	1.1317109
190	0xbc901257	-0.01758687
191	0x3ee857c6	0.45379466
192	0x3d8ad453	0.06778779
193	0xbfb44943	-1.4084858
194	0x3f704bfa	0.9386593
195	0xbcfc8607	-0.030825628
196	0xc0320e5b	-2.7821262
197	0xbd0f2560	-0.034947753
198	0xbdb19f6a	-0.08672984
199	0x3db9a609	0.09064872
200	0xc0452d07	-3.0808733
201	0xbd02afe2	-0.031906016
202	0x3d5ee609	0.054418597
203	0x3f825ef5	1.0185229
204	0xbfdcd08d	-1.7251145
205	0x3f202ae5	0.6256545
206	0xc12b4e56	-10.706625
207	0x3f23581d	0.63806325
208	0x412340a1	10.203279
209	0xc13725db	-11.446742
210	0x3e9b8e14	0.30381835
211	0xbff9a7b2	-1.9504302
212	0x4014d4e4	2.3254938
213	0xbfa7b336	-1.3101566
214	0x40926e5b	4.575971
215	0x3ea78654	0.32719672
216	0xc12be5b9	-10.743585
217	0xbf3c9792	-0.7366878
218	0x3e187b3f	0.14890765
219	0x3eb3d2d0	0.35121775
220	0x3f0b4477	0.54401344
221	0x3eb7e5d8	0.35917544
222	0xbea2526b	-0.31703505
223	0xbebb1101	-0.3653641
224	0xbfcae73f	-1.5851821
225	0x40121bf7	2.2829568
226	0x4049f014	3.1552782
227	0xbdb1e30b	-0.08685883
228	0x40835b41	4.1048894
229	0x40ebcf72	7.369073
230	0xbfa886f8	-1.3166189
231	0x40a35bde	5.1049643
232	0x3f8874a7	1.06606
233	0x3fdba678	1.7160177
234	0xc0a0c04d	-5.023474
235	0xbeefeadb	-0.46858868
236	0x3dbcf224	0.09225872
237	0x3ec144e9	0.37747887
238	0x4047c854	3.121602
239	0x3dc66239	0.09686703
240	0x3db8638a	0.090033606
241	0xbe31e05b	-0.17370741
242	0xbe862c39	-0.26205614
243	0xbd915838	-0.070969045
244	0xbde3a024	-0.11114529
245	0x3e138a32	0.14408186
246	0x3e9043da	0.28176767
247	0x3e1f1818	0.15536535
248	0xbd35e0d2	-0.04440386
249	0xbe13d959	-0.1443838
250	0xbc83164b	-0.016001841
251	0xbe0a3663	-0.1349731
252	0xbe4c8b72	-0.19975069
253	0x3e31dd22	0.17369512
254	0x3e57c5a0	0.21071482
255	0x3c834285	0.01602293

bias_ih_l0 f4 [80]
0	0x3f32a1b1	0.6977797
1	0xbfd3b645	-1.6539999
2	0xbe9e46e4	-0.3091346
3	0x3f7bb236	0.98318803
4	0xbfe79f8b	-1.8095564
5	0xbe864b8d	-0.26229516
6	0x3f358ab3	0.70914763
7	0x3e945b9b	0.2897614
8	0xbf3d3071	-0.7390204
9	0x3f007ba5	0.50188667
10	0xbd50f5a3	-0.051015507
11	0x3f534f40	0.825428
12	0xbf437c1e	-0.7636126
13	0xbd88443d	-0.066536404
14	0xbf968ebe	-1.1762311
15	0xc02b975d	-2.6811135
16	0x3f6c76cc	0.9236877
17	0xc014f891	-2.3276713
18	0x3cf69350	0.030099541
19	0x4037a831	2.8696406
20	0x3dff6e9a	0.124722674
21	0xbfa61a3e	-1.2976758
22	0x400c50f6	2.1924415
23	0xbea95cc6	-0.33078593
24	0x3e60f8b0	0.21969867
25	0x3ef97b5a	0.48726922
26	0xbf62d5ae	-0.886073
27	0xbfb8719c	-1.4409671
28	0x3edab10e	0.42713207
29	0x3ecc2f95	0.39880052
30	0xbf87657c	-1.0577846
31	0xbe58be6e	-0.21166393
32	0x3f07f272	0.5310432
33	0x3f478c53	0.7794849
34	0x3f216669	0.6304689
35	0xbf1d5114	-0.6145184
36	0x3ef0e81a	0.4705208
37	0x3e4eb8e1	0.20187713
38	0x3f4a19d6	0.7894567
39	0xbfa0a345	-1.2549826
40	0xbe833053	-0.25622806
41	0x3f1fbfea	0.6240221
42	0xbdfb60c4	-0.12274316
43	0x3f11e4c8	0.5698972
44	0xbeb9e638	-0.36308455
45	0x3f591a41	0.84805685
46	0xbcc51cb7	-0.024061544
47	0xbd09b318	-0.033618063
48	0x3ee8f33d	0.45498076
49	0xbe96f5fb	-0.29484543
50	0x3e7152a4	0.23566681
51	0x3deb937b	0.11502739
52	0x3e8a8ecf	0.2706208
53	0x3d4697bd	0.048484553
54	0x3dddff6d	0.10839734
55	0xbe7758bd	-0.24154945
56	0x3f1fb5d5	0.6238683
57	0xbca6bac6	-0.020352732
58	0xbd48937d	-0.04896878
59	0xbfda5e74	-1.7060075
60	0x3fc1178d	1.5085312
61	0xbfbf60d3	-1.4951423
62	0xbfc2256c	-1.516767
63	0x40291f05	2.6425183
64	0xbf617348	-0.8806653
65	0xbf29e094	-0.66358304
66	0x3ea8ad39	0.32944658
67	0xc05461b9	-3.3184645
68	0x3e5d0b41	0.21586324
69	0xbf236d43	-0.63838595
70	0xc007a831	-2.1196406
71	0xc00424f3	-2.0647552
72	0xbf4adbd9	-0.7924171
73	0x3e91f538	0.285074
74	0x3ea59d17	0.32346413
75	0x3dde9422	0.10868098
76	0x3e1f9fb7	0.1558827
77	0xbee45f8f	-0.44604155
78	0x3f166076	0.5874094
79	0xbd020242	-0.031740434

bias_hh_l0 f4 [80]
0	0x3f1e6f70	0.6188879
1	0xbfee68ea	-1.8625767
2	0xbdf79fe9	-0.12091047
3	0x3f8277d0	1.0192814
4	0xbfd414e4	-1.6568875
5	0xbe18fefb	-0.14941017
6	0x3f3d1fa4	0.73876405
7	0x3e71d46c	0.23616189
8	0xbf306db1	-0.68917376
9	0x3f3271f4	0.6970513
10	0xbe8aeb5b	-0.27132687
11	0x3f2be9a6	0.67153394
12	0xbf6deab9	-0.92936283
13	0xbd30c1e9	-0.043153677
14	0xbfac667f	-1.3468779
15	0xc028f818	-2.6401424
16	0x3f675968	0.903708
17	0xc00a2eef	-2.1591146
18	0xbeb79adb	-0.35860333
19	0x403eefed	2.983394
20	0xbc71524a	-0.014729092
21	0xbfb2214e	-1.3916414
22	0x4015c756	2.3402915
23	0x3d80eff5	0.06295768
24	0x3e6acf08	0.22930539
25	0x3f0c3a96	0.54776895
26	0xbf42c991	-0.76088816
27	0xbf9e359c	-1.236011
28	0x3e9eaeb8	0.30992675
29	0x3eb63fb9	0.35595492
30	0xbf976e1b	-1.1830477
31	0xbe5e5f38	-0.2171601
32	0x3eec54c9	0.46158436
33	0x3f3db6ec	0.7410724
34	0x3f6a3cbd	0.9149893
35	0xbf3ec63c	-0.7452123
36	0x3ec60f29	0.3868344
37	0x3e35e339	0.1776246
38	0x3ebf1246	0.3731863
39	0xbfd0d2cc	-1.631433
40	0xbe56daed	-0.20981951
41	0x3ed28ae7	0.411216
42	0x3b2d3c92	0.0026433808
43	0x3efa663c	0.48906124
44	0xbeda0b24	-0.42586625
45	0x3f3ade54	0.72995496
46	0x3cb1632d	0.021653736
47	0xbea63b1d	-0.32466975
48	0x3f1cbc4d	0.61224824
49	0xbf08f54b	-0.5349929
50	0x3e4a6f4e	0.19769022
51	0x3eae9c8d	0.34103814
52	0x3e5417e3	0.20712237
53	0x3cfcb3e8	0.030847505
54	0xbe91b910	-0.28461504
55	0xbe4bdd25	-0.19908579
56	0x3f070630	0.52743816
57	0x3e9e1e70	0.30882597
58	0xbec0306d	-0.37536946
59	0xbfde8830	-1.7385311
60	0x3fa470ab	1.2846884
61	0xbfd88975	-1.6916949
62	0xbfdd3e04	-1.7284551
63	0x40228802	2.5395513
64	0xbf802f51	-1.001444
65	0xbe7b8ad3	-0.24564676
66	0xbdd43592	-0.1036178
67	0xc049dfc5	-3.1542828
68	0x3f1705c4	0.5899317
69	0xbf1776c5	-0.591656
70	0xc0064fea	-2.0986276
71	0xc00d1d12	-2.2048993
72	0xbf02f8be	-0.511608
73	0x3e175536	0.14778599
74	0x3ef2f9b0	0.4745612
75	0x3e8334a8	0.2562611
76	0x3e447fed	0.19189425
77	0xbeb22b06	-0.3479845
78	0x3f5e24e7	0.8677506
79	0x3e75d859	0.24008311

weight f4 [28, 20]
0	0x37952b2e	1.7782291e-05
1	0x371e08cf	9.419585e-06
2	0xb9224374	-0.00015474652
3	0x377df10a	1.5136096e-05
4	0x376cd896	1.4117124e-05
5	0xb8399ab8	-4.425153e-05
6	0x3779faf1	1.4899983e-05
7	0xb8a8d6bd	-8.0508624e-05
8	0x3865cacc	5.4786724e-05
9	0xb8add069	-8.288102e-05
10	0x378e8023	1.6987387e-05
11	0x392c590a	0.00016436368
12	0xb81415ce	-3.5306257e-05
13	0x378fa049	1.7121567e-05
14	0x37d4bc7c	2.536014e-05
15	0x3892463e	6.974906e-05
16	0xb7f0d577	-2.8709632e-05
17	0x379c5153	1.8634519e-05
18	0x3748f463	1.197783e-05
19	0xb8db5e5f	-0.00010460312
20	0x39051caa	0.00012694547
21	0x3af3954d	0.0018583924
22	0xb9cc01fa	-0.00038911385
23	0x370ead10	8.504154e-06
24	0x3a7a31cd	0.0009544164
25	0x39d92b24	0.00041421608
26	0x39bd9353	0.00036158654
27	0x38f97b02	0.00011896157
28	0x398ac628	0.0002646905
29	0xb95fcd02	-0.00021343309
30	0x38588a30	5.162711e-05
31	0x39e3dbab	0.0004346048
32	0x38c0abd3	9.187278e-05
33	0x3902e6b9	0.00012483717
34	0x3842d740	4.645367e-05
35	0x399e0d09	0.0003014582
36	0xb872d91c	-5.7899495e-05
37	0x3a96b62c	0.0011498383
38	0xb94a6f7c	-0.00019305752
39	0xba3e5a99	-0.0007261425
40	0x3a2140e5	0.00061513326
41	0x3cc27cf4	0.023741223
42	0xbaeabbbd	-0.0017908734
43	0x3ab53d8b	0.0013827545
44	0x3ac3c72a	0.0014936675
45	0xba4d3261	-0.00078276364
46	0x3b7c5f6c	0.0038509024
47	0xbbb30f56	-0.0054644747
48	0x3b2d69d1	0.0026460777
49	0xba0dab87	-0.0005404283
50	0xbc15de49	-0.009147235
51	0xbb190067	-0.0023346187
52	0xbb6eae2c	-0.0036419732
53	0xb9d29b69	-0.0004017011
54	0x3a03ee5a	0.00050327706
55	0xb8f852b2	-0.00011840965
56	0xbb3840c9	-0.0028114787
57	0x3aaec025	0.001333241
58	0xba26ad6c	-0.00063582393
59	0xbc74ead9	-0.01494857
60	0x3baa5005	0.0051975274
61	0x3e41746e	0.1889207
62	0xbca500ed	-0.020142043
63	0x3bc7d028	0.006097812
64	0x3b6a068b	0.0035709466
65	0xbb010412	-0.0019686264
66	0x3c60c9fa	0.01372003
67	0xbd0008d7	-0.03125843
68	0x3c210d1a	0.009829784
69	0xbba10012	-0.0049133385
70	0xbd0e3926	-0.03472247
71	0xbc5e74d0	-0.013577655
72	0xbc87fe60	-0.016600788
73	0xbad0ae5c	-0.0015921104
74	0x3bcf76d5	0.0063313046
75	0xbbf30111	-0.0074158986
76	0xbc32dea3	-0.010917339
77	0xbabf9bc2	-0.0014618563
78	0xbbad9c20	-0.0052981526
79	0xbdd31660	-0.10307002
80	0x3c7a51aa	0.015278259
81	0x3f511f6e	0.8168858
82	0xbd6bcf0a	-0.057570495
83	0x3cd16545	0.025560984
84	0xbaafbde2	-0.001340803
85	0xbc31659b	-0.010827447
86	0x3cc6d811	0.02427295
87	0xbdd36e31	-0.10323752
88	0x3c94fbf2	0.018186543
89	0xbca8ca9f	-0.02060443
90	0xbdaf67aa	-0.08564694
91	0xbd0de2e0	-0.034640193
92	0xbd283637	-0.04106733
93	0xbb48ef4f	-0.0030660217
94	0x3bcabd4f	0.006187118
95	0xbc618adc	-0.013766017
96	0xbc8c0ac5	-0.017094979
97	0xbc4871fe	-0.012234209
98	0xbc357b39	-0.011076742
99	0xbedcc1dc	-0.43116653
100	0x3c6b70cd	0.0143701555
101	0x40074d88	2.1141071
102	0xbd795088	-0.060867816
103	0x3d410b1c	0.047129735
104	0x3c7232ef	0.014782651
105	0xbd001857	-0.031273212
106	0x3cbd8fc0	0.023139834
107	0xbe2b4848	-0.16726792
108	0x3cbc6368	0.02299662
109	0xbc966df4	-0.018362977
110	0xba748f86	-0.0009329248
111	0xbb80a19d	-0.003925516
112	0xbd86d6be	-0.065839276
113	0xbb94a6f7	-0.0045365053
114	0xbc8247c2	-0.015903357
115	0x3bcbce0d	0.0062196315
116	0xbc5a8b79	-0.013338917
117	0x3bf6fee7	0.007537711
118	0xbbf869ec	-0.0075809862
119	0xbf531416	-0.82452524
120	0x3c09b48a	0.00840486
121	0x408c3bba	4.382291
122	0xbd84876f	-0.064711444
123	0x3d13ae26	0.036054753
124	0x3c4a7e76	0.012359252
125	0xbced1bf3	-0.028943991
126	0x3c66be18	0.014083408
127	0xbe186bfd	-0.14884944
128	0x3c14b435	0.009076168
129	0xbc93574e	-0.017985966
130	0x3bd11609	0.0063808006
131	0xbc18ac5d	-0.009318438
132	0x399591e9	0.00028528206
133	0x3c7ed510	0.015553728
134	0x3bde3e73	0.006782347
135	0x3be3d280	0.006952584
136	0xbc2d57f1	-0.010580049
137	0x3ac8ccab	0.0015319785
138	0x3ca1d16e	0.019753184
139	0xbf501d29	-0.81294495
140	0xbc137e0a	-0.009002218
141	0x40ee3ccb	7.444921
142	0xbbd08b44	-0.006364258
143	0xbd4ad8d4	-0.04952319
144	0xbc734c96	-0.0148498025
145	0x3a7c8ce2	0.000963403
146	0xbc982b71	-0.018575402
147	0x3dbd5e97	0.09246557
148	0xbc15fc3b	-0.009154375
149	0xbbe23917	-0.0069037783
150	0x3ae92d73	0.0017790034
151	0xbd45727d	-0.048204888
152	0x3e32e013	0.1746829
153	0x3d2ade72	0.041716047
154	0x3d9356a5	0.071942605
155	0xbc0e3def	-0.008681758
156	0x3b51ac81	0.003199369
157	0xbd029c90	-0.03188759
158	0x3da006ca	0.07813795
159	0x3f1fcc3b	0.62421006
160	0xbd02cd4f	-0.03193408
161	0xbfc3515c	-1.5259204
162	0x3e871ab9	0.26387575
163	0xbe668239	-0.22510614
164	0xbd017f80	-0.031615734
165	0x3db76001	0.08953858
166	0xbd72d0d6	-0.059281193
167	0x3f2b90d1	0.6701785
168	0xbce6343f	-0.028101085
169	0x3dbb944c	0.09159145
170	0x3ce9ab7e	0.028524157
171	0xbd2f60ca	-0.042816915
172	0x3ea780ab	0.32715353
173	0x3c081ea3	0.008308086
174	0x3d8485eb	0.06470855
175	0xbcc8fe2f	-0.024535267
176	0x3dc00342	0.093756214
177	0xbd1c207e	-0.038116924
178	0x3d94af71	0.07260025
179	0x40d8244c	6.754431
180	0x3c836061	0.016037168
181	0xc029c02f	-2.652355
182	0xbe200af0	-0.15629172
183	0x3aba8cda	0.0014232651
184	0x3da3430b	0.07971772
185	0x3bee7422	0.0072770277
186	0x3cce7ac6	0.025205027
187	0xbf522961	-0.8209439
188	0x3d5b8881	0.053596977
189	0xbca80cc1	-0.020513894
190	0xbcc50422	-0.024049822
191	0xbd80fae8	-0.062978566
192	0x3ea59dab	0.32346854
193	0x3d1e60c9	0.03866652
194	0x3d593870	0.05303234
195	0xbd07257e	-0.03299474
196	0x3d18ba75	0.037287194
197	0xbcfd526f	-0.030923096
198	0x3dbfbfac	0.093627304
199	0x40d1c9e4	6.555895
200	0x3c7cced7	0.015430174
201	0x3e917748	0.28411317
202	0xbe6a8e2e	-0.229058
203	0x3dcea240	0.100895405
204	0x3e025f52	0.12731674
205	0xbcee0fd0	-0.029060274
206	0xbb906695	-0.00440676
207	0xc071a138	-3.775465
208	0xbb15a52a	-0.002283404
209	0xbd9f52e3	-0.07779481
210	0x3c7c0425	0.0153818475
211	0x3d419d01	0.04726887
212	0x3d18f422	0.0373422
213	0x3ca1f42e	0.019769754
214	0x3c1b0e3b	0.009463842
215	0x3caccb70	0.0210931
216	0xbd4bb786	-0.04973557
217	0x3d55644c	0.052097604
218	0x3bd10fb3	0.0063800453
219	0xbfd437d0	-1.6579533
220	0xbdacec99	-0.08443565
221	0x3fbe6e9e	1.4877508
222	0x3fa918d2	1.32107
223	0xbf9f50d5	-1.2446543
224	0xbdbaa2ff	-0.0911312
225	0x3e531c5c	0.20616287
226	0xbb8e36ae	-0.0043400144
227	0xc035ad96	-2.8387198
228	0xbd96a37b	-0.073554
229	0x3ea47624	0.32121384
230	0xbb2f916a	-0.0026789554
231	0x3d9af000	0.075653076
232	0xbda1f8a1	-0.0790875
233	0xbae8875f	-0.0017740539
234	0x3e5bca8f	0.21463989
235	0x3c4fe16a	0.01268802
236	0x3db21ebc	0.08697268
237	0x3c7849d5	0.015154322
238	0x3c8ecedb	0.01743262
239	0xc08239b0	-4.069542
240	0xbe28fb53	-0.16502123
241	0x3ef390e2	0.47571474
242	0x402123fd	2.5178216
243	0xc0657464	-3.585229
244	0xbf0753b6	-0.5286211
245	0x3eb0fb89	0.34566906
246	0x3ea236de	0.31682485
247	0x3f48b380	0.78398895
248	0x3e23fa47	0.16013442
249	0x3f24bd76	0.64351594
250	0xbdb50e09	-0.088405676
251	0x3d57dcfa	0.052700974
252	0xbe090658	-0.13381326
253	0xbd095c78	-0.03353545
254	0x3efb4d88	0.4908259
255	0xbc15fb41	-0.009154142

bias f4 [28]
0	0xb8935a48	-7.0263224e-05
1	0xb9b89b31	-0.0003521084
2	0xbbc23706	-0.0059269695
3	0xbd354975	-0.044259507
4	0xbe46e8ff	-0.19424818
5	0xbec09369	-0.37612465
6	0xbeb7b27f	-0.3587837
7	0x3e9796bc	0.2960719
8	0x403c6da8	2.944193
9	0x402d72c5	2.71013
10	0xbf3cdba2	-0.73772633
11	0xbf5aa1a1	-0.85402876
12	0x3ff98264	1.9492917
13	0x40118e26	2.274301
14	0x3e9d64ef	0.3074107
15	0xbee9279e	-0.45538038
16	0x3cded3e2	0.027200643
17	0x3e2a9d1d	0.16661496
18	0xbd079591	-0.033101622
19	0xbd047f09	-0.032347713
20	0x3dace5dc	0.0844228
21	0x3c92b29e	0.017907437
22	0xbc447a29	-0.011992016
23	0xbd071e41	-0.032987837
24	0xbc919d37	-0.017775161
25	0xbb2aa590	-0.0026038624
26	0xbabd5627	-0.0014445231
27	0xb9bc320b	-0.0003589544
