Assignmentt2/trained_models/snp500_reconstruction_lr_0.001.pt (torch, 704927 bytes, 9 tensors)

weight_ih_l0 f4 [480, 1]
-1.0012549 0.035213083 -0.26494262 -1.3505205 -0.18866281 -0.2081658 -0.6604814 -0.076398164
-1.1152983 -0.13705982 -0.18107362 0.26165536 0.14910309 -1.3348933 -0.6788986 0.27161354
0.45814776 -0.74866337 -0.14483711 -0.620727 -0.44892845 -0.18841052 -0.18568107 -0.6117502
-0.1802345 -0.04243644 0.2598504 -0.008776408 -0.0077353725 -0.4709701 -0.28976262 -0.33432573
-1.2808179 -0.5477603 -0.4385019 -0.23798016 -0.7531053 -0.288564 -0.014221116 -1.0744914
-0.62780356 -0.32615906 -0.29272977 0.023030495 0.54443336 -1.0807713 -0.36877656 0.043699723
0.056501683 -0.3442855 -0.3272528 0.05664695 0.20094585 0.16935869 0.26382115 -1.0971147
-0.14076938 -1.1509162 0.028033884 -0.03151811 -1.231997 -0.055691518 -0.86351645 -1.1978402
0.16240165 0.07042428 -0.28483295 0.025442496 -0.044383146 -1.1416485 -0.18616046 -0.50226474
-0.050100286 -0.23702793 -0.16278177 -0.37162158 0.4009765 0.17499284 -1.1755263 -0.9035304
-0.9479016 -0.105147675 -0.8833974 -0.06397333 -0.14765015 -0.185182 -0.6989559 -0.18985963
-0.25146243 -0.1752607 -0.27369678 -0.556145 -0.9091908 0.047990225 -1.2177281 -1.0733497
-1.5159122 -0.28662008 -0.18535645 -0.26696074 -0.76228213 -0.24851032 -0.41881192 -0.23714128
-0.92888623 0.22182022 -1.1788278 -0.34622687 -0.40532094 -1.276207 -0.27964693 -0.5901328
-0.9602618 -0.27258986 -0.6439895 -0.36078244 -1.0231463 -0.02473809 -0.1413545 0.29202652
-0.39743343 -0.14235176 -0.1407702 -0.9466299 0.1829557 -0.12431725 -0.56841296 -0.16701475
-0.89343834 -0.12451564 0.023785476 0.099108435 0.08544549 -1.0066879 -0.37861204 0.30394554
0.4846694 -0.58539116 -0.14212202 -0.3599929 -0.23885624 0.2186603 -0.12959756 -0.10972957
-0.016536692 0.21223563 -0.0035447045 -0.052686147 0.23881297 -0.45132548 0.16678861 -0.12225269
-1.1291649 -0.16522948 -0.48472247 -0.05744206 -0.5475318 -0.045317713 0.01013404 -0.79898435
-0.36474785 -0.17128569 -0.20347732 0.24699241 0.55707234 -0.7786249 -0.0563198 0.25656295
-0.16208747 -0.37532663 -0.3394143 0.3514502 0.34231645 -0.011247034 0.22199544 -0.7513798
0.20520419 -0.7781576 -0.13537905 -0.02189263 -0.41765305 -0.1694951 -0.8591118 -0.652274
-0.06930774 -0.10832207 -0.32669437 0.17276873 -0.08118533 -0.44060695 0.06028686 -0.50374675
0.01894714 0.12612665 -0.060951386 -0.33791995 0.22339366 0.33181623 -0.96024024 -0.48083615
-0.12548387 -0.0942844 -0.674657 0.18290254 -0.24967873 -0.016425295 -0.3757093 0.2918659
0.030110711 -0.13164361 -0.25608492 -0.28712302 -0.4579929 -0.025080401 -0.43066618 -0.6611707
-0.95235705 0.06904151 -0.089606665 -0.262147 -0.6519788 0.078871116 -0.20589554 0.433983
-0.74430054 0.180545 -0.65932375 -0.4432469 -0.13697529 -0.76144016 -0.11273571 -0.056505848
-0.716929 -0.30623427 -0.5026121 -0.00043994325 -0.2412025 0.22341867 -0.19156803 0.10373034
-0.5140377 -0.26390243 0.16011785 -0.6815048 0.18398109 -0.35124764 -0.07041258 -0.0007188284
-0.20730504 0.16885675 0.01622717 0.020171821 0.030756913 -0.35646245 0.26341036 -0.31902397
00000000: 1f29 80bf 983b 103d 8fa6 87be dbdd acbf
00000010: d330 41be 6a29 55be 4f15 29bf a476 9cbd
00000020: 18c2 8ebf 6959 0cbe 5d6b 39be b1f7 853e
00000030: 7bae 183e c9dd aabf 4ccc 2dbf ee10 8b3e
00000040: 5892 ea3e 67a8 3fbf 2e50 14be f7e7 1ebf
00000050: f3d9 e5be b0ee 40be 2e23 3ebe a99b 1cbf
00000060: 658f 38be d5d1 2dbd 1d0b 853e ecca 0fbc
00000070: 0279 fdbb fe22 f1be c45b 94be be2c abbe
00000080: d7f1 a3bf 053a 0cbf 5283 e0be 12b1 73be
00000090: 82cb 40bf a9be 93be afff 68bc ef88 89bf
000000a0: bcb7 20bf 52fe a6be ade0 95be 73aa bc3c
000000b0: fc5f 0b3f b756 8abf 48d0 bcbe 7bfe 323d
000000c0: 4f6e 673d 3046 b0be ae8d a7be a206 683d
000000d0: c0c4 4d3e 5d6c 2d3e 9113 873e 416e 8cbf
000000e0: d925 10be 3951 93bf 51a7 e53c 2219 01bd
000000f0: 14b2 9dbf ca1c 64bd 6a0f 5dbf d452 99bf
00000100: 9e4c 263e 9b3a 903d a0d5 91be c86c d03c
00000110: 1acb 35bd 8a21 92bf d9a0 3ebe 6c94 00bf
00000120: f535 4dbd 73b7 72be 44b0 26be 2f45 bebe
00000130: cb4c cd3e 5331 333e a577 96bf c54d 67bf
00000140: aea9 72bf aa57 d7bd 5526 62bf 7304 83bd
00000150: 9a31 17be 5aa0 3dbe c6ee 32bf 906a 42be
00000160: afbf 80be 8a77 33be fc21 8cbe 855f 0ebf
00000170: bac0 68bf 6691 443d 84de 9bbf 8663 89bf
00000180: 6909 c2bf debf 92be 15ce 3dbe 14af 88be
00000190: ec24 43bf 7d79 7ebe 846e d6be 2ad5 72be
000001a0: 7dcb 6dbf d724 633e d4e3 96bf a644 b1be
000001b0: 3a86 cfbe c05a a3bf e22d 8fbe f112 17bf
000001c0: b8d3 75bf e690 8bbe 7fdc 24bf 7ab8 b8be
000001d0: 75f6 82bf 89a7 cabc 3cbf 10be 8084 953e
000001e0: 657c cbbe a9c4 11be 1026 10be 5656 72bf
000001f0: bd58 3b3e 0b9a febd 8383 11bf ea05 2bbe
00000200: 60b8 64bf 0e02 ffbd c2d9 c23c 5df9 ca3d
00000210: 0cfe ae3d 26db 80bf 70d9 c1be c09e 9b3e
00000220: 9626 f83e 32dc 15bf 6f88 11be fd50 b8be
00000230: bb96 74be 7ce8 5f3e 39b5 04be e6b9 e0bd
00000240: f577 87bc 4c54 593e 464e 68bb 6ecd 57bd
00000250: 638b 743e 2214 e7be a2ca 2a3e 9e5f fabd
00000260: 7a88 90bf eb31 29be 8b2d f8be 5e48 6bbd
00000270: 0b2b 0cbf 119f 39bd 3f09 263c 3d8a 4cbf
00000280: 3bc0 babe 8465 2fbe 5c5c 50be 94eb 7c3e
00000290: 4b9c 0e3f f653 47bf 97af 66bd 385c 833e
000002a0: 42fa 25be d02a c0be b6c7 adbe 48f1 b33e
000002b0: 1a44 af3e 7b45 38bc c652 633e 6d5a 40bf
000002c0: 0c21 523e 5635 47bf cea0 0abe 2c58 b3bc
000002d0: 9fd6 d5be 2090 2dbe c0ee 5bbf 6efb 26bf
000002e0: 37f1 8dbd f6d7 ddbd 7c44 a7be 49ea 303e
000002f0: 7f44 a6bd 3c97 e1be 5bef 763d 8cf5 00bf
00000300: 0837 9b3c 5827 013e 29a8 79bd d803 adbe
00000310: 4fc1 643e d1e3 a93e 4ed2 75bf 2830 f6be
00000320: d87e 00be 2e18 c1bd 52b6 2cbf ce4a 3b3e
00000330: c8ab 7fbe 578e 86bc f85c c0be 726f 953e
00000340: bdaa f63c 95cd 06be 901d 83be ca01 93be
00000350: 0c7e eabe 6a75 cdbc 4780 dcbe 7c42 29bf
00000360: accd 73bf a365 8d3d b383 b7bd 2238 86be
00000370: 15e8 26bf 2e87 a13d 48d6 52be 0533 de3e
00000380: 7b8a 3ebf cae0 383e 71c9 28bf 42f1 e2be
00000390: 4043 0cbe beed 42bf fbe1 e6bd ad72 67bd
000003a0: a988 37bf bdca 9cbe 30ab 00bf 2fa8 e6b9
000003b0: cafd 76be ddc7 643e 692a 44be 9370 d43d
000003c0: fa97 03bf 381e 87be eff5 233e 1977 2ebf
000003d0: 8a65 3c3e bbd6 b3be 7934 90bd c26f 3cba
000003e0: c647 54be c9e8 2c3e d8ee 843c 603f a53c
000003f0: ecf5 fb3c 3f82 b6be b9dd 863e 1c57 a3be

weight_hh_l0 f4 [480, 120]
0.06072252 0.1586941 0.15419608 -0.323923 0.28063524 0.024285858 -0.45899436 -0.044248383
-0.07079945 0.17263809 0.226799 -0.30876294 0.32547215 -0.03147114 0.17094998 0.11365538
-0.2503119 0.1105356 0.38853058 -0.5000715 0.55395716 0.059418503 0.08369962 -0.53314644
-0.21939841 0.03900948 0.08354587 0.02718886 -0.20209844 0.34443164 -0.08151643 0.2096992
0.35737774 0.3804863 0.23153009 -0.021562222 0.03306167 0.096539095 -0.056399968 0.122147895
-0.28976017 0.0053236624 -0.09947568 -0.12817816 -0.002340397 0.14129427 -0.07517457 -0.2767242
0.39656934 -0.15599467 0.1776659 0.21048778 0.03999597 0.08859366 0.049898054 0.29413745
-0.29720107 0.04421909 0.24013953 0.07930098 -0.43051526 0.2856527 -0.22034617 -0.094205536
0.27307105 -0.29133016 0.20101711 0.22191133 0.4275964 -0.40608612 0.28528938 0.061133806
-0.047792945 0.058013372 -0.286836 0.16970578 -0.38899654 0.11335288 0.13512118 -0.001846427
0.26801232 0.0872735 -0.5838363 0.14196354 0.08916561 -0.019810703 0.050493635 0.101497196
0.00790078 -0.029533809 0.08525943 0.06866201 -0.08081971 0.044685896 -0.056419775 -0.23302983
-0.13551752 0.30402324 -0.078892685 -0.17697404 0.30926645 0.076103926 -0.062174346 -0.14322995
-0.4657285 0.15894318 0.021406624 -0.107486434 0.13387424 0.14335991 -0.20119482 -0.536588
0.014976018 -0.4093803 0.010345818 0.34541044 -0.23945744 -0.06565224 -0.052718937 -0.25537848
0.25599375 0.07863928 -0.2324482 0.31354994 0.3934912 -0.23947224 -0.32215983 0.25612894
0.2200942 -0.06134367 -0.27510494 0.066914655 0.13895006 0.33230016 -0.39348683 0.26705557
0.18912584 -0.4391397 0.24178539 0.20230268 -0.014707481 -0.28664005 -0.29480416 0.04005273
0.10460181 0.18586597 -0.19528084 0.2758966 0.29435903 0.38561207 0.30080077 0.14418532
0.13882008 0.30337945 0.25251997 -0.31107447 0.27582088 0.43693513 -0.2683906 -0.42428434
0.3082463 -0.39725235 -0.072418034 -0.2717238 -0.024470123 0.18071696 0.09902782 0.25058278
-0.088824205 0.12215708 0.32007542 0.20583029 0.031979125 -0.34435624 0.057079047 0.059136644
0.28325453 -0.41343752 0.11687432 0.30273753 0.35136467 0.14813901 0.09540984 -0.23244306
0.092975676 0.18226871 -0.24652193 -0.053259194 -0.035683602 0.34100968 0.023223722 -0.28546372
-0.21561725 -0.1153853 -0.29918775 0.20852044 -0.024780912 0.16643067 0.18013659 0.35421094
0.11298943 0.3838432 -0.13311301 0.072433025 0.23092836 0.39797056 -0.3403935 -0.09232643
-0.15311255 0.14011404 0.3143843 0.064485125 0.38081563 -0.19401865 -0.2630769 -0.18852599
-0.050903723 -0.14041089 -0.311895 -0.1540112 0.20835355 -0.23773947 -0.20029807 0.070583485
0.07962588 -0.0053140623 -0.01582394 -0.26148704 -0.005053753 -0.07754609 0.34683096 0.011708777
0.0029628898 -0.31552607 -0.2602389 -0.23978026 0.11580813 0.18308564 0.02429231 0.13295723
-0.29997018 -0.14610353 0.035123874 -0.6752489 -0.03333574 -0.0022156055 0.18908006 0.056446597
-0.39180702 -0.018385815 0.2654624 0.15123059 0.06461748 -0.62536114 0.33558795 -0.23201635
00000000: 2db8 783d b580 223e 94e5 1d3e 3cd9 a5be
00000010: 6caf 8f3e 23f3 c63c 4f01 ebbe cb3d 35bd
00000020: 4dff 90bd 0ac8 303e ff3d 683e 2d16 9ebe
00000030: 49a4 a63e e2e7 00bd 830d 2f3e 27c4 e83d
00000040: e228 80be 7d60 e23d 7bed c63e b004 00bf
00000050: 23d0 0d3f d160 733d b56a ab3d 497c 08bf
00000060: faa9 60be 68c8 1f3d 191a ab3d 2cbb de3c
00000070: e5f2 4ebe 5859 b03e 16f2 a6bd 63bb 563e
00000080: 37fa b63e 1acf c23e 3916 6d3e 42a3 b0bc
00000090: ac6b 073d 4ab6 c53d a703 67bd ad28 fa3d
000000a0: 725b 94be 1e72 ae3b e8b9 cbbd 2341 03be
000000b0: 5961 19bb 72af 103e 20f5 99bd cbae 8dbe
000000c0: 230b cb3e 11bd 1fbe 0dee 353e 1c8a 573e
000000d0: d0d2 233d 9870 b53d e761 4c3d 2f99 963e
000000e0: bd2a 98be 141f 353d 23e7 753e 8d68 a23d
000000f0: 7f6c dcbe 1241 923e 6da2 61be d5ee c0bd
00000100: f8cf 8b3e 3a29 95be 6ed7 4d3e b93c 633e
00000110: eaed da3e 85ea cfbe 7311 923e 7167 7a3d
00000120: 89c2 43bd 6e9f 6d3d 2bdc 92be 5ac7 2d3e
00000130: 8e2a c7be 8e25 e83d 355d 0a3e cf03 f2ba
00000140: e938 893e 73bc b23d 4c76 15bf e45e 113e
00000150: 769c b63d 0e4a a2bc 6ad2 4e3d c3dd cf3d
00000160: 4672 013c e3f0 f1bc 7f9c ae3d ab9e 8c3d
00000170: ce84 a5bd 8f08 373d 6c18 67bd 5f9f 6ebe
00000180: 1bc5 0abe efa8 9b3e 7d92 a1bd af38 35be
00000190: 2c58 9e3e 60dc 9b3d 87aa 7ebd dfaa 12be
000001a0: f773 eebe 00c2 223e f25c af3c d921 dcbd
000001b0: 5416 093e f1cc 123e 0406 4ebe d55d 09bf
000001c0: f95d 753c 4b9a d1be 8181 293c a3d9 b03e
000001d0: 5534 75be ae74 86bd d0ef 57bd f8c0 82be
000001e0: 9d11 833e a10d a13d e706 6ebe 9e89 a03e
000001f0: ae77 c93e 3638 75be 22f2 a4be 5523 833e
00000200: 6060 613e 8043 7bbd 8eda 8cbe 8d0a 893d
00000210: ed48 0e3e 3f23 aa3e 1b77 c9be 82bb 883e
00000220: 34aa 413e ebd6 e0be 9796 773e 6f28 4f3e
00000230: a5f7 70bc 7cc2 92be 92f0 96be 550e 243d
00000240: 7939 d63d a653 3e3e b3f7 47be 5242 8d3e
00000250: 3ab6 963e f26e c53e 8f02 9a3e 51a5 133e
00000260: da26 0e3e 8d54 9b3e 4c4a 813e 2745 9fbe
00000270: 6538 8d3e f6b5 df3e 7e6a 89be cc3b d9be
00000280: 76d2 9d3e a964 cbbe e84f 94bd 621f 8bbe
00000290: 9175 c8bc de0d 393e 19cf ca3d 634c 803e
000002a0: 77e9 b5bd 7e2d fa3d ede0 a33e 2dc5 523e
000002b0: 8bfc 023d 764f b0be b8cb 693d 4439 723d
000002c0: bd06 913e 15ae d3be ce5b ef3d 6a00 9b3e
000002d0: 12e6 b33e c1b1 173e 3c66 c33d 8e05 6ebe
000002e0: 086a be3d a6a4 3a3e 3f70 7cbe 5026 5abd
000002f0: f828 12bd d298 ae3e ad3f be3c 4d28 92be
00000300: c5ca 5cbe 214f ecbd 232f 99be 6286 553e
00000310: 5701 cbbc cd6c 2a3e ba75 383e 235b b53e
00000320: 0167 e73d 1987 c43e c74e 08be c457 943d
00000330: 7c78 6c3e ccc2 cb3e 0f48 aebe a415 bdbd
00000340: 89c9 1cbe 0e7a 0f3e fbf6 a03e c710 843d
00000350: 44fa c23e d3ac 46be 04b2 86be f50c 41be
00000360: 6c80 50bd dfc7 0fbe b4b0 9fbe 1db5 1dbe
00000370: a25a 553e fa71 73be f01a 4dbe 138e 903d
00000380: e512 a33d 9621 aebb 35a1 81bc a1e1 85be
00000390: f499 a5bb 7cd0 9ebd d493 b13e 2cd6 3f3c
000003a0: 0b2d 423b a28c a1be 083e 85be f588 75be
000003b0: d02c ed3d cd7a 3b3e ab00 c73c f125 083e
000003c0: b195 99be 2a9c 15be 0dde 0f3d 1ddd 2cbf
000003d0: 0f8b 08bd b133 11bb 349e 413e 8c34 673d
000003e0: ee9a c8be d99d 96bc b0ea 873e 31dc 1a3e
000003f0: 2b56 843d ab17 20bf 2fd2 ab3e b295 6dbe

bias_ih_l0 f4 [480]
-0.45648664 0.1815119 -0.26357803 -0.33139157 -0.12034255 -0.2819319 -0.26055577 -0.13954198
-0.35013914 -0.26902562 -0.053536218 -0.08884024 -0.12633392 -0.53610235 0.018534696 0.028919496
-0.14710839 -0.1577111 -0.4266678 -0.44019395 -0.16445117 -0.23882289 -0.050709665 -0.21854988
-0.39542782 -0.22850661 -0.018824933 0.0047187894 -0.38130015 -0.4049246 -0.16428782 -0.39353904
-0.45757607 -0.31536615 -0.27634424 -0.24146713 -0.14195025 -0.3261159 -0.11868304 -0.4328082
-0.30290756 -0.13669464 -0.196098 -0.18163611 -0.13119556 -0.18872143 -0.028409837 -0.14187671
-0.26284173 -0.19598857 -0.17485665 -0.093777984 -0.17667952 -0.097229615 -0.026717795 -0.46162075
-0.05102959 -0.44550428 -0.040922757 -0.10943508 -0.5167392 -0.14963132 -0.18670483 -0.44732803
0.033672348 -0.2293261 -0.050870594 -0.364386 -0.014888888 -0.44863814 -0.20995025 -0.048229568
-0.1910083 -0.22674063 -0.16589627 -0.22230159 -0.1597447 -0.16792133 -0.39311877 -0.5163141
-0.52572453 -0.102540605 -0.38133904 -0.24322677 -0.30234644 0.0049993102 -0.13531597 -0.18297575
-0.21232383 -0.2759021 -0.3546086 -0.18072036 -0.22192325 -0.19362521 -0.44082198 -0.34374806
-0.3504469 -0.27575046 -0.33408082 -0.28972617 -0.30248663 -0.040265072 -0.15196793 -0.36135355
-0.32721785 0.044026025 -0.5070383 -0.27471825 -0.40961802 -0.3676388 -0.13256927 -0.26810333
-0.35596415 0.05801342 -0.1841605 -0.20999339 -0.5776236 -0.275897 -0.21167393 -0.10411127
0.0183412 0.030705934 -0.08070553 0.06962632 0.009047635 -0.118112616 -0.07453292 -0.19211459
-0.20374046 -0.2531223 -0.012768201 -0.11294886 -0.06820114 -0.19666204 0.1718286 0.10166227
0.0046598893 0.07644889 -0.23161401 -0.18099451 -0.24516763 0.11354983 -0.1717413 -0.18405111
-0.045024 -0.11249556 -0.0912818 0.12071347 -0.052140363 -0.16633882 0.22770657 -0.10973172
-0.13477948 -0.09771764 -0.13767911 -0.20860305 0.006857618 -0.16178186 0.031406324 -0.19737324
-0.059119314 -0.049076527 -0.11506231 -0.0122184595 -0.014701667 -0.034899484 0.14540687 0.1824299
-0.27481577 -0.11262385 -0.037791226 0.14976393 0.15489407 -0.20958376 0.1265826 -0.12059221
-0.04644086 -0.091403075 -0.014971202 0.008332231 0.17478196 0.047934756 -0.1510827 -0.09481214
0.07944978 -0.20306487 0.0876511 0.025456605 -0.030364761 0.12977049 -0.024883997 0.020161377
-0.016327407 -0.051540513 -0.021059088 -0.15075974 0.014150674 0.21833529 -0.12859271 -0.1713576
0.056884546 -0.01311034 -0.09260571 -0.096119784 -0.28456542 0.10148623 0.12494657 -0.010340967
-0.10166779 0.048139144 -0.13217239 0.0013260486 0.11532555 -0.31181785 0.18458147 0.07473329
-0.118215956 0.10215836 -0.07051532 -0.22874968 -0.15642834 0.039989695 0.07669775 0.12456937
-0.22524402 0.04118247 0.0050724107 -0.23226835 -0.015394984 0.03570026 -0.21808861 -0.043888703
0.056438677 0.063088425 -0.044251226 0.043807395 0.13424419 -0.0027253337 -0.094692096 -0.035683755
0.035895094 0.39221808 -0.022350654 0.23467354 0.2618722 -0.29181525 -0.31558198 -0.18912192
0.32152185 -0.05550398 -0.1544758 -0.052826665 0.14732192 0.2126029 -0.350438 0.03761026
00000000: 9eb8 e9be 41de 393e b3f3 86be 28ac a9be
00000010: 2876 f6bd 6159 90be 9167 85be 18e4 0ebe
00000020: 7045 b3be babd 89be cb48 5bbd dff1 b5bd
00000030: ae5d 01be 013e 09bf 13d6 973c 94e8 ec3c
00000040: 95a3 16be 057f 21be 3474 dabe 1a61 e1be
00000050: e365 28be fd8d 74be f0b4 4fbd 8acb 5fbe
00000060: 8475 cabe a3fd 69be bf36 9abc 13a0 9a3b
00000070: c639 c3be 4752 cfbe 113b 28be f37d c9be
00000080: 6947 eabe ac77 a1be fe7c 8dbe 2943 77be
00000090: 685b 11be aaf8 a6be 1810 f3bd 0999 ddbe
000000a0: b316 9bbe aef9 0bbe eacd 48be d1fe 39be
000000b0: 2158 06be 3140 41be bfbb e8bc 2148 11be
000000c0: 3193 86be 3ab1 48be 9f0d 33be ac0e c0bd
000000d0: 7aeb 34be 5220 c7bd 47df dabc 8e59 ecbe
000000e0: 6704 51bd 2319 e4be 9f9e 27bd 801f e0bd
000000f0: 0549 04bf f438 19be 8d2f 3fbe 2e08 e5be
00000100: 04ec 093d 76d4 6abe af5d 50bd cd90 babe
00000110: 86f0 73bc e6b3 e5be 33fd 56be 5e8c 45bd
00000120: ae97 43be b22e 68be b6e0 29be 07a3 63be
00000130: 1d94 23be 92f3 2bbe dd46 c9be 292d 04bf
00000140: e295 06bf cf00 d2bd df3e c3be 7010 79be
00000150: 27cd 9abe 41d1 a33b 4590 0abe ff5d 3bbe
00000160: 6b6b 59be 0a43 8dbe 428f b5be c20e 39be
00000170: d93f 63be b045 46be 6bb3 e1be bfff afbe
00000180: c76d b3be 2a2f 8dbe a40c abbe fd56 94be
00000190: 87df 9abe fdec 24bd 7b9d 1bbe 5503 b9be
000001a0: 1989 a7be a254 343d 43cd 01bf dfa7 8cbe
000001b0: 74b9 d1be 273b bcbe 3dc0 07be d744 89be
000001c0: ef40 b6be 7b9f 6d3d 9294 3cbe 8208 57be
000001d0: 24df 13bf 5f42 8dbe 0dc1 58be 4a38 d5bd
000001e0: 4940 963c 038b fb3c f148 a5bd 3e98 8e3d
000001f0: 883c 143c 07e5 f1bd b7a4 98bd b0b9 44be
00000200: 57a1 50be 3f99 81be b731 51bc bb51 e7bd
00000210: 0aad 8bbd c661 49be d6f3 2f3e 4f34 d03d
00000220: fcb1 983b 3c91 9c3d 392c 6dbe a056 39be
00000230: 390d 7bbe d08c e83d f4dc 2fbe e577 3cbe
00000240: 166b 38bd 1264 e6bd f4f1 babd a038 f73d
00000250: 2291 55bd b954 2abe e92b 693e 06bb e0bd
00000260: a203 0abe 3020 c8bd c1fb 0cbe 0a9c 55be
00000270: dfb5 e03b 25aa 25be eba3 003d 361c 4abe
00000280: 1827 72bd 7804 49bd caa5 ebbd ef2f 48bc
00000290: 43df 70bc c3f2 0ebd 8ae5 143e e7ce 3a3e
000002a0: a7b4 8cbe 55a7 e6bd f9ca 1abd b75b 193e
000002b0: 8d9c 1e3e 209d 56be de9e 013e 0cf9 f6bd
000002c0: c538 3ebd 8931 bbbd c649 75bc e983 083c
000002d0: 0bfa 323e 3c57 443d 6cb5 1abe de2c c2bd
000002e0: 91b6 a23d 3df0 4fbe 6b82 b33d 5f8a d03c
000002f0: 85bf f8bc 8ee2 043e 86d9 cbbc 7929 a53c
00000300: 0ec1 85bc 251c 53bd 1c84 acbc c360 1abe
00000310: 3bd8 673c 4993 5f3e cfad 03be 5e78 2fbe
00000320: c5ff 683d c0cc 56bc 10a8 bdbd 73da c4bd
00000330: 8fb2 91be 03d8 cf3d fde3 ff3d 296d 29bc
00000340: 3437 d0bd 8d2d 453d 3358 07be cfce ad3a
00000350: cd2f ec3d 97a6 9fbe ed02 3d3e c40d 993d
00000360: 351b f2bd 6738 d13d 566a 90bd 5b3d 6abe
00000370: c02e 20be 3ccc 233d b613 9d3d 3a1e ff3d
00000380: 5ea6 66be f3ae 283d 7736 a63b c1d7 6dbe
00000390: 3e3b 7cbc 703a 123d 9f52 5fbe a4c4 33bd
000003a0: 3e2c 673d 8134 813d c640 35bd 626f 333d
000003b0: 4f77 093e 839b 32bb eeed c1bd 2129 12bd
000003c0: bc06 133d cfd0 c83e b818 b7bc 434e 703e
000003d0: 1d14 863e cf68 95be f693 a1be 2da9 41be
000003e0: 839e a43e 2458 63bd e72e 1ebe c660 58bd
000003f0: 8fdb 163e 93b4 593e 9c6c b3be 370d 1a3d

bias_hh_l0 f4 [480]
-0.570793 0.21079879 -0.1747537 -0.3111356 -0.08142069 -0.13920233 -0.20706925 -0.05354038
-0.356871 -0.25673574 -0.082448415 -0.098454066 -0.089944996 -0.5493755 -0.07543625 0.0103192115
0.0017512084 -0.045637514 -0.3935571 -0.4847581 -0.3046807 -0.1268442 -0.025439082 -0.19100595
-0.26592556 -0.18630193 -0.067588225 0.013080471 -0.41429055 -0.27150184 -0.21884798 -0.35520005
-0.3953795 -0.2164168 -0.21734552 -0.2576007 -0.108975194 -0.28232875 -0.1084475 -0.4851833
-0.25653896 -0.07513256 -0.10784257 -0.17765494 -0.20202872 -0.20470253 -0.14088334 -0.07650657
-0.13674608 -0.11882892 -0.095193006 -0.07321194 -0.22070132 -0.10610845 -0.09579475 -0.47194737
-0.098786086 -0.5768298 -0.065242775 -0.11727817 -0.5914504 -0.024084684 -0.3033831 -0.33526337
0.06901057 -0.1416041 -0.10228551 -0.25381285 -0.081056885 -0.5058247 -0.2736629 0.018350296
-0.16647473 -0.2103419 -0.14162871 -0.18723994 -0.21134825 -0.1678574 -0.3445424 -0.5536337
-0.45144674 -0.085321665 -0.25360304 -0.13702276 -0.14873534 -0.081060775 -0.013116292 -0.2248792
-0.28707594 -0.23123918 -0.30582124 -0.115801685 -0.26247084 -0.35427493 -0.56686515 -0.34745914
-0.47940755 -0.38189873 -0.25215194 -0.30002725 -0.28740603 -0.06219145 -0.13969216 -0.23137575
-0.30847573 0.045859475 -0.46114567 -0.16828679 -0.37577325 -0.34761176 -0.16961986 -0.22963576
-0.27369556 0.08343415 -0.07791203 -0.16851565 -0.5828225 -0.30103102 -0.12652867 -0.1536792
0.014885136 0.0764013 -0.06451261 -0.016956458 0.15601625 -0.06843361 -0.20762558 -0.091800414
-0.22944877 -0.12408718 0.045591645 -0.02776858 -0.009151928 -0.18454383 0.13615197 0.1041941
0.032229815 -0.08028561 -0.29194236 -0.11683788 -0.28292316 0.06747591 -0.05214609 -0.18241835
-0.030337755 -0.054281466 -0.010134275 0.15041952 -0.07768986 -0.09336264 0.1713137 -0.2097133
-0.23805836 -0.15392898 -0.22575983 -0.15689798 0.08184629 -0.16422325 0.040965684 -0.23011924
0.020986326 0.008099859 -0.045903318 0.11931954 0.13351087 -0.12780732 0.11559065 0.20602587
-0.32112408 -0.053181373 -0.1425707 0.14195223 0.061288197 -0.19974387 0.03147088 -0.028763823
0.11141065 -0.06712291 0.06541554 -0.023588095 0.14731902 0.040602118 -0.13486668 -0.13466714
0.10216936 -0.14670505 0.0145501355 -0.15334046 0.003912807 -0.0022075125 -0.05984003 0.11948076
-0.006026813 -0.058156896 -0.09094135 -0.053657796 -0.053500075 0.10284393 -0.104412965 -0.16401811
0.14405495 0.0049056564 -0.12534462 -0.02708111 -0.23470011 0.1836806 0.16533566 0.010795241
-0.1080711 -0.06699375 -0.11844511 0.02097467 -0.023479672 -0.33663118 0.17807351 0.14116187
-0.10158115 0.22326715 -0.084920995 -0.18907496 -0.036167603 0.06801802 0.052169442 0.17675975
-0.30061153 0.07490503 0.03615438 -0.28654614 0.03593342 0.12064286 -0.19325157 -0.043731645
0.04007302 0.04362765 0.08630872 -0.019597273 0.08968065 -0.070441894 -0.112803936 -0.06396588
0.11989131 0.32877764 -0.006771961 0.17153592 0.20694366 -0.2827312 -0.38679007 -0.25309142
0.19527708 -0.07912516 -0.20309323 0.013662796 0.2359565 0.26776785 -0.32181227 0.060836785
00000000: 7d1f 12bf a3db 573e a2f2 32be 2a4d 9fbe
00000010: e4bf a6bd 0e8b 0ebe f609 54be 284d 5bbd
00000020: ccb7 b6be de72 83be b7da a8bd 49a2 c9bd
00000030: 1535 b8bd dfa3 0cbf 527e 9abd e911 293c
00000040: ce88 e53a 67ee 3abd 5180 c9be 3732 f8be
00000050: 1cff 9bbe 72e3 01be 9f65 d0bc 1097 43be
00000060: 6527 88be efc5 3ebe b26b 8abd 794f 563c
00000070: e41d d4be 4a02 8bbe af19 60be c8dc b5be
00000080: 2f6f cabe 5e9c 5dbe d38f 5ebe 3de4 83be
00000090: 632e dfbd 658d 90be b919 debd f269 f8be
000000a0: 1359 83be 1adf 99bd 91dc dcbd 2deb 35be
000000b0: 9ee0 4ebe 8a9d 51be b943 10be 7aaf 9cbd
000000c0: 2a07 0cbe 945c f3bd 8df4 c2bd 24f0 95bd
000000d0: 87ff 61be 634f d9bd 0a30 c4bd 16a3 f1be
000000e0: 5c50 cabd 1eab 13bf 019e 85bd 8a2f f0bd
000000f0: 4b69 17bf 3e4d c5bc 0855 9bbe a4a7 abbe
00000100: 6a55 8d3d aa00 11be 117b d1bd c2f3 81be
00000110: 2701 a6bd ba7d 01bf 8b1d 8cbe 5c53 963c
00000120: 5a78 2abe de63 57be 1e07 11be d4bb 3fbe
00000130: ad6b 58be cfe2 2bbe dd67 b0be f0ba 0dbf
00000140: 0724 e7be 20bd aebd 42d8 81be b24f 0cbe
00000150: 144e 18be 3103 a6bd b7e5 56bc bc46 66be
00000160: 9efb 92be f7c9 6cbe 9a94 9cbe 6f29 edbd
00000170: 9462 86be 8663 b5be 131e 11bf 2ae6 b1be
00000180: e874 f5be 3b88 c3be 0f1a 81be 2c9d 99be
00000190: e226 93be 76bc 7ebd 760b 0fbe c4ed 6cbe
000001a0: 88f0 9dbe 25d7 3b3d 491b ecbe 5f53 2cbe
000001b0: 5a65 c0be 2bfa b1be d4b0 2dbe a325 6bbe
000001c0: d321 8cbe 86df aa3d 5890 9fbd 5e8f 2cbe
000001d0: db33 15bf bd20 9abe bb90 01be 155e 1dbe
000001e0: c9e0 733c 4978 9c3d 301f 84bd 45e8 8abc
000001f0: b9c2 1f3e ec26 8cbd cd9b 54be db01 bcbd
00000200: 9ef4 6abe 6b21 febd 4ebe 3a3d ef7a e3bc
00000210: f8f1 15bc 0ff9 3cbe 6c6b 0b3e b763 d53d
00000220: 6903 043d c86c a4bd 7879 95be b348 efbd
00000230: 4edb 90be cf30 8a3d 2397 55bd e0cb 3abe
00000240: e286 f8bc 3e56 5ebd 3b0a 26bc 9307 1a3e
00000250: dc1b 9fbd e934 bfbd dc6c 2f3e 15bf 56be
00000260: 92c5 73be 8f9f 1dbe 962d 67be dda9 20be
00000270: 079f a73d 242a 28be a2cb 273d 61a4 6bbe
00000280: 84eb ab3c 45b5 043c 1e05 3cbd ce5d f43d
00000290: 13b7 083e ecdf 02be caba ec3d 72f8 523e
000002a0: 606a a4be b6d4 59bd 0efe 11be ed5b 113e
000002b0: 5509 7b3d a889 4cbe 9ce7 003d 1ca2 ebbc
000002c0: 442b e43d bc77 89bd 95f8 853d d23b c1bc
000002d0: ccda 163e 684e 263d 7e1a 0abe 2fe6 09be
000002e0: 2b3e d13d d939 16be b163 6e3c 4805 1dbe
000002f0: 0137 803b eaab 10bb d21a 75bd 54b2 f43d
00000300: 927c c5bb ed35 6ebd 753f babd 47c8 5bbd
00000310: e522 5bbd d79f d23d 77d6 d5bd 5df4 27be
00000320: 2483 133e a1bf a03b 575a 00be 34d9 ddbc
00000330: 3a55 70be c416 3c3e c04d 293e 86de 303c
00000340: 6254 ddbd 0534 89bd 5a93 f2bd 12d3 ab3c
00000350: 7158 c0bc ec5a acbe e758 363e bd8c 103e
00000360: c709 d0bd 25a0 643e 0feb adbd de9c 41be
00000370: 7b24 14bd 084d 8b3d a0af 553d 8200 353e
00000380: c1e9 99be cf67 993d 9d16 143d 2db6 92be
00000390: ec2e 133d 9b13 f73d bde3 45be f41f 33bd
000003a0: 9b23 243d e8b2 323d a0c2 b03d 768a a0bc
000003b0: 7daa b73d d743 90bd c005 e7bd 8b00 83bd
000003c0: 9389 f53d 8b55 a83e 54e7 ddbb 1da7 2f3e
000003d0: 0ae9 533e 25c2 90be 5909 c6be 3395 81be
000003e0: b7f6 473e 5f0c a2bd acf7 4fbe ebd9 5f3c
000003f0: 959e 713e de18 893e 94c4 a4be fe2f 793d

weight_ih_l0 f4 [480, 120]
-0.088335894 -0.42205885 0.17026599 -0.030222513 0.39983907 -0.26224804 0.01814566 -0.019502213
-0.2597894 0.104657374 0.030648578 0.43189445 0.029414505 -0.08858014 0.51121473 0.13886422
0.16786909 -0.12519905 0.28839946 0.15851426 -0.3829456 -0.11634951 -0.096775666 0.2758673
0.04066295 -0.08296805 -0.34729484 -0.08110071 0.10654258 0.30301136 -0.019496547 -0.25878048
-0.047010064 0.14389904 0.35527965 0.027141882 -0.29007676 0.29378635 -0.011556999 0.03016684
-0.49537662 0.25591487 0.24899438 -0.061668556 -0.2590025 -0.27070296 -0.18605052 0.28390327
-0.31147105 -0.116883166 0.23649837 0.12658297 0.075665615 -0.09335687 0.034445547 -0.26383755
0.51543564 0.23611012 0.1296798 0.19580829 0.004289879 -0.037138723 -0.24615698 0.09643004
-0.044368368 0.41684026 -0.10634797 -0.10326693 -0.18418553 -0.0036632535 0.01193848 -0.051770043
-0.5173967 0.16502772 -0.30884078 0.010211 -0.3521934 -0.718034 -0.26370415 -0.14681725
-0.010103062 0.268205 -0.23292345 0.078638166 0.4396648 -0.051523793 0.48198807 -0.2762953
-0.032240108 -0.099049985 0.33107907 -0.14716403 -0.059738558 -0.19848664 -0.13661568 -0.06435889
0.393247 0.044309977 0.013017534 0.011692289 0.04086286 -0.07589297 -0.41490114 0.38465765
-0.23876725 -0.12885429 -0.37909275 0.17185006 0.11729939 0.10283843 -0.23273775 -0.12990196
0.21915968 -0.13407747 0.11927778 0.07897147 -0.34290856 0.14789788 -0.057619564 0.313948
0.07479561 -0.047042746 0.2322202 0.06152758 0.10640506 -0.12396442 -0.2340257 -0.18213494
0.15970756 -0.115306206 -0.041313086 -0.044949338 0.077416785 0.20360996 0.18567327 0.08122444
-0.08392439 -0.111146264 0.18862936 0.18776916 -0.12387551 -0.14188768 0.122507945 0.028102675
0.058143653 -0.09305965 -0.2669813 -0.0067426357 -0.017060958 0.12911157 -0.13169236 -0.36500975
0.105159454 -0.027158538 -0.01096171 0.18268801 0.016837602 0.05573839 0.0005622133 0.37406403
-0.21293367 -0.033344798 -0.14841118 0.14921288 -0.05334666 -0.028558515 0.14342865 0.022007445
0.13511501 0.03370304 0.18017207 -0.002263391 0.17993788 0.046111923 -0.036004636 0.098542385
-0.010847841 -0.14875652 -0.13231584 0.1206814 -0.040365614 -0.15364285 -0.027401637 0.22999735
0.067207605 0.07518274 0.18469502 0.031820804 -0.05422312 -0.06606169 0.07386838 -0.2928836
-0.0541681 0.24758033 -0.04693279 0.23343137 -0.2945403 -0.28008226 -0.13109866 0.41038784
0.25437024 0.13856253 -0.29174063 -0.081120245 -0.1025773 0.15723042 -0.014007236 -0.35925713
-0.034176353 0.123355925 0.27789047 -0.1851376 0.03628062 0.21025302 0.0023030909 0.009022088
0.23621637 -0.34666532 -0.10406426 0.04350637 -0.21254997 -0.06339111 -0.21681747 -0.20407663
-0.13258265 -0.015201329 0.8123228 -0.091245316 0.08715647 0.20359388 -0.09113144 -0.0971177
-0.10660215 0.16343814 0.1614146 0.22891878 -0.102894805 0.082305335 0.02150373 -0.08839022
-0.02289396 -0.15997624 0.2882293 0.010651359 0.19506168 -0.21143208 -0.033890657 -0.23224048
-0.20038855 0.10190882 0.02395986 0.15796919 0.11133914 -0.14951149 0.29537594 0.11793595
00000000: 73e9 b4bd 1918 d8be 355a 2e3e 3495 f7bc
00000010: b5b7 cc3e 6045 86be 35a6 943c 1bc3 9fbc
00000020: 1e03 85be 9b56 d63d ba12 fb3c 4521 dd3e
00000030: b0f6 f03c 8169 b5bd f8de 023f 6c32 0e3e
00000040: e0e5 2b3e 2e34 00be 18a9 933e 9051 223e
00000050: 7211 c4be a748 eebd 5232 c6bd 7b3e 8d3e
00000060: 328e 263d 27eb a9bd a1d0 b1be 2118 a6bd
00000070: ff32 da3d 4e24 9b3e 39b7 9fbc e07e 84be
00000080: a08d 40bd 455a 133e 37e7 b53e a758 de3c
00000090: f184 94be 2a6b 963e 9159 3dbc 7320 f73c
000000a0: 01a2 fdbe 4607 833e 62f8 7e3e 2b98 7cbd
000000b0: fa9b 84be 9499 8abe 0784 3ebe c55b 913e
000000c0: 2279 9fbe 7160 efbd a12c 723e f79e 013e
000000d0: 93f6 9a3d e331 bfbd c616 0d3d b715 87be
000000e0: 97f3 033f dac6 713e c8ca 043e f881 483e
000000f0: 1d92 8c3b c61e 18bd 9310 7cbe 1d7d c53d
00000100: 9bbb 35bd 166c d53e f7cc d9bd 9d7d d3bd
00000110: 229b 3cbe 3213 70bb 9d99 433c d30c 54bd
00000120: 1c74 04bf 07fd 283e 6120 9ebe 0a4c 273c
00000130: b152 b4be 14d1 37bf 3b04 87be 4357 16be
00000140: 5087 25bc 2a52 893e 7c83 6ebe 0c0d a13d
00000150: bf1b e13e 9d0a 53bd 24c7 f63e 9476 8dbe
00000160: 340e 04bd b8da cabd 3283 a93e 2bb2 16be
00000170: 6bb0 74bd 1540 4bbe fbe4 0bbe 98ce 83bd
00000180: ac57 c93e 617e 353d 7f47 553c 0491 3f3c
00000190: d05f 273d c66d 9bbd ec6d d4be d9f1 c43e
000001a0: 677f 74be 61f2 03be 7218 c2be 76f9 2f3e
000001b0: aa3a f03d f49c d23d ce52 6ebe 0505 05be
000001c0: 656b 603e 9b4b 09be e947 f43d cbbb a13d
000001d0: b691 afbe 8b72 173e 7e02 6cbd cbbd a03e
000001e0: 712e 993d e5af 40bd 22cb 6d3e 5804 7c3d
000001f0: e5ea d93d 0fe1 fdbd 6fa4 6fbe 9581 3abe
00000200: 618a 233e a925 ecbd e937 29bd cc1c 38bd
00000210: b18c 9e3d 217f 503e 2221 3e3e 0059 a63d
00000220: 8de0 abbd a7a0 e3bd 0e28 413e 8f46 403e
00000230: 72b2 fdbd 014b 11be 72e5 fa3d 9537 e63c
00000240: 0a28 6e3d 0f96 bebd c6b1 88be 54f1 dcbb
00000250: 6cc3 8bbc d335 043e 5dda 06be 8fe2 babe
00000260: d75d d73d 957b debc be98 33bc 9112 3b3e
00000270: 03ef 893c f04d 643d 7f61 133a 5285 bf3e
00000280: 490b 5abe 8e94 08bd 1af9 17be 43cb 183e
00000290: 0782 5abd 8cf3 e9bc f6de 123e f548 b43c
000002a0: 975b 0a3e 330c 0a3d 077f 383e 6655 14bb
000002b0: a341 383e dbdf 3c3d 9979 13bd 97d0 c93d
000002c0: 25bb 31bc a153 18be ce7d 07be cf27 f73d
000002d0: 6a56 25bd 8d54 1dbe 6679 e0bc 6d84 6b3e
000002e0: 24a4 893d 69f9 993d b120 3d3e 8856 023d
000002f0: 1019 5ebd 5a4b 87bd 4e48 973d d7f4 95be
00000300: 5fdf 5dbd b385 7d3e 993c 40bd a208 6f3e
00000310: fccd 96be f166 8fbe ba3e 06be 5b1e d23e
00000320: d13c 823e 56e3 0d3e 075f 95be 5f22 a6bd
00000330: 0c14 d2bd 0301 213e 9b7e 65bc 8df0 b7be
00000340: 81fc 0bbd 08a2 fc3d a947 8e3e b694 3dbe
00000350: fd9a 143d 914c 573e 74ef 163b 61d1 133c
00000360: b4e2 713e 1e7e b1be a51f d5bd bc33 323d
00000370: b3a6 59be 33d3 81bd 6605 5ebe 77f9 50be
00000380: bfc3 07be ff0e 79bc 63f4 4f3f d3de babd
00000390: 177f b23d ea7a 503e 1fa3 babd a5e5 c6bd
000003a0: 3a52 dabd 545c 273e de49 253e af69 6a3e
000003b0: 83ba d2bd b38f a83d 9728 b03c ef05 b5bd
000003c0: 1d8c bbbc d0d0 23be ca92 933e 0a83 2e3c
000003d0: 40be 473e a781 58be eed0 0abd 73d0 6dbe
000003e0: a832 4dbe 92b5 d03d 7847 c43c adc2 213e
000003f0: c605 e43d 8a19 19be 843b 973e 6788 f13d

weight_hh_l0 f4 [480, 120]
-0.26914147 0.13786915 0.3463441 0.43192047 -0.15639333 -0.15823182 0.21306175 -0.08244282
-0.032003842 -0.24304068 -0.048178677 0.4523782 0.40911466 0.10165996 0.3472527 0.33212882
0.22939889 -0.13966002 -0.49666753 -0.28189155 0.3019958 -0.47101077 -0.56496555 0.13376807
-0.32752287 0.6051803 0.08740782 0.17659765 0.0660296 -0.317375 0.0892553 -0.26200864
0.15335341 0.02126792 -0.13661355 -0.2502959 0.36915228 -0.122382544 0.09794034 0.41148338
-0.4537386 -0.43572652 -0.23997742 -0.43511003 -0.059652515 -0.05443345 -0.13885583 0.13966866
-0.062874205 0.1004715 -0.32287607 -0.38180757 -0.14352252 -0.053549305 0.042083338 -0.49306577
0.18164188 -0.1484131 -0.43824401 -0.034852684 0.5423507 -0.14125022 -0.055100106 0.33953047
-0.18076302 0.38345242 -0.6187668 -0.22986357 -0.26755992 0.4482115 0.20426352 -0.02588591
-0.06552928 0.8356682 -0.2488132 0.2095898 -0.27388048 0.49315622 0.035135083 0.11814271
-0.04080914 -0.48404348 0.5062988 -0.39412305 -0.11497847 0.4629576 -0.47357085 0.32262975
-0.21271774 -0.3803323 0.020913724 0.052735176 0.13896061 -0.21244134 -0.3218735 0.042145025
0.27328497 0.36559582 -0.05055621 0.07771431 -0.013468537 0.16427673 0.20434782 -0.193125
-0.37695903 -0.2167195 -0.4935443 -0.00044280823 -0.2742189 0.24565472 -0.12862381 0.107170075
0.06399116 0.044012737 0.13351944 -0.5095333 0.12063305 -0.08711722 -0.08577399 0.46800977
0.106277555 0.17462504 0.28275234 0.072352886 0.010439656 -0.14629187 0.028393423 -0.11039052
-0.19254544 0.035226554 0.2545265 0.5192081 0.059398077 0.062195003 0.29848626 0.13538249
-0.12185167 -0.3224653 -0.06491245 0.02700694 0.35167366 -0.28941575 -0.52528536 0.32432184
-0.3401042 0.053633228 -0.0120013505 0.28605732 0.18898964 -0.3074759 -0.14998956 -0.050500806
0.3449407 -0.17053805 -0.3129941 -0.32765564 0.40321603 -0.2666085 0.17591724 0.1687644
-0.24980815 -0.17649467 -0.22742173 -0.37162173 -0.045429204 -0.31697625 0.043007944 0.0054348004
-0.050138455 -0.0019991896 -0.20791899 -0.17584945 -0.2710723 0.14440264 0.15705542 -0.26040006
0.2488328 0.048486374 0.04212511 -0.007979223 0.07811923 -0.1617977 -0.31296873 0.31074476
-0.11039508 0.18815407 -0.14925595 -0.30098024 -0.12519826 0.11772094 0.23122442 -0.25005624
-0.28347108 0.14517154 -0.08546497 0.32022083 -0.30568552 0.25069657 -0.15202788 -0.21614832
-0.12651165 -0.50556344 -0.026042761 -0.21839304 -0.043118328 0.2774529 -0.3640794 0.19157937
-0.4008673 0.013523589 0.2880558 0.09755323 0.20426455 -0.23264435 -0.5153395 -0.4081685
0.3140714 0.3471022 -0.49510607 0.075058825 0.082001686 0.09285937 0.2041432 -0.031800848
-0.2309711 -0.01832724 -0.15779871 -0.36189386 -0.15090014 0.31570256 -0.08521335 0.34108767
-0.14283939 -0.0063557457 0.31563827 -0.76413196 0.012657668 -0.23919132 0.24331827 0.3526485
-0.19288407 0.50150883 -0.079110086 0.328665 0.004036585 -0.3142877 -0.08371431 -0.041965414
-0.14680092 -0.36933348 0.108249925 0.067261554 0.20566294 -0.05379548 0.42158738 0.2158692
00000000: e9cc 89be 922d 0d3e 0454 b13e ae24 dd3e
00000010: 9325 20be 8607 22be dc2c 5a3e c8d7 a8bd
00000020: 7616 03bd a8df 78be 0157 45bd 1e9e e73e
00000030: 7a77 d13e 1933 d03d 1bcb b13e ca0c aa3e
00000040: 8be7 6a3e 0903 0fbe 354b febe 1754 90be
00000050: 329f 9a3e 5328 f1be 95a1 10bf 7ffa 083e
00000060: 14b1 a7be 19ed 1a3f df02 b33d 04d6 343e
00000070: 873a 873d fa7e a2be 7ccb b63d ff25 86be
00000080: ad08 1d3e 103a ae3c 6ce4 0bbe c926 80be
00000090: 8701 bd3e b3a3 fabd f294 c83d f3ad d23e
000000a0: 6d50 e8be 8c17 dfbe a4bc 75be bec6 debe
000000b0: 3256 74bd 9cf5 5ebd 3930 0ebe 4d05 0f3e
000000c0: 31c4 80bd 00c4 cd3d 0350 a5be 487c c3be
000000d0: 91f7 12be 8456 5bbd 945f 2c3d 1e73 fcbe
000000e0: 5400 3a3e 9bf9 17be 8561 e0be b0c1 0ebd
000000f0: 7fd7 0a3f e6a3 10be a6b0 61bd f0d6 ad3e
00000100: f119 39be e053 c43e 8067 1ebf 5b61 6bbe
00000110: 9dfd 88be fa7b e53e 752a 513e b00e d4bc
00000120: 3734 86bd 5aee 553f e3c8 7ebe b59e 563e
00000130: 103a 8cbe f97e fc3e cee9 0f3d cef4 f13d
00000140: 7c27 27bd 8cd4 f7be cc9c 013f 7fca c9be
00000150: d579 ebbd c708 ed3e e177 f2be ba2f a53e
00000160: aed2 59be eaba c2be 4253 ab3c d700 583d
00000170: b14b 0e3e 398a 59be 9acc a4be 43a0 2c3d
00000180: 02ec 8b3e 602f bb3e 0714 4fbd ae28 9f3d
00000190: 23ab 5cbc 2938 283e 8e40 513e 8fc2 45be
000001a0: c600 c1be b7eb 5dbe d7b1 fcbe b728 e8b9
000001b0: 6b66 8cbe e98c 7b3e f6b5 03be fc7b db3d
000001c0: cc0d 833d b346 343d 52b9 083e c670 02bf
000001d0: 760e f73d 836a b2bd 46aa afbd fa9e ef3e
000001e0: 0ca8 d93d e8d0 323e eac4 903e c02d 943d
000001f0: 170b 2b3c 89cd 15be 5399 e83c 6d14 e2bd
00000200: a22a 45be b849 103d 4c51 823e d2ea 043f
00000210: 664b 733d 30c0 7e3d 31d3 983e b5a1 0a3e
00000220: 5e8d f9bd 2c1a a5be d2f0 84bd a93d dd3c
00000230: 920e b43e 4d2e 94be 1a79 06bf 830d a63e
00000240: 2322 aebe 84ae 5b3d 50a1 44bc 1b76 923e
00000250: 8086 413e 7b6d 9dbe dd96 19be efd9 4ebd
00000260: 119c b03e 87a1 2ebe c340 a0be 7bc2 a7be
00000270: 5572 ce3e e980 88be a623 343e 93d0 2c3e
00000280: b5cd 7fbe 05bb 34be 3ee1 68be 3445 bebe
00000290: f913 3abd b64a a2be 1929 303d 6916 b23b
000002a0: fb5d 4dbd d604 03bb b7e8 54be e111 34be
000002b0: fdc9 8abe 49de 133e 23d3 203e 2853 85be
000002c0: 07ce 7e3e a699 463d 618b 2c3d 49bb 02bc
000002d0: fafc 9f3d 4cae 25be 703d a0be f019 9f3e
000002e0: d116 e2bd 76ab 403e 8dd6 18be 151a 9abe
000002f0: f933 00be ad17 f13d 18c6 6c3e 5f07 80be
00000300: 1f23 91be d9a7 143e 4208 afbd fcf3 a33e
00000310: d082 9cbe 4d5b 803e 32ad 1bbe fc55 5dbe
00000320: 458c 01be 9b6c 01bf a157 d5bc 6da2 5fbe
00000330: d89c 30bd 4e0e 8e3e 9d68 babe 622d 443e
00000340: 7b3e cdbe 0b92 5d3c 0d7c 933e fdc9 c73d
00000350: ba2a 513e 523a 6ebe 4aed 03bf 76fb d0be
00000360: f7cd a03e 61b7 b13e 8b7e fdbe 71b8 993d
00000370: 80f0 a73d 0e2d be3d ea0a 513e 9b41 02bd
00000380: b083 6cbe 0223 96bc fc95 21be 274a b9be
00000390: 9185 1abe c4a3 a13e 5684 aebd 0ba3 ae3e
000003a0: 7d44 12be dc43 d0bb 579b a13e 279e 43bf
000003b0: 1c62 4f3c 92ee 74be 6d28 793e 588e b43e
000003c0: 6783 45be e262 003f 7804 a2bd c746 a83e
000003d0: 5445 843b 51ea a0be 6872 abbd ede3 2bbd
000003e0: fb52 16be 4719 bdbe 23b2 dd3d 6dc0 893d
000003f0: 4e99 523e a658 5cbd 4dda d73e d10c 5d3e

bias_ih_l0 f4 [480]
0.012910449 -0.20035827 -0.323031 -0.006718601 -0.13697147 -0.0950932 -0.25383618 -0.3953887
-0.26703992 -0.08127936 -0.14761296 -0.20627277 -0.2137109 -0.39755702 -0.08052343 -0.29447818
-0.46832514 -0.25320098 -0.27073768 -0.33767664 -0.35404596 -0.17827149 -0.44809693 -0.16418904
-0.12765004 -0.14623663 -0.02236372 -0.38833517 -0.3561208 0.09032234 -0.1047597 -0.2568637
-0.51233715 -0.22385289 -0.19935033 -0.32250646 -0.3326036 -0.2368776 -0.1835346 -0.2569533
-0.0775175 -0.18328333 -0.20690556 -0.48612195 -0.21880032 -0.2350101 -0.25695783 -0.39494154
-0.18636324 -0.35932994 -0.12649041 -0.23051244 -0.3749045 -0.21270104 -0.22465996 -0.3079715
-0.2901026 -0.30434301 -0.1850317 -0.17171642 0.15744233 -0.5200957 -0.20035268 -0.38349572
-0.18689297 -0.011840135 -0.11104463 -0.12953568 -0.09473436 -0.12761562 -0.23818852 -0.20130576
-0.19439456 -0.25108957 -0.082732104 -0.32376593 -0.23838215 -0.3251802 -0.19050202 -0.18938683
-0.32362887 -0.2441921 -0.2569876 -0.27193332 -0.4026322 -0.027835183 -0.28023252 -0.3059915
-0.4304639 -0.2562449 -0.25132856 -0.3206809 -0.52531725 -0.3073755 -0.16622688 -0.09954807
-0.3307726 -0.15624289 -0.22261105 -0.3775029 -0.30861372 -0.2543465 -0.051535506 -0.32296246
-0.26345688 -0.16892822 -0.26319918 -0.24544063 -0.13486227 -0.28126398 -0.24386135 -0.06496987
-0.3130574 -0.03598271 -0.08609001 -0.45710182 -0.2604653 -0.29456627 -0.43473053 -0.20572267
-0.09054152 -0.022413611 -0.30089244 0.19563104 -0.15012656 0.016855108 -0.3554611 -0.18856512
-0.20789054 0.26313424 -0.20340094 -0.3104788 0.08712815 -0.032902658 0.22133441 -0.15572776
-0.25150046 -0.22892769 -0.1392275 -0.15755697 -0.220847 -0.18743815 -0.063230865 -0.21069497
0.009692289 0.1070455 -0.36458296 -0.16284344 -0.26995432 0.22719565 -0.019646373 -0.113020465
-0.28045055 -0.09982944 0.10817562 -0.28288916 -0.116710685 -0.33515087 -0.1083249 0.3938654
0.11153296 0.05213241 -0.15290888 0.08578832 -0.2871926 -0.21357308 -0.13623647 -0.35601008
-0.16984579 -0.33375648 -0.20831887 -0.23862661 -0.26444006 -0.1668782 -0.10503564 -0.21909453
-0.1551015 -0.15318081 -0.119480625 0.052806746 0.2672547 0.21563864 -0.22707942 -0.11871968
-0.1530517 -0.125323 -0.027911037 -0.057171065 -0.060588513 0.11981075 -0.20647334 -0.21725242
-0.23788746 0.19996138 -0.14598513 -0.31578252 0.05618672 -0.18411583 -0.28434825 0.10199977
0.062226553 0.5996981 -0.034603853 -0.16165091 0.033255305 0.13912134 -0.20135263 -0.17551218
-0.017580409 -0.13506536 -0.10476534 -0.2045376 -0.05985458 -0.25640547 -0.2380284 -0.34690318
-0.004132104 -0.12525523 -0.43221673 -0.09053733 0.20351191 -0.10863534 0.036095984 0.003914198
0.43421346 -0.13906062 0.1656934 0.39044982 -0.07332355 -0.24787961 -0.1614784 0.044812053
-0.26077586 -0.19326615 -0.078094155 0.50210154 -0.22068013 -0.38053462 -0.05573476 -0.10339648
-0.07471707 -0.20735492 0.028270634 -0.08692202 0.010422825 0.37817493 0.03562155 0.096175194
0.13408692 0.02416131 0.014364464 0.009088062 0.107714966 0.024674784 -0.15666528 -0.07007735
00000000: 5986 533c b82a 4dbe 5264 a5be b627 dcbb
00000010: 4042 0cbe 39c0 c2bd d1f6 81be 6370 cabe
00000020: 75b9 88be cb75 a6bd da27 17be 2b39 53be
00000030: 08d7 5abe 988c cbbe 78e9 a4bd d8c5 96be
00000040: 50c8 efbe 8fa3 81be 219e 8abe f4e3 acbe
00000050: 8345 b5be cd8c 36be f66c e5be 2c21 28be
00000060: b1b6 02be 0ebf 15be 1f34 b7bc ded3 c6be
00000070: 7755 b6be ebfa b83d 418c d6bd a483 83be
00000080: 8728 03bf b139 65be 7e22 4cbe 911f a5be
00000090: 054b aabe 0b90 72be 7ff0 3bbe 628f 83be
000000a0: 7fc1 9ebd a0ae 3bbe 0ddf 53be fae4 f8be
000000b0: 310d 60be 7da6 70be fa8f 83be c735 cabe
000000c0: 01d6 3ebe 18fa b7be b486 01be 740b 6cbe
000000d0: 7cf3 bfbe 4dce 59be 430d 66be 71ae 9dbe
000000e0: 5488 94be d9d2 9bbe f378 3dbe 6ed6 2fbe
000000f0: 9038 213e fe24 05bf 4129 4dbe 8d59 c4be
00000100: df60 3fbe 20fd 41bc 5e6b e3bd 00a5 04be
00000110: 1704 c2bd abad 02be b1e7 73be 1923 4ebe
00000120: 5e0f 47be d08e 80be 736f a9bd a6c4 a5be
00000130: 731a 74be 057e a6be f612 43be 9fee 41be
00000140: afb2 a5be 7e0d 7abe e193 83be d83a 8bbe
00000150: cf25 cebe 9c06 e4bc a37a 8fbe ebaa 9cbe
00000160: c465 dcbe 8832 83be 23ae 80be 4930 a4be
00000170: 317b 06bf 5260 9dbe 6137 2abe dcdf cbbd
00000180: 075b a9be 23fe 1fbe 27f4 63be 0f48 c1be
00000190: 9e02 9ebe b439 82be e516 53bd 565b a5be
000001a0: d2e3 86be 85fb 2cbe 0bc2 86be ca54 7bbe
000001b0: 5619 0abe d501 90be cab6 79be ec0e 85bd
000001c0: 0f49 a0be 9b62 13bd f64f b0bd 4009 eabe
000001d0: b55b 85be 64d1 96be 0095 debe f7a8 52be
000001e0: d56d b9bd c09c b7bc 930e 9abe 8153 483e
000001f0: c7ba 19be b913 8a3c fffe b5be 3717 41be
00000200: 42e1 54be 88b9 863e 5648 50be 14f7 9ebe
00000210: 3e70 b23d f0c4 06bd 7da5 623e 1977 1fbe
00000220: abc4 80be 056c 6abe a791 0ebe 9d56 21be
00000230: b725 62be c9ef 3fbe 2f7f 81bd 6cc0 57be
00000240: 68cc 1e3c ac3a db3d 9eaa babe 6ec0 26be
00000250: 7437 8abe faa5 683e 6ef1 a0bc 4677 e7bd
00000260: 3797 8fbe 6173 ccbd 2e8b dd3d d9d6 90be
00000270: 0306 efbd e598 abbe 72d9 ddbd baa8 c93e
00000280: 646b e43d cb88 553d 2594 1cbe c9b1 af3d
00000290: e90a 93be e7b2 5abe 9381 0bbe f446 b6be
000002a0: 0eec 2dbe 21e2 aabe 8b51 55be 895a 74be
000002b0: b064 87be 1ee2 2abe ed1c d7bd 515a 60be
000002c0: edd2 1ebe 6edb 1cbe 42b2 f4bd e34b 583d
000002d0: 9cd5 883e 60d0 5c3e 8287 68be 4e23 f3bd
000002e0: 96b9 1cbe ac54 00be b0a5 e4bc 352c 6abd
000002f0: a92b 78bd 575f f53d bf6d 53be 6b77 5ebe
00000300: c598 73be adc2 4c3e 207d 15be 3fae a1be
00000310: 0c24 663d dc88 3cbe 1896 91be 41e5 d03d
00000320: 45e1 7e3d d185 193f c5bc 0dbd d187 25be
00000330: b736 083d d375 0e3e 622f 4ebe 77b9 33be
00000340: ca04 90bc 934e 0abe 368f d6bd 4e72 51be
00000350: 132a 75bd 9447 83be b8bd 73be 4b9d b1be
00000360: 9a66 87bb e842 00be 834b ddbe a36b b9bd
00000370: 6d65 503e 357c debd 62d9 133d ac42 803b
00000380: 3a51 de3e e865 0ebe 88ab 293e 0ae9 c73e
00000390: a82a 96bd 27d4 7dbe 985a 25be d88c 373d
000003a0: 6a84 85be 90e7 45be d4ef 9fbd ba89 003f
000003b0: f9f9 61be 6fd5 c2be 224a 64bd 89c1 d3bd
000003c0: 4305 99bd d954 54be d197 e73c 2c04 b2bd
000003d0: 7fc4 2a3c 25a0 c13e e7e7 113d 80f7 c43d
000003e0: 154e 093e f1ed c53c ee58 6b3c 18e6 143c
000003f0: aa99 dc3d c622 ca3c dd6c 20be b784 8fbd

bias_hh_l0 f4 [480]
0.009482983 -0.117963165 -0.22808437 -0.0054681506 -0.10050239 -0.2435575 -0.21345282 -0.41242343
-0.34283447 -0.20870702 -0.14829588 -0.14098258 -0.37091425 -0.44943634 -0.11994683 -0.35434774
-0.3296018 -0.27387825 -0.21073501 -0.3461089 -0.3183046 -0.13814937 -0.38780922 -0.13720223
0.00087562215 -0.24311988 -0.18558763 -0.44847137 -0.20574905 -0.029312167 -0.1374912 -0.35371742
-0.39794353 -0.23942673 -0.20314623 -0.30670768 -0.28495735 -0.32646877 -0.31722677 -0.33665633
-0.10158891 -0.26439956 -0.19694932 -0.45323753 -0.20134306 -0.2820234 -0.22955433 -0.42752007
-0.14814518 -0.4368128 -0.18849052 -0.2979197 -0.27527502 -0.347896 -0.19316165 -0.36609855
-0.17832182 -0.24918765 -0.1901314 -0.12267387 -0.0059784576 -0.51464343 -0.24433568 -0.43545228
-0.32850096 -0.094064735 -0.17711881 -0.055307865 -0.05104614 -0.15977639 -0.19655305 -0.28117964
-0.16760564 -0.28878933 -0.19447246 -0.44994268 -0.1687406 -0.22109756 -0.18625574 -0.16696882
-0.45971996 -0.2730064 -0.33164907 -0.30656552 -0.5068112 -0.19005945 -0.16370046 -0.29560116
-0.4902079 -0.15060233 -0.15740612 -0.26743853 -0.39653185 -0.29665413 -0.19372061 -0.15210867
-0.32417515 -0.10727688 -0.30900478 -0.31767944 -0.3167767 -0.32018858 -0.1942524 -0.3476694
-0.2621564 -0.2933356 -0.2339898 -0.2533234 -0.13134547 -0.24709098 -0.16776231 -0.17964505
-0.41834757 -0.11856998 -0.015856648 -0.48245865 -0.22381794 -0.29717436 -0.47530144 -0.3090178
0.01725312 0.04780088 -0.3280326 0.18173234 0.014583857 0.0052378955 -0.30420402 -0.15653245
-0.28502178 0.13529034 -0.16880322 -0.3291561 0.0031045312 -0.08449434 0.14207931 -0.059846964
-0.24991582 -0.113203436 -0.19254954 -0.1419397 -0.19679576 -0.11001692 -0.10578411 -0.15617184
0.010713419 0.12415404 -0.2684726 -0.2731117 -0.27222443 0.3604131 -0.024003705 -0.07731955
-0.21181002 -0.22662742 -0.06358418 -0.3155442 -0.122478575 -0.21650656 -0.25588953 0.28691292
-0.02782978 0.09681783 -0.15242472 0.10844792 -0.31491786 -0.2782378 -0.14100006 -0.32992667
-0.25231773 -0.25298643 -0.09359524 -0.32779062 -0.15263827 -0.32155162 -0.086467676 -0.27116385
-0.07775224 -0.2929921 -0.17200303 0.07270914 0.26008815 0.20244467 -0.26099852 -0.13187233
-0.20391506 -0.05187211 0.0076873307 -0.07657778 0.09018109 0.25009555 -0.31276792 -0.14722323
-0.26714602 0.18887998 -0.016949918 -0.33530435 0.022452313 -0.0942017 -0.24465655 0.08047738
0.06751605 0.5006437 0.024390448 -0.093102925 -0.0032864425 0.08548796 -0.07363833 -0.18286337
-0.029478796 -0.17602304 -0.1922573 -0.20369786 -0.14227588 -0.17750458 -0.35053793 -0.34456858
-0.03473556 -0.018652577 -0.30590004 -0.2094548 0.17353186 -0.15103002 0.05290596 -0.10692369
0.49321425 -0.2159957 0.2598668 0.2690876 0.033171367 -0.32120192 -0.23192891 0.0005962841
-0.33725402 -0.20046933 -0.028179608 0.47762826 -0.24432877 -0.36616063 0.0012163231 -0.13154168
-0.020356787 -0.24112612 -0.039493818 0.027395863 0.043373194 0.22153246 0.15492658 0.16533068
0.20156296 -0.01888691 -0.06881686 0.098131366 -0.00577503 0.045084402 -0.1030646 -0.12309904
00000000: 835e 1b3c ac96 f1bd f38e 69be 2c2e b3bb
00000010: 32d4 cdbd 2367 79be 6093 5abe 2a29 d3be
00000020: 0088 afbe 4bb7 55be e0da 17be bd5d 10be
00000030: 79e8 bdbe 851c e6be afa6 f5bd 116d b5be
00000040: 91c1 a8be c539 8cbe ebca 57be 3035 b1be
00000050: d2f8 a2be 0777 0dbe ee8e c6be be7e 0cbe
00000060: 028a 653a 6bf4 78be af0a 3ebe 0a9e e5be
00000070: e1af 52be 1220 f0bc 7eca 0cbe 731a b5be
00000080: 41bf cbbe 482c 75be 9105 50be ca08 9dbe
00000090: eee5 91be ea26 a7be 8c6b a2be 385e acbe
000000a0: d90d d0bd 615f 87be 15ad 49be c00e e8be
000000b0: e02c 4ebe 5f65 90be 4a10 6bbe e9e3 dabe
000000c0: 5fb3 17be eda5 dfbe a903 41be ee88 98be
000000d0: d9f0 8cbe 6d1f b2be 2bcc 45be 4571 bbbe
000000e0: ff99 36be 0c2b 7fbe ceb1 42be 703c fbbd
000000f0: f0e6 c3bb acbf 03bf 2233 7abe 9af3 debe
00000100: 4731 a8be 03a5 c0bd a25e 35be 808a 62bd
00000110: c215 51bd 6c9c 23be 3445 49be c7f6 8fbe
00000120: d0a0 2bbe 32dc 93be ca23 47be e35e e6be
00000130: 56ca 2cbe 6667 62be d3b9 3ebe e0f9 2abe
00000140: 6a60 ebbe 7fc7 8bbe e8cd a9be 28f6 9cbe
00000150: 61be 01bf f29e 42be 18a1 27be 0959 97be
00000160: 88fc fabe 7f37 1abe 122f 21be b4ed 88be
00000170: 3906 cbbe 0de3 97be b25e 46be 60c2 1bbe
00000180: 49fa a5be fbb3 dbbd e035 9ebe e1a6 a2be
00000190: 8e30 a2be c2ef a3be 1aea 46be b901 b2be
000001a0: 5d39 86be 1530 96be 069b 6fbe 9bb3 81be
000001b0: 6d7f 06be 6b05 7dbe e2c9 2bbe dff4 37be
000001c0: a731 d6be d1d4 f2bd cde5 81bc d204 f7be
000001d0: 8830 65be 3d27 98be b65a f3be 9537 9ebe
000001e0: 6a56 8d3c dbca 433d e4f3 a7be 0b18 3a3e
000001f0: 21f1 6e3c a7a2 ab3b a1c0 9bbe 0b4a 20be
00000200: 60ee 91be 8d89 0a3e c0da 2cbe 2687 a8be
00000210: 6475 4b3b 5e0b adbd 3d7d 113e 1722 75bd
00000220: efe9 7fbe 34d7 e7bd b52b 45be a458 11be
00000230: d484 49be 8d50 e1bd 57a5 d8bd 83eb 1fbe
00000240: 5687 2f3c 7944 fe3d 3e75 89be 4cd5 8bbe
00000250: 0061 8bbe 1188 b83e 6ba3 c4bc b659 9ebd
00000260: bae4 58be 0511 68be 6c38 82bd 028f a1be
00000270: 0cd6 fabd e5b3 5dbe f403 83be 40e6 923e
00000280: 47fb e3bc 6d48 c63d 3a15 1cbe f119 de3d
00000290: ea3c a1be 2f75 8ebe 5262 10be 26ec a8be
000002a0: ca2f 81be 7087 81be dcae bfbd 2cd4 a7be
000002b0: 354d 1cbe 6aa2 a4be f715 b1bd fdd5 8abe
000002c0: 913c 9fbd 0f03 96be 9021 30be 88e8 943d
000002d0: 462a 853e a84d 4f3e 99a1 85be 8a09 07be
000002e0: 1ccf 50be da77 54bd 01e6 fb3b d0d4 9cbd
000002f0: ddb0 b83d 860c 803e 1e23 a0be b0c1 16be
00000300: 5dc7 88be c169 413e 8eda 8abc 03ad abbe
00000310: eaed b73c d2ec c0bd 3f87 7abe 53d1 a43d
00000320: db45 8a3d 2f2a 003f 7ace c73c bfac bebd
00000330: 5b61 57bb 5014 af3d b1cf 96bd 8940 3bbe
00000340: 847d f1bc 623f 34be 19df 44be 2c96 50be
00000350: c5b0 11be c3c3 35be b579 b3be 4b6b b0be
00000360: e046 0ebd 4acd 98bc ee9e 9cbe 527b 56be
00000370: 56b2 313e 9da7 1abe ebb3 583d cffa dabd
00000380: 9486 fc3e fa2d 5dbe 430d 853e dac5 893e
00000390: b3de 073d 9474 a4be c67e 6dbe f34f 1c3a
000003a0: 8fac acbe d547 4dbe ecd8 e6bc b18b f43e
000003b0: 5231 7abe 6879 bbbe 086d 9f3a ddb2 06be
000003c0: 47c3 a6bc c4e9 76be 45c4 21bd 4a6d e03c
000003d0: 17a8 313d 68d9 623e 13a5 1e3e 724c 293e
000003e0: 8566 4e3e b9b8 9abc dbef 8cbd 19f9 c83d
000003f0: 763c bdbb 6caa 383d 8813 d3bd 591b fcbd
