Assignmentt2/trained_models/snp500_prediction_2000_epochs.pt (torch, 706455 bytes, 10 tensors)

weight_ih_l0 f4 [480, 1]
000000 18 94 ec be 83 49 4c be f9 a4 f3 ba 93 ee b2 bd
       -0.46206737 -0.19949917 -0.0018588594 -0.08736911
000010 6d 51 4e be bd a3 0e 3e ea 4d 8c be ee a4 de be
       -0.20148249 0.13929649 -0.27403194 -0.43485206
000020 63 a7 78 bd 6e ba ab be 19 53 98 be 35 67 93 be
       -0.060706507 -0.33540672 -0.29750898 -0.28789678
000030 de 7e cc 3c dd cb 8c be c6 f3 0c be b7 e8 c1 bd
       0.024962839 -0.27499285 -0.13764867 -0.09468215
000040 ea 21 5e bd 86 62 1a bd e8 3e cd bd 55 d0 6f be
       -0.05423156 -0.037691616 -0.10021764 -0.23419316
000050 c3 7d 72 b9 f0 fb 81 be 2c 6a 09 be 87 2a 1d be
       -0.00023125768 -0.25387526 -0.13419408 -0.15348254
000060 31 7a e6 bb 2c 10 7c be 2f 61 e0 bd b3 9f f9 bd
       -0.0070336093 -0.24615544 -0.10956036 -0.12188663
000070 11 e7 a5 be 70 46 b3 3d 38 a1 b1 be e2 6b 65 be
       -0.32402852 0.08753669 -0.34693313 -0.22404435
000080 6a a3 82 be 79 3b ed be 0d b9 ef bd 8a 6c 0d be
       -0.255153 -0.46334437 -0.117052175 -0.13810936
000090 d0 e9 33 be a5 38 33 bd 5c ae 75 3d b9 1e 2d bd
       -0.17569661 -0.043755192 0.059980735 -0.042265628
0000a0 74 88 5d be d5 f4 2f bd a5 28 bb bc 80 8a 2e be
       -0.21634084 -0.0429581 -0.02284653 -0.17045021
0000b0 73 50 d3 bd bd f5 bc be db 38 f4 bd bb 31 25 be
       -0.10318079 -0.36906233 -0.11924907 -0.16132252
0000c0 46 3b bc bd ea 41 e2 bc ca 69 06 be 98 2c a2 bd
       -0.09190993 -0.02761932 -0.13126293 -0.07918662
0000d0 97 e2 95 be 28 83 88 be 13 8d 9a bd 6e 7f aa be
       -0.29274437 -0.26662564 -0.07546439 -0.33300346
0000e0 89 37 a0 be 57 18 42 3e 88 f7 4a be 67 34 cf be
       -0.3129237 0.18954597 -0.19820988 -0.40469667
0000f0 95 8e 94 be 8c ec 5c ba a0 25 e8 3b 0d 0a e9 bd
       -0.2901503 -0.0008427582 0.0070845634 -0.1137887
000100 42 6f 78 be f4 65 84 bd 43 7c 6d be 7d e4 3c be
       -0.24261191 -0.064647585 -0.23191933 -0.18446536
000110 83 4d 20 be 78 dc a1 be a5 d1 c3 be 50 46 3a be
       -0.15654568 -0.31613517 -0.38245884 -0.18190885
000120 28 5d c6 be 87 ba 0f bd d1 f0 46 3c 1d ad 9a be
       -0.38742948 -0.035089996 0.012142376 -0.302102
000130 76 37 5e be f7 8d f8 be 19 38 46 be 9b 71 94 be
       -0.21700844 -0.4854581 -0.19357337 -0.28992924
000140 55 48 97 be 8a 5d db be 3f 46 5e 3c 9b 78 36 3c
       -0.29547372 -0.42844802 0.013566553 0.011137153
000150 7a ef 58 be 41 cb b6 bd 1a 40 4f be 41 ab 20 bd
       -0.21185103 -0.08925486 -0.20239297 -0.03922582
000160 59 0e 12 be 48 2e d9 be 52 21 4d 3d 02 de 1c bd
       -0.14263286 -0.42418122 0.050080605 -0.03829766
000170 84 87 36 be e4 a2 c8 be e3 51 8c be b7 9b 57 be
       -0.17825133 -0.39186776 -0.27406225 -0.21055494
000180 63 93 9f be cd b5 41 be 16 c4 82 3b 42 7e d6 3d
       -0.31167135 -0.18917008 0.0039906604 0.104733005
000190 a0 03 d3 3d a2 64 ec 3c 73 b1 82 3d da 1f 9e 3d
       0.10303426 0.02885658 0.06381502 0.07720919
0001a0 10 81 82 be 3f 61 a8 3d 27 ea f5 3d 71 20 36 3c
       -0.25489092 0.08221673 0.12007552 0.011116133
0001b0 bf c0 af be 5a 16 c7 be 00 83 55 be 78 13 1a be
       -0.3432674 -0.3888424 -0.20850754 -0.15046489
0001c0 24 2d 0c 3d 51 32 29 be 0f 4b cd be 73 06 36 be
       0.034222737 -0.165231 -0.40096328 -0.17775898
0001d0 75 7d 07 be cb 82 67 be 8e d3 07 bd 8c 64 b7 3d
       -0.13231452 -0.22608487 -0.03316074 0.08954725
0001e0 d8 c4 b6 be 8c d7 06 3d 61 b0 fb 3d 17 b1 ea 3c
       -0.35697055 0.032920405 0.12289501 0.028648896
0001f0 cd f3 52 be dd 94 83 3e 69 4b 94 be a8 90 9d be
       -0.20600815 0.2569951 -0.28963783 -0.30774426
000200 1b a1 f1 3d bb cd c4 bc f0 01 bd be ee b9 c5 3e
       0.117983066 -0.024023881 -0.3691554 0.38618416
000210 70 1f 10 3e b8 6d 66 be e1 5e 31 be 3e d0 71 3c
       0.14074492 -0.22502792 -0.1732135 0.014759121
000220 6e 45 58 3c 28 6b 85 3e 2d 37 92 bd 3d 46 30 be
       0.013200147 0.26058316 -0.0713943 -0.17214294
000230 24 6e 86 3d 8c 98 b7 bd ab 77 6d be b4 da 02 be
       0.065639764 -0.08964643 -0.23190181 -0.12778741
000240 f2 74 d8 3d 8b 76 19 be 9c f4 c7 bd e2 57 40 be
       0.105691805 -0.14986627 -0.097634524 -0.18783525
000250 72 95 94 be 44 a7 8c 3c f4 20 84 be 6d 4e 68 be
       -0.29020268 0.017169602 -0.2580639 -0.22686167
000260 ba 48 34 be 23 8a ab be cc b1 64 bc e4 62 be bd
       -0.17605868 -0.33503827 -0.013958406 -0.09296206
000270 0e 74 ff bc 87 2a a3 bd d8 8d 68 3e 35 ae c7 bc
       -0.031183269 -0.07967096 0.22710359 -0.02437506
000280 ae 77 30 be ad 81 c0 ba cf 11 8c bd 6b f4 94 be
       -0.17233154 -0.0014687084 -0.06839334 -0.29092726
000290 9e a4 b7 bd 3c 89 cb be 7f 1c cc bd bb 44 ac bd
       -0.08966945 -0.3975314 -0.09966373 -0.08411547
0002a0 ee 0a 2b bd 0a 72 a2 bd 97 9c 62 be a9 9e 45 be
       -0.04175847 -0.079319075 -0.22130047 -0.19298805
0002b0 65 64 59 3e 3d 6b 07 be bb 06 b6 3c 16 5d cb be
       0.21229704 -0.13224502 0.022220006 -0.39719456
0002c0 24 1d 3c be a8 a3 37 3e 97 48 64 be 14 8d cd be
       -0.18370491 0.17933524 -0.22293316 -0.40146697
0002d0 a9 0a 80 be b8 38 38 bd bd bf 88 bd 9f 58 bc bd
       -0.25008133 -0.044975966 -0.06677196 -0.09196591
0002e0 30 9a 25 be 6b a8 7f 3d bc 50 7a be c3 e0 a3 bd
       -0.16172099 0.062416475 -0.2444486 -0.08001854
0002f0 8f 01 79 3d e9 9c a5 be a9 61 b1 3e ff ec 99 be
       0.060792502 -0.32346275 0.3464482 -0.30063626
000300 a0 cb 53 3e 68 29 1a 3d df 35 b9 3d e7 76 2e be
       0.20683146 0.037637144 0.09043478 -0.17037545
000310 8f ea 1f be 01 a9 b4 be d5 4e 07 be 6e b9 ce bd
       -0.15616821 -0.3528519 -0.13213666 -0.10093962
000320 14 c4 56 be aa 5b c8 be 1b ef 9b 3d 65 9f a3 bd
       -0.20973235 -0.39132434 0.07613965 -0.079893865
000330 3f 07 57 be c1 31 ba bd f9 c0 d3 bd 2a 5d 9f ba
       -0.20998858 -0.09091521 -0.10339541 -0.0012158502
000340 3a 9b dd bd c6 38 84 be c8 c7 fc 3d 0a 47 b7 bd
       -0.10820623 -0.25824565 0.12342793 -0.089490965
000350 17 4d ba bd 10 7e 8b be 69 35 ef bd a6 46 98 be
       -0.09096735 -0.27244616 -0.11680109 -0.297414
000360 7a 37 33 be 9f e8 0c be 80 d0 f0 bd 4d 50 81 3d
       -0.17501631 -0.13760613 -0.11758518 0.06314144
000370 6a 90 83 3d c8 f4 52 3e 93 84 43 3e 7a 95 c0 bc
       0.06424029 0.20601189 0.19093542 -0.023508776
000380 e4 be f9 bd f7 bd 4e 3d 1a f1 e9 3d 20 42 a5 bb
       -0.121946126 0.050474133 0.114229396 -0.005043283
000390 6d ac a0 be ec 10 9e be 73 35 25 be 36 8a 1f be
       -0.3138155 -0.30872285 -0.1613367 -0.15580067
0003a0 6f e7 b4 3d 2f 3f 65 be 5e 64 6e be 61 9f 92 bd
       0.08833205 -0.22387384 -0.23280475 -0.07159305
0003b0 9c 43 cf bd 14 75 47 be ed 6e 5b 3e 1c 89 75 3e
       -0.10120317 -0.19478256 0.21429034 0.23978084
0003c0 71 df 7f bd 29 66 ab bd 21 e3 33 3d 45 d6 e1 3d
       -0.06246895 -0.08369095 0.04391778 0.11027197
0003d0 40 c6 0a be 3b a6 46 be 9a 7f a3 bd b8 d8 a8 3c
       -0.13552189 -0.1939935 -0.079833224 0.020611152
0003e0 86 75 8a bd ed cc 0a be d2 ba 0e 3e 3e 13 4d be
       -0.06760697 -0.13554735 0.13938454 -0.20026872
0003f0 58 62 23 be 03 22 85 bd 24 c0 0d be f5 4a d1 3d
       -0.15955484 -0.06500628 -0.13842827 0.10219375

weight_hh_l0 f4 [480, 120]
000000 14 d7 ca bd e6 c3 33 3e cf 38 53 bd 80 10 2c 3d
       -0.09904304 0.17555198 -0.05156785 0.042007923
000010 a4 85 77 bd d0 f7 bb 3e 16 16 57 3b ae ec f0 3c
       -0.060430184 0.36712503 0.003281956 0.029409733
000020 d4 97 a2 bd d4 c0 cf bb 47 e1 ec bd 8c 34 ce 3e
       -0.07939115 -0.0063401256 -0.11566406 0.40274465
000030 3c a8 9c 3e 3a 59 12 3e 35 7d cd 3d 68 ec 23 bd
       0.30597103 0.1429185 0.10033647 -0.040020376
000040 09 fc 5b 3d dc 95 76 3e 2a 2f ac bc b0 47 a9 bc
       0.053707156 0.24080604 -0.021018583 -0.020664066
000050 ba 7c 03 3e 44 ff 70 3e a7 cc 52 3c 4e 8e 89 bd
       0.12840548 0.23534876 0.012866176 -0.067165956
000060 2e 36 81 3d aa 75 06 be c7 99 49 bd 69 dd e0 3b
       0.06309162 -0.13130823 -0.04921892 0.0068623316
000070 14 d2 6b 3c 4e eb 11 3d 6f 18 f4 bd 8e 41 90 3d
       0.014393348 0.035624795 -0.11918723 0.070437536
000080 07 18 01 3e 46 a1 f7 3c 2b 3c 9f 3e 84 77 d3 bd
       0.12606822 0.030228268 0.31100592 -0.1032553
000090 c0 45 f3 bd 4b 92 fe bd 35 34 e2 3c 9a f8 2b 3e
       -0.11878538 -0.12430247 0.027612785 0.16794053
0000a0 a2 81 0c 3e 41 c6 0a be 88 20 3f 3d c2 f6 42 3e
       0.13721326 -0.1355219 0.046661884 0.19039443
0000b0 0f 40 12 3d 6e 61 4f bd db 2f 03 be de 0b e3 bc
       0.035705622 -0.050630026 -0.12811224 -0.02771562
0000c0 46 3b 95 bc 5a 64 e8 3d 38 74 8b bb 0c d9 5c be
       -0.01821674 0.113472655 -0.0042557977 -0.21567172
0000d0 9e 56 45 3e fe 69 c7 3d d0 c1 65 be 75 22 60 be
       0.19271323 0.09737013 -0.22437215 -0.21888144
0000e0 ff 1c 6c bd 43 54 88 be 14 0a d6 bc 21 56 61 bb
       -0.05764484 -0.26626787 -0.026127852 -0.0034383612
0000f0 78 3c 87 be d5 0b ba 3d 6f 67 83 3d 4b 1d 2e bb
       -0.26413321 0.09084288 0.06416213 -0.0026567753
000100 d3 14 9f bc 2f 13 b2 3e d8 09 1b bc 3f 5b 64 bd
       -0.01941911 0.3478026 -0.009462796 -0.05575108
000110 aa c4 e7 bd e9 97 1e be dd 6a 26 3e 88 a5 11 3e
       -0.113168076 -0.15487637 0.16251703 0.14223301
000120 4f 81 ab be f6 96 ce bd ff f0 3e bd 55 52 bc bd
       -0.33497092 -0.10087387 -0.04661655 -0.09195391
000130 3c 79 55 3d 2c 4a d7 bd ff d5 2b 3e 19 9e 0c 3e
       0.05211757 -0.10512194 0.16780852 0.13732184
000140 47 c1 bd 3b a1 57 cf 3d 7d 7a 81 3e 96 10 01 3e
       0.0057908627 0.10124136 0.25288764 0.12603983
000150 b2 83 e7 3c f7 78 3a 3c b4 ba 01 be 60 c4 99 bd
       0.02826104 0.011381379 -0.12668878 -0.07508159
000160 3a fd de 3c 63 e9 5c bd fa 81 36 be e6 14 09 bc
       0.027220357 -0.053933512 -0.1782302 -0.008366799
000170 e5 d0 15 3e d4 4d 46 bd 46 eb 3f 3e f8 5b 8a be
       0.14630468 -0.048414066 0.18742093 -0.27023292
000180 58 e8 65 3d 51 1d 56 3e 94 50 28 be 24 b5 a6 3c
       0.056129783 0.20909621 -0.16436988 0.020350046
000190 7f 6e 62 3e 01 e0 5d 3c 23 55 93 3e 83 14 c4 bc
       0.22112463 0.013542176 0.28775892 -0.023935562
0001a0 0c 2a 86 bb 62 67 39 be ad 3f 04 3e 46 e4 f7 3d
       -0.004094368 -0.18105844 0.12914915 0.121040866
0001b0 12 3c 24 3e 9c a8 63 bd 66 d5 cf 3d 1f ed f0 bd
       0.1603854 -0.05558072 0.101481244 -0.11763977
0001c0 8c ba 57 be 60 80 af 3c 61 9b 1a be 4a b5 0d be
       -0.21067256 0.021423519 -0.15098335 -0.13838688
0001d0 7e 71 3f bd 0a bb 24 bd 37 e6 49 be 6c 8c 8d be
       -0.046739094 -0.040217437 -0.19716726 -0.27646196
0001e0 4c ce 05 3e c6 0d 63 be c5 ea b5 3c ed 12 39 3e
       0.13066977 -0.22173223 0.022206673 0.18073626
0001f0 14 2a d5 3b cf 0c 06 3e 2c 89 a7 3d d8 22 88 3d
       0.0065052602 0.13090824 0.0818046 0.06647271
000200 ae 3d a5 3d c0 c5 14 3e f3 24 87 3d c3 ee 7e 3c
       0.08068405 0.1452856 0.065988444 0.015559855
000210 02 18 08 3e 4a 7c 79 3d 06 dd 84 be 5d c4 82 3d
       0.13290408 0.060909547 -0.25949878 0.063851096
000220 d3 de d0 bd 52 30 11 be a6 e8 54 bd 94 0a 89 bd
       -0.1019875 -0.14178589 -0.051979683 -0.06691471
000230 09 70 46 3d ed 56 de bc 9b 3f 99 bd 09 5a 22 be
       0.04844669 -0.027141059 -0.07482835 -0.15854658
000240 da 43 62 be 7c 03 09 bd e7 f5 2a 3d 0b 1a 88 bd
       -0.22096196 -0.03345059 0.041738417 -0.06645592
000250 0b 70 a9 3c d9 ce b6 3d 80 52 b9 3c ea 55 00 3e
       0.020683309 0.08926172 0.022622347 0.12532774
000260 8a 8f b7 bd a7 6c c8 3c a8 92 c1 3d 51 2b 91 bb
       -0.08962925 0.024465872 0.094518006 -0.0044302125
000270 fe 5b 38 3d 3b fa 89 be dd c9 a4 3d 99 07 a1 3c
       0.045009606 -0.26948723 0.08046315 0.019656943
000280 cc 3d 21 3d 7e 30 a9 be 01 c1 81 3c e3 cc 3b 3e
       0.039365575 -0.3304481 0.015839102 0.18339877
000290 a3 2e bc bc 3e 28 12 3d b1 f0 3f 3d f2 12 a1 be
       -0.022971457 0.03568291 0.0468604 -0.31459767
0002a0 e7 0f db 3d f6 0f 6a bd 48 82 b0 bd 1d a9 f5 bd
       0.106963925 -0.057144128 -0.08618599 -0.119951464
0002b0 ce c0 18 be 34 54 cd 3d b3 aa 42 bd e2 b4 16 3e
       -0.14917299 0.10025826 -0.047526073 0.14717439
0002c0 12 20 ca bd ec 4c ff bc aa 0e ba bc d6 de 1a be
       -0.09869398 -0.031164609 -0.02271207 -0.15124068
0002d0 45 67 44 3d a0 b1 3e 3d 1b 2f be bc bc e9 0d be
       0.047950048 0.046556115 -0.023215821 -0.13858694
0002e0 7e 48 ae bd 20 61 5b 3e 39 43 ec 3d 6b 61 ae 3d
       -0.085099205 0.21423769 0.11536259 0.08514675
0002f0 50 96 78 bd ab 97 eb 3c ab 2f 0b 3e 39 be 18 bc
       -0.060690224 0.028758844 0.13592403 -0.009322696
000300 65 c3 ad bd e1 74 a7 3c 7d a0 8b 3e 92 15 a4 bc
       -0.08484534 0.020441474 0.2727088 -0.020029817
000310 90 b9 1b 3e f1 ad 24 3d 21 e1 41 be 7f ad 54 3e
       0.15207505 0.040204946 -0.18933536 0.20769309
000320 84 47 15 bd 4f e4 ad 3d 30 0f 25 3c 7d 55 9c 3d
       -0.036445156 0.08490812 0.010074422 0.07633493
000330 2e ab 4a bd 1b 44 a4 bd 25 43 30 3c 58 40 8b bc
       -0.049479656 -0.080208026 0.010758196 -0.016998455
000340 7a df 06 3e 3b 1d 06 3e 19 55 00 bc 46 31 6e bd
       0.13171187 0.13097088 -0.007832789 -0.05815246
000350 f5 65 00 bd b3 f9 c7 bc 04 fd 6c bd ae 91 93 bd
       -0.031347234 -0.024411058 -0.057858482 -0.072055206
000360 69 3f 07 3c d4 ad ea bc d0 d8 d0 bd f4 55 12 3d
       0.008254864 -0.02864734 -0.10197604 0.035726503
000370 23 9f 82 3e 55 1b ec bd af 21 8e 3d 65 13 f9 3d
       0.25512037 -0.11528651 0.069400184 0.12161902
000380 15 4e 04 be ec 57 0d be ec 38 a1 be b2 60 ad 3c
       -0.12920411 -0.13803071 -0.3148874 0.021164272
000390 2f 12 b2 bd d2 51 66 bd eb 41 15 bd 11 a7 da bc
       -0.086948745 -0.056230374 -0.036439817 -0.026690992
0003a0 1b 1b f9 bd b7 82 b6 3d a9 69 03 bc 91 fe 53 3e
       -0.12163373 0.08911651 -0.008020797 0.20702578
0003b0 f4 53 32 bd fa c7 83 3e c2 55 cd bd df 14 c8 bd
       -0.043537095 0.25738508 -0.10026123 -0.09769606
0003c0 f4 29 00 be 84 0b 22 3d c4 9d af bd 99 bc 92 3e
       -0.12516004 0.039561763 -0.08575013 0.28659514
0003d0 44 e6 5a bc ab a1 f1 bd 4c d3 53 3d 90 53 a7 bc
       -0.013360564 -0.11798414 0.05171518 -0.020425588
0003e0 7c c5 82 be e7 44 47 be 2d 5b 1f be 7d 4f cc 3d
       -0.25541294 -0.19459878 -0.15562125 0.09976099
0003f0 b6 f6 3c 3d 5e 46 cd bd 23 aa 6c bd b7 e4 c1 3d
       0.04613372 -0.10023187 -0.057779443 0.09467452

bias_ih_l0 f4 [480]
000000 1a 2c 27 bd a6 a4 13 be d8 6a a7 3d d5 c8 cc bd
       -0.040813543 -0.14418277 0.08174676 -0.09999243
000010 5f 24 23 3c d2 cc 83 bd 55 b5 48 bd 46 62 c6 bd
       0.009957402 -0.06435551 -0.049001057 -0.09686713
000020 5b 4e b2 bc d1 ff a0 bd f1 36 10 be 3e 1f bd be
       -0.021765878 -0.07861293 -0.14083458 -0.36937898
000030 7f 07 d5 bd d0 f4 50 be ab b9 21 be b3 78 d1 3b
       -0.104018204 -0.20405889 -0.15793483 0.0063925623
000040 5b 7e 96 bd c8 67 35 bd c5 4a 22 be 39 c2 e8 bd
       -0.07348319 -0.044288427 -0.15848835 -0.1136517
000050 51 1a 46 be 86 55 57 be 56 06 b7 bd 26 ce 5f be
       -0.19345976 -0.21028718 -0.08936755 -0.21855983
000060 54 dc 25 be 89 a7 e6 bd 35 13 40 bd c4 13 da bd
       -0.1619733 -0.112624235 -0.046893317 -0.10648301
000070 6e b8 6f be 49 86 9e bd 0a aa 36 be 47 72 cb bd
       -0.23410198 -0.077404566 -0.17838302 -0.09933906
000080 b7 51 40 bb 87 e4 6c be 82 26 1f be b5 9e b6 bd
       -0.002934558 -0.23134051 -0.15542033 -0.0891699
000090 10 41 2a be 5c b0 09 3d 82 61 66 3e f0 78 0a be
       -0.16626382 0.033615455 0.22498134 -0.13522696
0000a0 75 c1 f0 bd c6 39 57 3d 6e 92 3c be be 32 08 be
       -0.11755649 0.05254533 -0.18415233 -0.13300607
0000b0 6a e4 2a 3b ac fa 95 be 84 aa 12 bd a4 6a 81 bd
       0.0026076087 -0.2929281 -0.035807148 -0.06319168
0000c0 83 18 f1 3b e1 0a 9d bd b6 2f 1d bd ba ea 62 bd
       0.0073576584 -0.076680906 -0.03837558 -0.055399634
0000d0 01 aa 71 be 8c 46 06 be b3 87 82 bd 0c 6d 62 be
       -0.23600008 -0.13112849 -0.06373539 -0.2211191
0000e0 ba e0 02 be 79 ba 1b bd 16 c9 92 bd 43 24 2a be
       -0.12781039 -0.03801963 -0.0716726 -0.16615395
0000f0 79 94 43 be c4 87 ca 3d 31 fe 18 be 3c 6a 8c bd
       -0.19099607 0.098891765 -0.14940716 -0.068562
000100 4e 6a 02 be ba 49 06 bd 1f cf d1 bd 9a d2 61 be
       -0.12735865 -0.032785155 -0.10244583 -0.22052994
000110 a7 5b 33 bd ea e9 35 be 1b bc 9f be e8 e1 17 be
       -0.04378858 -0.17765012 -0.311982 -0.1483227
000120 c6 3f 75 be 32 2c 9d bd 7e be 20 be b8 98 11 be
       -0.23950109 -0.07674445 -0.15697667 -0.14218414
000130 e7 84 0b be 70 de 88 bd c0 e2 38 be 25 75 c0 bd
       -0.13624917 -0.066830516 -0.18055248 -0.093973435
000140 09 8d 42 be 89 9f 43 be 11 89 8b bd 4d e5 8d 3c
       -0.18999113 -0.19103827 -0.06813253 0.017321253
000150 f9 1b 7f bd 77 d3 c3 3d 45 c0 ba bc 49 a9 c9 3c
       -0.062282536 0.09561818 -0.02279676 0.024616854
000160 86 1d 8e bc 36 42 2d be b6 cf 14 bc 78 5e bc bd
       -0.017348062 -0.16919789 -0.009082725 -0.09197706
000170 7b 62 79 be ef 32 db bd b4 70 54 be 46 f0 42 bd
       -0.24353974 -0.10703074 -0.20746118 -0.047592424
000180 45 d2 12 be fe 1a 06 be d1 1c 91 bd 9e 33 ac 3d
       -0.14338024 -0.13096234 -0.070855744 0.08408283
000190 69 b7 2a be 8b b0 61 bd 00 4b 4d bc 43 a3 c0 3c
       -0.16671528 -0.055100005 -0.012530088 0.02351535
0001a0 bd 21 0f be e7 01 05 bd c8 63 85 bd a5 c1 f2 3d
       -0.13977714 -0.032472517 -0.065131724 0.11853341
0001b0 28 58 1a be 83 95 db 3c 55 52 0a be 5b a3 65 be
       -0.15072691 0.026804691 -0.1350797 -0.22425596
0001c0 51 cf 0c 3d 99 84 08 bd ae 23 34 be 95 6d 48 3d
       0.0343774 -0.03332958 -0.17591736 0.04893263
0001d0 01 99 37 bc a5 a2 24 be 26 8a 83 bc 2e 46 92 bd
       -0.011205913 -0.16077669 -0.016057085 -0.07142292
0001e0 b5 53 5d bd 04 ea b2 bd 8f 42 79 3d b3 68 e1 bd
       -0.054034907 -0.08736041 0.06085449 -0.11006298
0001f0 35 47 a9 3c 82 33 3c 3d 0c 6d 48 bc 8c 5a 44 be
       0.020663837 0.04594756 -0.01223303 -0.19175166
000200 fb a2 7c 3c 67 ed b4 3d e0 e7 12 be cc 0b 21 3e
       0.015419717 0.088343434 -0.14346266 0.15727156
000210 a4 51 54 3e 8b 2b c4 bd d2 ff b2 bb df c6 e1 bd
       0.20734268 -0.09578618 -0.005462625 -0.1102426
000220 ad 9d d1 bd e1 6f fa 3d 6a f8 7c bd ef 5d 1b be
       -0.102351524 0.122283705 -0.061760344 -0.15172552
000230 3e c7 28 be 1e 2e 30 be fc 2b a7 bd 76 04 cd bd
       -0.16482255 -0.17205092 -0.08162686 -0.100106165
000240 84 43 83 bd 62 f6 7a bd 33 8f d8 bd 12 1a eb bd
       -0.06409362 -0.061270125 -0.10574188 -0.11479582
000250 da 7e 04 be d4 3f 18 bd a6 6e 83 bd 2c 5b 3e bc
       -0.12939015 -0.037170246 -0.06417589 -0.011618417
000260 ef c8 49 3c 22 a6 02 be 3f c2 29 be 14 78 0a be
       0.012315973 -0.12758687 -0.16578005 -0.13522369
000270 6c c3 84 bd 2d 43 78 3d d7 bd f3 3e 5a 2a 3c bd
       -0.06482586 0.06061094 0.47605774 -0.045938827
000280 de 53 ee bd 84 e7 2e bc 8c 5f 38 be e1 07 d8 bd
       -0.1163709 -0.010675315 -0.18005198 -0.10548378
000290 78 00 ec bc a3 43 f6 bd 4a 33 d0 bd 08 63 d2 bd
       -0.028808817 -0.120246194 -0.101660326 -0.10272795
0002a0 d4 1b ba 3d 67 cf 43 bd e5 85 80 bb 48 86 97 bd
       0.09087339 -0.047805216 -0.0039222115 -0.07398659
0002b0 41 da 9b 3e 0e 61 43 be b5 a3 7e bd 15 55 de bc
       0.30439952 -0.19079992 -0.062167842 -0.02714018
0002c0 bb 0d 5c 3d 90 31 18 3e 80 4f 91 3c 6f 52 b1 bc
       0.053724032 0.14862657 0.017738104 -0.021645753
0002d0 08 d7 33 be 7c 4d 94 3c 28 28 d3 bd 9c 8a e0 bd
       -0.17562497 0.018103354 -0.103103936 -0.10963938
0002e0 f4 6d a7 bb bc 5a 58 3d 87 f2 f3 bd c9 ca 3e be
       -0.005109543 0.052820906 -0.11911493 -0.18632044
0002f0 28 9e f7 3d 6d 87 66 bd e3 f2 94 3e e5 84 dd bd
       0.12090713 -0.056281496 0.29091558 -0.10816363
000300 aa 3e 32 3e e8 a1 e5 bd 04 b4 09 be 93 d8 c0 bd
       0.17406717 -0.11212522 -0.13447577 -0.09416308
000310 58 63 bd bd ba 1c fd bd 94 d0 2e be ab cd 1b be
       -0.09247464 -0.12358995 -0.17071754 -0.15215175
000320 d9 59 f0 bd 98 db 1a be 6b 34 12 3d 2a 44 89 3d
       -0.11735887 -0.15122831 0.03569452 0.067024544
000330 bb 03 08 bd 49 cd d6 bc ae 8b c8 bd c3 57 2e bd
       -0.033206683 -0.026220934 -0.09792267 -0.042564165
000340 fd ad e1 bd 29 91 cb bd a8 d6 2d 3a 63 a4 9a bd
       -0.11019514 -0.099397965 0.00066314125 -0.075508855
000350 4f 4d f8 bd 56 87 f1 bc 25 50 9a bd 7f dc 9c bd
       -0.121241204 -0.029483479 -0.075348176 -0.07659244
000360 05 0a 60 bd f1 1b a9 bd e0 ce aa bd b5 e7 16 3e
       -0.054697055 -0.082572825 -0.083402395 0.14736827
000370 a2 5e cb bd f0 9f b6 3d 8c f1 03 3e 2f 90 06 3d
       -0.09930159 0.089172244 0.12885112 0.032852348
000380 a8 2f 89 bd 27 85 7a bd e2 13 72 bd 58 76 95 3c
       -0.06698543 -0.06116214 -0.059100993 0.018244907
000390 c4 30 49 be 85 fc e3 3d 8c 0f 42 be 8d 98 3c be
       -0.19647509 0.11132149 -0.18951243 -0.18417569
0003a0 a0 25 30 3d 4f be f4 bd b8 76 ed bd c6 5a c5 3d
       0.043004632 -0.11950361 -0.115949094 0.09636454
0003b0 79 63 1a 3d 3a 49 11 bd e5 62 08 3e 0e cd 39 3e
       0.03769252 -0.035470225 0.13318975 0.18144628
0003c0 22 52 d2 ba 23 4d 31 3d b5 6e 75 3c 40 43 f7 3c
       -0.0016046206 0.043286454 0.014980008 0.030183434
0003d0 3f 5b 4a 3d e6 c3 1f 3d 7b 13 25 be fb ee 99 3c
       0.049403425 0.039005183 -0.16120712 0.018790713
0003e0 45 3b 48 3d c1 44 87 3c 33 05 2d bd 95 b9 74 3d
       0.04888465 0.016512277 -0.042241286 0.059747297
0003f0 2a 93 7e 3d 8c 71 d9 3c c3 d0 01 be dd b3 80 3d
       0.062152065 0.026543401 -0.12677293 0.06284306

bias_hh_l0 f4 [480]
000000 46 a8 e4 bd fb e9 5e be 8f 9d 2c 38 21 89 c0 bc
       -0.11164908 -0.21768944 4.1154733e-05 -0.023502888
000010 18 c7 dc bb 96 5f 65 bc fa 47 74 bc 41 49 58 be
       -0.006737601 -0.01399984 -0.014909739 -0.21121694
000020 05 4a 2b bc 6d 72 17 be 32 d9 32 be 93 63 bb be
       -0.010454659 -0.14789744 -0.17465666 -0.36599407
000030 88 bd 11 bd 7a 6e 7b be 18 ee ca bd 21 e5 4f bd
       -0.03558114 -0.24553862 -0.09908694 -0.050755624
000040 3d 4f e1 bd 9e 90 06 be 3f 36 51 be 08 58 2a be
       -0.11001442 -0.13141105 -0.2043085 -0.16635144
000050 ab 0c 13 be 14 22 58 be df 0d 9a bd bd 10 ef bd
       -0.14360301 -0.2110675 -0.07522177 -0.116731144
000060 3b 6b 18 be cf ff b0 bd 10 03 70 bc 4c a8 61 bd
       -0.14884655 -0.086425416 -0.014649168 -0.05509214
000070 bf 6d 2d be 67 2b 46 bd 0e aa 2a be 10 10 73 be
       -0.16936396 -0.048381235 -0.16666433 -0.23736596
000080 34 0f 08 be 66 69 91 be 8a 58 50 be b6 e4 0a be
       -0.1328705 -0.28400725 -0.20346275 -0.13563809
000090 da f4 2f be c9 e9 62 bd 1d 7b 97 3e bb bb 0c be
       -0.17183247 -0.055398736 0.29586115 -0.13743488
0000a0 cb e2 82 be 7b 60 5f bd 85 32 ce bd b0 ca 2c be
       -0.25563654 -0.05453537 -0.100682296 -0.16874194
0000b0 c1 07 d9 3d 21 90 72 be d3 6a b7 bc 39 73 ab bd
       0.10597182 -0.23687793 -0.022389805 -0.08371586
0000c0 51 df 4a bd 8f 1b 2f be 7e b8 b1 bd 3a 4e c2 bd
       -0.049529377 -0.17100357 -0.08677767 -0.09487577
0000d0 39 a8 90 be 39 7e 16 be dc 8b b5 bd db c6 eb bd
       -0.28253344 -0.14696588 -0.08864567 -0.11512538
0000e0 08 1c 4b be 0f 92 b8 3d 22 23 78 bd 6c 44 8f bd
       -0.19834912 0.090122335 -0.06058038 -0.06995472
0000f0 03 79 3f be 2e f6 12 3e cf c5 c4 bc 19 5b 4e be
       -0.18698506 0.14351723 -0.024020104 -0.20151938
000100 5d 4f e3 bd f2 37 30 be e1 16 0e be 7c 51 60 be
       -0.11099122 -0.17208841 -0.13875915 -0.21906084
000110 3d 90 4e be 06 3f 51 be 2f 41 b3 be d6 b0 1f bd
       -0.2017221 -0.20434198 -0.3501067 -0.038987003
000120 c1 bd 6e be 39 e6 09 be 39 7d 2b be d8 29 ff bd
       -0.23314573 -0.13466729 -0.16746987 -0.12459153
000130 67 67 08 be f9 87 07 bd a2 cc 61 be d9 56 42 be
       -0.13320695 -0.033088658 -0.22050717 -0.18978442
000140 d0 47 d1 bd 4f 9c e4 bd 94 25 44 3c df 98 87 bd
       -0.10218775 -0.11162626 0.01197185 -0.06620955
000150 9d d2 4a 3b 12 f4 35 3d 2e 12 2c be b7 0d 4a bd
       0.003094829 0.044422217 -0.1680381 -0.049329486
000160 2b 7e c4 bd 32 d1 db bd 4e 03 55 3d 2e 32 59 bd
       -0.09594377 -0.1073326 0.052005105 -0.05302637
000170 01 f2 00 be 08 28 b7 bd ab 17 0b be 5d 6c 84 bd
       -0.12592317 -0.08943182 -0.13583247 -0.06465981
000180 58 d1 4f be fd e1 01 be 64 19 2d bd ff 5b 3c 3d
       -0.20294702 -0.12683864 -0.042260543 0.04598617
000190 80 7a c6 bc 22 1d 9e bd 34 b5 27 bd 36 8b c4 bd
       -0.024228334 -0.077204004 -0.040944293 -0.09596865
0001a0 5a 06 3f be 4a 70 25 be 1c f0 31 be 3a a0 60 3d
       -0.18654767 -0.16156116 -0.1737675 0.054840304
0001b0 54 d9 79 be 4d 80 58 bd 75 75 d4 bd 20 41 90 bd
       -0.2439931 -0.052856732 -0.10373966 -0.070436716
0001c0 b1 6b 27 3d 92 ce 26 be 2d ca 2d be cd 0e cd 3c
       0.040874187 -0.16289738 -0.16971655 0.025031472
0001d0 25 cb d0 3c 68 c3 0b be 80 01 3b be 62 53 8c bc
       0.025487492 -0.1364876 -0.18262291 -0.017129604
0001e0 8b e2 5b bd 62 e8 ef bc 61 16 27 3e 97 0b 04 be
       -0.053682845 -0.029285613 0.1631713 -0.12895046
0001f0 49 9b 2b bc c6 31 23 3e 19 3b 95 bc cf d2 51 be
       -0.010474035 0.15936956 -0.018216657 -0.20490573
000200 1c 2c fa 3c 26 bf 06 3d dc ea 90 bd 4f 11 11 3e
       0.030538611 0.032897137 -0.07076046 0.14166759
000210 64 65 6c 3d 43 a8 f8 bd a3 47 38 be 38 ff 6d bc
       0.05771388 -0.121414684 -0.17996077 -0.014526181
000220 69 de 67 3c 53 66 2e 3d 11 4d f4 bc 53 02 84 bd
       0.014152148 0.042578053 -0.029821904 -0.06445756
000230 6a a1 f7 bd 83 f4 58 bd 81 0d 36 be 70 ee 39 bd
       -0.12091334 -0.05296756 -0.17778589 -0.045393407
000240 8a f2 f3 bc 80 9d 3c bd 72 30 03 be c2 a2 af 3c
       -0.029778738 -0.04604864 -0.12811449 0.021439914
000250 3c bb cd bd 38 06 49 bd 2b 96 a5 bd 06 b0 17 be
       -0.10045478 -0.049078196 -0.08085283 -0.14813241
000260 62 42 84 3b c3 34 ef bd 9e 14 13 be 20 4f cc bd
       0.0040362338 -0.116799854 -0.14363334 -0.099760294
000270 46 a0 0b be 86 76 fe bc 3f c3 ed 3e b5 c3 34 bd
       -0.13635358 -0.031062376 0.46438023 -0.044131953
000280 07 f6 00 be 3f 64 cf 3d 7f 41 32 be cc de 61 bd
       -0.12593852 0.10126542 -0.17407797 -0.055144116
000290 bd 68 10 bc 4f 2d 36 be cb 20 c7 3c b6 96 0f be
       -0.008814034 -0.17790721 0.02430763 -0.14022335
0002a0 f6 ac 20 3d 47 cd 32 be b0 53 23 bd d1 d1 0f be
       0.03922745 -0.1746112 -0.039874732 -0.14044882
0002b0 28 a4 a9 3e 89 02 13 be 50 d0 1e bd cc 22 f2 bd
       0.33133054 -0.14356436 -0.03877288 -0.11823043
0002c0 13 57 86 3d fd 78 e6 3d b9 55 c2 bd c5 9f 43 bd
       0.06559577 0.112535454 -0.094890065 -0.04775979
0002d0 13 fd 3b be 69 1f fe 3d bb dc 83 3d aa 4a 84 bd
       -0.18358259 0.12408335 0.06438585 -0.064595535
0002e0 14 bd 4c 3c d5 8d dc 3d 05 39 14 be a9 bb 96 bd
       0.012496252 0.1076924 -0.14474876 -0.07360012
0002f0 ae 7c aa 3c 39 ec 05 be 8f 56 15 3e b7 56 a1 bd
       0.020811405 -0.13078393 0.145838 -0.07877868
000300 2c d5 4d 3e 14 84 05 bd eb e2 42 be b8 d0 35 be
       0.2010085 -0.032596663 -0.19031875 -0.17755401
000310 35 ef dd bd a3 be ac 3c 96 01 27 be 68 bf 0e be
       -0.10836641 0.021086996 -0.16309199 -0.13940203
000320 d5 bc 52 bc 1d 47 9c 3c 36 dd b3 3d 57 0d b7 bd
       -0.012862404 0.019076878 0.08782427 -0.08938091
000330 32 ee ce bd b8 8a e3 bc 3b 2f 1e be 49 11 ee bb
       -0.10104026 -0.027776107 -0.15447704 -0.007265244
000340 54 21 c6 bd 1d 77 0e be 58 8a 99 3d d4 1d 89 3b
       -0.096743256 -0.13912626 0.0749709 0.004184464
000350 d7 9f a1 bd 12 9b 11 be e6 54 98 bd a4 05 08 3d
       -0.07891815 -0.14219311 -0.07438068 0.033208504
000360 2b 78 fe bd 55 ad 73 be 65 f2 47 bd c6 85 26 3e
       -0.12425264 -0.2379659 -0.04881515 0.16261968
000370 16 cf db bd 56 24 09 3e 5f b4 33 3c e6 e2 a5 bd
       -0.10732858 0.13392767 0.010968297 -0.08099918
000380 a5 d7 69 bc d2 63 ff bd 26 7b 76 bd b0 00 1a 3d
       -0.014272605 -0.12470211 -0.060176037 0.037598312
000390 e1 0d ad bd 8e ac eb 3d 4a 04 31 be 55 6c c1 bd
       -0.08449913 0.115075216 -0.17286792 -0.09444491
0003a0 b4 e1 99 37 e1 93 ce bc 90 0c 05 be 80 7b bb bc
       1.8344123e-05 -0.025216999 -0.12993073 -0.022886038
0003b0 f6 0e ed 3b 31 bd 30 be 10 c3 e2 3d 1c 62 67 3e
       0.0072344495 -0.17259671 0.110723615 0.2259602
0003c0 8c 86 69 bc 63 7f 33 3d 35 ca 8e 3c d8 7c 67 3d
       -0.01425327 0.043822657 0.017430404 0.056515545
0003d0 3c dd e5 3c 55 eb 48 bd a7 06 30 bd 72 74 91 bd
       0.028059594 -0.049052555 -0.042975094 -0.07102288
0003e0 5f b0 50 bc 17 92 7f 3d 6e 99 b3 bd dd cb 51 3d
       -0.012737363 0.06239518 -0.08769499 0.05121981
0003f0 a1 b1 de 3c 30 a2 b4 bd 6f 86 a0 bb 5b 05 a3 3d
       0.02718431 -0.08819997 -0.0048988382 0.07960006

weight_ih_l0 f4 [480, 120]
000000 5b e7 38 bc fc 7f 0e be 07 d8 1f bd 98 c0 3c 3b
       -0.011285628 -0.1391601 -0.03902438 0.0028801318
000010 57 83 5e bd ea 95 18 3d 5b f1 f8 3d b5 8b 22 3d
       -0.054324474 0.037252344 0.1215541 0.039684016
000020 c7 53 fb bb de d8 fb bd 6b 9c 4d 3e f1 b8 41 3a
       -0.007669899 -0.122972235 0.200792 0.0007389924
000030 12 66 9f 3c 70 00 e9 3d e4 46 e1 bc ef 81 35 be
       0.01945785 0.113770366 -0.027499624 -0.17725347
000040 57 0e 13 3e cb b6 f1 3d d3 7b 0e 3e 5a 43 88 bd
       0.14360939 0.11802443 0.13914423 -0.06653471
000050 66 29 92 3d a7 60 62 bd 53 c8 ce 3c ba 35 9f 3d
       0.071368024 -0.055267956 0.025242006 0.077739194
000060 53 f5 da bd 81 e5 c9 bd 56 c9 9c 3d 09 70 9b bc
       -0.10691323 -0.098582275 0.07655589 -0.018974321
000070 6c fe 9b 3d 77 a6 04 3e e5 7d b6 bd 71 58 9b bd
       0.076168865 0.12954126 -0.08910731 -0.07585228
000080 b4 b4 96 3d 8c 9d e9 3d 9d f6 9b bd c9 09 a9 3d
       0.07358685 0.11407003 -0.07615397 0.082538195
000090 cd fc 81 3d f2 46 49 be 8c c5 fe 3c 89 c9 03 be
       0.06347046 -0.1965597 0.031100057 -0.12869848
0000a0 01 84 b3 bd 68 0f 7c bc a5 6c 9b bd 77 ca eb bc
       -0.08765412 -0.0153845325 -0.07589082 -0.028783066
0000b0 84 58 cc bc 14 69 3c bd 83 fb 0a 3e 90 c9 9b bd
       -0.024944551 -0.045998648 0.13572507 -0.07606804
0000c0 bf 7f a3 3b 65 13 70 bd f9 ff c2 3d ba 31 15 3e
       0.0049895938 -0.058612246 0.09521479 0.1456975
0000d0 ea 96 80 be 86 a4 56 bc e9 b8 88 bd ae ee 94 bd
       -0.25115138 -0.013100749 -0.06675894 -0.07272087
0000e0 c1 08 89 bd 75 15 cb 3d eb e4 fb 3d a3 c0 bd 3d
       -0.06691123 0.09916202 0.12299522 0.09265258
0000f0 4d 84 3d bd a9 b2 03 3e 64 ff 98 bd fd 09 b3 bc
       -0.04626875 0.12861122 -0.07470587 -0.021855349
000100 d4 7e f1 3b c8 a2 77 3e 94 4c 86 3d f2 82 a6 3d
       0.0073698554 0.2418319 0.06557575 0.081304446
000110 52 76 28 be 18 b0 62 3d 84 94 59 3d 48 76 ea bd
       -0.16451386 0.055343717 0.05312015 -0.114483416
000120 5b 3f 81 be 3a 21 60 3d 65 d7 67 bd 0a 75 01 be
       -0.2524365 0.054719187 -0.0566019 -0.12642303
000130 44 65 70 3d 8d c2 99 bd f5 a9 d5 3d 42 0c 5c bd
       0.058690324 -0.07507811 0.10432807 -0.053722627
000140 34 7a 8e 3c c9 07 4c 3d 1d 6a 5e 3d c5 78 bf 3c
       0.017392255 0.049812112 0.054300416 0.023373017
000150 8f a7 3b be d7 c7 79 bd 19 0c f4 3d b0 22 83 3b
       -0.18325637 -0.060981598 0.1191637 0.004001938
000160 7d a9 3e bd d0 6c 32 3e 8c 89 83 bd 29 87 04 3e
       -0.046548355 0.17424321 -0.06422719 0.12942185
000170 5f c9 0c be 08 66 c4 3d 7e 9d 1d 3d 8b 08 89 3d
       -0.13748692 0.095897734 0.038480274 0.066910826
000180 c7 d9 8d 3c 9c 1c 25 bb 3c 84 9d 3d 4a f6 2b 3d
       0.017315758 -0.0025194054 0.07691237 0.041982926
000190 a0 aa 9a bd a1 6d 99 3c 7b 97 03 3e 62 35 5a bd
       -0.075520754 0.018729033 0.12850754 -0.053273566
0001a0 e5 85 02 be 88 b1 91 3d 86 a7 0f be f9 83 9d bc
       -0.12746389 0.071139395 -0.14028749 -0.019227969
0001b0 9e 5a 2b 3c a3 f6 c2 bc db 19 a1 bd 8d fc 7f 3d
       0.010458617 -0.023799246 -0.0786626 0.06249671
0001c0 d1 5c a6 bc 27 67 35 3d cf 36 d8 3c 38 1c ab 3d
       -0.02030793 0.044287827 0.026393322 0.08354992
0001d0 2c 30 f7 bd c8 7f 5b 3d 94 19 d9 bd 5d f7 81 3d
       -0.12069735 0.05358866 -0.10600582 0.06346009
0001e0 d0 67 4e 3e 61 2f 7a 3d a9 91 de bd f0 ea 15 be
       0.20156789 0.06108034 -0.10867626 -0.14640403
0001f0 e4 f4 04 3e 0f 1a 87 3e de 8b 20 3e 55 00 5f 3d
       0.12984043 0.2638707 0.15678355 0.054443676
000200 55 ef 98 bd ac c5 58 3e bb a5 93 3d d9 59 c3 3a
       -0.07467524 0.21169156 0.07209345 0.0014904096
000210 9a 83 1c 3e 39 a0 5a bc c9 47 5c 3e f1 78 8c bd
       0.15284577 -0.013343864 0.21511759 -0.06859005
000220 4e f3 90 3b ee 96 a4 3d 92 82 a1 3d 81 12 cb bb
       0.0044235354 0.080366 0.078862324 -0.006197274
000230 ea 99 63 bb df 80 3a 3c b7 b3 10 be 4d b7 d1 bd
       -0.003472919 0.011383264 -0.14131056 -0.1024004
000240 37 41 0c 3e 89 77 c4 3c 54 98 6e 3b a8 31 8a bd
       0.13696752 0.02398278 0.0036406713 -0.067477524
000250 cb d1 3c be cc 46 31 3e 80 34 9d 3d c5 ab 08 3e
       -0.18439405 0.17312163 0.07676029 0.13346775
000260 39 a9 93 bc eb ba b5 bc 4e 19 6a 3d 13 cc 7b bc
       -0.018025028 -0.022183856 0.05715304 -0.015368479
000270 41 8b 13 3d 74 bd 65 3d b5 e0 0f 3e 21 ae 12 be
       0.036021475 0.05608888 0.14050563 -0.14324237
000280 ee 86 a0 bd 60 81 55 3d b8 7b ef 3b 86 9e 9e bc
       -0.07838236 0.052125335 0.0073084496 -0.0193627
000290 f8 d3 ec bd bb 04 4c be fa 69 c5 3d db 4b f2 3b
       -0.11563867 -0.1992368 0.09639354 0.0073942966
0002a0 4c d7 74 3e f3 69 06 be 6c b8 4c bc 6d c5 e0 bc
       0.23910254 -0.13126354 -0.0124951415 -0.02743789
0002b0 ba e5 dc 3d ef e3 08 bd bb dc dd 3d 25 40 0f 3e
       0.10786004 -0.0334205 0.108331166 0.13989313
0002c0 10 eb f0 3c 76 21 2a be 32 94 50 be 8e f8 eb bc
       0.029408962 -0.16614327 -0.20369032 -0.028805044
0002d0 aa 2f df bd c1 02 26 3d bf 88 d5 3d d9 bb b6 bd
       -0.10897763 0.04052997 0.10426473 -0.08922548
0002e0 49 e0 ab bd 13 b8 1e bd 85 ae 28 3d b4 88 6e 3d
       -0.083923884 -0.038749766 0.04118206 0.05823584
0002f0 a7 a9 c3 3d a6 5f fc 3d 28 9a 61 be 9b 0e 03 be
       0.09553843 0.12322931 -0.22031462 -0.1279854
000300 29 79 18 be b9 31 1a bb c2 dd 05 be ed 4f cf bc
       -0.14889969 -0.0023528172 -0.13072875 -0.025306666
000310 f8 57 d1 3d 25 93 93 3d 09 80 ef 3d a7 47 82 bd
       0.10221857 0.072058 0.11694343 -0.06361323
000320 6a 3e 11 bd a6 0f d6 bd 00 d8 06 3e c8 6c 99 bb
       -0.035459913 -0.104522035 0.13168335 -0.004682157
000330 5e 3c df bd 63 ee 5f bb 77 2f b5 bc 95 f7 cf bd
       -0.10900186 -0.003416919 -0.02211736 -0.101546444
000340 c4 91 00 3d 14 ec fd 3d cb c6 d1 bd 5b c4 38 3e
       0.031389013 0.12398544 -0.10242995 0.18043654
000350 f8 d1 5b 3d 85 25 d4 3c 57 3c a4 bd 77 03 2b 3d
       0.05366704 0.025896797 -0.080193214 0.04175135
000360 db 36 bc bd fb 82 83 bd 8e 93 c4 bd 7a 0d 63 3d
       -0.0919015 -0.06421467 -0.09598456 0.055432774
000370 9b 23 0e be e5 e2 55 3e a9 89 5c 3e 45 79 a0 bd
       -0.1388077 0.20887335 0.21536888 -0.0783563
000380 0c 9b ad bd ef 27 1b 3d 5c 2c d4 3d f6 06 15 3d
       -0.084768385 0.03787988 0.103600234 0.03638359
000390 26 b1 37 bd 4e e4 00 3e a9 e0 d7 bd 6d 9a e1 3c
       -0.044846676 0.12587091 -0.105408974 0.027539456
0003a0 cd ca 0a be 5c e7 41 3e c2 bf 0f bb f1 d8 3b 3c
       -0.13553925 0.18935913 -0.0021934365 0.011465297
0003b0 13 ca 8a bd 2f da 19 be b6 5d a7 bd 2e 53 08 be
       -0.06776824 -0.15024637 -0.08172171 -0.1331298
0003c0 f7 d3 14 3d 25 f8 3a be dd c9 38 be 1c ed 9f bc
       0.036334958 -0.18258722 -0.18045755 -0.019522242
0003d0 72 d1 96 3d 7d d2 a5 3d 69 2a 34 3d ab 49 e7 3a
       0.07364167 0.08096788 0.043985758 0.0017645856
0003e0 0d b2 2a 3d cb a7 71 bb e2 c5 de 3d d9 05 9d bd
       0.04167371 -0.0036873694 0.10877587 -0.07667131
0003f0 27 45 6b 3d 84 7b a5 3d 5a 62 4e 3d 78 4a bd bd
       0.057438996 0.08080199 0.050386764 -0.092427194

weight_hh_l0 f4 [480, 120]
000000 44 19 b7 bc a8 95 79 3c 93 36 45 bc df 5b 1d be
       -0.022350915 0.015233435 -0.012036937 -0.15367077
000010 c0 dd a4 bd 2c f2 7b 3c a8 74 3a be e6 c9 2f 3e
       -0.08050108 0.0153775625 -0.18208563 0.17166862
000020 63 05 ea bd 71 c3 ad bd 3e 3a 4a 3d 65 e8 4e be
       -0.11426809 -0.08484543 0.04937195 -0.20205839
000030 66 ae 83 3e 15 48 1a 3d a4 3a ce be 23 16 b3 bd
       0.25718993 0.0376664 -0.40279114 -0.087444566
000040 56 0e dd 3b d0 69 a0 bd b2 92 d4 bc 7e 51 21 3e
       0.0067460937 -0.07832682 -0.025948856 0.15753743
000050 5c e0 9e bd 82 cf bd bd 55 c6 61 3d 44 57 1e 3e
       -0.07757637 -0.092680946 0.055120785 0.15462977
000060 1a bd 6f 3e 64 f7 1f 3e d1 ac 64 3c 30 fb 70 3e
       0.2341198 0.15621716 0.013957218 0.2353332
000070 17 19 05 3e c7 b9 1b be 7a fc 31 3e 5c a8 84 bd
       0.12997852 -0.15207587 0.17381468 -0.064774245
000080 a8 ab cb bd ef a1 67 3d 7d 1a c0 bd dd 27 28 be
       -0.0994485 0.056550916 -0.09380052 -0.16421457
000090 bc cd 40 be c0 31 01 3e c4 db 3b 3e b9 58 04 bd
       -0.18828481 0.12616634 0.18345553 -0.032311175
0000a0 39 39 ad bc 99 c5 5e 3d 2d b1 55 bd de 21 eb bd
       -0.02114545 0.054387663 -0.05217092 -0.11481069
0000b0 96 44 69 be 83 26 30 3e 7c 53 cc ba 5c 2d ad bd
       -0.2278007 0.17202191 -0.0015588845 -0.08455917
0000c0 4d 6c 24 bd cc 43 60 3e 9e 70 d0 3d 61 dc 46 3d
       -0.040142346 0.21900862 0.1017773 0.048550013
0000d0 a4 5a 80 3d c7 05 b6 3d 02 68 29 be 3d 02 8b 3d
       0.06267288 0.08887821 -0.16543582 0.06787536
0000e0 bd a2 86 3d 66 15 cf bc e8 3c 7f 3d 4b 72 e7 3c
       0.065740086 -0.025278758 0.062313944 0.028252741
0000f0 29 13 18 be 83 e9 0b 3e 87 22 5f 3e 7c b4 4d bc
       -0.14851059 0.13663296 0.21790515 -0.012555238
000100 95 1b 15 be eb d5 2c 3e ec 96 5f 3e b7 36 83 be
       -0.14561303 0.16878478 0.21834916 -0.25627682
000110 40 2e 53 3e 32 f8 ca 3c dc c6 39 be 4c d9 58 bc
       0.20623112 0.024776552 -0.18142265 -0.013235401
000120 da 8f 44 be 1c 8a 97 be 3b e8 4e bd bf a9 e0 3c
       -0.191955 -0.29597557 -0.05051444 0.027424691
000130 73 d2 d3 bc 22 ea 24 bd 85 bc f3 bc 2c 25 ee 3d
       -0.025857186 -0.04026235 -0.029752979 0.11628184
000140 50 03 3c bd d5 48 82 bb e6 a2 05 3e 10 a8 36 be
       -0.045901597 -0.0039759674 0.13050422 -0.17837548
000150 9b f1 fc bd 95 fd 1f 3e 58 fb 3f 3e 6f 88 2d be
       -0.1235077 0.15624078 0.18748224 -0.16946577
000160 54 9d af bd f5 9e bb bc 58 0e 7c 3d 67 33 a1 3c
       -0.0857493 -0.022902945 0.061537117 0.01967783
000170 32 74 a0 bd 42 e9 90 3d 75 21 2c be 7c d8 19 3e
       -0.078346625 0.070757404 -0.16809638 0.15023988
000180 5e b1 25 3e b3 93 1f be ac a3 91 bc 39 76 06 be
       0.16180941 -0.15583687 -0.01777824 -0.13131036
000190 a4 ea 3b 3e a6 69 cf 3d f4 66 87 3c 89 04 2b be
       0.18351227 0.10127573 0.016528584 -0.16700949
0001a0 2e f6 30 3e 6a 48 0f 3e 63 9b 2d bd 6d 0b 84 bd
       0.1728141 0.13992468 -0.042384516 -0.06447492
0001b0 75 a1 05 3e 38 90 c9 bb 4f 2f 16 bd d6 f0 5b 3d
       0.13049872 -0.0061512254 -0.03666621 0.053696476
0001c0 31 5a dc be d9 fa 9a bd 31 23 21 3e 1f b1 25 3e
       -0.4303756 -0.07567377 0.1573608 0.16180848
0001d0 85 ae 38 3e 49 2c dd 3b 0d 67 09 3e dd 71 fc bb
       0.18035324 0.006749664 0.13418217 -0.0077040032
0001e0 7b 36 b0 3c ca bc fa bd 6e c8 25 3e fe 2f df 3c
       0.021510353 -0.1224304 0.16189739 0.027244564
0001f0 f9 5f a8 3d 5d 61 3f 3d 1b 4e 06 3d 14 d5 2c bd
       0.0822143 0.046723712 0.03278933 -0.042195395
000200 0d fa 91 bd ba ad a9 bc d7 ca d7 3c 1c c5 a8 bd
       -0.071277715 -0.020712722 0.026341839 -0.08240721
000210 b6 f6 5d 3d 98 7c 33 3d 95 a8 15 3e 23 16 98 bd
       0.05419036 0.043819994 0.1461509 -0.07426097
000220 1e ad 17 be 5b 0e b0 bd 00 aa c6 3c 49 c3 08 3c
       -0.14812133 -0.08596488 0.024250984 0.008347341
000230 7d 47 a6 bd dd f6 7f bd cf 31 6e 3d 06 2b 12 bd
       -0.08119104 -0.062491287 0.05815297 -0.03568556
000240 1c c1 f1 bc c8 63 98 3c 04 e9 b8 bd d8 1e 52 bd
       -0.029511027 0.018602267 -0.09028819 -0.051298946
000250 f1 df 64 bd f5 75 45 bd 22 32 0f 3d 4f b8 81 bd
       -0.05587763 -0.048208196 0.03495992 -0.06333982
000260 41 f7 d4 bd ee ab 6c bd e3 27 3c bd 73 fe ec bc
       -0.103987224 -0.057781152 -0.045936476 -0.028929925
000270 e2 7b f7 bb c6 d9 9e 3d 62 89 0f 3d 3f df cb 3d
       -0.00755261 0.07756381 0.035043128 0.0995469
000280 92 72 7b 3c 7e c1 c0 3d b9 86 e9 bd 57 70 f1 3b
       0.01534714 0.09411906 -0.114026494 0.0073681283
000290 ae d0 4f bd fc 47 fd 3c f9 8e 8d 3b 68 10 e0 bd
       -0.05073612 0.030918114 0.004320022 -0.10940629
0002a0 5a ce b4 bd a8 41 dd 3c d6 6e 23 3d ef 31 12 bb
       -0.08828421 0.027008846 0.039900623 -0.0022307595
0002b0 55 3f 87 3d d5 60 01 3d 8b f9 c0 bd ee fb ac 3d
       0.066038765 0.031586487 -0.094225965 0.08446489
0002c0 ac 44 42 bd d3 8a a8 3d e6 27 5f 3d 01 d3 c3 3d
       -0.04742877 0.082296036 0.05448141 0.0956173
0002d0 df ea f3 bd bb 50 ac 3d 22 2f 17 3d 3a 10 84 3d
       -0.119100325 0.084138356 0.036910184 0.064484075
0002e0 f8 b8 8d bd 07 45 5a bc 24 f5 a2 bd 67 9b b6 bd
       -0.069200456 -0.013322121 -0.07956913 -0.089163594
0002f0 fd 01 b8 3d 1d 6a 2a bd 07 86 b4 bd cb 21 93 3d
       0.08984754 -0.041605104 -0.08814626 0.0718418
000300 de 6c 83 3d fc e1 5f 3e ec f4 97 bd b1 2c 87 bd
       0.06417249 0.2186355 -0.07419762 -0.06600321
000310 e7 08 e9 bd 98 62 fb 3c 9d 12 2b ba 0a b3 a9 3c
       -0.11378651 0.030686662 -0.0006525906 0.020715255
000320 cc df 5c bd 22 9c 0f 3d 1f dc 59 3c 75 90 26 bd
       -0.053924367 0.03506101 0.01329711 -0.04066511
000330 e8 22 3e bd 23 79 0c 3e f1 f7 62 3b 62 32 08 bd
       -0.046420008 0.13718085 0.0034632648 -0.033251174
000340 6c 46 ea 3d 73 ff 77 3d 57 81 e1 bd 99 e4 21 bd
       0.11439213 0.06054635 -0.11010998 -0.03952465
000350 fe d4 de b9 3b bb 17 bd 5c 0d 2f bd a9 10 68 bd
       -0.0004250183 -0.03704379 -0.04273735 -0.056656513
000360 c1 90 f6 bd e1 5d 48 bc b7 97 9a ba 07 73 62 bd
       -0.12039328 -0.012229414 -0.0011794482 -0.05528548
000370 f1 57 c9 3c dd 07 a4 3d 9a bb 4b 3e 3c c1 4e 3d
       0.024578067 0.08009312 0.19895783 0.05047725
000380 99 ef 10 3e 62 2a 9d bd 0a e0 fe bd 23 33 18 bd
       0.14153899 -0.076740995 -0.12445076 -0.037158143
000390 35 7a 82 3d 00 87 21 3d 5a 2f ea bd de 3c 05 be
       0.063709654 0.039435387 -0.11434813 -0.130115
0003a0 4c cb f2 3c 91 e6 e5 bd 80 8d ee 3c ca e3 c8 3d
       0.029637955 -0.11225618 0.029120207 0.09809072
0003b0 9d 34 f3 3d b7 08 b2 3d fc b1 d9 3c 6f ed e7 3c
       0.118752696 0.086930685 0.026574127 0.02831146
0003c0 c9 eb 0f be 54 a5 e1 bc a1 73 7c 3c 60 56 0f 3e
       -0.14054789 -0.027544655 0.015408427 0.13997793
0003d0 13 a1 85 3d 96 ff 10 3d af 98 93 bd 3a 82 da 3d
       0.06524863 0.035399996 -0.072068565 0.1066937
0003e0 21 6f 05 3e d6 88 76 3d 72 8f 9c bd d3 91 2f 3e
       0.13030674 0.06018909 -0.076445475 0.17145471
0003f0 0a cd 0e be 4a 45 2e be dc a1 94 3c d2 c2 f9 bd
       -0.13945404 -0.17018619 0.018143587 -0.12195362

bias_ih_l0 f4 [480]
000000 17 33 28 bd fb 58 08 be eb 07 10 be 3d 31 be bd
       -0.041064348 -0.13315193 -0.1406552 -0.09286735
000010 f7 07 d1 3c 6a d4 8c ba ac cd 94 3d 86 ef c8 bc
       0.025516493 -0.0010744457 0.07265791 -0.024528276
000020 d4 f7 87 bc cd b2 eb bd fb cd 2a be c8 4a 21 bd
       -0.016597666 -0.11508713 -0.16680138 -0.039377958
000030 24 98 9f bd 53 6a d8 bd f5 37 00 be d0 ed ff bd
       -0.077926904 -0.10567155 -0.12521346 -0.12496531
000040 bf bb 51 bd 01 b8 ec bd 8f 8a 35 3d 5e 0a cd 3d
       -0.05120444 -0.115585335 0.044321593 0.10011743
000050 ed 21 f6 bd 59 6b fb bc 4f 65 a3 3c 2a a2 09 be
       -0.120181896 -0.030690836 0.019945769 -0.13440767
000060 69 91 09 be d9 41 47 bd ae 9f 26 bd 58 fb 0d 3d
       -0.13434376 -0.04864678 -0.040679626 0.03466353
000070 68 c2 9f bc a1 50 59 be 63 0b f6 3c b9 4d 20 be
       -0.01950188 -0.21222164 0.030034726 -0.15654649
000080 af 0d 67 bd b0 1c 90 bd 11 e5 d1 bd e8 7b 33 be
       -0.056409534 -0.07036722 -0.10248769 -0.17527735
000090 ad 40 f3 bc 84 b1 e3 bd 24 28 a4 bd a7 66 08 be
       -0.029693926 -0.11117843 -0.08015469 -0.13320409
0000a0 8f 7b c0 bc 2e ca 0a 3d e0 ea 0b be 37 cf c7 bd
       -0.023496417 0.03388422 -0.13663816 -0.0975632
0000b0 44 98 d6 3c 00 bd 7a 3d 53 11 d8 bd 8d 10 b6 bd
       0.026195653 0.0612154 -0.10550179 -0.088898756
0000c0 fb 89 89 be 74 3f fe bc 70 4f 9d bd 1e 1a 48 bd
       -0.26863083 -0.031036116 -0.07681167 -0.048853032
0000d0 3f 3f 32 bd cf b2 26 be 62 f2 aa 3c d4 45 db bd
       -0.043517347 -0.16279148 0.02086753 -0.10706678
0000e0 1b ae 07 be ef 71 eb bd 1e 84 9d bd bb 91 30 bd
       -0.1325001 -0.114963405 -0.07691215 -0.04310773
0000f0 8d 8a a0 b9 7b c7 ed bd b5 ca 31 bd 5b 3b b4 bd
       -0.00030620807 -0.116103135 -0.043406207 -0.08800384
000100 f7 53 0e bb 0d 48 fe bd b9 f3 f5 3b b3 5a 9e be
       -0.0021717527 -0.12416086 0.0075058606 -0.30928573
000110 a9 44 8d bc d8 c6 b9 bd 09 9d fa bd 2a dc ba bd
       -0.017244654 -0.090711296 -0.12236983 -0.09124024
000120 63 6e d4 bc a2 01 ce bd 13 30 28 be 91 e3 90 bd
       -0.025931543 -0.10058905 -0.16424589 -0.07074655
000130 03 56 a3 bd 5e 59 f5 bd 7d 31 59 bd f5 72 40 be
       -0.0797539 -0.11979936 -0.05302571 -0.18793853
000140 ca 7b 22 3a d2 4d 57 3d 38 59 51 3d 63 e2 46 3d
       0.00061982556 0.05256445 0.051110476 0.048555743
000150 3d 28 fa bd 1e 25 1f 3e 2d e1 3b bd 04 26 93 bc
       -0.12214706 0.15541503 -0.04586904 -0.017962463
000160 b9 77 96 bb d0 06 e0 bd df 46 82 bd cc ce db 3b
       -0.004591909 -0.109387994 -0.06361174 0.0067080017
000170 fc 01 a6 3c 3e f8 0b 3d 44 a9 1d be fb 70 b9 bd
       0.020264618 0.03417229 -0.15396601 -0.090547524
000180 7f 17 9e bc 07 b5 13 be 5b 10 a1 bd e1 1b 70 be
       -0.019298313 -0.14424525 -0.07864448 -0.23448135
000190 be 03 d1 3c fd 5f 6a bd 7c ef f5 bd 46 f2 35 be
       0.02551448 -0.057220448 -0.12008569 -0.17768201
0001a0 c5 39 cb bd f7 f2 21 3c 71 36 aa 3d b7 ef 05 bd
       -0.09923128 0.0098845875 0.08311165 -0.032699313
0001b0 22 f4 38 be 46 3c cc bd 00 09 53 be 85 3c 08 be
       -0.1806188 -0.09972434 -0.20608902 -0.13304336
0001c0 c3 f8 1a be 3e 2e 10 bd 09 81 ac bd b0 52 63 bd
       -0.15133958 -0.03520035 -0.08423049 -0.05549878
0001d0 45 c6 1e be 98 74 9d bd 22 98 24 3d 9a 81 8b be
       -0.15505321 -0.07688254 0.040184148 -0.27247316
0001e0 01 38 00 3c da 49 08 bc 0f 0e 80 3d 54 06 58 3d
       0.007825852 -0.008318389 0.062526815 0.05274041
0001f0 05 64 7c bd 41 fd 4c 3c 38 05 80 bc e8 fc 2f 3e
       -0.061618824 0.012511552 -0.015627488 0.1718632
000200 7d fc 14 bd d5 74 ef bd ca b5 23 3e 51 80 ea bb
       -0.036373604 -0.11692206 0.15987316 -0.00715641
000210 85 4b fa 3d de 69 90 3d f5 19 70 3e b3 79 c7 3d
       0.122214355 0.070514426 0.23447402 0.09740009
000220 19 73 e8 3c fc 4a 21 bd 67 e5 d9 bd 99 d2 97 bd
       0.028375195 -0.03937815 -0.10639458 -0.07413215
000230 b2 95 69 bd 9f 5c 24 be 06 3b aa bc 1b 54 4a bd
       -0.057027526 -0.16050957 -0.020780098 -0.049396615
000240 94 3b 90 bd 44 c2 78 bc 52 3b fa bd 8e ec d5 3d
       -0.070426136 -0.015183035 -0.12218346 0.1044551
000250 62 56 ab 3d 5f 2d 0a be fa 64 85 3d 3c cf 89 3d
       0.083660856 -0.1349387 0.065134004 0.0672898
000260 1e 8b d0 bc 53 8f d3 3d 61 d2 36 bd e9 b8 80 bd
       -0.025456961 0.10330071 -0.044634227 -0.06285269
000270 b0 e7 9b 3d df 41 26 bd 80 f1 b4 bd 4d 23 06 3e
       0.0761255 -0.040590163 -0.08835125 0.13099404
000280 a9 cd a4 3d c8 e2 1f 3e d7 3f b1 bc 16 15 ad bc
       0.08047039 0.15613854 -0.021636887 -0.021128219
000290 c9 d5 84 bd 42 3c a0 3d bb fd 51 bd a8 48 34 3e
       -0.06486089 0.07823993 -0.051267367 0.17605841
0002a0 45 2d c6 3c ee 58 a2 3d aa 7f 9c bd 0e bd 6b bd
       0.024191508 0.07927118 -0.076415375 -0.057553343
0002b0 60 4f 24 3c 0c 23 a2 bd f2 28 7a bd e9 a3 28 bd
       0.01002869 -0.07916841 -0.061074205 -0.041171942
0002c0 b2 d6 a9 bc 09 6e 20 bd fe 71 57 3d fe 71 f2 bd
       -0.020732258 -0.039167438 0.052598946 -0.118381485
0002d0 7d f4 17 3d 3f e6 89 bc 7b e2 95 3d 98 9d 68 bc
       0.037098397 -0.016833423 0.07318588 -0.0141977295
0002e0 1d 52 7a 3d 87 b8 05 bd 62 59 05 bd 03 f2 11 3c
       0.061113466 -0.032646682 -0.032555945 0.008907798
0002f0 30 1c 36 3d be 5c c9 3d b3 b6 fd 3d 3b ff 23 3e
       0.044460475 0.09832142 0.12388363 0.16015331
000300 fe 0a fe 3d c4 f3 47 3e 7d de 08 3d c4 39 82 bd
       0.1240444 0.19526583 0.033415306 -0.06358674
000310 81 fa f5 3c eb 58 04 be 1d bf ee bd 50 fb 82 bd
       0.030026676 -0.12924545 -0.11657546 -0.0639559
000320 20 44 e2 bd 9a 52 6c 3d 62 78 b6 3b 6a 74 7e 3d
       -0.1104815 0.057695962 0.00556855 0.06212274
000330 75 71 9d 3c 09 1a 0e 3d 8f 7b 3d 3d a4 61 f6 bc
       0.01921914 0.034692798 0.046260413 -0.030075856
000340 82 27 04 3e 1f fe 9c 3d 1e 88 87 3c 04 82 ec 3d
       0.12905696 0.07665657 0.016544398 0.11548236
000350 1d 5d c1 3d 80 1c 19 bc dc ea f2 3d fe 05 57 3d
       0.09441588 -0.009345174 0.11861202 0.05249595
000360 93 48 e0 3d f8 c8 29 3d 99 5c be 3c ba 7e 1e 3e
       0.109513424 0.041451424 0.023237513 0.1547803
000370 ca 2b ad bd 27 9b 3f bd f4 af 62 3d 62 53 d7 bd
       -0.08455618 -0.046778824 0.055343583 -0.10513951
000380 a3 e5 84 3d 64 9b ef 3c 3a c2 79 3d b9 81 08 3d
       0.06489112 0.0292489 0.060976245 0.03332684
000390 41 34 b6 3d 68 65 b4 3d 52 66 14 be 9c af c4 3d
       0.088966854 0.08808404 -0.14492157 0.09603807
0003a0 a1 95 a3 bb bb f0 83 bd 97 9e 0d be ff 2f 22 bd
       -0.0049922024 -0.064424 -0.13830028 -0.039596554
0003b0 23 81 cc 3c f5 85 57 be 17 3e a6 3d 99 de b5 3d
       0.024963921 -0.21047194 0.081173114 0.08880348
0003c0 2a 02 f8 bd 04 d6 85 bd d3 32 ea bd e1 d4 ab bc
       -0.12109788 -0.06534961 -0.11435475 -0.020975532
0003d0 38 73 36 be 0a cb 86 3d d6 9f 40 3e 6a 9e c2 3c
       -0.1781739 0.065816954 0.18810973 0.023757178
0003e0 96 35 0b 3e 3c ba 6f bd 34 61 e7 bb 37 82 06 3d
       0.1359466 -0.058527216 -0.007061148 0.032839026
0003f0 7e 9e 99 ba f3 b0 92 bd f2 47 c0 bd 66 bd 91 bd
       -0.0011720208 -0.07162657 -0.093887225 -0.07116203
