models/epoch=0_bestloss=inf.pt (torch, 184855 bytes, 11 tensors)

weight_ih_l0 f4 [240, 1]
00000000: dd48 183e dae2 803d f851 c2bd 04a2 2d3e
00000010: 849d 103d c8c3 8a3d b688 233e ed24 35bd
00000020: 14f3 12be 8ea9 0bbe 54ba 7a3d dfe5 573d
00000030: e30e 723e 3de6 53bd 3355 b13e 8616 f73d
00000040: 4e88 40be 3db7 b33d 0ce4 b7bd adf1 643e
00000050: 62c0 00be 6ca4 dfbd 7c70 523e 926c 6f3d
00000060: b991 eb3d 3f26 a03d 3963 893c a90f bdbd
00000070: c25f 623c ed03 a5bd 39a0 d4bd 34bd 1cbe
00000080: 8913 44bc eb06 513e d880 ca3e 271b 3f3e
00000090: 994a 7a3d 8ef0 3abe 81ea 843d 7985 f3bd
000000a0: 0154 d83c 7438 e5bd 098f 9a3e 3550 c23d
000000b0: ea02 c5bd 4c1f b43d 1e25 a8bd 68d3 693e
000000c0: fa19 993d cd2f 62bc 95c9 36bd 3813 043e
000000d0: e1c6 2d3d 0e65 fc3d 3278 7e3d 378b 273c
000000e0: dacd 64be 72a7 b33d c9ac a8bc 40e8 11bd
000000f0: b788 593d 64df bfbd af35 e8bd 8a2e e53d
00000100: 24d3 babd 817d 02be 2218 2a3d 0c82 183d
00000110: 8fce ef3c 85c5 acbd 4c05 573d c263 6d3d
00000120: e870 273e 4705 343d 3f73 eb3d 5187 473e
00000130: ddf2 2dbe 9164 5bbd bc64 25be b536 71bc
00000140: 3fd0 4cbd b31f 903d 3f4a a23c d167 443c
00000150: c07f 653d 25de 5cbe d4f6 d0bd 333e 4f3c
00000160: a3e0 bbbc ccc7 4abb f90f b9bd 2317 ef3c
00000170: c23c a73d 7db3 703d c4f6 e83e 839e 233d
00000180: cfda b13c 7a6e 0cbe 6d28 cebd f557 8d3d
00000190: 3d47 413e f236 0e3d 5d32 293d 2bfa 493e
000001a0: 8674 13be 2866 103d 21f4 c4bd e592 793d
000001b0: cca5 b8bd 44f4 123e 8865 263d 301f d33d
000001c0: f748 d63c fd55 5e3d 2fee b2bd 052f 25bd
000001d0: c25c f9bb b36d 00be 9df3 cdbd 7e34 c9bd
000001e0: 4dc2 ba3d 5013 163e 2968 a4bd ba92 893e
000001f0: 9fd1 13be f7a8 94be 0cbd 503e 2eb7 c9bc
00000200: 605e fabd da97 16bd 2659 023d ef8a ceba
00000210: 6ea4 813e 9dbf 9fbd 9b54 dc3e ad18 6a3e
00000220: 2876 54be a748 283b b010 13be 3877 623e
00000230: 7503 0e3e b8e7 82bd 29ed 3abe 27dd 60be
00000240: a96b 3d3e 0e9b a7be 864e 65be 1f08 babd
00000250: 10d1 403c 7366 943d 5011 2cbe 7cde 32bb
00000260: af80 ed3d 1ef8 7b3e 4954 023f 41a8 833e
00000270: 95bd 093d 22c7 8abe 6cc8 44bd 29e1 f9bc
00000280: 26df 903e f98e 833e 0e95 ce3e b6fb 3f3e
00000290: eca2 1c3e 7926 94bd e92c 3ebd 7e2e 94be
000002a0: 7f11 9abd 0c09 5f3e 9531 243e 1707 d73d
000002b0: 6ec6 b73c e1a6 453e 2c63 babc 4b73 f3bd
000002c0: ad3d 323e 8209 353e eaf5 063d 98b2 6e3c
000002d0: 6b9b a8bd 0d70 e7bd 24f3 93bd 863c 053c
000002e0: ba97 99bd 45b8 56bd 564e 18be 3f28 7c3d
000002f0: 89f8 c73c 1667 283d aaf1 0bbe 5215 8bbd
00000300: 5c6b d43d 5389 94bd df45 4c3e 2b4b 853c
00000310: e508 e43c f0f5 a7bd 4014 7bbc 707a 36be
00000320: 64c0 523d 3a61 9abc 7bd6 163e af77 20bd
00000330: 202a e23d 507d 9ebc a4da d43c 2653 0ebc
00000340: 937b 50bb 5ad7 afbd c612 99bd 4dce 68bd
00000350: caaf 9c3d 7e8f a03d d451 6d3e 6b00 9b3d
00000360: 1991 a83d 521f 21bd e29f a2bd 3bec 363b
00000370: cd3d c83d c0be 1dbe 5c7d a33d 03fa dd3d
00000380: be85 f7bc f596 773d 4b81 84bc 230b d03b
00000390: 6705 4bbc ad42 8f3d c969 a93d 71d0 793d
000003a0: 9ee1 a5bb ca96 d33d 8a37 1abe 5226 ebbd
000003b0: e0a3 0dbe 2cea 0bbe e3dd 223a e5e5 313d
0.14871545 0.062932685 -0.094882905 0.16956335 0.03530647 0.067756236 0.1597012 -0.04422467
-0.1435054 -0.13638899 0.061212853 0.052709457 0.23638491 -0.051733244 0.34635314 0.12064843
-0.18801996 0.08775184 -0.08979043 0.22357817 -0.12573388 -0.10920033 0.20550722 0.05845315
0.11502404 0.07819795 0.016770946 -0.092315026 0.013816776 -0.080573894 -0.103821225 -0.1530655
-0.011967548 0.20412795 0.39551425 0.18662702 0.061106298 -0.18255827 0.064900406 -0.11890692
0.026407244 -0.11192408 0.30187252 0.094879545 -0.096196964 0.08795032 -0.082102045 0.22834551
0.07475658 -0.013805342 -0.044625837 0.12897956 0.042425994 0.12323962 0.062126346 0.0102260625
-0.22344151 0.08772172 -0.020590203 -0.03562188 0.053108897 -0.0936878 -0.11338364 0.11190517
-0.09122303 -0.12743188 0.04152692 0.037233397 0.0292733 -0.08436111 0.052495286 0.057956465
0.16351664 0.043950345 0.11496591 0.19485213 -0.16987176 -0.053562704 -0.16151708 -0.014722516
-0.050003286 0.07037296 0.019810794 0.011987642 0.056030035 -0.21569116 -0.10203329 0.012649107
-0.022934264 -0.0030941842 -0.0903625 0.029185837 0.081658855 0.058764923 0.45500767 0.03994609
0.021710781 -0.13714018 -0.10066304 0.06901542 0.18874831 0.03472037 0.041307796 0.19724338
-0.14399919 0.035253674 -0.096168764 0.060931105 -0.09015998 0.14350992 0.04062417 0.10308683
0.02615784 0.054281224 -0.08736836 -0.040328044 -0.0076099345 -0.12541847 -0.10056231 -0.09824465
0.09119091 0.14655805 -0.080276795 0.26869756 -0.14435433 -0.2903516 0.20384616 -0.02462348
-0.12225032 -0.03676591 0.0318233 -0.0015757958 0.25320762 -0.07800219 0.430333 0.22860976
-0.20748198 0.002567807 -0.14361835 0.22115791 0.13868506 -0.06391853 -0.18254532 -0.21959363
0.184981 -0.32735485 -0.22393236 -0.0908358 0.011768594 0.07246103 -0.16803479 -0.0027293256
0.1159681 0.24606368 0.5090986 0.25714305 0.033628065 -0.2710505 -0.0480427 -0.030502873
0.2829525 0.25695017 0.40348095 0.18748364 0.15296525 -0.072339006 -0.04642955 -0.2894172
-0.07522868 0.21780795 0.16034539 0.10499399 0.022433486 0.1930194 -0.022752367 -0.11887225
0.1740634 0.17679408 0.032949366 0.014568947 -0.082327686 -0.11300669 -0.0722411 0.008132106
-0.07499643 -0.052421827 -0.14873633 0.06156182 0.024410503 0.041113935 -0.13666406 -0.06791176
0.1037204 -0.07252755 0.19948529 0.016271194 0.027836272 -0.08201206 -0.015324652 -0.17820144
0.05145301 -0.01884519 0.14730255 -0.03917664 0.11043191 -0.019346863 0.025983162 -0.008686816
-0.0031811937 -0.08585997 -0.07474284 -0.05683737 0.076507166 0.07839869 0.23175746 0.07568439
0.082308 -0.03933651 -0.079406515 0.00279118 0.097774126 -0.15404797 0.07982895 0.108387016
-0.03021514 0.0604467 -0.016174933 0.006348984 -0.012391425 0.06995139 0.0827213 0.0609898
-0.005062296 0.10331495 -0.15060249 -0.114819184 -0.13832045 -0.13663548 0.0006212873 0.043432135

weight_hh_l0 f4 [240, 60]
00000000: ac52 703d 4819 bb3d 5f8e e7bc 5315 803c
00000010: b343 08be 65cd c93d f36a ba3d e213 093e
00000020: fcc7 2ebd 3ec3 ddbd 2a95 e7bc f591 7a3d
00000030: a3ea 17be b72e 893d 0026 7d3d 7099 043d
00000040: b169 0fbe 8add bfbd 1b4b b2bc 2ed6 05be
00000050: a570 a8bd 9340 6ebc 474b 4abd 2a3b c63d
00000060: 9467 ac3d 80da 9dbd 0fdc b2bc d58f 71bd
00000070: a975 d4bc bf00 233d 39ac 46bc 4a88 053e
00000080: 9de8 0fbe 953b b73c 8970 853d ce0c 61bd
00000090: cc87 d03c 389c a2bd 86a0 00bd 53ce 37bd
000000a0: 045b c4bc 0952 8ebd 5126 b83c 5583 f1bd
000000b0: ad66 dd3b 4401 0ebe 73f7 00bd c582 15be
000000c0: ab70 97bc 9aee 9a3d 9f4f 2c3d d8cd 17be
000000d0: 0d6a dbbd ede9 873d e055 bcbb a806 15bd
000000e0: 41c3 e9bc 5855 173e c585 0d3e 1213 5c3d
000000f0: 6606 b6bc 8ca9 073e f546 f13d 58fb bfbd
00000100: e7cf c3bd b63f b33d 0b38 cd3b 9815 9e3d
00000110: e2a5 56bd 5121 20bd 0f00 67bc 7d7f 743c
00000120: 94aa 1f3d ed52 b7bd d3d7 7bbd 6ad8 cabc
00000130: a0ff df3d 08b5 f9bc a88a 0bbe 4437 fcbd
00000140: ea9f 2a3d 6467 a3bb dd02 c03d 1241 ffbd
00000150: f9c9 babc d512 863d 3254 683c ca05 353b
00000160: 5653 a2bd dc31 1dbd a854 d5bb 7379 c6bc
00000170: 4773 9f3d 7338 903c 545c f33a c697 e8bd
00000180: f75a 97bd 5e20 cebc 852a 433d 0132 1d3c
00000190: 8961 e8ba f790 123e ba4a 01bb 93ca 123d
000001a0: cdf9 0b3d bd9b 033d 44b4 ab3c d0f9 0dbe
000001b0: 1585 bd3d 639d 8bbd 99b4 223e 15ed efbd
000001c0: 5c37 cf3d 3fd2 a33d e169 16bd 5786 00be
000001d0: 9c83 883d 8097 de3b 68c2 b93c 19b3 153d
000001e0: 717d 96bd 9c8c 36bc 4c99 813d 93a7 7d3d
000001f0: 7087 8bbd 7ff6 493d 8930 76bd 0714 393d
00000200: 1c0d d7bd 5383 fabd d35e d4bd 006e f23d
00000210: ce8e b4bd ac23 4f3d f74e 743d 95b1 5d3a
00000220: c310 10bd 29fc afbd 1902 183d 70f4 353d
00000230: f84f 6a3d ddb7 bb3c 7667 233e 3d9e 0e3e
00000240: 1f2a 40bb 6bdb 6bbd 579d bf3d 64df d23d
00000250: ec78 cfbc b1b6 e13d 173e 58bd de80 c93d
00000260: d464 cfbd 80be 84bc 6752 83bd b9c3 09be
00000270: 18d6 e8ba 00f1 c4bd ce72 0a3d 0c9f 15be
00000280: 8e9a aebc 18b4 bd3c a9fd 153d 0ac0 9e3d
00000290: 2b64 9ebd 80fa 6d3d 9368 05be a283 823d
000002a0: b16f 5dbd da39 ab3d cbda 0b3e f60d 6abd
000002b0: 52f3 013e 3366 04bd df30 1d3d 1849 1ebe
000002c0: 48f9 da3d 68b6 fa3d 3e43 13bd d1d4 683d
000002d0: 0663 99bd db15 823d cb7d d13a b6fd 0e3d
000002e0: 886d dabd e062 8d3d 4d80 82bd 2d3a 00bd
000002f0: 2284 453d 646e 8ebd 178f c13d 87b4 92bd
00000300: 443e 94bb 78d5 94bd bddc c83d 6cdd 2c3d
00000310: ce6a 7e3d 8db7 153e 2a4b 91bd efad 09be
00000320: 9758 683d ffdb 13be 3381 6fbd 0c89 5bbd
00000330: a473 c0bc 18de dabd f657 15bd aadf 163d
00000340: 316b d0bd d711 60bd 8145 a03d e2a2 d53d
00000350: b63a f4bd e592 a13d a2e9 0abd 83b1 03be
00000360: 07b1 b73d d65a 313d 5a80 59bd 5940 7f3c
00000370: 58be 343d e0af 153e 8bb1 993d 4b6c 33bd
00000380: e9a9 a5bd 0269 ba3d caea d2bc ba97 6cbd
00000390: ce0b 1abe e2e4 863d 5a94 9b3d f4c3 973c
000003a0: 11ba b13d 7912 fabc 3a05 56bd e805 0bbe
000003b0: 85ff a7bc 240e 443d 6140 083d 1d17 9abc
000003c0: 9919 1a3d 39fa 813d 82c4 023c 4c5b f0bd
000003d0: 0747 0fbd 4d87 053c db7e 7b3c be41 b23d
000003e0: b5d0 f0bd 048a b9bd d5ca 84bd 1b99 eebd
000003f0: b0ec 4d3d 7273 04bd 1b72 62bc 63e1 adbd
0.058672592 0.091356814 -0.02826613 0.015635168 -0.13307075 0.09853629 0.0910243 0.13386491
-0.04267119 -0.10828255 -0.02826937 0.06117435 -0.148356 0.06698363 0.061803818 0.032372892
-0.14005162 -0.09368427 -0.021764329 -0.13069984 -0.0822461 -0.014541763 -0.049388196 0.096792534
0.084181935 -0.07707691 -0.021833448 -0.05897506 -0.025935011 0.039795633 -0.012126022 0.13040271
-0.14053579 0.022367278 0.06515605 -0.054943852 0.025455378 -0.079399526 -0.031403087 -0.0448745
-0.02396918 -0.06949241 0.022479208 -0.11792628 0.0067566247 -0.1386767 -0.031485986 -0.14600666
-0.018486341 0.07565041 0.04206812 -0.14824617 -0.10713587 0.06636415 -0.005747542 -0.0363833
-0.028535487 0.1477865 0.1382056 0.053729124 -0.022219848 0.13248271 0.11781112 -0.09374112
-0.095611386 0.08752386 0.0062627844 0.077189624 -0.052404292 -0.039094273 -0.014099135 0.014922974
0.038981035 -0.08951364 -0.061485123 -0.024761397 0.109374285 -0.03048183 -0.13627112 -0.123152286
0.041656412 -0.0049866904 0.09375546 -0.12463583 -0.022801386 0.06546561 0.01418023 0.0027621859
-0.07926051 -0.038377628 -0.006510336 -0.024227833 0.07785659 0.017605042 0.0018566945 -0.113570735
-0.07390397 -0.025161918 0.04764797 0.009594441 -0.0017729263 0.14313112 -0.0019728378 0.03583772
0.034173775 0.032130945 0.02095998 -0.13864827 0.09253899 -0.068171285 0.15889205 -0.11715142
0.10117981 0.07999086 -0.036722068 -0.12551247 0.066657275 0.0067929626 0.022675708 0.036547754
-0.07348145 -0.011141922 0.06328067 0.06192739 -0.06812942 0.049307343 -0.06010488 0.045185115
-0.10500547 -0.12232079 -0.10369649 0.11837387 -0.088163 0.05057113 0.05964562 0.0008456943
-0.035172235 -0.085930176 0.037111375 0.044422567 0.05720517 0.022914821 0.15957436 0.1392755
-0.002932198 -0.0575823 0.09356182 0.10296515 -0.025326215 0.11021174 -0.05279359 0.098390326
-0.10126653 -0.016204119 -0.064122014 -0.13453569 -0.0017764 -0.096162796 0.033800893 -0.14611453
-0.021313932 0.023157164 0.036618862 0.07751472 -0.07733949 0.058100224 -0.13028173 0.06372763
-0.054061595 0.08360644 0.13657682 -0.05714222 0.12690476 -0.032324027 0.038376685 -0.1545757
0.10692078 0.122418225 -0.0359528 0.056843583 -0.0748959 0.06351825 0.0015982924 0.034909926
-0.10665423 0.069036245 -0.06372128 -0.03130548 0.048221715 -0.06954649 0.0945112 -0.07163339
-0.004524024 -0.072672784 0.098077275 0.04220335 0.062113576 0.146208 -0.070944145 -0.13445257
0.05672511 -0.1443939 -0.058472823 -0.053597495 -0.023492642 -0.10686892 -0.03646084 0.036834396
-0.10176695 -0.054704513 0.07825757 0.10431458 -0.11925261 0.07889346 -0.033914216 -0.12860684
0.08969312 0.04329952 -0.05310092 0.0155793065 0.04412684 0.14617872 0.07504567 -0.043804448
-0.080890484 0.0910206 -0.025746722 -0.057761885 -0.15043566 0.06586625 0.07596655 0.018526055
0.086780675 -0.030526387 -0.05225108 -0.13576472 -0.020507583 0.047865048 0.03326452 -0.01880985
0.037622068 0.06346554 0.007981421 -0.117361635 -0.034979846 0.008149934 0.015350069 0.087039456
-0.11758558 -0.090595275 -0.06484 -0.11650296 0.05027455 -0.03233666 -0.01382115 -0.08490255

bias_ih_l0 f4 [240]
00000000: ca77 69bd 23be dbbd 48ba a9bd 7393 13be
00000010: 7058 36bd a8d6 a03d 4186 ab3c 0ea9 61bd
00000020: f5f4 193d fe37 d8bd b177 373d 0fab a0bd
00000030: 6805 963d c42f 78bd a258 f6bd 93a2 eebc
00000040: b2e5 f2bd 248c e9bd 3b73 10be 5b2e a73d
00000050: d883 11bd a0c4 46be 0153 e2bd 4666 20bd
00000060: e5eb cdbc 0d26 e5bd 4547 aebd 49da 56bd
00000070: ed2f 2b3d 320d 863c 9324 f23b b995 723c
00000080: c0bf 0cbe daf7 21bd 8162 8e3d ec63 55bd
00000090: 8a2f c93d fb13 e23d 9b98 0ebe 05b5 c0bd
000000a0: 8cb9 5b3b f0c1 10be e88b cbbd f96a b0bd
000000b0: 08d4 dd3d e544 01be a027 c9bc 6839 ab3c
000000c0: 7ac7 993d 3d47 d5bb f794 36be 269f 9dbd
000000d0: 497e 2d3d 42e1 00be ca1f cbbd 8e4f 41be
000000e0: 9a65 a1bc 30c9 5b3d 8015 bebd 9f01 adbc
000000f0: 5ad0 b8bd 56b3 02be 89dc 2dbd e7d9 09be
00000100: 2627 8ebb 53aa b7bd bac2 873d 8eb7 1dbe
00000110: 5259 85bd 24bc e13c 0c29 a93d 351a 003d
00000120: adff a5bc 71b4 25be 5671 6ebd e605 1f3d
00000130: 7f7f e0bd 4cc3 fd3c cf2a afbd 84af 87bd
00000140: 6857 e23d f416 4fbd 0d1f ee3c a981 bfbd
00000150: 9e3c 92bd 3ece c03c 85d8 1abe bc14 f4bb
00000160: 8958 753d 8fdf 43bd 36f2 75bd 1f8a 0d3c
00000170: ee9a f5bd c535 32be 2958 823d 5a5b 2ebe
00000180: 8426 9bbb 7f5d 90bd 2986 9cbc 43d7 4c3c
00000190: c73a acbd 4602 393d d4b4 b13d 3d5a 90bd
000001a0: a074 42bc 61af debc 598c a53d c722 603d
000001b0: bc77 303d 7d35 123d a66a 29bd 9d5c 3c3d
000001c0: 226a 45be a62f 0ebe 2cc2 fa3d 3ab6 1d3d
000001d0: fb7d 0ebe 421b debc 6f5a 91bd e518 1cbe
000001e0: f8a0 b9bb 9773 e03c cfa5 68bd c6aa e4bd
000001f0: c123 da3c fe3d 183d d36d d23d 2efb b0bd
00000200: 0be1 e1bc 4991 06be e6c5 ad3c 9953 8f3d
00000210: a95a a33d 00a2 193d 9514 d83b a4d5 9e3d
00000220: 2b59 8b3d a2dc b23a 2829 cf3d fdd8 f5bc
00000230: 62e7 31bd 9f78 033d 5dee a0bd 3380 503d
00000240: 9ef3 82bd 6d4b 5bbd dcbd 38bd 54df 5c3c
00000250: 18e5 50bd 1dd7 70bc 7841 703d 0fd0 8fbd
00000260: 6769 7c3d 19fc 1d3d 326f 763d 967a 9c3d
00000270: fefd 97bb bfb8 f03d 77e3 b8bd 3251 20bc
00000280: 6b30 fe3d 754a 8ebd afae 1dbd 99a0 b93b
00000290: b44b d0bd 1dc0 ab3d a496 3b3d 7dad e7bc
000002a0: 9528 233d f16b e73c ca11 bbbd 63dc d73d
000002b0: 4319 c1bd 2188 4ebd 7043 4c3d 303d cfbc
000002c0: a4d8 9abd 9a74 9abb dbbe edbc 8262 833d
000002d0: ed31 6e3d 9bf8 0d3b 14c8 1bbe b721 d5bc
000002e0: 15d2 833d acd1 1e3d 3364 4dbd 3bbc bcbc
000002f0: 3b34 12be b7cc cebd df31 853d b6a9 043d
00000300: 8d38 263d 6e38 2fbe 663b c0bd 2bf4 e03c
00000310: 4e33 0a3d 8553 92bd 2726 79bd ad35 96bd
00000320: 3586 d33d ace3 443d 47b6 babd 93e3 2bbc
00000330: e96b a2bc b228 28bd 5be6 a13d 1c42 163c
00000340: 3896 d5bd c83e b93a 29ce 713d 8c96 5a3d
00000350: a0ce dbbd 21af 2abd aa8f 3b3d 6298 51be
00000360: 9177 c53d aac5 d0bd 9780 1abd c56e 2dbc
00000370: ed50 9bbd 8e38 f7bb 2035 7abc f169 a3bd
00000380: b6b3 27bc 35f6 8fbd 48e2 b23d c7aa 37be
00000390: ecc9 f5bd 565e c2bd 48a7 cfbd 6ebc d4bd
000003a0: 0533 563c ec07 0b3d a7eb 1e3b d66c 20be
000003b0: f11a 273d 7782 953c 1446 9ebd b570 21be
-0.056999005 -0.10729625 -0.082874835 -0.14411716 -0.044517934 0.078534424 0.02093804 -0.055092864
0.037587125 -0.10557555 0.04479188 -0.07845127 0.0732525 -0.060592428 -0.12028624 -0.029130256
-0.11860217 -0.11403683 -0.14106457 0.081631385 -0.035526127 -0.19410944 -0.11050988 -0.039160036
-0.025136897 -0.11188898 -0.08509687 -0.052454267 0.041793752 0.016363714 0.007389614 0.0148062045
-0.13745022 -0.03954301 0.06952382 -0.052097246 0.098235205 0.11038967 -0.13925402 -0.09409527
0.0033527343 -0.14136481 -0.099387944 -0.086141534 0.108314574 -0.12623937 -0.024555027 0.020901397
0.0750875 -0.0065087364 -0.17830263 -0.07696371 0.042356763 -0.12585929 -0.09918173 -0.18878004
-0.019701768 0.053658664 -0.092814445 -0.021118937 -0.09024115 -0.12763724 -0.042446647 -0.1346203
-0.004338163 -0.08968034 0.06628938 -0.15402052 -0.06511177 0.027555533 0.08259782 0.031274993
-0.020263517 -0.16182114 -0.058213554 0.038823985 -0.10961818 0.030976914 -0.08553087 -0.06625274
0.11051828 -0.050559 0.02906754 -0.093509026 -0.07140468 0.023535844 -0.15121658 -0.007448761
0.059898887 -0.047820624 -0.060045443 0.008638888 -0.11992441 -0.17403324 0.063644715 -0.17027035
-0.004734816 -0.07049083 -0.019106941 0.012502494 -0.084096484 0.045168184 0.08677068 -0.070484616
-0.011868626 -0.027183237 0.0808341 0.054720666 0.043082938 0.03569554 -0.041361474 0.04598676
-0.19278768 -0.13885364 0.122440666 0.038503863 -0.13915245 -0.027112607 -0.07097327 -0.15243872
-0.005664941 0.027398868 -0.056798752 -0.11165385 0.026628377 0.037168495 0.102748536 -0.08641659
-0.02757313 -0.1314136 0.02121253 0.06998367 0.079762764 0.03750801 0.0065942504 0.077555925
0.06804117 0.0013646076 0.10115272 -0.030010695 -0.043433554 0.032097455 -0.07857964 0.05090351
-0.063941225 -0.05353873 -0.04510294 0.01348098 -0.05099973 -0.0146997245 0.058656186 -0.07022106
0.061623957 0.038570497 0.060164638 0.07640569 -0.0046384325 0.117539875 -0.090277605 -0.0097849835
0.12411579 -0.06947795 -0.03849667 0.0056648967 -0.10170689 0.08386252 0.04579796 -0.028280968
0.039833624 0.028249713 -0.09134252 0.10540082 -0.094286464 -0.05042279 0.049869 -0.025297731
-0.07560852 -0.004713607 -0.029021671 0.06415273 0.05815308 0.0021663073 -0.15213042 -0.026017053
0.06436554 0.038774177 -0.050144386 -0.023038974 -0.14277737 -0.1009764 0.06503653 0.03238841
0.040581275 -0.1711137 -0.09386329 0.027460178 0.033740334 -0.07144836 -0.0608274 -0.073344566
0.10328332 0.048068687 -0.09116798 -0.01049127 -0.019826846 -0.041054435 0.07905265 0.009171035
-0.104290426 0.001413309 0.0590345 0.05336623 -0.1073277 -0.041670922 0.045791306 -0.20468286
0.09641946 -0.101939514 -0.03772029 -0.010585492 -0.07583795 -0.0075445836 -0.015271455 -0.07979191
-0.0102357175 -0.07029382 0.08734566 -0.1793624 -0.12001404 -0.094906494 -0.10139328 -0.103875026
0.013073687 0.0339431 0.0024249346 -0.15666518 0.040797178 0.018250687 -0.0772821 -0.1576565

bias_hh_l0 f4 [240]
00000000: 5408 913d aa81 59bd 1d11 31be 8601 f8bd
00000010: 6f48 9abc 0188 a9bd f75c 413d 8386 1cbd
00000020: 33d9 9cba f14d 3c3c ec5e 853d 51b1 233d
00000030: 5570 903d 9da8 d7bd 3254 24be 2ba1 14be
00000040: 7ef3 5b3d c69d 7c3d 06fc f7bc 020a b63d
00000050: 6f6a debd c57d 1abd 3f91 12be 1a06 1fbd
00000060: 4a11 03bd 9427 2fbd 54db 6b3d f466 a3bd
00000070: f3ad 1cbe 1f44 37be e4c5 bd3d f482 b3bd
00000080: 6a0c 16be 9be1 06bd 7775 c4bd bb1d babd
00000090: 7273 1cbe 0a5b bbbc 2a43 8b3c 40e1 cc3c
000000a0: 420c bdbd d431 84bd f7c7 abbd 1ac4 febd
000000b0: 9051 383d 7fd0 2bbe 1033 fbbc 7979 f3bd
000000c0: 9e20 77bd 2638 26be a2dd 0ebe 0c0d 2bbd
000000d0: 2cf8 68bd 611b 373d 1ac4 91bd 0168 1d3c
000000e0: a1f2 49bc 7799 47bd 9d7b bbbb 3406 9a3d
000000f0: 7a7c 273d 0a36 893d cd92 17be f441 3dbd
00000100: 08e6 19be d639 44bd 0d30 d83d ffc0 08be
00000110: 8945 1cbe b34c a9bd 3821 c83d 3e4a 8d3d
00000120: 96d6 863d 2fe1 5b3d bceb 00bd 7b5c 19bc
00000130: 2392 e63c 9aac d6bd fe81 063d bace 9cbd
00000140: 2f19 60bd 7e0f 62bc 6efd 463d 5349 753d
00000150: 8ee5 28be 2617 e03d b936 eebd fe1a 953c
00000160: 2f85 e3bd acf5 b6bd 17f9 1bbe fb3b 813d
00000170: a792 053d ca83 e4bd 7831 5ebc ac97 1cbd
00000180: 3eba 8dbc 95ce 613d 67b0 9f3c 5602 2dbd
00000190: f39f 17be 5943 993c fe1b cc3c 7c11 4fbe
000001a0: 11a9 b3bc f99f 1cbe 3cd9 963d cfd8 783d
000001b0: 1c16 ccbd 82ca 953b 313f 06bb d515 5f3c
000001c0: ead6 3abe 2f71 04be 99df d2bd 3f24 09be
000001d0: fdf5 ebbc 78ed cebd 132a b23d 74fc 8fbc
000001e0: 6b71 82bc 7e31 b6bd ba3a 74bd 975a 023e
000001f0: ece0 dc3c cba4 d93c 5180 10be 3962 dd3c
00000200: 0449 7c3d 6d23 d73d 7d4e 873d 0d29 89bc
00000210: dc2b 15bc 83ea 1f3d b217 c5bb 2ebb 4d3d
00000220: ed38 e53d 7905 443c 0814 67bd 2fea a83d
00000230: 215f 7e3c 752c 0b3d 1422 953c cfb6 ac3c
00000240: d586 5a3d ad07 eb3d 4a35 9f3d a12f 8b3c
00000250: b960 c1bc 56ef cf3b ba62 e0bc b29f 9cbc
00000260: 229f a43d f1bc c8bd ba96 863d b4c0 75bd
00000270: 4ba0 a7bc edb7 e63d 2e69 fa3c 2fc2 823d
00000280: b917 dcbd d16e c9bc a612 86bc 37c6 383a
00000290: 999b 8fbd a712 a3bd 0b9f eabb 3942 473d
000002a0: 062f 6dbc 7159 50bd 8210 993d 860e fabc
000002b0: dcda 933d 2ae3 6a3b 82b1 f3bd f453 573d
000002c0: 219a b5bb eba8 60bd d791 a2bd ba91 8e3d
000002d0: 3b2a d1bb 3be0 d4bd 3926 dabd 2ddd 11be
000002e0: 6ca5 09bd 9595 dabd 61a1 c13d bc39 debd
000002f0: aa3c bdbc 49f0 82bd 523e 5d3d a3f3 08be
00000300: 0a36 4b3d effa 2fbd e448 ba3b 0101 7f3d
00000310: f515 0fbe fef4 9c3c c5c2 09be 478f 443a
00000320: 085a 153d dd85 ecbd d9c7 b73d be08 25be
00000330: 4854 8c3c eede 7d3d 2c04 0dbe 296f 0c3d
00000340: d99f c6bc c0d6 33be 5599 cbbd 057c 743c
00000350: 06eb cd3c 9632 5dbc b00f 923b 8a86 843c
00000360: bd97 9a3d cf71 11bd c0f4 5f3c 26c4 ffbd
00000370: 6a4b 6e3c ca38 25bd 9342 983d f839 00be
00000380: 9d63 513d a1f3 0bbd 71e9 0e3c f33f 13bd
00000390: dfeb cc3c 781b 42bd 5d17 b03c 4d02 b1bd
000003a0: e530 08be 5e15 bcbb 5c03 3f3c 5436 2fbd
000003b0: b214 ebbd d206 b9bd 4cc6 c33d b525 a8bc
0.070816666 -0.053102173 -0.17291684 -0.121096656 -0.018833367 -0.08277894 0.0472078 -0.038214218
-0.0011966586 0.011493192 0.065122455 0.039964024 0.07052676 -0.10530207 -0.16047743 -0.14514606
0.05369901 0.061673902 -0.030271541 0.088886276 -0.10860144 -0.0377176 -0.1431322 -0.03882418
-0.03199891 -0.042762354 0.057582214 -0.07978621 -0.15300731 -0.1789708 0.0926626 -0.08765212
-0.14653173 -0.032929998 -0.09592717 -0.09087702 -0.15278414 -0.02287056 0.0169998 0.025009751
-0.092308536 -0.064548165 -0.0838775 -0.12439747 0.04499966 -0.16778754 -0.030663997 -0.118884034
-0.06033384 -0.16232356 -0.13951734 -0.04176049 -0.0568773 0.044703845 -0.071174815 0.009607316
-0.012325914 -0.04873034 -0.005721523 0.075207144 0.040890194 0.0669976 -0.14802094 -0.046205476
-0.15029156 -0.04790672 0.1055604 -0.13354872 -0.152609 -0.08266582 0.09771961 0.06898926
0.06583898 0.05368155 -0.031474814 -0.009360428 0.028145855 -0.1048214 0.032838814 -0.076566175
-0.054711517 -0.013797639 0.048581533 0.05988438 -0.16493818 0.10941915 -0.11631531 0.018201347
-0.11109387 -0.08933577 -0.15231739 0.063102685 0.03261056 -0.11157949 -0.013561599 -0.038230583
-0.017300721 0.055128653 0.019493295 -0.042238556 -0.1480711 0.018708872 0.024915691 -0.20221514
-0.021931203 -0.152954 0.07365653 0.06075364 -0.099651545 0.00457126 -0.0020484442 0.013616045
-0.18246046 -0.12933801 -0.10296554 -0.13392733 -0.02880382 -0.10103887 0.08699431 -0.017576434
-0.015923223 -0.08896159 -0.05962632 0.1272987 0.02696272 0.026567837 -0.14111449 0.027024375
0.06159307 0.10504804 0.06606767 -0.016743207 -0.009104695 0.039042007 -0.0060147876 0.050227337
0.11192498 0.011964195 -0.056415588 0.08247792 0.01552561 0.033977944 0.018204726 0.021083264
0.053351242 0.114760734 0.07773836 0.016990485 -0.023605691 0.0063456697 -0.027390826 -0.019119117
0.08038165 -0.09801663 0.065717176 -0.05999823 -0.020462176 0.1126555 0.030567732 0.06384694
-0.10746712 -0.024588974 -0.016366314 0.0007048579 -0.070121 -0.07962542 -0.0071600727 0.04864714
-0.014476543 -0.050866548 0.07473852 -0.030524503 0.072194785 0.0035840967 -0.11899091 0.0525703
-0.0055420552 -0.054848593 -0.07937973 0.06961389 -0.006383208 -0.10394331 -0.10651822 -0.14244528
-0.033605024 -0.10673062 0.09454609 -0.10850856 -0.023100216 -0.06393487 0.05401451 -0.1337419
0.049612083 -0.04296392 0.005684959 0.062256817 -0.1397322 0.01915979 -0.13453205 0.00074981566
0.036462814 -0.1154897 0.08973665 -0.16116616 0.017130032 0.06198018 -0.13771123 0.034285698
-0.024246143 -0.1756239 -0.09941355 0.014922147 0.025136482 -0.01350083 0.0044574365 0.016177434
0.07548473 -0.035508927 0.013669193 -0.12488584 0.014544347 -0.04033736 0.07434573 -0.12522113
0.05112039 -0.03416789 0.008722649 -0.03594966 0.025014816 -0.047389477 0.021495515 -0.08643017
-0.13299902 -0.005739852 0.011658516 -0.04277642 -0.11478557 -0.09034504 0.095593065 -0.020525793

weight_ih_l0 f4 [240, 60]
00000000: 59f7 383c 6af2 d83b e04c 86bd 0104 9fbd
00000010: 5248 74bc 4854 0cbe 1c41 73bc c7be 5b3d
00000020: cd5d 5a3b 8915 fa3c dd43 0dbe c026 2c3d
00000030: b077 24be b41d 1c3d 8317 d93c 4ccf ecbd
00000040: 6dc7 523d 9f9b 89bc f62b 0ebe 490c 8f3d
00000050: 1902 7ebd 45eb 96bb f9bd 97bd 1480 173b
00000060: 8e1f c33d 3b05 50bd 28b1 cfbd 5a4e b2bd
00000070: 1875 b8bc f795 3d3d 9484 61bd 1390 8d3d
00000080: d519 4c3d 7a14 34bd 27e3 223d 31d8 1fbe
00000090: 09ba 0c3d a8a5 bd3c 9de4 49bd 0627 c9bd
000000a0: 770f d0bd 84fa 043e c96b 463d d631 873d
000000b0: 73fd 3b3e d01a b33d f4aa d1bd bc49 19be
000000c0: 36b5 0cbe 2d45 dcbd 66ba fdba cb12 733d
000000d0: fabd 94bd f3e1 943d 427a ffbc 3dd0 b7bd
000000e0: d61f f83d 6f95 bb3d bfd7 6b3c 6f23 28be
000000f0: f8c4 103c 674c a8bd f3bc 263d 6e2e 973d
00000100: f30a 1c3d 2105 473d 35de 9cbc 7d78 e4bc
00000110: 1b18 053d ccbc d7bd ecf4 083e eb04 ab3c
00000120: 9b83 d0bd e596 bdbd 27d5 0abe 136e d13d
00000130: 5b37 c43d 0fdc 8bbc 3333 2ebd 6129 ecbd
00000140: 63ae 463c 3622 ddbd 7eb3 a2bd 6046 dcbd
00000150: d3b1 04bd 03d7 a1b9 4460 8a3a 8041 283d
00000160: 7d3f d83d 0cc2 ff3d e4fb 4a3d 1c2a 87bd
00000170: 91c1 0cbb db67 06be c2ec 73bc b9b8 9e3d
00000180: 03ed d3bd d874 94bd f6be cabd d147 0e3d
00000190: b928 f3bd abab 36bd c0d3 2a3d b5e0 90bd
000001a0: 53a4 3f3d de74 d0bc ea61 013d ecde 05be
000001b0: b56d d93d d8c9 21bd eb9b d93d de59 953d
000001c0: 3da3 a63d 7ddc ee3d b490 8b3d 8e3d 1bbe
000001d0: e217 2f3d fb33 c7bd 1064 9d3d a053 0b3d
000001e0: ec45 173e 1b3b 283d 7836 f73c 5c16 fbbd
000001f0: 855f da3c b749 a0bd 2b7f f5bc b242 99bd
00000200: f9be 26be f245 8a3b 9947 a53d 5ce1 5ebd
00000210: b911 1abe ebdc bc3c 9398 edbd 3b8f 9b3c
00000220: 1bac e3bd aeea 063e 1870 a5bd b8be a7bc
00000230: ba4b 353d 0ae2 cebd 85dc 22bd 56cc cc3d
00000240: 0114 2b3e eb61 ecbd 69f9 313d af09 e93b
00000250: a237 353c e2e6 67bc a285 693d 256d c0bc
00000260: 15c0 33be a85c d13d 3eca 013d 42eb 863d
00000270: 1bc5 e43d 22e2 26be f920 d73d 52bb a4bb
00000280: 0fbf 143e 4b2b 313c 8252 50bd b2e7 bbbd
00000290: 9451 a33d 86f7 29bd 422c 10be d1ef c53d
000002a0: bd2b 07bc 8c46 b9bd f38d 13bd ea80 053d
000002b0: ec4e dd3d d23d af3c 3c48 353e 4724 453d
000002c0: f56c bd3d 3d11 113e ecb5 acbc 5ba6 32be
000002d0: 797d 063e ebfc 943d 7ce1 c13c f8a8 3cbc
000002e0: 2914 0dbb 1ab8 16be 980d 93bd 1af1 ed3d
000002f0: 3e1a 01bd 6df0 07bd f21e 41bd 9c2e 5e3b
00000300: e144 863d 3196 26bd f045 2b3c 0a46 bebd
00000310: dc36 b23d 0398 5e3b 8c7d b3bd 9a6d ae3d
00000320: e4a3 d6bc b604 45bd 13db fa3c 4f9f 00be
00000330: f5f7 e73d d1c5 c13d 2ea1 08be c29d e7bd
00000340: 11cc 8abd 2bb6 c33c 0f05 95bd 38cf a3bd
00000350: b3b9 c8bd dbf8 073e c5d1 2abd 19b2 933d
00000360: 5800 8abc fb66 15bd 6033 9b3d 9442 15be
00000370: e1ed 46bd 3c10 e83c cc48 d3bd fa28 cb3d
00000380: 3a7f 1f3e d510 d9bd dc9e f7bd d72b 05bd
00000390: 0bfc 1d3d a530 e03d 9270 513d 51a5 36bd
000003a0: 70d8 f8bd 9ca6 8abd 84ef 8d3d 8826 b23a
000003b0: 8623 6a3d ba86 0a3e e91b 94bd 8a32 09be
000003c0: 1ba3 a83d c8f3 a53c 0041 cabc 46b1 b03d
000003d0: 861c 7ebd 5e02 2fbd 5c53 973c 50b5 023d
000003e0: b271 82bc 2a43 c8bd 45a4 efbd c6c7 17be
000003f0: 35e3 cbbd f5f6 13be cd8c 7b3d 4a5e 1d3d
0.011289441 0.006620695 -0.065576315 -0.077644356 -0.014909821 -0.13704026 -0.014847066 0.053648736
0.003332007 0.030527847 -0.13795419 0.042029142 -0.16061282 0.038114265 0.02650047 -0.11562976
0.05145972 -0.016797839 -0.13883957 0.06984765 -0.06201372 -0.004605683 -0.07409281 0.0023117112
0.09527503 -0.05078624 -0.10141212 -0.087063506 -0.022516772 0.046285596 -0.055058077 0.069122456
0.049829323 -0.04396484 0.03976741 -0.15609814 0.034357104 0.02315028 -0.04929029 -0.09821896
-0.101592 0.12986189 0.048442636 0.06601302 0.18358402 0.087453485 -0.10237685 -0.14969534
-0.13741001 -0.10755382 -0.0019357919 0.059344094 -0.07262798 0.07269659 -0.031186227 -0.08975265
0.12115447 0.091593616 0.0143947 -0.16419767 0.0088360235 -0.082176976 0.04070754 0.07381903
0.03809638 0.048588876 -0.019148925 -0.027889485 0.032493692 -0.10534057 0.1337468 0.020876369
-0.10181352 -0.092572965 -0.13557874 0.10226073 0.09580871 -0.017072706 -0.042529296 -0.1153133
0.012126538 -0.10797541 -0.07944392 -0.107556105 -0.03239615 -0.0003086851 0.0010557254 0.04107809
0.105589844 0.124881834 0.049556628 -0.065998286 -0.002147768 -0.13125555 -0.01488799 0.07750077
-0.10347941 -0.07248849 -0.09899704 0.03473646 -0.118730016 -0.04459731 0.041705847 -0.070741095
0.04678757 -0.025446352 0.03158752 -0.13073319 0.10616628 -0.039499134 0.10625442 0.072925314
0.08136604 0.116631486 0.06814709 -0.151602 0.042747386 -0.09726711 0.07685101 0.034015298
0.14772767 0.041071992 0.03017734 -0.12260124 0.026656875 -0.0782656 -0.029967865 -0.07483424
-0.16283788 0.004219764 0.08070297 -0.05441414 -0.15045823 0.02305456 -0.11601367 0.018989196
-0.11116811 0.1317546 -0.08078021 -0.020476684 0.04426167 -0.10101707 -0.039761085 0.099999115
0.1670685 -0.11542114 0.043450747 0.00711175 0.011060627 -0.014154168 0.057012208 -0.023489544
-0.17553742 0.10222751 0.031687014 0.065878406 0.111704074 -0.162972 0.10504336 -0.005027213
0.14526008 0.0108135445 -0.050859936 -0.09175052 0.07974544 -0.041495822 -0.14079383 0.09664882
-0.008250174 -0.09046659 -0.036024045 0.032593645 0.10806069 0.021391783 0.17703336 0.0481303
0.092492975 0.14166732 -0.02108284 -0.17446272 0.13133802 0.07274803 0.02366709 -0.011514895
-0.002152691 -0.14718667 -0.07180327 0.11618252 -0.031519167 -0.033188272 -0.047148652 0.0033902293
0.06556106 -0.040670577 0.010453686 -0.09290703 0.0870187 0.0033965118 -0.087641805 0.085169986
-0.026201196 -0.048100196 0.03062204 -0.12560771 0.11326591 0.094615586 -0.13342735 -0.11309387
-0.06777204 0.023890575 -0.072763555 -0.07998508 -0.09801044 0.13278525 -0.041703958 0.07211704
-0.016845867 -0.036475163 0.075781584 -0.14576179 -0.048566703 0.028328054 -0.10316619 0.09919925
0.15575877 -0.105989136 -0.12090847 -0.032512512 0.038570445 0.10946778 0.051132746 -0.04459125
-0.12150657 -0.067700595 0.069304496 0.0013591805 0.057162784 0.13527957 -0.07231886 -0.13398185
0.08234235 0.020257846 -0.024689198 0.08627562 -0.06203892 -0.042726867 0.018472366 0.031911194
-0.015923355 -0.097784355 -0.11701254 -0.14822301 -0.09955446 -0.14449675 0.061413575 0.03842

weight_hh_l0 f4 [240, 60]
00000000: 4cad adbc 9737 d23d 3020 8e3d b688 abbd
00000010: 995a 0fbe 86f8 0cbe 1327 b53b 842d c6bd
00000020: e79a 8abc 7175 bdbc 01ed babd 4680 e9bc
00000030: 4305 02be ebe5 d53d 3104 fcbc a965 88ba
00000040: 2c91 ccbd 0263 9e3d 639e d83c de7d 61bd
00000050: c863 51bd e10f e53d b430 603c 86d5 f4bd
00000060: 909b 1bbe 5110 a03d 4733 e9bd 75b2 c63d
00000070: f2e4 2a3e 3770 4e3d 6c5b eabd bd7e fd3c
00000080: bc97 313e 3dd2 05be ed8e 933d 2f9c 3ebe
00000090: 8232 103c 4ef9 eebd f434 d0ba b343 2b3e
000000a0: 7168 7ebd 0699 c4bd aec5 59bd 436e 6d3c
000000b0: 3fc2 22bd f68f d8bd a07a e2bd 1ad9 4e3d
000000c0: 103e d63d a672 153e 8d1c 4cbd f05e 3fbd
000000d0: a518 8cbd c81a a43d e2d3 65bd 848d 283d
000000e0: 4d47 dd3c a2b0 cb3d 795e 2a3e d9f9 bd3d
000000f0: c8ea 0e3e ab0a bbbd d1cb 8fbd 57a5 1fbd
00000100: c167 8f3d f7fd eabd b29f 17bd c13d 813c
00000110: 08b4 fc3b 8c79 d03d f299 f13b ebdd f93d
00000120: 0367 c2bd 2948 a73d 8912 df3d 98d1 21bc
00000130: d0f0 14be be98 853c 8e3a 123e eed6 d23c
00000140: 7c41 d9bd 01ac b83d faab 053e 537f b63d
00000150: f66f ba3d aa36 36bd bf45 06be d8af 8abd
00000160: 6593 093e 6d08 ab3d b18e 853d 3853 e9bb
00000170: 6f46 f43d 9085 00be 894b ae3d 77f7 3ebc
00000180: 12e9 8fbd f6d7 213d 54c7 89bc a6f7 283d
00000190: 0564 33b9 9a58 07be 1d6f cbbd 2ca3 e5bc
000001a0: 49d5 883c 3296 af3d 131b c33d 177c 34be
000001b0: 7576 3fb9 0430 b1bc 66b8 bb3c b6ad 27bd
000001c0: a78c de3c a3f9 ee3d 7459 a53d d201 003d
000001d0: e286 d03d ee02 73bc aad4 eebc 0114 a7bd
000001e0: da56 a93d c72c a33c 9280 c03d 143a 3fbe
000001f0: 075b 22be 87cb 2dbd 07a0 1c3e 201c cdbd
00000200: bf65 223e d0f1 9ebd c1b4 a13d 2f87 abbd
00000210: 360d 1ebe cd9d f2bc 8b2c 773d ed05 87bd
00000220: 414d 32be d7b9 23bd c5ac 973c 7988 0abe
00000230: 1aad 8ebd aef3 093c 49d6 9b3c b2b6 b4bd
00000240: 9bbc 353d 4fed 8fbc e0ec 023d 4ee3 363c
00000250: 3bcd 2bbc 9603 b83c a9f5 cc3d 0875 4abd
00000260: 5dab 193e 9a0c 983c 3ece f0bd 9f33 2ebe
00000270: 9cee 173e 64dd e93c 8943 cdbc dcdf 2a3d
00000280: b946 f6bd 4914 f9bd 82f7 77bc fa26 cc3d
00000290: dfe4 d3bc 43c3 c73c 17bd 95bd ecc4 003e
000002a0: 9705 713d 8e19 283e 9b84 123d 321c 1f3d
000002b0: 419b 9b3d 6b94 213e 378e 1abd 9f67 9fbd
000002c0: f4a6 2fbd abb9 da3d 85db df3d c781 9e3d
000002d0: 7b4f cebc 5ed3 ed3c 0d5b 82bc 1f9d af3d
000002e0: 311b 0f3d 6603 ed3c 3e8a adbc d346 dcbd
000002f0: f1ad 6abd 1768 12be c06c c2bd ff77 ebbc
00000300: de8f a7bd 0305 8b3d 508b b1bd bbd9 193d
00000310: 870c 903c f27b b13d 8409 67bd 7a17 673d
00000320: 9c16 15bc d3f2 343d 412f d4bc 0ff2 123d
00000330: ad01 7d3d 5e3b 3cbd df04 88bd 2d9a 683d
00000340: 653b 9d3d c957 023e cc18 cf3d 2e3d a13d
00000350: 7a22 7dbd 0922 bbbd 1491 a33d 05e3 4d3d
00000360: 89bb a3bb 5a3c 383d c7d7 813d cf84 153e
00000370: ecc6 e3bd 7af3 fa3d f584 0d3b 2f55 8ebd
00000380: fc2c debb 78dc 9d3d 1b28 09be 9c4b 243c
00000390: 8a75 80bd 4c4d c1bd d49c 42bd a5d2 8b3c
000003a0: e030 00be 692f e23c 60d5 b93c 6a1f c93d
000003b0: 2207 aebb 613d 87bd 2788 2c3e e7cf 223e
000003c0: ec9e 2ebe b75a 95ba 36fa 703d 4a81 33be
000003d0: db27 b3bc 5cc9 5fbe 6589 533e a21b adbd
000003e0: 7fae 123e abca 3dbe 821c 99bd e44f 3f3c
000003f0: 33eb dabd 4e55 93bd 11e3 483d c951 00be
-0.021200798 0.10264509 0.06939733 -0.08375685 -0.13999404 -0.13766679 0.0055283397 -0.0967665
-0.016919566 -0.02312729 -0.09127236 -0.028503548 -0.1269732 0.10444244 -0.030763717 -0.0010406274
-0.09988627 0.07733728 0.026442712 -0.055051677 -0.05112055 0.11184669 0.013683487 -0.11954789
-0.15196061 0.07815612 -0.113867335 0.09702007 0.16688898 0.050399985 -0.114432186 0.030944223
0.17343038 -0.13068481 0.07204995 -0.18614267 0.0088011045 -0.11668645 -0.0015884922 0.16725044
-0.06211132 -0.095994994 -0.053167038 0.0144916205 -0.03973603 -0.10574333 -0.11058545 0.050500013
0.10461056 0.14594516 -0.049831916 -0.0467214 -0.06840638 0.080129206 -0.05611027 0.041150585
0.027011538 0.099457994 0.16637601 0.0927617 0.1395675 -0.09132894 -0.07021297 -0.03897604
0.07002211 -0.11474221 -0.03701753 0.015776517 0.007711891 0.10179433 0.007373088 0.122005306
-0.09492304 0.0816806 0.10892207 -0.009876631 -0.14544988 0.016308185 0.1428015 0.025737252
-0.10608193 0.09017182 0.13053885 0.08911004 0.09103386 -0.044485725 -0.13112544 -0.06771821
0.13435133 0.083512165 0.06521357 -0.007120516 0.11927497 -0.1255095 0.08510501 -0.01165568
-0.070268765 0.039512597 -0.01681868 0.0412518 -0.0001710803 -0.13217393 -0.099333026 -0.028031908
0.016703265 0.08573569 0.09526648 -0.17625462 -0.00018259308 -0.021629341 0.022915076 -0.040937148
0.027166678 0.11668708 0.080737025 0.031251736 0.10181977 -0.014832241 -0.02915414 -0.08158112
0.08268519 0.019918812 0.09399523 -0.18674499 -0.15855037 -0.042430427 0.1529542 -0.1001513
0.15859126 -0.07760966 0.07895804 -0.083753936 -0.15434727 -0.02961626 0.060345214 -0.06592927
-0.17412283 -0.039972153 0.018515 -0.13528623 -0.0696661 0.008419914 0.019023078 -0.08823909
0.04436932 -0.017569212 0.031964183 0.011162592 -0.0104859425 0.022462647 0.100077935 -0.049428016
0.15006776 0.018560696 -0.117580876 -0.1701188 0.14837116 0.02854795 -0.025056617 0.041717395
-0.12025208 -0.12162072 -0.015134694 0.09968372 -0.02586597 0.0243851 -0.07311457 0.1257512
0.05884322 0.16415998 0.035770994 0.03884525 0.07597972 0.15779273 -0.037733283 -0.07783436
-0.04288383 0.106799446 0.10930542 0.07739597 -0.025184384 0.029031452 -0.015912557 0.0857489
0.03493804 0.028932285 -0.021184083 -0.10755696 -0.05729479 -0.1429752 -0.09493399 -0.028743742
-0.08181737 0.06788065 -0.0866915 0.03756116 0.017584099 0.08666219 -0.05640556 0.056418873
-0.009099629 0.044176888 -0.025901439 0.035875376 0.061769176 -0.045955054 -0.06641554 0.05678766
0.07677344 0.127288 0.101121515 0.07872997 -0.061800458 -0.09137351 0.07986656 0.05026533
-0.004996721 0.04497943 0.063399844 0.14601444 -0.11121926 0.12253471 0.002159414 -0.06949841
-0.006780265 0.07708067 -0.13394205 0.010027792 -0.06272419 -0.09438571 -0.047512844 0.017068217
-0.12518644 0.027610498 0.022684753 0.09820445 -0.005310909 -0.06603504 0.16848813 0.15899621
-0.17052811 -0.0011394833 0.05883237 -0.17529789 -0.02186959 -0.21854156 0.2065788 -0.08452536
0.14324377 -0.18534343 -0.074761406 0.011676762 -0.10689392 -0.07194005 0.049044672 -0.12531199

bias_ih_l0 f4 [240]
00000000: 3ae7 413c 7bf0 1fbe c24e 81bc 3533 aa3d
00000010: a390 ebbd 97fe 9a3d 1d7e 82bd 8d70 0bbd
00000020: 18ca ecbd 2f3f 2f3d 79d4 13be 30a3 bfbd
00000030: d2b2 e73d eafa 19be 074e 223d 4247 68bd
00000040: 02bf 86bd 2e04 5fbe cd5a d2bd 9a42 9ebd
00000050: 8ea6 5b3c c434 38bd a4c4 25bd 3bf6 3dbe
00000060: 66af 15be 61f6 04be 1397 edbc 0329 88bd
00000070: a16f 993d 54a8 933c 37c8 293d 58d3 39bd
00000080: 8f79 eebd fd94 b63c 0bd0 e6bd 468d a33d
00000090: 57e7 4dbc 7fff 233d 3652 70bd 83a7 95bd
000000a0: d98b 19be cefa 94bc ec96 c8bd b6b4 88bd
000000b0: 34cb 17be cea8 8fbd 3f3e 11be 18b0 3abe
000000c0: a430 57ba 2611 d43c d16b 3b3d 3aa2 61bd
000000d0: 72f5 28be ccaa abbd e615 30bd 2aa0 17be
000000e0: 2838 01be 4f92 ffbb ae3d 71bb 4eeb bebd
000000f0: c989 363d e5d1 cf3d 7d8b 3fbe cce5 feba
00000100: fdc7 36bd c5ae 90bd 3c7c 9cbd 07b3 c5bd
00000110: 9c41 183d de48 203e 1c66 fbbd b755 05bd
00000120: 57ab b7bd dae0 0cbe 4106 5cbd 3ab6 f9bc
00000130: ca15 06be 483e 34be 7f56 efbd 6c47 18be
00000140: c9d4 3dbe 21a6 16bd b70e 4dbe 7b9f 753d
00000150: cfce 02be 6b61 2ebe 9a4e 3dbd 9716 38be
00000160: fe71 47bd d56d c43d 44ea d23b 0eec a63d
00000170: 6a12 9fbd a533 ad3c ee64 633c 84bc 853a
00000180: a5a5 abbd 8c3b af3d 08a0 a4bd 220b a9bd
00000190: fbd1 d6bd 935b ebbd 8907 8b3d 461d eebd
000001a0: a088 fabd 7284 953d f220 643c 20f2 f0bc
000001b0: 1e43 1bbe 080f 963d 52e3 c5bd 762e ac3d
000001c0: 765c 32be dd56 9bbd 2aaf 4dbd 3043 98bd
000001d0: 2bef 933c 2eec 1ebe e3bc 99bd 37b9 0dbd
000001e0: 5e99 833d edf0 14bd 2bf4 efbd 5f80 9f3c
000001f0: 93af 533d 5e4f 823d 73f0 b7bd 5560 1a3d
00000200: cf5e 37bd fc98 213e 7a11 483d 7672 c0bd
00000210: 1854 2ebc 66ce 83bd 5115 603d e3ef 803d
00000220: d36a cb3d 4c3a acbd d663 78bc d7a3 efbc
00000230: 2dea dd3d 52f0 363d 3811 b53d 6e90 d33d
00000240: a3c8 193d 680c ffbb d471 a53d 981b f3bd
00000250: a560 c0bd e5a8 65bd e318 843d a8a0 6d3d
00000260: 6501 63bc 87e6 8c3d 3960 443d 68a1 bb3d
00000270: 1383 cfbd 732b 06bd cfb3 a4bd d4d8 eebd
00000280: 410b 8d3c 86d8 643d 99b8 45bd ed35 1a3d
00000290: 3cfe c13d 344f ba3c 44d6 763d 5d98 073d
000002a0: d82a d6bd c455 8a3b 2b71 a23d 3823 c7bd
000002b0: 25a7 9c3d 9039 38bd 97eb 113d 3458 783b
000002c0: a03f 023e c39e dfbc 584e 693c 2ce1 c83b
000002d0: 6e80 b43c 28d9 1f3d bc6a 1fbe bf30 4f3b
000002e0: ca19 f3bd 2040 babc f6e1 4c3d c62e b3bc
000002f0: 8b47 00be 094a 1cbd 5abc b8bd 8dfd 0e3d
00000300: 1278 d93d 18fc 8b3d 0c2b 1e3d 7cbe 26bc
00000310: 87de 15bd 46d4 0a3d dfb2 a83c 54a4 30bd
00000320: 1381 53bc 2d6e 14be 1db8 0fbe 8037 5e3d
00000330: 8a8b 183d af7a 123d 05cb ebbd b9c0 8fbd
00000340: f460 7dbd 183d b93d 3fc7 403d 41e3 a2bd
00000350: fd23 14be 5f4a 6abd bc59 0cbe 4ee9 f0bd
00000360: 735c de3b 8c26 bf3c c52b c8bd da0d b73d
00000370: 107c 0abe 7509 5dbe 42f8 1fbe bd06 d4bd
00000380: ca5f 043b 8df2 27bd 8f66 12be 1073 b9bd
00000390: 665f af3d 8641 b8bc 81f2 3abe 11eb 343c
000003a0: 8904 08be f61b 1ebd 5c7d 54be 251e 39bd
000003b0: a710 14be 449a 36bd a4a3 17be 06ed 48be
0.011834914 -0.1561908 -0.015784625 0.08310548 -0.11502197 0.075680904 -0.063717104 -0.034042884
-0.11561984 0.042784866 -0.1443652 -0.093572974 0.11313404 -0.15037122 0.039625194 -0.05670858
-0.065794006 -0.21778938 -0.10271225 -0.07727547 0.013406409 -0.044972196 -0.040470734 -0.1855096
-0.1461769 -0.12984611 -0.029002702 -0.06648447 0.07491995 0.018024601 0.041450705 -0.04536757
-0.11644279 0.02228784 -0.1127015 0.0798593 -0.012567363 0.040038582 -0.058672152 -0.07307341
-0.14994754 -0.018186 -0.09794411 -0.06675093 -0.1482361 -0.07014619 -0.14183901 -0.18231237
-0.0008208847 0.025887083 0.04575712 -0.055086352 -0.1649988 -0.08382186 -0.042989634 -0.14807191
-0.12619078 -0.0077994238 -0.0036810446 -0.093222246 0.044564996 0.10147456 -0.18705554 -0.0019447147
-0.044624317 -0.07064585 -0.07640883 -0.096532874 0.037171945 0.15652797 -0.12275335 -0.032552447
-0.08968227 -0.13757649 -0.0537169 -0.0304824 -0.1309425 -0.17601883 -0.1168642 -0.14870995
-0.18538202 -0.036779527 -0.20025145 0.059966546 -0.12774204 -0.1702935 -0.04621754 -0.17977367
-0.048692696 0.09591261 0.006436618 0.081504926 -0.07767184 0.02114279 0.013879044 0.0010203277
-0.083812036 0.085562795 -0.08038336 -0.082540765 -0.10489269 -0.11492076 0.067885466 -0.11626677
-0.122330904 0.073006526 0.01392387 -0.02941233 -0.15162322 0.07327086 -0.096624985 0.08407299
-0.17418084 -0.07584927 -0.050215878 -0.0743469 0.01805838 -0.15519783 -0.075067304 -0.034600463
0.06425737 -0.036362577 -0.11716493 0.019470392 0.051681112 0.06362794 -0.08981409 0.037689526
-0.04476815 0.15781015 0.048844792 -0.09396832 -0.010640167 -0.06435852 0.05470783 0.06295755
0.099324845 -0.08409557 -0.0151605215 -0.02925293 0.10835681 0.04466278 0.08841175 0.10330282
0.037544858 -0.0077834614 0.080783516 -0.118704975 -0.093934335 -0.056069274 0.06450059 0.058014542
-0.013855313 0.06879907 0.047943328 0.09161645 -0.10132422 -0.03275628 -0.08042108 -0.116624504
0.01721728 0.055870555 -0.04827175 0.037649084 0.094723195 0.022742845 0.060262933 0.03310429
-0.104573905 0.00422165 0.07931741 -0.09723514 0.07649068 -0.04497677 0.035625067 0.003789437
0.12719584 -0.027297383 0.01423987 0.006130358 0.022033896 0.039025456 -0.1556806 0.0031614748
-0.11870153 -0.022735655 0.05002018 -0.02187289 -0.12527291 -0.038156543 -0.090203 0.034909774
0.10618605 0.068351924 0.03861527 -0.010177251 -0.03658917 0.033893846 0.020593105 -0.043125466
-0.012909192 -0.14495154 -0.14035077 0.054252148 0.03724245 0.03576153 -0.11513332 -0.07019181
-0.06186004 0.09044856 0.047065016 -0.079535015 -0.14466853 -0.057199832 -0.13706106 -0.11763249
0.006785923 0.02333381 -0.097739734 0.08938189 -0.13523889 -0.21585639 -0.15622047 -0.10352848
0.0020198696 -0.0410028 -0.14296935 -0.090551496 0.08563118 -0.022492182 -0.1825657 0.011042372
-0.1328298 -0.038600884 -0.20750946 -0.045194764 -0.14459477 -0.044580713 -0.14808518 -0.19621667

bias_hh_l0 f4 [240]
00000000: 5528 1cbc abd3 9fba 5e36 0f3d bb38 b2bd
00000010: 72c5 67bd 9fe2 67bd 0406 8e3d 1483 c4bd
00000020: 7d39 bdbd df00 18bd d15c d9bd acb2 27be
00000030: 8889 3dbd 817f 9b3a 539b 8ebd 3b6f 17bd
00000040: d55f 823d b05b 2dbd fa9a b0bd 5a49 b93b
00000050: a057 0bbe c548 15be 115e dabd 1441 fbbd
00000060: b903 973c 897a 2abe cc90 b2bd 1120 3fbe
00000070: 7829 de3d 54da 93bc 9001 763c 78da fe3d
00000080: 6a56 64bd 62f9 f4bc b0a8 223d 50dd 98bd
00000090: b0d7 6b3c 5c7b 1ebe 3997 f9bd 45e4 253d
000000a0: 453a e0bd 95f0 bcbd 310c 0cbe d034 41be
000000b0: 5340 fbbb 07a3 5d3d 12de dfbd 45fe 4cbe
000000c0: 29c0 6b3d 9e40 0dbe 54bc 11be 7e33 ffbd
000000d0: a1ad 18bd c03d 2ebe 83f5 babd fb8e 1d3d
000000e0: a5e7 4ebd 19dc 473b 8bad 82bc 5c79 0abe
000000f0: b1d3 f6bc 14ad be3c 500f 0cbe 9c73 c93d
00000100: 6642 23be 24ab fabd 74ee 4bbd c57a 0dbe
00000110: a52b cfbc 56cc c23b d5f9 1ebe 9970 34be
00000120: 6cd3 db3b fd52 f1b8 88b7 64bd 1a27 aebd
00000130: 89f2 943c dcd1 f9bd a533 3b3c c7ee 053c
00000140: 767c c03b 306a 32be 328b 3dbd d54e b0bd
00000150: 4574 0dbe 9674 24bd 6239 94bd ccf2 bcbd
00000160: d298 aebd 0e0e 02be abf3 12be 891c 78bc
00000170: 57d1 35be fa52 c7bd 7236 b7bd 3b00 653d
00000180: 0a81 dbbc 78d1 8fbd e8c6 fbbc d3a3 84bc
00000190: 4ac0 293d dbb2 2cbe 3c26 e8bd 93f8 21be
000001a0: 7019 433d 4ef4 2dbd a5a8 16bd bec0 753c
000001b0: 1c3d 823d d8dd 12be 00ab 81bd 6511 01be
000001c0: de35 b8bc 8275 27be 429d 88bd 7d25 15bc
000001d0: d86a 9e3d 5edd 53bd 39ea 783b 26e2 34be
000001e0: 9bcc 533c 0581 28bd 2357 893d e211 763d
000001f0: 5d0c 943d 7d8b 9b3c ba0e 98bd d2dd 3d3d
00000200: 65e8 f13c b5b1 c23d ec15 b6bc 7436 213c
00000210: f06c e63d 0690 8d3d 100a 9bbd 1004 a63d
00000220: c39c 9ebd 2853 c9bc a47b 02be 9502 a23d
00000230: b8e3 68bd 393c b8bd 5659 d5bd f0a7 d8bb
00000240: f70c dbbd 957f 9fbd 4a56 483d 0389 793d
00000250: 8365 8ebc 459c 33bd 5483 a3bc dcb3 353d
00000260: c77d 833d 9d57 973d 34d0 a23c 314f 29bc
00000270: 528d 6f3d e38e ca3d 7756 c6bc 5fc1 9e3d
00000280: c724 0ebd 24cf b7bd c371 1ebd 5e85 d6bc
00000290: f425 06be d69a a73d ceb0 7fbd 8b2a cabc
000002a0: 6e2d 793d 01b5 23bd dd49 513d 3737 e1bb
000002b0: cae0 1ebd d6d2 97bd acc8 59bd 87eb 7e3d
000002c0: 16c0 a9bd 2567 8e3b a1fb 78bc 0d93 e0bd
000002d0: 566d 2dbe 008a 02be 6410 10bb 803d 6d3d
000002e0: 9e7a ac3b ab2d d83d cafa 88bd 6085 1dbe
000002f0: e380 21be 7e74 c53d 9a95 35bd 7251 9abb
00000300: 8961 eabc 4bc0 eebd b43c 293d a73e 07be
00000310: 9063 eabd 1322 2abe 84cf ddbc d007 133c
00000320: 2130 c1bd ea1c 27be 0b6d 59be a09f 2fba
00000330: dee9 c1b9 dfa9 b7bc 4cb7 98bc c490 82bc
00000340: 0603 99bd 73c1 c7bd 5c48 1abe 11f2 543d
00000350: 4bb1 e5bd bd20 4a3d 88a7 4ebb 36e2 6b3d
00000360: 8ed5 acbd 04a9 0c3d d164 3c3d 5505 443d
00000370: 62dc d93c 2040 01bd 0be3 8b3a 4a9c b4bd
00000380: a2f2 51bd 7087 03be bce5 abbd 8422 4bbe
00000390: 0fbe 00bd f47b f7b8 d15e 08be 5bd7 04be
000003a0: cd8d e5bd 719f 903c 7452 4fbe 8b01 66bd
000003b0: a90c d1bc 865f e8bd 336d bd3d c4aa 29be
-0.0095311 -0.0012193819 0.034963958 -0.08702227 -0.056584783 -0.056612607 0.06934741 -0.09595314
-0.09239481 -0.037110206 -0.106134064 -0.16376752 -0.04627374 0.0011863561 -0.069632195 -0.036971312
0.06365935 -0.04232377 -0.086233094 0.005654496 -0.13607645 -0.1457854 -0.10662473 -0.12268272
0.018434392 -0.16648306 -0.08719024 -0.18664576 0.10847753 -0.018048443 0.015015021 0.12444013
-0.055746473 -0.029904071 0.039711654 -0.07464087 0.014394686 -0.15476745 -0.121870466 0.040500898
-0.10948614 -0.09225575 -0.13676526 -0.18867803 -0.00766758 0.054110553 -0.109310284 -0.20018871
0.057556305 -0.13794181 -0.14231998 -0.12460993 -0.03727496 -0.17015743 -0.09128859 0.038466435
-0.050513882 0.0030496179 -0.015951892 -0.13522857 -0.03013024 0.02327589 -0.13677716 0.09836504
-0.15943298 -0.12239674 -0.049787953 -0.13816364 -0.025289366 0.005944769 -0.15524991 -0.17621078
0.006708553 -0.00011507233 -0.05583909 -0.08503552 0.018182056 -0.121982306 0.011425887 0.008174605
0.005874212 -0.1742332 -0.046275325 -0.08608786 -0.13813885 -0.040150248 -0.072375074 -0.09225997
-0.08525242 -0.12700674 -0.14350764 -0.015143522 -0.17755638 -0.097326234 -0.089459315 0.055908423
-0.026794929 -0.07022375 -0.030734494 -0.016191399 0.041443147 -0.16865103 -0.11335418 -0.1581748
0.04763168 -0.042469315 -0.036781926 0.014999567 0.06359312 -0.14342439 -0.06331444 -0.12604292
-0.022486623 -0.1635342 -0.066706195 -0.009103176 0.077352226 -0.051724784 0.0037981404 -0.17664394
0.0129272 -0.041138668 0.06706073 0.060075648 0.072289206 0.018987412 -0.07424684 0.046354122
0.02952976 0.09506551 -0.02222725 0.009839643 0.11251247 0.06912236 -0.07570279 0.081062436
-0.07744744 -0.024575785 -0.12742478 0.07910649 -0.056857795 -0.089958616 -0.1041743 -0.0066118166
-0.10695832 -0.07788006 0.048910417 0.06092168 -0.017382389 -0.043850202 -0.019960083 0.04436098
0.064204745 0.07389758 0.01987467 -0.010333822 0.058484383 0.09890535 -0.024211152 0.07751726
-0.034703042 -0.08975056 -0.03868271 -0.026186641 -0.13100415 0.081838295 -0.062424473 -0.02467849
0.06083434 -0.03996754 0.051095832 -0.006873037 -0.038788594 -0.07413261 -0.05316989 0.062236335
-0.082885906 0.004345792 -0.015196712 -0.10965548 -0.1693624 -0.12747955 -0.0021982426 0.05791998
0.0052636405 0.105555855 -0.06688459 -0.1538291 -0.15771823 0.0964136 -0.044332124 -0.004709416
-0.028610962 -0.11657771 0.041317657 -0.13207494 -0.11444771 -0.16614561 -0.02707649 0.008974031
-0.09433008 -0.16319624 -0.21233003 -0.0006699506 -0.00036986073 -0.022419868 -0.01864209 -0.01593817
-0.0747128 -0.097536944 -0.15066665 0.051988665 -0.112154566 0.049347628 -0.0031532962 0.05758878
-0.0843917 0.034340873 0.045994584 0.047856648 0.026594345 -0.031555295 0.0010672522 -0.08818872
-0.051256783 -0.12844634 -0.08393428 -0.19837385 -0.031431254 -0.00011800966 -0.1331742 -0.12972777
-0.11208687 0.017654153 -0.20246297 -0.056153815 -0.025518732 -0.11346345 0.09249344 -0.16569048

weight f4 [1, 60]
00000000: 03f7 cb3d 2af4 e6bd 643c e33d 44ec 043e
00000010: 0a6e 27be e94f e53d 9592 323d be51 bebd
00000020: 70af c7bc e631 563d 63e3 06bd 0cb5 82bd
00000030: 61ff 6f3c 5047 cfbd acb3 e43c 54ed 66bd
00000040: c9d8 91bd 137a e83c 7067 cd3c 42c6 0f3d
00000050: a3a0 5dbc b262 01bd 34a1 80bd 7d69 d83d
00000060: 6c56 b23d e3e7 d33b ab07 103d 0e7d babd
00000070: cc20 ccbd a58a 82bd 5777 5cbd c767 073e
00000080: ca21 23be 4318 85bd 8d09 d9bd 0264 003d
00000090: 6c90 1c3d 05d8 843c 29cf bb3c 81ac 5dbd
000000a0: 8a7b d93d 4629 2dbd c991 b03d a546 6fbc
000000b0: 9db0 cb3c fd18 7c3d 1439 2a3d f379 113d
000000c0: 4b82 44bd b18e 8ebd f30a 8cbd 1285 a3bd
000000d0: b781 c6bd 8222 0abd 6cbb 1b3d 7c6c 00be
000000e0: 778a 86bd b544 54bb 70ff a1bd bcb6 b83d
0.09959223 -0.11277039 0.11095503 0.12980753 -0.1635057 0.11196882 0.043596823 -0.09292935
-0.024375647 0.05229368 -0.032931697 -0.06382188 0.014648289 -0.10121024 0.027917705 -0.056378677
-0.071214266 0.028378522 0.025073737 0.035101183 -0.013527068 -0.031588264 -0.06280747 0.10566995
0.0870789 0.006466852 0.035163563 -0.091058835 -0.09967193 -0.063741006 -0.05382475 0.13223182
-0.15930858 -0.06498768 -0.10597525 0.031345375 0.03822367 0.016216287 0.02292593 -0.05411959
0.10619266 -0.04227569 0.08621556 -0.014604245 0.02486449 0.06154727 0.04155834 0.03551669
-0.04797582 -0.0696081 -0.06838026 -0.079843655 -0.0969271 -0.033724315 0.038020536 -0.12541384
-0.06569379 -0.0032389585 -0.07910049 0.09019229
