models/epoch=2_bestloss=inf.pt (torch, 184855 bytes, 11 tensors)

weight_ih_l0 f4 [240, 1]
0	0x3f5196a5	0.8187049
1	0x3ee71466	0.4513275
2	0xbe9b0749	-0.30278996
3	0x3f779d99	0.9672485
4	0x3e9de857	0.30841324
5	0x3f12aa44	0.57291055
6	0x3f622260	0.883337
7	0xbe3f4263	-0.18677668
8	0x3ec89cd3	0.39182147
9	0x3e7f4365	0.24928053
10	0x3f15fdf6	0.5859064
11	0x3c9c1e1a	0.019057322
12	0x3f5ef5b9	0.87093693
13	0x3e90d326	0.28286093
14	0x3f8364f0	1.0265179
15	0x3f2bc545	0.67097884
16	0x3d814a69	0.06313021
17	0x3e9d1739	0.3068178
18	0x3e5d206b	0.21594398
19	0x3f154865	0.5831359
20	0x3df8043b	0.12110182
21	0x3e1048e2	0.14090303
22	0x3f1bedb8	0.60909605
23	0x3f33edc0	0.7028465
24	0x3f2a26e5	0.664656
25	0x3f44d6b6	0.7689012
26	0x3dea1243	0.114292644
27	0x3c363002	0.011119844
28	0x3eb1c162	0.34717852
29	0xbe3597af	-0.17733644
30	0x3e86b043	0.26306352
31	0xbe8ccdeb	-0.27500853
32	0xbe41dfda	-0.18933049
33	0x3f1787a8	0.5919137
34	0x3f049207	0.5178532
35	0x3f487ade	0.7831248
36	0x3ec804dc	0.39066207
37	0x3e59e092	0.21277073
38	0x3f13cdf7	0.5773615
39	0x3d16e025	0.036834855
40	0x3f2f19ab	0.6839854
41	0x3eb9f143	0.3631688
42	0x3f82f7e0	1.0231895
43	0x3f0dfbda	0.5546242
44	0x3da512b7	0.0806021
45	0x3ed88c0c	0.42294347
46	0x3e6fbd66	0.23412094
47	0x3efcfe52	0.4941278
48	0x3ecdf6ee	0.40227455
49	0x3f1ea567	0.61971134
50	0x3f30ed9a	0.6911255
51	0x3db7eec0	0.08981085
52	0x3e5d5825	0.21615656
53	0x3f261419	0.64874417
54	0xbd2dd9dd	-0.0424441
55	0x3ed4ee83	0.4158822
56	0x3ebfe626	0.37480277
57	0x3f292a27	0.66079944
58	0xbe280d47	-0.16411315
59	0x3e61876a	0.22024313
60	0x3f131a4f	0.5746202
61	0x3d9e3129	0.0772422
62	0xbe8a06c6	-0.26958293
63	0x3f31011c	0.6914232
64	0x3db7a280	0.08966541
65	0x3e445bbb	0.19175617
66	0x3ef7e54a	0.4841712
67	0xbdf9b08b	-0.12191876
68	0x3ec1cbee	0.37850899
69	0x3e1adbd6	0.15122923
70	0x3ee630d7	0.44959137
71	0xbc8cfc31	-0.017210098
72	0x3f41a061	0.75635344
73	0x3e8e75c3	0.2782422
74	0x3f23cf16	0.63987863
75	0x3f154d8f	0.5832147
76	0xbdc728b6	-0.09724562
77	0x3d8d4821	0.06898523
78	0x3c8e826e	0.017396178
79	0x3e79cb93	0.24394064
80	0xbc6558e0	-0.01399824
81	0x3e583f5d	0.21117921
82	0x3e084e12	0.13311031
83	0x3ee2d64b	0.44304118
84	0x3ef8a3e4	0.4856254
85	0x3e46cc0c	0.19413775
86	0xbd21f7bc	-0.0395429
87	0x3daeb8a4	0.08531311
88	0x3e389478	0.18025386
89	0xbdb17d9e	-0.08666538
90	0x3e17e311	0.14832713
91	0xbd35f069	-0.044418726
92	0xbd23e980	-0.040017605
93	0x3eae705b	0.34070095
94	0x3efe62a0	0.4968462
95	0x3ef3ba02	0.4760285
96	0x3e44975d	0.19198366
97	0xbda3f496	-0.080056354
98	0x3e8949dd	0.26814166
99	0x3e0c7cf6	0.13719544
100	0x3f359bdf	0.70940965
101	0x3e65e5e8	0.22450984
102	0x3f2a49c8	0.6651883
103	0x3f06a84f	0.5260057
104	0xbe909d31	-0.28244928
105	0x3e96b653	0.29435977
106	0x3dae84b7	0.08521407
107	0x3e82838f	0.25490996
108	0x3dca3eec	0.09875283
109	0x3f1d1222	0.61355793
110	0x3f14d183	0.5813219
111	0x3e54dc54	0.20787174
112	0x3e1c5c7e	0.15269658
113	0x3ece2ab8	0.40266967
114	0xbe0dee37	-0.13860403
115	0x3e5ce769	0.21572651
116	0x3eb87912	0.3602987
117	0x3e733128	0.2374922
118	0xbe1742b8	-0.14771545
119	0x3c67adfd	0.014140603
120	0x3f3b264e	0.73105323
121	0x3f0df746	0.55455434
122	0x3e54ec2f	0.20793222
123	0x3f88233d	1.0635754
124	0xbef4b6ad	-0.4779562
125	0xbf3fbad4	-0.7489445
126	0x3f523a56	0.82120264
127	0x3c6ae241	0.01433617
128	0xbf4d572a	-0.80211127
129	0xbf193345	-0.59843856
130	0x3f18c93a	0.5968205
131	0x3e40556d	0.18782587
132	0x3f53afe0	0.8269024
133	0xbf2374a9	-0.63849884
134	0x3f875218	1.0571928
135	0x3f40ba6e	0.7528447
136	0xbf2e6ba9	-0.68133026
137	0x3edca10e	0.43091625
138	0xbf08172b	-0.5316035
139	0x3f189414	0.5960095
140	0x3f242c64	0.64130235
141	0xbef67418	-0.48135448
142	0xbf0eb851	-0.55749995
143	0xbf666117	-0.899919
144	0x3f6b390d	0.9188393
145	0xbf812723	-1.0090069
146	0xbebfb5fd	-0.37443534
147	0xbe67e4e5	-0.2264591
148	0x3ef1a0b3	0.47192916
149	0x3e211231	0.15729596
150	0xbf321b2b	-0.69572705
151	0x3ebe02b4	0.37111437
152	0xbe012569	-0.12611927
153	0x3f32d13d	0.6985052
154	0x3f28c298	0.65921926
155	0x3f70dbe4	0.94085526
156	0x3ee15658	0.44011188
157	0xbf479a3c	-0.7796972
158	0xbf2fa4c4	-0.6861079
159	0xbeb96620	-0.36210728
160	0x3f714ecb	0.94260854
161	0x3f4d8944	0.80287576
162	0x3f88ad61	1.0677911
163	0x3f1ea223	0.6196615
164	0x3f1fcc9e	0.62421596
165	0xbf050cbe	-0.5197257
166	0xbef587e1	-0.4795523
167	0xbf192893	-0.59827536
168	0x3f01c883	0.5069658
169	0x3f7111af	0.9416761
170	0x3f55d6b9	0.83530766
171	0xbf0894e8	-0.5335221
172	0x3ed16a68	0.40901494
173	0x3f5cd9dc	0.8626993
174	0x3e4b1ac2	0.19834426
175	0xbf00f7ae	-0.5037793
176	0x3f5febc8	0.8746915
177	0x3f3dcb33	0.7413818
178	0x3e32eafa	0.17472449
179	0xbf23ddfe	-0.6401061
180	0x3ec28ac7	0.37996504
181	0x3e3a0581	0.18166162
182	0xbe868238	-0.26271224
183	0x3f1d4ca4	0.6144507
184	0x3e30bf6a	0.17260519
185	0x3eb70b8d	0.35751
186	0x3ec57a34	0.38569796
187	0xbdc373dc	-0.09543583
188	0x3eed9930	0.46405935
189	0x3eb925e3	0.36161718
190	0x3e347293	0.17621832
191	0xbe133bb6	-0.14378247
192	0x3ee49970	0.44648314
193	0x3e4eed52	0.20207718
194	0x3f4233bc	0.7586019
195	0x3eadb5d5	0.3392779
196	0x3e55b2d7	0.20869003
197	0x3df7b009	0.12094123
198	0x3e5cbbaa	0.21555963
199	0xbdafcc40	-0.085838795
200	0x3e31b6b9	0.1735486
201	0x3e45c8f0	0.19314933
202	0x3e99f422	0.3006907
203	0x3eedc66f	0.46440455
204	0x3f0734b7	0.5281481
205	0x3ede6413	0.43435726
206	0x3d44b335	0.048022468
207	0x3d645ba2	0.05575145
208	0x3e74143e	0.23835847
209	0xbe4c869e	-0.19973227
210	0x3e42ff6f	0.19042753
211	0xbe2b7316	-0.1674312
212	0xbe4f3268	-0.20234072
213	0x3ea2b58e	0.3177914
214	0x3e80fcd5	0.25192896
215	0x3f10a461	0.5650082
216	0x3eb34799	0.35015562
217	0x3e6997bd	0.2281179
218	0x3e0ff6c6	0.1405898
219	0xbd2c98ba	-0.04213784
220	0x3f190591	0.5977412
221	0x3e2e6cc9	0.17033686
222	0x3f1d91c7	0.61550564
223	0x3ee4872a	0.44634372
224	0xbd9ada06	-0.07561116
225	0x3eb1d7d3	0.34734973
226	0x3e81087e	0.25201792
227	0x3e7c131c	0.24616665
228	0x3e1f5b3d	0.15562148
229	0x3f07f388	0.53105974
230	0x3f1d4058	0.61426306
231	0x3d5f92d6	0.054583393
232	0x3e2bc0b5	0.1677273
233	0x3f04accf	0.51826185
234	0xbe84c806	-0.25933856
235	0x3e92d230	0.28675985
236	0x3eab8cdd	0.33505908
237	0x3ea67f5b	0.3251904
238	0xbddccf18	-0.107816875
239	0x3e8cd51d	0.27506343

weight_hh_l0 f4 [240, 60]
0	0x3e4b3685	0.19845016
1	0x3e41d413	0.18928556
2	0xbdc3a7f9	-0.095535226
3	0x3e2aa5bf	0.1666479
4	0xbdbee1ac	-0.09320387
5	0xbc4e51bc	-0.012592729
6	0x3e1b4726	0.1516386
7	0x3deed60f	0.11661922
8	0xbe1331c8	-0.14374459
9	0xbe5d3722	-0.21603063
10	0x3dd3cafd	0.10341451
11	0x3dd948ca	0.106095865
12	0xba47a22a	-0.0007615412
13	0x3de8fa81	0.11375905
14	0x3e633396	0.22187647
15	0x3e1b74df	0.15181302
16	0xbdc29a82	-0.09502126
17	0xbd5ddf85	-0.054168243
18	0xbdba050e	-0.09082995
19	0xbb8350e1	-0.0040074443
20	0xbe1abd5a	-0.15111294
21	0xbdb6ad92	-0.08919825
22	0xbe463f8f	-0.19360183
23	0xbd83aea5	-0.06429795
24	0x3e421a54	0.18955356
25	0xbe318e9f	-0.17339562
26	0xbcd389f7	-0.025822623
27	0xbd60587e	-0.054771893
28	0x3d95d0e2	0.07315232
29	0x3d0cfae7	0.034418967
30	0xbc83491c	-0.016026072
31	0x3d89cca3	0.067284845
32	0xbd62ba5a	-0.0553535
33	0x3e180bbf	0.14848231
34	0x3e11e974	0.14249212
35	0x3dfb6c11	0.122764714
36	0x3de3dc97	0.111260585
37	0xbe23b0d1	-0.15985419
38	0xbe0f4805	-0.13992317
39	0xbe116fdc	-0.14202827
40	0x3e384be0	0.17997694
41	0x3c9dd1e8	0.01926513
42	0x3e407075	0.18792899
43	0x3d91051f	0.07081055
44	0xbd153d65	-0.036435504
45	0xbe909b0f	-0.282433
46	0xbd6471e3	-0.055772673
47	0xbe716802	-0.23574832
48	0x3d94dc47	0.07268577
49	0x3e87f55d	0.26554385
50	0x3e67f992	0.22653797
51	0xbe1e8419	-0.15480079
52	0xbd536122	-0.051606305
53	0x3e40535b	0.18781798
54	0x3b32c89e	0.0027280222
55	0xbdc6f198	-0.09714049
56	0x3d6b0a20	0.057382703
57	0x3e880807	0.26568624
58	0x3e4989b2	0.19681433
59	0xbcea4d23	-0.028601235
60	0xbda7a1f8	-0.0818519
61	0x3dac3dcf	0.084102266
62	0x3e81cd8a	0.25352126
63	0xbe39f0a2	-0.181582
64	0xbe3d4d1b	-0.18486445
65	0x3e064fcd	0.13116379
66	0xbdb068c9	-0.08613736
67	0xbd05c863	-0.032661807
68	0x3c5f1940	0.01361686
69	0x3d3ad0bc	0.04560922
70	0xbdb1ec52	-0.08687653
71	0xbd55a659	-0.052160595
72	0xbcdab383	-0.026696926
73	0xbdda8d91	-0.10671533
74	0xbe10baba	-0.1413373
75	0xbe01404b	-0.12622182
76	0x3d9ec56d	0.077525
77	0xbd9ea1db	-0.07745715
78	0xbdc90ff7	-0.09817498
79	0xbe4946a4	-0.19655854
80	0x3dea2026	0.11431913
81	0x3d57a0c6	0.05264356
82	0x3e52c542	0.2058306
83	0xbd4797d4	-0.04872878
84	0xbd71625e	-0.0589317
85	0x3e01df08	0.12682736
86	0x3ded80f4	0.115968615
87	0x3d39e1f3	0.045381498
88	0xbe169d4e	-0.14708444
89	0xbd9397a8	-0.072066605
90	0x3cb85e20	0.02250582
91	0x3d9bcc6d	0.076073505
92	0xbd25a81b	-0.04044352
93	0xbdb47020	-0.08810449
94	0xbdfdf250	-0.12399733
95	0xbe450f0c	-0.19244021
96	0xbe00bf86	-0.1257306
97	0x3d1261ab	0.035737675
98	0x3dfe95c7	0.124309115
99	0x3d948f6d	0.07253919
100	0xbd6ff989	-0.058587585
101	0x3de2922a	0.11063035
102	0xbd76b102	-0.0602274
103	0xbd27d251	-0.040972058
104	0x3df6a909	0.1204396
105	0x3d6d7598	0.057973474
106	0x3d9c3148	0.07626587
107	0xbdafcd2a	-0.08584054
108	0xbbd0c9f6	-0.006371732
109	0xbdff5d7a	-0.12469001
110	0x3e00ed7d	0.12590595
111	0xbe2bf0cd	-0.16791077
112	0x3d91a189	0.071108885
113	0x3ca31810	0.019908935
114	0xbde235e7	-0.11045437
115	0xbe3bc08e	-0.18335173
116	0xbbd0c582	-0.006371201
117	0xbd4d8cf6	-0.05018326
118	0x3a983ede	0.0011615416
119	0x3dd736b1	0.105084784
120	0xbcf42dad	-0.029806936
121	0x3ca41263	0.020028299
122	0x3d954297	0.07288092
123	0x3dac090e	0.084001645
124	0xbd4d7834	-0.050163463
125	0x3ca45183	0.020058399
126	0xbd6b7812	-0.057487555
127	0x3d80f16c	0.062960476
128	0xbdde0e8d	-0.10842619
129	0xbe271938	-0.16318214
130	0xbd8b21c8	-0.06793553
131	0x3e08510a	0.13312164
132	0xbd83f6eb	-0.0644358
133	0x3d9c79c4	0.076404124
134	0x3dbc7e22	0.092037454
135	0x3c260701	0.010133506
136	0xbd2d159a	-0.04225693
137	0xbdaa1c02	-0.08306123
138	0x3c8e1242	0.01734269
139	0x3d8822b7	0.06647246
140	0x3cd8c51b	0.026461175
141	0x3c04f8ab	0.008115928
142	0x3e1178b6	0.14206204
143	0x3df4ecbe	0.119592175
144	0x3aad56c1	0.0013224707
145	0xbd8d5ce2	-0.069024816
146	0x3dc4ae18	0.09603518
147	0x3dd409aa	0.10353406
148	0xbb70fa11	-0.0036770145
149	0x3dfbd41d	0.12296317
150	0xbd643eff	-0.05572414
151	0x3d60bb31	0.05486602
152	0xbdb580c1	-0.088624485
153	0xbc750ef5	-0.014957179
154	0xbd456d0f	-0.04819971
155	0xbdc980f5	-0.0983905
156	0x3c9b1757	0.018932028
157	0xbde17575	-0.11008731
158	0xbab42038	-0.0013742512
159	0xbe486269	-0.1956879
160	0x3c69d199	0.014271163
161	0x3d1abebb	0.03777955
162	0x3da6e2b9	0.08148713
163	0x3dd86449	0.10566003
164	0xbdacb9f7	-0.084339075
165	0x3d8375bf	0.06418943
166	0xbde44d0c	-0.11147508
167	0x3d2970cb	0.041367333
168	0xbc1fc740	-0.009752095
169	0x3e008188	0.12549412
170	0x3e3c33dd	0.1837916
171	0xbd1dff23	-0.038573395
172	0x3ddcdc8c	0.107842535
173	0xbc525c04	-0.012839321
174	0x3cda1bfa	0.026624668
175	0xbe17c76e	-0.1482217
176	0x3def4af1	0.11684216
177	0x3e1d76d9	0.15377368
178	0xbc174b62	-0.009234281
179	0x3d3e3940	0.046441317
180	0xbd751220	-0.05983174
181	0x3d7bcce7	0.061474707
182	0x3cdaf509	0.02672817
183	0x3d11e557	0.035619106
184	0xbe1828a1	-0.14859249
185	0x3d6b3679	0.057424996
186	0xbdb04cae	-0.086083755
187	0xbd837ba8	-0.0642007
188	0x3ce7adba	0.028281081
189	0xbd98e001	-0.074646
190	0x3dd29822	0.10282923
191	0xbd794318	-0.060855
192	0x3cb63fe8	0.02224727
193	0xbd99c4a1	-0.07508207
194	0x3dfe9ad3	0.12431874
195	0x3cd68e71	0.026190968
196	0x3d3344c3	0.04376675
197	0x3e0b498f	0.13602279
198	0xbdab3906	-0.08360486
199	0xbe16b7f2	-0.14718607
200	0x3da42eb6	0.08016722
201	0xbe1265b5	-0.1429661
202	0xbd76fd51	-0.060300175
203	0xbda6a637	-0.08137172
204	0x3d57873c	0.052619204
205	0xbddf1df9	-0.10894389
206	0xbd01ddd1	-0.03170568
207	0x3d213f40	0.03936696
208	0xbdd8d13b	-0.105867825
209	0xbd750894	-0.059822634
210	0x3d98fdab	0.07470258
211	0x3e05f471	0.13081528
212	0xbe234f83	-0.159483
213	0x3dcd2f18	0.10018748
214	0xbd8ddd67	-0.06926995
215	0xbdb97a82	-0.0905657
216	0x3daf156b	0.08549007
217	0x3d7970cc	0.060898587
218	0xbd49555d	-0.049153674
219	0x3caf5ca2	0.021406475
220	0x3defae8a	0.117032126
221	0x3e21f81d	0.15817304
222	0x3dfc5d0e	0.12322436
223	0x3a2679ec	0.0006350565
224	0xbd5a385e	-0.053276412
225	0x3d825da6	0.06365518
226	0xbc20aa0c	-0.009806167
227	0xbd8526c6	-0.06501536
228	0xbe2f14be	-0.17097756
229	0x3e040988	0.12894261
230	0x3e018f8a	0.12652412
231	0xbd1674e5	-0.036732573
232	0x3dbc8adb	0.09206172
233	0xbc61c05f	-0.013778775
234	0xbdc93fe4	-0.09826639
235	0xbe52bccd	-0.20579834
236	0xbc5b1b9d	-0.013373283
237	0x3d73aefe	0.059493057
238	0x3cd72673	0.026263451
239	0xbca0cc8e	-0.01962879
240	0x3dc0e220	0.0941813
241	0x3dd062b3	0.101750754
242	0x3bb44a79	0.005502042
243	0xbdb1b796	-0.08677594
244	0xbd569201	-0.052385334
245	0xbcddc7e2	-0.02707285
246	0x3d3bfefc	0.04589747
247	0x3dd90ad9	0.10597772
248	0xbe073f96	-0.1320785
249	0xbde74d53	-0.11294045
250	0xbcbff0b4	-0.023430206
251	0xbe248263	-0.16065364
252	0x3da2dfdf	0.07952856
253	0xbd267e7d	-0.040647972
254	0x3cc41ec8	0.023940459
255	0xbda41862	-0.08012463

bias_ih_l0 f4 [240]
0	0xbc7b8b71	-0.01535307
1	0xbe2b9718	-0.16756856
2	0xbdbe902d	-0.09304843
3	0xbe10b8f5	-0.14133056
4	0xbda4b4ea	-0.08042319
5	0x3cf5a5b9	0.02998625
6	0xbd751b36	-0.059840403
7	0xbe3122c7	-0.17298423
8	0xbd1c0bda	-0.03809724
9	0xbdfd5817	-0.123703174
10	0xbb92daf8	-0.0044816695
11	0xbe4289e0	-0.18997908
12	0x3dbe50c5	0.09292749
13	0xbdeb285f	-0.114823096
14	0xbdb01ef4	-0.08599654
15	0xbccb573f	-0.024821876
16	0xbe2976b6	-0.16549191
17	0xbe4651c4	-0.19367129
18	0xbe5ca3e9	-0.21546902
19	0x3d717f52	0.058959313
20	0xbd1cdff7	-0.038299527
21	0xbe90c63a	-0.28276235
22	0xbd84ded5	-0.06487814
23	0xbd9ea1a0	-0.07745671
24	0xbdbb3010	-0.091400266
25	0xbe323f07	-0.17406856
26	0xbe31ebc7	-0.17375098
27	0xbe23b390	-0.15986466
28	0xbc901aab	-0.017590841
29	0xbd6315da	-0.05544076
30	0xbd77762b	-0.060415428
31	0x3c23569e	0.009969382
32	0xbe3579af	-0.177222
33	0xbe1fe0a5	-0.15613039
34	0x3d1754b7	0.036946025
35	0xbd8b94f1	-0.06815518
36	0x3d165085	0.036697883
37	0x3d4fa067	0.05069008
38	0xbe2e8cd1	-0.17045905
39	0xbe09b0f7	-0.13446413
40	0x3d78823d	0.06067108
41	0xbe369371	-0.17829682
42	0xbd0ec5f9	-0.03485677
43	0xbe0c0e7c	-0.136774
44	0x3dc86743	0.097853206
45	0xbe86ff0a	-0.26366454
46	0xbdeb5a11	-0.11491788
47	0xbd25f637	-0.040518012
48	0x3dba7591	0.09104455
49	0x3ce00c10	0.027349502
50	0xbdd1b260	-0.102391005
51	0xbdf94f6e	-0.12173353
52	0xbdb74eba	-0.08950563
53	0xbe34ebee	-0.17668125
54	0xbe341771	-0.17587067
55	0xbea8b478	-0.32950187
56	0xbdc827ca	-0.09773214
57	0x3c323b94	0.010878462
58	0xbe2e91d5	-0.17047818
59	0xbdb474f8	-0.088113725
60	0x3bdb724a	0.006696974
61	0xbe254f78	-0.16143596
62	0xbd6b007b	-0.057373505
63	0xbe1008ed	-0.14065905
64	0xbd2511ba	-0.04030011
65	0xbdf1b6f6	-0.11802475
66	0x3c17bed1	0.009261803
67	0xbe8511f7	-0.2599027
68	0xbdfa8947	-0.12233215
69	0x3c23c6ab	0.009996097
70	0x3d859118	0.06521815
71	0xbd8e3d7c	-0.06945321
72	0x3d0364e8	0.032078654
73	0xbe575a7e	-0.21030614
74	0xbbbbdc02	-0.005733014
75	0x3d3821c8	0.04495409
76	0xbe23a88b	-0.15982263
77	0xbd03d188	-0.032182246
78	0xbe14cc6b	-0.14531104
79	0xbd9cac49	-0.07650048
80	0x3de75ec2	0.112973705
81	0xbe05bdca	-0.1306068
82	0x3db1318c	0.086520284
83	0xbe090582	-0.13381007
84	0xbdf330bb	-0.11874529
85	0xbca34e6c	-0.019934855
86	0xbe632fcf	-0.22186206
87	0xbdd33b5d	-0.10314057
88	0x3c06cc79	0.008227461
89	0xbdd321aa	-0.10309155
90	0xbdf3e9ce	-0.11909829
91	0x3c2b655a	0.010461176
92	0xbe2578cb	-0.1615936
93	0xbe8b21f8	-0.27174354
94	0x3cbebedb	0.023284366
95	0xbe31380c	-0.17306536
96	0xbd3f5ee9	-0.046721373
97	0xbdfb033b	-0.122564755
98	0xbcdb4422	-0.026765887
99	0xbcaf9a1d	-0.021435792
100	0x38c5dc44	9.43472e-05
101	0x3c8aad11	0.016928228
102	0x3e3db1c1	0.18524839
103	0xbdda0c44	-0.10646871
104	0xbce09875	-0.027416447
105	0xbe1666a6	-0.14687595
106	0x3c52cc1e	0.012866048
107	0x3c212f6f	0.009837969
108	0x3d89b658	0.067242324
109	0x3d9fba7a	0.077992395
110	0x3e330407	0.17482005
111	0x3c22675f	0.009912341
112	0xbea05a3c	-0.31318843
113	0xbe3a011b	-0.18164484
114	0x3d87b695	0.06626622
115	0xbd9225c4	-0.071361095
116	0xbe49e4b8	-0.19716156
117	0xbd503f7a	-0.050841786
118	0xbe0ec9aa	-0.13944116
119	0xbe4f2ee4	-0.20232731
120	0x3cd3a280	0.025834322
121	0x3d2e6e1f	0.04258549
122	0xbd16da7e	-0.036829464
123	0xbdbf278a	-0.09333713
124	0x3c6a682a	0.014307061
125	0x3c90ad67	0.01766081
126	0x3e08019b	0.13281862
127	0xbd9dda3c	-0.077076405
128	0xbd326457	-0.043552723
129	0xbe1103d9	-0.14161624
130	0x3c57dbca	0.01317496
131	0x3d4adab5	0.04952498
132	0x3d99e9f0	0.07515323
133	0x3c737661	0.014859767
134	0x3d40d478	0.047077626
135	0x3d875214	0.06607452
136	0x3d2837bd	0.04106878
137	0x3b7fa4af	0.0039008071
138	0x3da8c316	0.08240335
139	0xbd026675	-0.031835992
140	0xbd4525cc	-0.04813175
141	0x3c286ef6	0.010280361
142	0xbdbc361a	-0.091900066
143	0x3b929df8	0.0044743977
144	0xbd426a52	-0.047464676
145	0xbd823d95	-0.06359402
146	0xbd71583e	-0.058922045
147	0xbbb97a5a	-0.0056603374
148	0xbce52ba6	-0.027974915
149	0xbc969db8	-0.018385753
150	0x3d0973dd	0.03355776
151	0xbd53cbf1	-0.051708166
152	0x3cb9b0bd	0.022667283
153	0x3d786e1c	0.060651883
154	0x3cf38a99	0.029729174
155	0x3dc15fab	0.09442075
156	0x3c0df131	0.008663462
157	0x3d92d5de	0.07169698
158	0xbd92e737	-0.07173007
159	0xbc01ac66	-0.007914638
160	0x3e23bc0b	0.15989701
161	0xbd48cd64	-0.049024
162	0xbc34dbcf	-0.011038735
163	0x3c855f9f	0.016280947
164	0xbdbcb69e	-0.09214519
165	0x3db7a15c	0.08966324
166	0x3d07d4a0	0.03316176
167	0xbd194774	-0.03742166
168	0x3d21393d	0.039361227
169	0x3d8ee503	0.06977274
170	0xbdb1d518	-0.086832225
171	0x3d8fba97	0.07018011
172	0xbd9ca2b4	-0.07648221
173	0xbd044fcb	-0.03230266
174	0x3dbb9859	0.091599174
175	0xbd227333	-0.039660644
176	0xbd398f50	-0.04530269
177	0x3caf0a78	0.021367297
178	0xbc4d29f7	-0.012522212
179	0x3d041952	0.03225071
180	0x3c4dbb25	0.012556826
181	0xbd826078	-0.06366056
182	0xbe298da5	-0.1655794
183	0xbcbb7c1b	-0.022886327
184	0x3cd235bd	0.02566039
185	0xbcee969d	-0.029124552
186	0xbdfef42c	-0.12448916
187	0xbe0fef75	-0.1405619
188	0xbe5a7811	-0.21334864
189	0xbdf35190	-0.11880791
190	0xbd0fc158	-0.035096496
191	0xbda6739c	-0.081275195
192	0x3c66a73d	0.014077959
193	0xbe6683ca	-0.22511211
194	0xbe127d75	-0.1430567
195	0x3ceb8fd5	0.028755108
196	0xbc76b90a	-0.015058765
197	0xbe199b4b	-0.15000646
198	0xbe0b7fa9	-0.13622917
199	0xbddbf0b4	-0.1073927
200	0x3db66fa6	0.08908014
201	0xbd2808b6	-0.041023932
202	0xbd6e6af3	-0.058207463
203	0xbda247fc	-0.07923886
204	0xbdaa5b0e	-0.083181486
205	0xbdd1fb79	-0.10253043
206	0xbc0d2592	-0.0086149145
207	0xbdcdd92c	-0.10051188
208	0xbe3aaab5	-0.18229182
209	0xbd94ce67	-0.072659306
210	0xbc13f9b8	-0.009031706
211	0x3d44cdff	0.048048016
212	0xbe18b288	-0.14911854
213	0xbe211e54	-0.15734226
214	0x3bba76eb	0.0056904457
215	0xbe8ce5e0	-0.2751913
216	0x3cecd155	0.028908411
217	0xbe269826	-0.16268978
218	0xbdf65d8a	-0.1202956
219	0xbd9c8549	-0.076426096
220	0xbdd617e0	-0.104537725
221	0xbd40fe18	-0.047117323
222	0xbc860d3e	-0.016363736
223	0xbe2ea5a4	-0.17055374
224	0xbcb8abfa	-0.022542942
225	0xbe56a585	-0.20961578
226	0xbbcd2abf	-0.0062611992
227	0xbe7b7c30	-0.24559093
228	0xbdf8d990	-0.12150872
229	0xbe00ca04	-0.12577063
230	0xbd9ebd41	-0.07750941
231	0xbe18f97a	-0.14938918
232	0xbdf6e22b	-0.12054857
233	0xbc9696db	-0.01838248
234	0xbda07f18	-0.07836741
235	0xbe97951a	-0.29605943
236	0xbd0ce108	-0.034394294
237	0xbd3310c8	-0.043717176
238	0xbe1e5d72	-0.15465334
239	0xbe62de4e	-0.22155115

bias_hh_l0 f4 [240]
0	0x3de652ca	0.112462595
1	0xbde830e8	-0.11337453
2	0xbe3b7c0a	-0.18309036
3	0xbdf24cb6	-0.11831038
4	0xbd603583	-0.054738533
5	0xbe067a98	-0.13132703
6	0xbd098170	-0.033570707
7	0xbe1fda29	-0.15610565
8	0xbd9d73c8	-0.07688099
9	0xbbd9664b	-0.0066345087
10	0x3c81d587	0.015848888
11	0xbd92900c	-0.07156381
12	0x3db8bbb3	0.09020176
13	0xbe235c82	-0.15953258
14	0xbe01376b	-0.12618797
15	0xbe1037a7	-0.1408373
16	0x3bdf20c2	0.006809325
17	0xbc932252	-0.017960701
18	0xbdd66040	-0.10467577
19	0x3d879b4e	0.06621419
20	0xbde4186f	-0.11137473
21	0xbe0166fd	-0.12636943
22	0xbdc7ae53	-0.097500466
23	0xbd9df18a	-0.077120855
24	0xbdc93dbc	-0.09826228
25	0xbdd6ebc0	-0.104941845
26	0xbcfe8a4a	-0.0310718
27	0xbe3fb074	-0.18719655
28	0xbe597d2b	-0.21239154
29	0xbe806597	-0.25077507
30	0x3ccba24e	0.024857666
31	0xbdbd6ac5	-0.0924888
32	0xbe3ec659	-0.18630351
33	0xbe191b15	-0.14951737
34	0xbe0396c7	-0.12850486
35	0xbddb00ad	-0.10693488
36	0xbe5b7718	-0.2143215
37	0xbda91a94	-0.082570225
38	0xbc68bbe3	-0.014204952
39	0xbc7ba4f4	-0.015359152
40	0xbd0f51e3	-0.034990203
41	0xbdcfd4d1	-0.101480134
42	0xbc9e7c51	-0.019346388
43	0xbe333b10	-0.17503
44	0x3d0d77ee	0.034538202
45	0xbe9c44ea	-0.30521327
46	0xbdf7dcf1	-0.12102688
47	0xbe38a1a2	-0.18030408
48	0xbd35c46a	-0.04437677
49	0xbe038c78	-0.12846553
50	0xbd8243a7	-0.0636056
51	0xbdb136cd	-0.086530305
52	0xbe4144ef	-0.18873952
53	0xbbc87c12	-0.006118306
54	0xbe17699d	-0.14786382
55	0xbe0642ae	-0.13111374
56	0xbdb90cc8	-0.09035641
57	0xbdbb69e6	-0.09151058
58	0xbdaac5ff	-0.08338546
59	0x3c068d18	0.00821235
60	0x3e0d22db	0.13782828
61	0x3d07fc10	0.03319937
62	0xbe26dbd8	-0.16294801
63	0xbd55fe37	-0.05224439
64	0xbe3eb92b	-0.18625323
65	0xbd9c2984	-0.07625106
66	0x3d46ca48	0.048532754
67	0xbe752d6c	-0.23943108
68	0xbe56dd93	-0.20982961
69	0xbdcd42dc	-0.10022518
70	0x3da4893a	0.080339864
71	0xbd0200cc	-0.03173904
72	0x3df208ed	0.11818109
73	0x3baa45f6	0.0051963283
74	0x3cac145d	0.021005804
75	0xbb53b287	-0.0032302456
76	0xbcb4b42d	-0.02205857
77	0xbe2c031b	-0.1679806
78	0xbcdcb404	-0.026941307
79	0xbdb1cb7f	-0.08681392
80	0xbd560a7c	-0.052256092
81	0xbdc03217	-0.09384554
82	0x3dd9287d	0.10603426
83	0x3ca06c38	0.019582853
84	0xbe595f9a	-0.21227875
85	0x3d87101a	0.06594868
86	0xbe3f72af	-0.18696092
87	0xbd9eb356	-0.07749049
88	0xbe26abea	-0.16276518
89	0xbe1413cf	-0.14460681
90	0xbe58716f	-0.21137021
91	0x3d84f761	0.06492496
92	0xbc1468a7	-0.009058154
93	0xbe56504e	-0.20929071
94	0xbd5cdd62	-0.053922065
95	0xbd280a80	-0.04102564
96	0xbd72d745	-0.05928733
97	0x3b483327	0.0030548067
98	0x3c41e490	0.011834279
99	0xbd9c02a8	-0.07617694
100	0xbd82d3b7	-0.06388038
101	0xbc1c283e	-0.009531079
102	0x3dfcb5ca	0.12339361
103	0xbe73ea71	-0.23819901
104	0xbd1983ad	-0.03747909
105	0xbe8b986b	-0.27264723
106	0x3bba6667	0.005688477
107	0x3c8203b7	0.015870912
108	0xbd9a9bb2	-0.07549228
109	0x3d3ff8b0	0.046868026
110	0x3e5b45ab	0.21413295
111	0xbcb7faa7	-0.022458388
112	0xbe9b10a4	-0.30286133
113	0xbe3042a4	-0.17212921
114	0xbe22f5b2	-0.15914038
115	0xbe79a4a4	-0.24379212
116	0xbdb1cb05	-0.08681301
117	0xbdff8665	-0.124768056
118	0x3c97c4e5	0.018526504
119	0xbd8a2b29	-0.067465134
120	0x3c7f32ce	0.015576078
121	0xbd97172f	-0.07377469
122	0xbd226f6f	-0.039657053
123	0x3e151c1e	0.14561507
124	0x3c6fe282	0.014641406
125	0x3be7587a	0.007060108
126	0xbde36b48	-0.11104447
127	0x3d14f345	0.036364812
128	0x3d3ad519	0.045613382
129	0x3dc23e6b	0.094845615
130	0x3d6db0fd	0.058030117
131	0xbd1860f7	-0.037201848
132	0xbc60b137	-0.013714126
133	0x3c864c30	0.01639375
134	0x3d0d2ef0	0.03446859
135	0x3d1eb401	0.038745884
136	0x3dadfb84	0.084952384
137	0x3c6d9308	0.014500387
138	0xbd99f01b	-0.075164996
139	0x3da52d1a	0.08065243
140	0x3c3165ac	0.010827463
141	0x3c473e42	0.0121608395
142	0x3ba00a9b	0.004884077
143	0xbccfa258	-0.025345966
144	0x3d8f01cd	0.06982765
145	0x3dd66fc4	0.10470536
146	0x3d82e814	0.06391922
147	0xbb0cf526	-0.0021508425
148	0xba184806	-0.0005809072
149	0x3b2e4d93	0.002659653
150	0xbd56ff0d	-0.05248933
151	0xba1efd07	-0.00060649257
152	0x3d29ad31	0.041424934
153	0xbd9b83e4	-0.075935155
154	0x3d108389	0.03528169
155	0xbd2bf679	-0.0419831
156	0xbbeaa0ed	-0.007160297
157	0x3d88d50c	0.066812605
158	0x3d492cfd	0.04911517
159	0x3d8696b9	0.06571717
160	0xbd92d008	-0.07168585
161	0xbb877eed	-0.004135004
162	0x3c35b970	0.011091575
163	0x3c397b25	0.011320864
164	0xbd780d08	-0.060559303
165	0xbd97316a	-0.07382472
166	0xbca22b99	-0.01979618
167	0x3d21d184	0.03950645
168	0xbc74ec45	-0.014948909
169	0xbc191553	-0.009343463
170	0x3da24d31	0.07924879
171	0xbd86a57a	-0.06574531
172	0x3db8516b	0.08999904
173	0x3cb1cd45	0.021704325
174	0xbd9e3ae6	-0.07726078
175	0x3d1c7f43	0.038207304
176	0x3ccadd6a	0.024763782
177	0xbcebaa5f	-0.028767763
178	0xbd80c75d	-0.062880255
179	0x3d1a77db	0.03771196
180	0xbd54e863	-0.051979434
181	0xbe2dd835	-0.16977008
182	0xbdf5b17c	-0.11996743
183	0xbe0ea895	-0.13931496
184	0xbd94173e	-0.072309956
185	0xbe32d209	-0.17462935
186	0x3ca57d42	0.02020133
187	0xbe6774d6	-0.22603163
188	0xbdbfd6d6	-0.093671486
189	0xbda77525	-0.081766404
190	0xbd3ce6c7	-0.046118524
191	0xbe7d57e4	-0.24740559
192	0x3cbd4e7d	0.023108715
193	0xbdc6942d	-0.09696231
194	0xbd323603	-0.04350854
195	0x3d82275a	0.06355162
196	0xbe410e55	-0.18853123
197	0xbd734bb1	-0.059398357
198	0xbe56f8ed	-0.20993395
199	0xbd0863e0	-0.033298373
200	0x3cb65a04	0.02225972
201	0xbe517e11	-0.20458247
202	0x3dfb48a3	0.12269714
203	0xbe6b6e76	-0.22991356
204	0xbd3d560e	-0.046224646
205	0x3a042ce3	0.0005042089
206	0xbe66c9a3	-0.22537856
207	0xbd9a69dd	-0.07539723
208	0xbdd1674e	-0.10224782
209	0xbe7fb073	-0.24969654
210	0xbe2b7fdf	-0.16747998
211	0x3c1d5a10	0.009603992
212	0xbc886f86	-0.016654741
213	0xbe0445b0	-0.12917209
214	0xbd11fed3	-0.03564341
215	0xbd5e8978	-0.05433032
216	0x3c02a3ff	0.00797367
217	0xbdc52369	-0.096258946
218	0xbd8d1eb0	-0.06890619
219	0xbe434dc7	-0.19072638
220	0xbc67ece3	-0.014155599
221	0xbda3a7e7	-0.07991009
222	0x3d9605ef	0.073253505
223	0xbe5d2a9a	-0.21598282
224	0x3d1efa83	0.038813125
225	0xbe31a75f	-0.17349003
226	0xbdadd7c8	-0.08488423
227	0xbdd142f4	-0.102178484
228	0x3cc0ad5f	0.02352017
229	0xbda04362	-0.07825352
230	0x3d39dfa0	0.04537928
231	0xbe071c6a	-0.13194433
232	0xbe8882a1	-0.26662162
233	0xbd6dd610	-0.058065474
234	0xbd8d9607	-0.06913381
235	0xbe3a8aec	-0.18217057
236	0xbe42895a	-0.18997708
237	0xbe1bf7e9	-0.15231289
238	0x3c95461a	0.018221904
239	0xbdace47e	-0.08442019

weight_ih_l0 f4 [240, 60]
0	0xbce9a2de	-0.028520044
1	0xbccd03be	-0.025026198
2	0x3d00bfa9	0.03143278
3	0xbe11c2ce	-0.14234468
4	0xbda39675	-0.07987682
5	0xbdcb8f08	-0.099393904
6	0xbd3ac26b	-0.045595568
7	0x3d84edfe	0.06490706
8	0x3cf13f50	0.029449135
9	0x3dbc0e52	0.09182419
10	0xbe5621ab	-0.20911281
11	0xbc3641eb	-0.0111241145
12	0xbe80f6bf	-0.25188252
13	0xbc9b7490	-0.01897648
14	0xbd2172ba	-0.039416052
15	0xbe61d66e	-0.22054455
16	0xbd475d47	-0.04867294
17	0xbcb0dcd2	-0.02158967
18	0xbdfab493	-0.12241473
19	0xbc101b42	-0.008795561
20	0x3d10df2e	0.03536909
21	0x3cd12d85	0.0255344
22	0x3d0bf3b3	0.034167957
23	0x3d9c4139	0.07629628
24	0x3dde001b	0.10839864
25	0xbcf8024a	-0.030274529
26	0xbdbbacd8	-0.09163827
27	0xbdbd0189	-0.092288084
28	0xbd7710f2	-0.060318895
29	0x3d826747	0.06367355
30	0xbd5e62dd	-0.054293502
31	0x3e27aa8d	0.16373654
32	0xbd38e6af	-0.045141872
33	0xbdc87d16	-0.09789483
34	0xbca80efc	-0.020514958
35	0xbe6f66ae	-0.23379013
36	0x3a4b9dc8	0.00077673467
37	0x3cb30cf2	0.021856759
38	0x3a6a019c	0.00089266314
39	0xbd81703d	-0.06320236
40	0xbe230f0d	-0.1592371
41	0x3dea5162	0.11441304
42	0xbc6b8927	-0.014375961
43	0x3c328346	0.010895556
44	0x3e98e671	0.29863313
45	0x3e2cf108	0.16888821
46	0xbd9cc4c5	-0.07654718
47	0xbdec8f00	-0.115507126
48	0xbe5e4d19	-0.21709098
49	0xbe260e5b	-0.16216414
50	0xbd4fcc20	-0.05073178
51	0x3d9129d4	0.07088056
52	0xbdcb8992	-0.09938349
53	0x3ce18af9	0.027532088
54	0xbca7be9b	-0.02047663
55	0xbd38b4e3	-0.045094382
56	0x3db65aab	0.08904012
57	0x3d6e1742	0.05812765
58	0x3c7c7554	0.015408833
59	0xbe084521	-0.1330762
60	0xbdaccf54	-0.08437982
61	0xbe0f82a7	-0.14014684
62	0x3e1e36a4	0.15450531
63	0xbc035e40	-0.008018076
64	0xbd3da297	-0.046297636
65	0x3dc300e2	0.09521653
66	0xbd7d6a2a	-0.061868824
67	0xbd812720	-0.063062906
68	0x3d860953	0.06544747
69	0xbc888fbb	-0.016670099
70	0x3d080698	0.033209413
71	0xbd36cdbd	-0.0446298
72	0xbe5f0ee8	-0.2178303
73	0xbe314439	-0.17311181
74	0xbe6caf4f	-0.2311375
75	0xbb0365a7	-0.0020049603
76	0x3c62e231	0.013847874
77	0xbd424b89	-0.047435317
78	0xbbe6b838	-0.0070410036
79	0xbe48a8a7	-0.19595586
80	0x3e02df36	0.1278046
81	0xbd6fc1cb	-0.058534425
82	0x3d20547e	0.039143078
83	0xbd4b01f1	-0.0495624
84	0xbd12273b	-0.035681944
85	0x3d1242dc	0.035708293
86	0x3cacacd5	0.021078506
87	0x3cef6914	0.02922491
88	0x3d212fc8	0.03935221
89	0x3df5e3e7	0.120063595
90	0x3d59e515	0.053196985
91	0x3d812669	0.06306154
92	0xbde1dab4	-0.110280424
93	0xbe2f0643	-0.17092232
94	0xbdd89115	-0.10574547
95	0xbc906ff1	-0.017631503
96	0xbe1e30fc	-0.15448374
97	0xbd910fe0	-0.07083106
98	0xbc716a63	-0.014734837
99	0x3dd9fcd7	0.106439285
100	0xbe6507c3	-0.22366242
101	0xbd7e8972	-0.062142797
102	0xbd9acbc0	-0.075583935
103	0xbe1733b8	-0.14765823
104	0x3e229f83	0.15881161
105	0x3cb7ed7f	0.022452114
106	0x3d4601a5	0.048341412
107	0xbda803cf	-0.082038514
108	0xbc019388	-0.007908709
109	0xbe18bd9a	-0.14916077
110	0xbd0ada1b	-0.033899408
111	0x3d11dfb1	0.03561372
112	0x3d4ce677	0.050024476
113	0x3d80ccd7	0.0628907
114	0x3da4ce40	0.080471516
115	0xbe1193cb	-0.14216535
116	0x3c23e96a	0.010004381
117	0xbe1b6c20	-0.15177965
118	0x3d6eed94	0.05833204
119	0x3d1350b6	0.035965644
120	0x3ca36825	0.01994712
121	0xbce2a185	-0.02766491
122	0x3e1585fa	0.14601889
123	0xbe6dc7a4	-0.23220688
124	0xbdf7b2d8	-0.120946586
125	0xbc843ebb	-0.016143193
126	0xbdb160aa	-0.08661015
127	0xbdf47eb8	-0.11938232
128	0xbde8d2af	-0.1136831
129	0x3de13931	0.109972365
130	0xbd4ac170	-0.049500883
131	0xbde49cf3	-0.11162748
132	0xbe9bfcd5	-0.30466333
133	0xbd1dabe3	-0.038494002
134	0xbe84487d	-0.25836554
135	0xbdfcc926	-0.123430535
136	0xbe69cace	-0.2283127
137	0x3de0b4fd	0.10972021
138	0xbd17be03	-0.037046444
139	0xbe067a92	-0.13132694
140	0x3e3ca5ea	0.18422666
141	0xbd19e7c7	-0.037574556
142	0x3de774cd	0.11301575
143	0x3e76cafd	0.24100871
144	0x3e14efca	0.14544597
145	0xbd91c0d4	-0.07116857
146	0x3d9a9dcf	0.07549631
147	0xba3c24dc	-0.00071771233
148	0xbd8cdcd0	-0.06878054
149	0xbc0d5b75	-0.008627762
150	0x3d4727d2	0.04862196
151	0x3df7e03b	0.121033154
152	0xbe9d3997	-0.30708
153	0x3c5efdf3	0.013610351
154	0xbdd6d968	-0.10490686
155	0xbd8255d7	-0.06364029
156	0x3d07057d	0.03296422
157	0xbe3065bf	-0.17226313
158	0x3e520b0b	0.20512025
159	0x3d98acde	0.07454847
160	0x3b0aa151	0.002115328
161	0xbbb64b34	-0.005563164
162	0xbe3950f2	-0.18097284
163	0xbe4394b7	-0.19099699
164	0x3e57c098	0.21069562
165	0x3c9fd989	0.019512909
166	0xbdd05087	-0.10171609
167	0x3e2f7d09	0.17137541
168	0xbe1ba03e	-0.15197846
169	0xbe6c2109	-0.23059477
170	0xbe4cc0af	-0.19995378
171	0x3b8c5aa7	0.0042832675
172	0x3d62f420	0.055408597
173	0xbd325dd7	-0.043546524
174	0x3e305bc6	0.17222509
175	0x3d52a971	0.051431123
176	0x3d709c40	0.05874276
177	0x3d8a2062	0.06744458
178	0xbd40af35	-0.04704209
179	0xbe31a23e	-0.17347047
180	0x3cfd041f	0.030885754
181	0x3c7cb351	0.015423612
182	0x3ddad759	0.106856056
183	0xbdb4e140	-0.088320255
184	0xbdc2faf7	-0.09520524
185	0xbdb52682	-0.088452354
186	0xbdf09cc1	-0.117486484
187	0x3dc45785	0.095870055
188	0xbb78a3b0	-0.0037939362
189	0x3d3517bd	0.04421209
190	0xbe1bf44a	-0.15229908
191	0xbd7476ac	-0.059683487
192	0xbd80eb61	-0.06294895
193	0xbdba9be6	-0.091117665
194	0xbdd6ecd6	-0.104943916
195	0xbe494f5b	-0.19659178
196	0x3bf299d0	0.00740359
197	0xbc238981	-0.009981514
198	0xbd8e5956	-0.06950633
199	0xbb9682f0	-0.0045932457
200	0x3dc94279	0.09827132
201	0xbbcc2b89	-0.0062307757
202	0x3e1bb669	0.15206303
203	0xbd2b5b76	-0.04183527
204	0x3dfe39ab	0.12413343
205	0x3df8c6d7	0.12147301
206	0xbdfe3388	-0.124121726
207	0xbdfd662a	-0.12373002
208	0xbe1046d1	-0.14089514
209	0x3d1884bb	0.037235957
210	0xbd842323	-0.06452014
211	0x3cec2816	0.028827708
212	0xbe2b9ebe	-0.16759774
213	0x3d1289cf	0.035775956
214	0xbe0a7414	-0.13520843
215	0xbcc10f70	-0.023566931
216	0xbd9602e5	-0.07324771
217	0xbd5d68b4	-0.05405493
218	0x3e304dd0	0.17217183
219	0xbdbbce6c	-0.09170231
220	0xbe0ba5dd	-0.1363749
221	0x3cf317be	0.029674407
222	0xbe3e7c09	-0.18602003
223	0x3caf54cf	0.021402745
224	0x3e798121	0.24365665
225	0xbd1d4223	-0.03839315
226	0xbdb29635	-0.08720056
227	0x3d256d27	0.0403873
228	0xbda3f164	-0.08005026
229	0x3bd580fe	0.006515621
230	0xbd854d09	-0.06508834
231	0xbd9b75c1	-0.07590819
232	0xbe19abdc	-0.15006965
233	0xbe03285d	-0.12808366
234	0x3d92f875	0.07176296
235	0xbb9cd5e4	-0.00478624
236	0x3d49a870	0.0492329
237	0x3d7726fe	0.06033992
238	0xbdcfbb25	-0.10143117
239	0xbe106983	-0.1410275
240	0x3bd6043c	0.0065312665
241	0xbcf26ac5	-0.029591927
242	0x3dac0cb0	0.084008574
243	0x3c777124	0.015102658
244	0xbe0518a1	-0.12997676
245	0x3bb3ed15	0.005490909
246	0xbc90e3d0	-0.017686754
247	0xbc43a796	-0.011941811
248	0x3c5e9918	0.013586305
249	0xbd277561	-0.040883426
250	0xbe4f36a4	-0.20235687
251	0xbe5aa1e0	-0.21350813
252	0xbe4e045e	-0.20118853
253	0xbe588d3a	-0.21147624
254	0xbd1db693	-0.038504194
255	0xbd63f4b1	-0.055653278

weight_hh_l0 f4 [240, 60]
0	0xbd7f9eaf	-0.06240719
1	0x3df82b63	0.1211765
2	0x3d4b54ca	0.049641408
3	0xbe16b8bd	-0.1471891
4	0xbdb07dc3	-0.08617737
5	0xbe7ab517	-0.24483143
6	0x3dd3628e	0.10321532
7	0xbdb3341d	-0.08750174
8	0x3cfc2774	0.030780531
9	0xbe00fe50	-0.12597013
10	0xbe1f1c18	-0.1553806
11	0x3cca0081	0.024658443
12	0xbe4c0b87	-0.19926272
13	0x3e0c9ecd	0.13732453
14	0xbd4f9a2e	-0.050684147
15	0x3c2ca132	0.010536479
16	0xbe007e1f	-0.12548111
17	0x3dd68aa2	0.10475661
18	0x3d4c67cc	0.049903676
19	0xbdecc877	-0.11561673
20	0xbdce839d	-0.10083697
21	0x3df83bc2	0.12120773
22	0x3a2748a0	0.00063813664
23	0xbe486db6	-0.19573101
24	0xbe3aefeb	-0.18255584
25	0x3d6f9703	0.058493625
26	0xbe17d435	-0.14827044
27	0x3df6cdad	0.12050948
28	0x3e66711a	0.22504082
29	0x3dfc3358	0.123144805
30	0xbe1833eb	-0.14863555
31	0xbd63a069	-0.0555729
32	0x3e5e640f	0.21717857
33	0xbe174ea1	-0.14776088
34	0x3d8b536b	0.0680302
35	0xbe841f1d	-0.25804988
36	0x3c76b119	0.015056872
37	0xbe2976d0	-0.1654923
38	0x3da115f2	0.07865514
39	0x3e7e1815	0.24813874
40	0xbdfe6f54	-0.12423578
41	0xbd5dd311	-0.054156367
42	0xbe19fef4	-0.15038663
43	0xbc1f7dac	-0.009734552
44	0xb9b8e99f	-0.00035269276
45	0xbe2282aa	-0.15870157
46	0xbddaae57	-0.10677784
47	0x3d6ac0ab	0.05731265
48	0x3e1c63a3	0.15272383
49	0x3e4153cd	0.18879624
50	0xbd572cf9	-0.052533124
51	0x3d3e1146	0.046403192
52	0x38a95293	8.0739286e-05
53	0x3d6b5d6a	0.057462133
54	0xbd6d37fa	-0.05791471
55	0x3d0f352f	0.03496283
56	0xbcc20597	-0.023684306
57	0x3dba8831	0.09108008
58	0x3e88eeb5	0.2674462
59	0x3e0f1b6c	0.13975304
60	0x3dec354a	0.115336016
61	0xbdd94274	-0.10608378
62	0xbd59e6f2	-0.053198762
63	0xbd59dc1d	-0.053188432
64	0x3d7ba013	0.061431956
65	0xbe2c56e0	-0.16830015
66	0x3c18dc71	0.009329901
67	0x3c4826e0	0.0122163
68	0x3d4a0c94	0.0493284
69	0x3d84fa6d	0.064930774
70	0xbc369abc	-0.01114529
71	0x3e0a4704	0.13503653
72	0xbdfcf459	-0.12351293
73	0x3dd4283b	0.10359236
74	0x3d96aa23	0.0735667
75	0xbc99605f	-0.018722711
76	0xbe104c06	-0.140915
77	0x3b20a454	0.002451201
78	0x3e341019	0.17584266
79	0xbacfc979	-0.001585289
80	0xbddda2c2	-0.10822059
81	0x3db35935	0.08757249
82	0x3dda5519	0.10660762
83	0x3d7516e1	0.059836272
84	0x3dc48fe6	0.09597759
85	0xbd3bcd2e	-0.04584997
86	0xbe04129d	-0.12897725
87	0xbd751b58	-0.05984053
88	0x3e154ea8	0.14580786
89	0x3dfcb6af	0.12339532
90	0x3d53e7e4	0.05173482
91	0xbd18255f	-0.037145015
92	0x3da62cf3	0.08114042
93	0xbe1159a1	-0.14194347
94	0x3d8224a1	0.06354643
95	0xbd848970	-0.064715266
96	0xbd9c9f7e	-0.07647608
97	0xbc283736	-0.01026707
98	0x3d2cceb5	0.04218932
99	0x3dbf8b8c	0.09352788
100	0xbcd75a27	-0.026288105
101	0xbdeec214	-0.11658111
102	0xbe0c8e81	-0.13726236
103	0xbd100a9e	-0.035166375
104	0x3bc64b96	0.006051491
105	0x3d755cdb	0.059903007
106	0x3dc9366d	0.09824834
107	0xbe1c3bd2	-0.15257195
108	0x3c7829df	0.015146702
109	0x3ceaeac5	0.0286764
110	0xbc889de2	-0.016676847
111	0x3ccc2a9a	0.024922658
112	0x3c8271e6	0.015923452
113	0x3dd91d62	0.106013075
114	0x3d878591	0.06617273
115	0x3c06f861	0.008237929
116	0x3dc3e53c	0.09565207
117	0xbd17f8fc	-0.037102684
118	0xbb8575eb	-0.004072895
119	0xbd232eae	-0.03983944
120	0x3cf2dc67	0.029646112
121	0x3d302f20	0.043013692
122	0x3dab3e25	0.083614625
123	0xbe853d71	-0.2602344
124	0xbdd2765d	-0.10276482
125	0xbe247349	-0.16059603
126	0x3e905134	0.28186953
127	0xbd48d9f0	-0.049035966
128	0x3e50afa2	0.20379499
129	0xbe4d6cbf	-0.20061015
130	0xbc136258	-0.008995615
131	0xbd7fd15e	-0.062455527
132	0xbe83a5db	-0.25712475
133	0x3d5008d2	0.05078966
134	0x3d40dbe8	0.04708472
135	0xbd6920f6	-0.0569162
136	0xbe479eaf	-0.19494127
137	0xbd81cfaf	-0.063384406
138	0x3da4fe40	0.08056307
139	0xbe5e529c	-0.217112
140	0xbddc8996	-0.1076843
141	0x3d01e930	0.031716526
142	0x3a88602c	0.0010404638
143	0xbe3fd971	-0.18735291
144	0x3c452273	0.012032139
145	0xbd9a715b	-0.07541152
146	0x3b46c8b7	0.0030332038
147	0x3d31e33b	0.043429594
148	0x3d58a735	0.052893836
149	0x3dc47b97	0.095938854
150	0x3da09250	0.07840407
151	0xbe0cd706	-0.137539
152	0x3e2837ce	0.16427538
153	0x3c3e04d1	0.011597828
154	0xbe0c95cb	-0.13729016
155	0xbea017b1	-0.31268075
156	0x3e01dba6	0.12681445
157	0xbc435fee	-0.011924727
158	0x3de5655f	0.112009756
159	0x3e0d2eb1	0.13787343
160	0xbe314f15	-0.17315324
161	0xbe171239	-0.14753045
162	0xbe073cd1	-0.13206793
163	0x3da86146	0.082216784
164	0xbce74178	-0.02822946
165	0xbc7be86a	-0.015375236
166	0xbd5fb236	-0.054613315
167	0x3e47d0bd	0.19513221
168	0x3de7a7e1	0.11311317
169	0x3e7fd427	0.24983273
170	0x3bf8c082	0.007591308
171	0x3e2f308f	0.17108367
172	0x3e00ece5	0.12590368
173	0x3e1ea98e	0.15494367
174	0xbda347ae	-0.07972656
175	0xbdc85ec3	-0.09783699
176	0xbd8328e5	-0.064042844
177	0x3d084fae	0.033279113
178	0x3e4daeaf	0.20086168
179	0x3db4d644	0.088299304
180	0xbdba6627	-0.09101515
181	0x3cf8dbb1	0.030378195
182	0xbc9dd9b2	-0.019268844
183	0x3ce59b11	0.028028043
184	0x3d0748fb	0.033028584
185	0xbd3f04cf	-0.046635445
186	0x3d2c7899	0.0421072
187	0xbd9f8745	-0.077894725
188	0xbbb99cea	-0.0056644576
189	0xbe42f0e5	-0.19037206
190	0xbe1ec6a1	-0.15505458
191	0xbc7b5f19	-0.015342497
192	0xbded44ef	-0.11585414
193	0x3dfa3042	0.12216236
194	0xbdd16150	-0.10223639
195	0x3ce7b524	0.028284617
196	0xbcb78166	-0.02240057
197	0x3df64ee5	0.12026767
198	0x3bf4054f	0.007446922
199	0xbc57b582	-0.013165833
200	0xbd5d0572	-0.05396027
201	0x3da229af	0.07918107
202	0xbd38ea58	-0.045145363
203	0xbcf7f09a	-0.030266095
204	0x3c4a5f16	0.012351772
205	0xbdd752ef	-0.10513865
206	0xbd92e2f5	-0.07172195
207	0x3cdeb383	0.027185207
208	0x3deb5265	0.11490325
209	0x3e1f881e	0.15579268
210	0x3d9982e9	0.07495672
211	0x3d39272d	0.045203377
212	0xbce992cd	-0.028512383
213	0xbddc43fb	-0.10755154
214	0x3c65e2c9	0.014031121
215	0xbcd974c9	-0.026544945
216	0x3aeb1134	0.0017934204
217	0x3c016814	0.007898349
218	0x3e10c867	0.14138947
219	0x3e5aee32	0.21379927
220	0xbe2c9133	-0.16852264
221	0x3e169a0b	0.147072
222	0xbd8185b2	-0.063243285
223	0xbda6e5ed	-0.081493236
224	0x3a80ebca	0.0009835896
225	0x3d27ca3c	0.04096435
226	0xbe016c11	-0.1263888
227	0x3d0cb8ff	0.034356114
228	0xbd349e8d	-0.04409652
229	0xbd33630f	-0.04379564
230	0xbd6c8351	-0.05774242
231	0x3d98e3f1	0.074653514
232	0xbdf44a94	-0.11928287
233	0x3c79abfe	0.01523876
234	0x3d33ea3c	0.043924555
235	0x3d7586cb	0.059943
236	0xbcd80d68	-0.02637358
237	0xbdca526c	-0.09879002
238	0x3e64308f	0.22284149
239	0x3e563e24	0.20922142
240	0xbe46df8a	-0.19421211
241	0x3cf1cdf6	0.029517155
242	0x3cf4febe	0.029906627
243	0xbe8bf049	-0.2733176
244	0x3d808ee8	0.06277257
245	0xbeba85f6	-0.3643033
246	0x3ea8c38a	0.32961684
247	0xbd29bb5e	-0.041438453
248	0x3e359b1c	0.17734951
249	0xbeb2a41a	-0.34890825
250	0xbe14c732	-0.14529112
251	0x3d2375b5	0.039907176
252	0xbe719754	-0.23592883
253	0xbd393f49	-0.04522637
254	0x3d05aeb2	0.032637306
255	0xbdd178ea	-0.10228141

bias_ih_l0 f4 [240]
0	0xbdc7ae36	-0.09750025
1	0xbe6a152d	-0.2285964
2	0xbe05a6af	-0.13051866
3	0x3c895f6f	0.01676914
4	0xbe6d8b6d	-0.23197718
5	0x3c01f325	0.007931505
6	0xbde04b67	-0.10951882
7	0xbe1f55de	-0.155601
8	0xbe6dd5f0	-0.23226142
9	0x3c736282	0.014855029
10	0xbe860d80	-0.26182175
11	0xbe5e2e04	-0.21697241
12	0x3d58d14a	0.05293397
13	0xbe8e4a83	-0.27791223
14	0xbda240c6	-0.07922511
15	0xbe09cacc	-0.13456267
16	0xbe0d6319	-0.13807334
17	0xbea48bf4	-0.32138026
18	0xbe64a9e3	-0.22330432
19	0xbe381922	-0.17978337
20	0xbdabe1cf	-0.08392679
21	0xbe33bd44	-0.17552668
22	0xbe36e084	-0.17859083
23	0xbe8b94cb	-0.27261958
24	0xbe894a57	-0.2681453
25	0xbe84a1b2	-0.25904614
26	0xbdd7b9d7	-0.10533493
27	0xbe3c3e09	-0.1838304
28	0x3bc45bc7	0.005992386
29	0xbd823273	-0.06357279
30	0xbda3550e	-0.07975207
31	0xbdb58e37	-0.08865016
32	0xbe627e29	-0.22118439
33	0xbd69e651	-0.057104412
34	0xbe65dfcc	-0.22448653
35	0xba4e6132	-0.00078727596
36	0xbdfbbffa	-0.12292476
37	0xbd7647f0	-0.0601272
38	0xbe1098b9	-0.14120759
39	0xbe1c7df5	-0.15282424
40	0xbe819137	-0.25306103
41	0xbe1e950c	-0.15486544
42	0xbe44d30e	-0.19221136
43	0xbe367b73	-0.1782053
44	0xbe8d385a	-0.27582055
45	0xbe0bc9a6	-0.13651142
46	0xbe8277d3	-0.25482044
47	0xbead32af	-0.3382773
48	0xbdacaa3e	-0.084309086
49	0xbdc11341	-0.094275005
50	0xbdd6fe0a	-0.10497673
51	0xbdd04c7a	-0.10170837
52	0xbe89aa00	-0.26887512
53	0xbe394ab6	-0.18094906
54	0xbe36ac88	-0.17839253
55	0xbe82ca09	-0.25544766
56	0xbe719b9c	-0.23594517
57	0xbe22f0e3	-0.15912203
58	0xbd80ec47	-0.06295066
59	0xbe406bab	-0.18791072
60	0xbd26314a	-0.04057435
61	0x3d6f9baa	0.058498062
62	0xbe824223	-0.25441083
63	0xbd1b5ead	-0.037932087
64	0xbdee9b3d	-0.11650703
65	0xbdfd5731	-0.12370146
66	0xbe01cba2	-0.12675336
67	0xbe3db0fc	-0.18524545
68	0xbd6967cb	-0.05698375
69	0x3e0e9f1a	0.1392788
70	0xbe61dd58	-0.22057092
71	0xbdf08153	-0.11743417
72	0xbe0a7b8b	-0.1352369
73	0xbe7e02e9	-0.24805798
74	0xbe181d76	-0.14854988
75	0xbdb8d66e	-0.09025274
76	0xbe3dd232	-0.18537214
77	0xbe86272c	-0.2620176
78	0xbe610668	-0.219751
79	0xbe674480	-0.22584724
80	0xbe86233f	-0.26198766
81	0xbe06fb85	-0.13181885
82	0xbe961961	-0.29316238
83	0xbaf3ab35	-0.0018590452
84	0xbe59f8bc	-0.21286291
85	0xbe8dfdad	-0.27732602
86	0xbdcf358d	-0.10117636
87	0xbe84b809	-0.25921658
88	0xbdb8c4f3	-0.0902194
89	0x3d0d1bf5	0.03445049
90	0xbda49ec1	-0.080380924
91	0x3d52f3a0	0.05150187
92	0xbe13a74d	-0.14419289
93	0xbd2180b8	-0.039429396
94	0xbd9f7671	-0.07786263
95	0xbd9e1ac9	-0.077199526
96	0xbe1ea81a	-0.15493813
97	0x3c92388c	0.01784923
98	0xbe2552da	-0.16144887
99	0xbe1bc1e7	-0.15210687
100	0xbe3d014c	-0.18457526
101	0xbe6fc3d1	-0.23414542
102	0xbb3c64ee	-0.0028746682
103	0xbe43468d	-0.19069882
104	0xbe7b283d	-0.24527068
105	0x3ce7841a	0.028261233
106	0xbd86f50a	-0.06589706
107	0xbe1e8bfe	-0.1548309
108	0xbe5c5962	-0.21518472
109	0xbcdddc12	-0.027082477
110	0xbe620ea0	-0.22075891
111	0x3d4fc916	0.05072888
112	0xbe73b4f5	-0.23799498
113	0xbe0d35b5	-0.13790019
114	0xbe1b4c25	-0.15165766
115	0xbe187bd7	-0.14890991
116	0xbd7ef9ce	-0.06224995
117	0xbe854acc	-0.26033628
118	0xbdea5743	-0.11442425
119	0xbdda6bf0	-0.10665119
120	0x3d8334e6	0.06406574
121	0xbd0d99cf	-0.03457051
122	0xbdd4f58a	-0.10398395
123	0x3bec0d53	0.007203737
124	0x3d5b6da8	0.053571373
125	0x3d7a0082	0.06103564
126	0xbdc3b000	-0.09555054
127	0x3d422b59	0.04740462
128	0xbd3e5439	-0.04646704
129	0x3e289efd	0.16466899
130	0x3d31b488	0.04338506
131	0xbd8c63d5	-0.06854979
132	0xbc99f95a	-0.018795658
133	0xbd6d538f	-0.057941016
134	0x3d9224ed	0.07135949
135	0x3d8522fc	0.06500813
136	0x3ddced8f	0.10787498
137	0xbd9e5a1d	-0.077320315
138	0x3bd61096	0.006532739
139	0xbcee1eae	-0.029067364
140	0x3de3e03f	0.11126756
141	0x3d4273f1	0.04747385
142	0x3dac811e	0.08423065
143	0x3dcff7d1	0.10154689
144	0x3d6d8d78	0.057996243
145	0x3c6fefd7	0.014644585
146	0x3d928489	0.07154185
147	0xbdc7d219	-0.0975687
148	0xbd959d67	-0.07305413
149	0xbd36444b	-0.044498723
150	0x3d84be8f	0.06481659
151	0x3d999316	0.074987575
152	0xbce429a8	-0.027851894
153	0x3d68cdd0	0.056836903
154	0x3d49c244	0.04925753
155	0x3db39f61	0.087706335
156	0xbde3411f	-0.11096405
157	0xbd577782	-0.052604206
158	0xbd8ba345	-0.068182506
159	0xbdf2be06	-0.1185265
160	0x3cbd0b72	0.023076747
161	0x3d76f89a	0.06029568
162	0xbd1818f5	-0.037133176
163	0x3cfc404d	0.03079238
164	0x3dda49e5	0.106586255
165	0x3c80d19f	0.015724955
166	0x3d6a8326	0.05725398
167	0x3d774ea7	0.060377743
168	0xbdcfedaf	-0.101527564
169	0x3cd2c643	0.025729304
170	0x3d5db7fc	0.05413054
171	0xbdcd3f65	-0.10021857
172	0x3d9cf5f1	0.07664097
173	0xbcf1f8db	-0.029537609
174	0x3c91270c	0.017718814
175	0xb96311f5	-0.00021655096
176	0x3dfce0dc	0.12347576
177	0xbd3dc7f9	-0.046333287
178	0x3be563e2	0.0070004323
179	0x3bf7eb0d	0.007565862
180	0xbdb1ac12	-0.08675398
181	0xbd06b56e	-0.03288787
182	0xbe8912f1	-0.26772264
183	0xbd8356a8	-0.06413013
184	0xbe70835f	-0.23487614
185	0xbdba32ed	-0.090917446
186	0xb98095b7	-0.0002452561
187	0xbe0ea502	-0.13930133
188	0xbe7704bd	-0.24122901
189	0xbd90d016	-0.07070939
190	0xbe553b0b	-0.20823304
191	0xbdada9d0	-0.08479655
192	0x3d498f0f	0.049208697
193	0xbd73f310	-0.059557974
194	0xbda83ceb	-0.08214744
195	0xbdadfdb7	-0.08495658
196	0xbde12bce	-0.10994683
197	0xbd8f57ab	-0.06999143
198	0xbdd0b83f	-0.10191392
199	0xbe120eab	-0.14263408
200	0xbdded316	-0.10880105
201	0xbe8c29b3	-0.27375564
202	0xbe9041b2	-0.28175122
203	0xbd141b97	-0.036159124
204	0xbdae6018	-0.08514422
205	0xbdbe9371	-0.09305466
206	0xbe42e08d	-0.19030972
207	0xbe402545	-0.18764217
208	0xbe0273bc	-0.12739462
209	0x3c0f766b	0.00875626
210	0xbd96dfd4	-0.073669106
211	0xbdff25ef	-0.12458407
212	0xbe808713	-0.25103053
213	0xbe083430	-0.13301158
214	0xbe7e4ad7	-0.24833237
215	0xbe52d2bc	-0.20588201
216	0xbdcda395	-0.100409664
217	0xbda76ff2	-0.08175649
218	0xbe43c765	-0.19119032
219	0x3c406be6	0.011744475
220	0xbe7758bb	-0.24154942
221	0xbeb41a1c	-0.3517617
222	0xbe80edf8	-0.25181556
223	0xbe5fea04	-0.21866614
224	0xbe01e4ba	-0.12684909
225	0xbddd80c2	-0.10815574
226	0xbe811d69	-0.2521775
227	0xbe7c6e11	-0.24651362
228	0x3b3b33fb	0.0028564918
229	0xbe125646	-0.14290723
230	0xbea8f986	-0.3300287
231	0xbd0d9df5	-0.034574468
232	0xbe7233c0	-0.23652554
233	0xbe0cc6b6	-0.13747677
234	0xbeaee28e	-0.34157223
235	0xbe1b3049	-0.15155138
236	0xbe81979b	-0.25310978
237	0xbe3cf116	-0.18451342
238	0xbe52c7c8	-0.20584023
239	0xbe964951	-0.2935281
