models/epoch=5_bestloss=inf.pt (torch, 184855 bytes, 11 tensors)

weight_ih_l0 f4 [240, 1]
00000000: 97dc 4d3f a236 d03e 3fcc 9bbe ba4e 6a3f
00000010: 5d3a d63e ada6 043f 6662 633f 0235 3dbe
00000020: f03d bf3e 57c5 513e 1c16 073f 6719 613c
00000030: aa2c 4a3f a28c 893e faaf 6f3f 9519 fa3e
00000040: 8e5f 393d 9b7d 9a3e c756 4c3e 5522 263f
00000050: ea26 723e 7913 043e ca27 d33e 505d 223f
00000060: bf12 1c3f 2548 383f 92a9 ff3d 8171 313c
00000070: 47b0 9e3e 6a60 3abe 44df 723e 71b9 12be
00000080: f2e7 e73b aaa9 173f 4574 303f b76d 393f
00000090: 5694 b73e 610b 543e 1d35 0b3f e3a2 36bd
000000a0: b721 223f 71cc a53e d79b 7e3f fdaa 003f
000000b0: 4de5 af3e 1f20 cb3e 5fe2 703e 09a1 eb3e
000000c0: a46b dc3e 5a8a 153f 60f5 303f 4815 9b3d
000000d0: 6cd1 533e 7008 1b3f cd21 cebc 50e0 cb3e
000000e0: 40c5 b43e 7a28 213f 15a7 23be 6c59 513e
000000f0: bcc0 f73e bef9 4e3d 5f12 88be d491 1e3f
00000100: 3352 a83e 030c 1b3e 8656 f93e 31fd f6bd
00000110: 5f89 bc3e 6715 c63d 6d25 ab3e 0b76 a6bc
00000120: 50aa dc3e 2c39 8e3e 8a8a 953e 29c5 573e
00000130: d843 a3bd e01f 893d 9353 0c3c 234b a53e
00000140: 221e 413e 84f7 513e cec8 16bf af9f b23e
00000150: bad3 e43e 2b28 253e 86b1 10bd 4948 ad3d
00000160: da2c 1c3e 4451 b4bd fc3d 083e 7c3c ee3d
00000170: 2614 563e 636f ae3e 3f1a 473f 688c ac3e
00000180: 3341 2f3e 7491 aabd 947c 613e f329 c03d
00000190: e4fa fa3e c8bc 4d3e ffc0 f43e 3500 f13e
000001a0: e7db ad3e 08af 8f3e 8fc3 af3d 678f 6b3e
000001b0: 2455 1b3e 94a0 ca3e dd25 153f 027d 513e
000001c0: a286 183e 99da be3e 5c46 0bbe 1eab 573e
000001d0: 364f b03e 1b06 573e 69da 18be 603f c33b
000001e0: e6f4 393f 88b2 093f a72a 4c3e 7c0e 843f
000001f0: d2d5 9abe 63ec 38bf 90d4 523f e6ff 9d3c
00000200: a095 4abf c624 14bf b980 133f c9f2 3b3e
00000210: 8996 4c3f 3c6b 20bf cd09 843f a6bd 293f
00000220: d84e 22bf c606 da3e 2189 05bf fc13 243f
00000230: f4ed 123f 5152 f2be c174 f7be 2e9d 61bf
00000240: 80ae 633f 1300 79bf c193 c4be d778 67be
00000250: 1f7c e93e e8a8 183e 6265 2ebf c036 9d3e
00000260: d779 b33c cade 323f 26db 423f b442 6d3f
00000270: 8ed9 d63e 3faf 46bf f1ea 2cbf ddae acbe
00000280: c858 6e3f 8b52 453f 8c23 883f 6a5a 1b3f
00000290: df18 e23e 1870 01bf aac7 f5be 32e8 13bf
000002a0: 1cbb 033f c8d3 6e3f b0d8 553f 1db6 06bf
000002b0: 77ab ce3e ef7f 583f 185b 603e 220f f7be
000002c0: 132e 5d3f 6c66 3b3f 7513 103e f90f 21bf
000002d0: 0d34 483e 10e4 123e 28f9 06be 41a0 123f
000002e0: 61fa 933e b79b 983e b890 c93e ccd9 bebd
000002f0: 6182 e43e 9735 b03e 49b5 1b3e 5f82 18be
00000300: c6b9 e43e 004d 403e b869 293f d02b 963e
00000310: ecef 4d3e 33f1 ef3d d222 4d3e 3578 17bd
00000320: bb24 9c3e 07e8 3a3e ce69 e53e 57fd cc3e
00000330: 9900 f23e 41c1 ca3e b377 733d 7f14 653d
00000340: e499 533e 67cb 50be 06f8 263e ceee 6b3e
00000350: b906 4dbc fe79 a33e 1b15 b53e 0f88 013f
00000360: 58b2 a53e f9e4 633e 99e9 253e 9c61 b8bd
00000370: bf45 ec3e 8b37 093e a170 ec3e f3fc c33e
00000380: 9952 673e c2cb a33e cf99 813e 0273 593e
00000390: c082 ae3e 125e c43e c25e f63e 519a 1e3d
000003a0: 1118 233e 7bb4 f23e f3d1 79be 51e4 893e
000003b0: ab15 9f3e 36bb 953e 7625 d9bd 9e44 853e
0.8041472 0.40666682 -0.30429265 0.9152638 0.41841403 0.5181683 0.8882202 -0.18477252
0.37351942 0.20485435 0.5276811 0.013738967 0.789744 0.26865107 0.93627894 0.48847643
0.045257144 0.30173954 0.19954978 0.64896137 0.23647657 0.12898053 0.41241294 0.63423634
0.60966104 0.71985084 0.12483515 0.010830284 0.30993864 -0.18200842 0.23717982 -0.14328553
0.0070772106 0.5924326 0.68927413 0.72433037 0.3585536 0.20707466 0.5437792 -0.044588935
0.63332695 0.3238254 0.9945654 0.5026091 0.3435463 0.39672944 0.23523854 0.46021298
0.43050873 0.5841423 0.6912441 0.075724185 0.20685357 0.6055975 -0.025162602 0.39819574
0.3530674 0.6295239 -0.15981705 0.20444268 0.48389232 0.05053114 -0.26576516 0.61941266
0.32875213 0.15141301 0.48698825 -0.12060011 0.36823556 0.09672051 0.3342699 -0.02031996
0.43098688 0.27777994 0.2920726 0.21071304 -0.079719245 0.06695533 0.0085648475 0.32283887
0.18859151 0.20504576 -0.58900154 0.34887454 0.44692785 0.16128604 -0.03532555 0.08461053
0.15251485 -0.08804563 0.13304895 0.1163263 0.20906124 0.34069356 0.77774423 0.3370087
0.17114715 -0.08328524 0.22020179 0.09383001 0.4901954 0.20091546 0.47803494 0.4707047
0.33956835 0.28063226 0.08582222 0.23003922 0.15169197 0.39575636 0.582609 0.20457843
0.14895108 0.37276152 -0.13601059 0.2106137 0.34435433 0.20998423 -0.14927067 0.0059584826
0.7263931 0.5378804 0.19938146 1.031692 -0.30241257 -0.722357 0.82355595 0.019287061
-0.7913456 -0.5786861 0.5761829 0.18354334 0.799172 -0.62663627 1.0315491 0.66305006
-0.63401556 0.42583293 -0.5216237 0.64092994 0.5739434 -0.47328427 -0.48331264 -0.8813046
0.8893814 -0.9726574 -0.38393977 -0.2260469 0.4560251 0.14908183 -0.6812345 0.30705833
0.021908684 0.698712 0.76115644 0.92679906 0.41962856 -0.77611154 -0.6754599 -0.3372716
0.9310422 0.77079076 1.0635848 0.60684836 0.441596 -0.50561666 -0.48003894 -0.57776177
0.5145738 0.932919 0.83533764 -0.5262163 0.40365192 0.8457021 0.2190975 -0.48253733
0.8639843 0.7320316 0.14069922 -0.62915 0.19551106 0.14344811 -0.13180983 0.5727578
0.2890196 0.298063 0.39368224 -0.09318885 0.4463072 0.34415886 0.15205874 -0.14893483
0.44672984 0.18779373 0.6617694 0.293303 0.20111054 0.11715927 0.20032814 -0.036979873
0.30496773 0.18252574 0.44807285 0.40037033 0.4726608 0.39600566 0.059440326 0.05592775
0.20664173 -0.20390092 0.16305551 0.23040316 -0.01251381 0.3192901 0.35367665 0.50598234
0.32362628 0.22255315 0.16202392 -0.090029925 0.46146962 0.13400094 0.4617968 0.38278922
0.22590102 0.31991392 0.2531266 0.21235278 0.3408413 0.3835302 0.4811917 0.038721386
0.1592715 0.4740332 -0.24396496 0.26932004 0.3107122 0.29244393 -0.10602848 0.26028913

weight_hh_l0 f4 [240, 60]
00000000: c214 603e 4d53 483e c799 0fbe 6b3b 443e
00000010: f185 58bd cbf7 8bbc c4d3 1d3e 166a f23d
00000020: abd1 17be bb37 84be 1dfc f33d b525 df3d
00000030: f2f1 d03c 445f f63d 95ff 7b3e bff3 4b3e
00000040: 19ac 96bd 9f21 63bd 63dd bebd af7b 8d3c
00000050: b722 35be 8d58 bfbd 22ec 83be be8b acbd
00000060: 7b60 3e3e 3bf5 2ebe bd0f bfbc 4f1d 3fbd
00000070: a295 a63d 7e62 0d3d 6652 76bc d481 093d
00000080: 9451 92bc 421b 233e 7a0b 2e3e 9632 133e
00000090: dbce e93d 18db 1cbe 18f7 18be 3de6 19be
000000a0: a115 4e3e 0504 763c 62f4 553e 10c3 b13d
000000b0: a101 a1bd be9c 94be e76a 61bd a1ce 75be
000000c0: 51a5 d63d ae26 953e fd4c 7a3e e492 19be
000000d0: 7e4c 4dbd 69e4 4d3e 0657 d43a fbea b9bd
000000e0: 9050 7c3d 9f3a 8c3e 7664 483e 2cfc d7bc
000000f0: f17f fabd 7512 833d 330c ab3e 26d1 70be
00000100: 931a 76be dfe8 163e 0a34 ddbd e6d2 39bd
00000110: 21e5 ea3c 2194 e33d f740 0dbe 58e9 97bd
00000120: eb95 a7bd 4a90 14be dbd8 43be 1e63 4ebe
00000130: a9e7 2f3d a5f4 a0bd 8994 aebd f696 7dbe
00000140: 1bda 2d3e 60f4 923d f118 8e3e 6f6d e83a
00000150: ef82 6ebd 3e56 053e 09f2 f53d 1c72 cb3c
00000160: 9090 30be 435b 99bd d561 0c3d 790f 1a3e
00000170: 0fe9 c4bd 8348 03be 258d 47be 0a1d 79be
00000180: 4fc9 0cbe eca2 173d 1e1c 1a3e 8d46 cb3d
00000190: 17e1 d6bd 3abb eb3d 0eff dabd 202b 97bd
000001a0: 15fc 433e c4f6 9a3d 803f a73d c3b7 8bbd
000001b0: 2825 9dbd 33b1 32be c3a3 a33d 0e46 44be
000001c0: c38c 793d 8fec 77bc 8ab8 d7bd 19a6 49be
000001d0: 6f31 01bd 2b7b 99bd 5b40 c23a 8507 e43d
000001e0: 3a24 5b3c b012 803d 1a9a 4f3d 1e89 ff3d
000001f0: 5c21 9e3b 13ea 64bc 50f6 0cbd 5855 b13d
00000200: 1663 e7bd ee5d 37be d893 e1bc a362 303e
00000210: de11 babc 4f8b da3d 8b09 033e 717f 523d
00000220: 2a29 d73b 446b b6bd 9cc6 58bc bb30 c13d
00000230: 2c91 3abc e303 f5bc 014c d03d 7cbc 9c3d
00000240: 32fe 2abc 6eb4 8bbd 7ef0 be3d f1c0 d33d
00000250: abdd c93c 6d0d 043e 5acf 02bd 12dd 5d3c
00000260: 61de 97bd bfe7 1a3c 5020 75bc aeca 7dbd
00000270: 8249 403d f3fd b2bd 83c8 08bd a2dd 6ebe
00000280: 0d0a 5c3d 1db3 133d 1b7e 013e a261 1c3e
00000290: 9ea4 01be 93d6 5d3d c57c e3bd f987 e4bb
000002a0: 2ea5 0b3d 9e67 2e3e 93a8 6a3e a090 53bc
000002b0: 1a7f 073e 4020 f53c 403a 2139 fa47 fbbd
000002c0: 2958 0c3e c8c5 473e 0e5a 10bc 4979 193d
000002d0: aad7 94bd 49e7 803d 6114 1c3d c6a6 8fba
000002e0: 42bf 41be 973e 613d 3d9e bdbd 020d 51bd
000002f0: 2ac3 cf3c 5371 48bd 6e40 cb3d 43b6 21bd
00000300: 3923 543c 6ecd 81bd 5f10 dc3d 6662 88bb
00000310: db22 423c 594f 113e d8da bdbd 5231 2cbe
00000320: 0206 c73d d3aa 0abe 492c 2bbd 025e 83bd
00000330: 85ca 3d3d 2378 d8bd 8a66 ad3c eb7f 8c3d
00000340: 3379 ddbd d879 58bd f202 a43d 3999 083e
00000350: a270 09be 422a a23d 6c79 94bd b1e3 cebd
00000360: 3acb b23d 08bc 2b3d a860 4dbd 8266 a63c
00000370: 1012 d33d ca74 323e 0f26 de3d 4bb2 b8ba
00000380: 8273 d1bc b4c0 a63d 292c a039 5258 8cbd
00000390: e303 35be e11e ed3d da7f e33d 0244 a33c
000003a0: ac13 ba3d b756 17bc 609d c4bd 76d3 54be
000003b0: 73fd a3bc 680f 553d 1887 173d 22f9 cfbc
000003c0: de7b b73d 3681 db3d 652b d73c a393 19bd
000003d0: 8056 afbd 7731 c0bc 30ce 893d ed29 d63d
000003e0: 3ef6 08be 93be 02be 69cc 89bc 5f0f 3cbe
000003f0: 61a2 a33d 815f 36bd 263c e23c 63cb aebd
0.21882918 0.19563027 -0.14023505 0.19163291 -0.05286211 -0.01708593 0.15412813 0.118366405
-0.14826076 -0.2582377 0.11913321 0.10895864 0.025505994 0.12029889 0.24609216 0.199172
-0.07357044 -0.055451985 -0.0931957 0.017270891 -0.17689024 -0.093430616 -0.25766093 -0.08425091
0.18591492 -0.17085735 -0.023322934 -0.04665881 0.08134009 0.034517758 -0.015034294 0.03357108
-0.017861165 0.15928367 0.16996565 0.14374766 0.11416408 -0.15317953 -0.14938009 -0.15029235
0.20125438 0.015015607 0.20894006 0.08679783 -0.07861639 -0.29025835 -0.05503359 -0.24004604
0.1048075 0.29131073 0.24443431 -0.1499744 -0.050121777 0.20106663 0.0016200251 -0.09078022
0.061600268 0.27388474 0.19569573 -0.026365362 -0.12231434 0.06400005 0.33407745 -0.23517284
-0.24033575 0.14737271 -0.10800941 -0.045367144 0.02867371 0.11112238 -0.13794313 -0.07417554
-0.081828915 -0.14508167 -0.19125693 -0.20154998 0.042945538 -0.07859162 -0.085244246 -0.24764618
0.16977732 0.07175517 0.27753404 0.0017732809 -0.058230337 0.1302118 0.12009055 0.024834685
-0.17242646 -0.0748811 0.034272987 0.15044965 -0.09614765 -0.1282063 -0.19487436 -0.24327484
-0.13748668 0.03702061 0.15049788 0.09925566 -0.10492151 0.1151032 -0.10693179 -0.07381272
0.1913913 0.07566598 0.081664085 -0.06822159 -0.076731026 -0.17450409 0.079902194 -0.19167349
0.060925256 -0.015132084 -0.10533245 -0.19692267 -0.031541284 -0.074941956 0.0014820205 0.11134247
0.013375336 0.06253564 0.050684072 0.12477325 0.004825754 -0.013971823 -0.03441459 0.08658856
-0.11298196 -0.17906925 -0.027536318 0.17225127 -0.022713598 0.10671102 0.12796609 0.05139107
0.0065661864 -0.08907178 -0.013230946 0.09433123 -0.011387151 -0.02990908 0.101707466 0.07653138
-0.010436581 -0.068215236 0.09323214 0.10339535 0.024641832 0.12895747 -0.031936027 0.013541477
-0.07415462 0.009454667 -0.014961317 -0.06196087 0.046945103 -0.08739843 -0.033394348 -0.23326734
0.053720523 0.036059488 0.12645762 0.15271619 -0.12660453 0.054159712 -0.11107782 -0.006974217
0.034093075 0.17031714 0.22915868 -0.012912899 0.13232079 0.029922605 0.00015375856 -0.12269588
0.13705505 0.19509041 -0.008810533 0.037469182 -0.07267697 0.06294114 0.038105372 -0.0010959737
-0.18920615 0.05499133 -0.09258697 -0.051037796 0.025361616 -0.0489362 0.09924398 -0.03948046
0.012947851 -0.06338011 0.1074531 -0.0041621206 0.0118491305 0.14190425 -0.09270257 -0.16815689
0.09717943 -0.13541727 -0.04179028 -0.06414415 0.046335716 -0.10569789 0.021167058 0.06860336
-0.108141325 -0.052850574 0.08008374 0.133397 -0.13421872 0.07918216 -0.07249722 -0.101020224
0.08730169 0.041927367 -0.050141007 0.020312551 0.103061795 0.17427364 0.10847103 -0.0014091221
-0.025567774 0.08142224 0.0003055048 -0.06852783 -0.17677264 0.11578155 0.1110837 0.01992989
0.09085783 -0.009236983 -0.096003294 -0.20783791 -0.020018315 0.052016646 0.03699407 -0.02538735
0.08959173 0.107180044 0.02626581 -0.037494313 -0.085614204 -0.023461087 0.0672878 0.104572155
-0.13375184 -0.12768011 -0.016821103 -0.18365239 0.07989956 -0.044524673 0.027616572 -0.08534887

bias_ih_l0 f4 [240]
00000000: 386d e539 79f1 57be 77d4 4ebd 5915 23be
00000010: 736e a7bd 0eb8 74bc eb1b c5bd ffcd 6bbe
00000020: 7ddb 9bbd 5d8b 09be 9e89 163b 0cb1 73be
00000030: f684 0a3e 0ecf 05be eed5 79bd 71b2 423c
00000040: 3847 23be f81b 61be 66c1 8dbe 1e6e 403d
00000050: e2f9 893a 7848 a7be d48c 313a d59e abbd
00000060: ede9 f6bd 4d19 4cbe 25a4 61be 71c2 53be
00000070: 6354 48bd 6ac0 b9bd 3518 d5bd 4b50 593d
00000080: 8cae 26be 8161 31be 69b7 5f3d 70ce 7ebd
00000090: adbc 693a b0eb 133d 1d32 4bbe 8265 2bbe
000000a0: 069c ad3d ed97 48be e120 eebb f9a9 2cbe
000000b0: 8697 003e 8a4d 98be c584 1cbe 9010 b2bd
000000c0: 2f4b 013e 24a5 813d 96c6 d1bd 0d4a 2dbe
000000d0: d6ef f7bd 361c 62be 09f5 5cbe f928 b9be
000000e0: 3323 11be 3c62 d1bc 5806 51be b3b3 fbbd
000000f0: c704 023d 6a9a 42be a007 d5bc 007a 2abe
00000100: 28b5 53bd 4d8c 13be 715f 65bc a9d2 91be
00000110: 4077 0fbe dc0b 0fbc 4366 773d 82fd ccbd
00000120: cb7d a53d d850 69be 2059 813b 6db5 883d
00000130: f5a6 27be 55fc 3bbd f291 38be 3905 bcbd
00000140: e228 193e 6e60 1ebe 3e0a 1a3e 0cec 17be
00000150: 737e 0bbe 3af6 0dbd 853f 7cbe f589 07be
00000160: 932d 56bc e85e f1bd 3d95 10be fae5 343d
00000170: ee67 25be 058c 92be 5e61 233d bb0a 38be
00000180: 1e86 86bd e6c4 05be 3813 5fbd f73b 4dbd
00000190: 2ce4 b33c beaf b93b 005e 633e b341 0ebe
000001a0: 4990 693b 8e2a 2abe 227b 90bb 276a 5fbc
000001b0: 5dd5 b93d 2320 fe3d bffd 323e d4fb b2bc
000001c0: 704f a7be 5398 5abe d2a0 3d3d 4044 c0bd
000001d0: ede8 5fbe f756 9fbd 1bf8 1ebe d39c 5fbe
000001e0: 897d 003d dd57 343d 5508 8cbd b6f7 babd
000001f0: 29c4 dd3c 7ab0 933c d9e5 063e 8068 a1bd
00000200: c83a 3abd 0401 1bbe 2989 dc3c 31d8 663d
00000210: 8682 bb3d 34ff b23c 25b3 633d 8e99 c73d
00000220: a5e1 5e3d d1ff 713b 4628 a33d a0af d9bc
00000230: 0da7 84bd 64b9 003c 4fef fcbd 486b f7bb
00000240: 98b2 2ebd 985b 80bd c674 67bd ebe1 9fb9
00000250: 525e e5bc 8ccf 8fbc 6bbf 1b3d 6ad6 9dbd
00000260: e97b 573d a107 7f3d b496 4b3d f662 cf3d
00000270: 062c 3f3c fe9c 953d 32df 90bd d0d2 aabc
00000280: 320e 2b3e 9401 30bd 6f17 69bb a9bc bd3c
00000290: 9110 dabd 1c69 bc3d c6a9 123d 6cc8 12bd
000002a0: d511 793d c0f5 a83d 6dde b1bd da0c a53d
000002b0: 8540 9bbd 234b dabc d04a bf3d da26 27bd
000002c0: d944 54bd 23dd a73c 3f23 56bc 358f e83c
000002d0: e5b2 db39 737d d6bd bd3b 05be 7f6f 38bd
000002e0: 1913 863c b234 90bd 56d2 22be ba86 49be
000002f0: ce9a 80be add8 06be b1e0 37bd aa4e 04be
00000300: 24b8 1f3d cbc4 76be f6ca 26be 1ff3 6d3d
00000310: 42ea 33bc 3571 34be b580 49be 6dfe fabd
00000320: 004b 053e 8e66 b0bd a1d3 873c 68a3 bbbd
00000330: 3111 e6bd 2024 01be a004 64bd cd9b 19be
00000340: 3a6c 56be aadf dbbd c16c 4dbd 64a3 913d
00000350: 1325 10be 8261 32be d362 9a3c 7038 93be
00000360: c298 12bb 7ad5 34be 6ef2 1cbe f096 e4bd
00000370: 259e d6bd 773d 85bd bb65 62bc 881f 53be
00000380: fb5d 5f3c b9ca 79be 2495 32bd 947e 93be
00000390: 6249 e6bd dbb5 eabd 2895 b1bd 0108 49be
000003a0: 5e04 1cbe e120 7ebd c4a2 f5bd ed18 a8be
000003b0: 8218 a1bd 97ec a7bd 7817 39be fd7d 82be
0.00043759658 -0.21088208 -0.05049559 -0.15926112 -0.081753634 -0.01493646 -0.096244656 -0.230278
-0.076102234 -0.13432069 0.002297021 -0.23798007 0.13527283 -0.13067266 -0.060995035 0.011883364
-0.15945137 -0.21983325 -0.27686614 0.046980016 0.0010526741 -0.32672477 0.0006772999 -0.08379904
-0.120563366 -0.19931526 -0.22035272 -0.20679642 -0.048908602 -0.09069903 -0.10405008 0.05305509
-0.16277522 -0.17322351 0.054618273 -0.062208593 0.00089163595 0.03611344 -0.19843335 -0.16737941
0.08477025 -0.19589205 -0.007267103 -0.16861714 0.12557802 -0.29746658 -0.15285023 -0.08694565
0.12626337 0.06330326 -0.102429554 -0.1692278 -0.12106292 -0.22081074 -0.21577848 -0.36164072
-0.14173584 -0.025559537 -0.20412576 -0.12290134 0.031742837 -0.19004217 -0.026004612 -0.16648102
-0.051686436 -0.14408989 -0.013999806 -0.28481033 -0.14010334 -0.008730855 0.06040026 -0.1000929
0.08080634 -0.22784746 0.003947392 0.06675229 -0.16372283 -0.04589494 -0.18024424 -0.09180684
0.14957002 -0.15466473 0.1504297 -0.14836138 -0.13622455 -0.034658648 -0.24633606 -0.1323622
-0.013072389 -0.1178568 -0.1411943 0.044164635 -0.16152927 -0.2862245 0.03988778 -0.17972843
-0.065685496 -0.13063392 -0.054461688 -0.050106015 0.021959387 0.005666702 0.22203827 -0.1389225
0.003563898 -0.16617796 -0.00440921 -0.013636149 0.09073899 0.12408473 0.17479609 -0.021848597
-0.32677794 -0.2134717 0.04629595 -0.09388018 -0.21866198 -0.07780259 -0.15524332 -0.21837167
0.03136972 0.044029105 -0.06837527 -0.09129278 0.027071076 0.018028487 0.13173617 -0.0788126
-0.045466214 -0.15137106 0.026920872 0.05635852 0.09155755 0.021850206 0.055590767 0.09746085
0.05441441 0.003692616 0.07966666 -0.026573002 -0.06477175 0.007856701 -0.12350332 -0.0075506307
-0.04265079 -0.0626747 -0.05650785 -0.00030495165 -0.027999077 -0.01755502 0.038024347 -0.07706912
0.052608404 0.062263135 0.04970427 0.10126297 0.011668211 0.073053345 -0.07073821 -0.020852476
0.16704634 -0.042970255 -0.0035566946 0.02316125 -0.10647691 0.091997355 0.03580644 -0.03583567
0.06080802 0.08249998 -0.086850025 0.08059092 -0.075806655 -0.026647156 0.09340441 -0.040808536
-0.05182347 0.020491188 -0.013069927 0.028388599 0.00041904222 -0.10473146 -0.1301107 -0.045028206
0.016366528 -0.07041301 -0.1590055 -0.196803 -0.25118107 -0.13168593 -0.044892017 -0.12920633
0.03899397 -0.24098508 -0.16288361 0.058093186 -0.010981144 -0.1762131 -0.19678004 -0.12255559
0.13016891 -0.08613311 0.016580405 -0.09162027 -0.11233748 -0.12611437 -0.055668473 -0.1500084
-0.20939723 -0.1073602 -0.050152544 0.071112424 -0.14076643 -0.17420009 0.018845951 -0.28753996
-0.0022368883 -0.1765956 -0.15326855 -0.111616015 -0.104793824 -0.06505864 -0.0138182 -0.20617497
0.0136332465 -0.24393739 -0.043599263 -0.2880751 -0.112444654 -0.114604674 -0.086710274 -0.1963196
-0.15236041 -0.062043075 -0.11993936 -0.32831517 -0.078660026 -0.08199423 -0.18075359 -0.25486746

bias_hh_l0 f4 [240]
00000000: cd54 033e dc72 20be f6e8 0fbe d082 0bbe
00000010: 89a8 65bd c77a 34be 0b4f 8fbd 6185 5abe
00000020: 3349 ebbd 3055 8dbc 455d b93c 92de f4bd
00000030: 63ba 073e 5f97 33be c73a cfbd 3143 d5bd
00000040: 1089 523c 3bba 34bd 420f 2abe 8825 5e3d
00000050: ab80 93bd 826b 2ebe d4d8 02bd bdee aabd
00000060: da7b 02be 4750 05be 5313 9fbd 55bf 6fbe
00000070: d88e 79be e972 92be 9ed2 99bc 0f5b 4abd
00000080: 36fb 2fbe f19b 2abe 36fc e2bd e5d2 cebd
00000090: c210 80be 1af5 c6bd acc3 2cbd 9ebb 45bd
000000a0: 4c70 32bc bfdd f3bd ca0e 073c 8dd6 53be
000000b0: ba07 7f3d 6a93 adbe 3ac6 22be 302c 68be
000000c0: 6d0a 16bc f476 bdbd dd57 82bd ce3d 09be
000000d0: 7095 61be add0 4dbd 3547 40be 812b 27be
000000e0: b795 09be ee04 03be 8bae efbd 13b4 d9bc
000000f0: 6ac8 263e cb80 963b adbc 06be d9e0 9fbd
00000100: 0762 4abe 738b d1bd 9c05 cf3c 6357 87be
00000110: 2110 69be 399d f3bd 3eab 9a3d 3a81 7fbd
00000120: 29ea 2a3e b245 4abc a461 fb3c ea1b 983c
00000130: d6a6 d4bc b40d 3abe 1870 7dbd 6f24 d1bd
00000140: fd47 80bc 0a77 f1bd ad05 2e3e 91db a43b
00000150: b845 6bbe 62d1 513d 6582 58be 038c dabd
00000160: 9c7b 3cbe 7232 23be c311 6fbe c9fd c93d
00000170: a15a 13bc 3b24 65be 4bdb 18bd 5055 43bd
00000180: 2a42 a0bd 574f a4bb 0ef0 81bc fcb9 d6bd
00000190: 4218 2cbd 5e55 aabc 3507 243e e592 8abe
000001a0: 9ef3 d4bb 487a 95be 78d6 3dbc 7124 f9bb
000001b0: 34f9 54bd ff61 be3d 633f 5b3e 1915 5ebd
000001c0: d805 a2be dcd9 50be b868 37be f659 88be
000001d0: b2d3 ddbd f95e 1bbe 5d89 323b b506 abbd
000001e0: 14f2 ac3c 5a22 94bd ccd2 91bd ee33 173e
000001f0: 6681 e03c fc64 f33b dda2 e5bd b0d6 0d3d
00000200: a8fe 323d 1344 ae3d 24ff 923d 20c7 f8bc
00000210: 454e 303b 2090 bf3c 9d0d 303d 61a1 8f3d
00000220: a750 c93d be29 6a3c eb8a 9fbd 70f4 af3d
00000230: 4775 bebb ab88 1f3c ebe1 dabc 4912 19bd
00000240: 9cdd 983d b051 d83d d3d9 873d 4603 523b
00000250: d6a3 1eba 06bf 643b 7db3 44bd 8ab9 d4bc
00000260: 2e28 923d 1437 98bd f254 623d caef 0fbd
00000270: 812b 88bb 2c9c 8b3d 693c 4d3d 172f 583d
00000280: 782b 84bd 2583 fb3a b727 983c 961a 953c
00000290: 7660 99bd aa69 92bd 1481 8cbc 8450 283d
000002a0: f9eb d43b 77bf 5d3b dc43 a23d 7ba6 62bd
000002b0: 9ab3 b93d a721 e03c 6f88 9abd 9ccb 173d
000002c0: 5d72 953c c9d7 f2bc 94e6 81bd 1aa6 0a3d
000002d0: ea4f 83bd cae6 57be 5a0d adbd d354 25be
000002e0: e91f a7bd b419 5dbe ed8c 6abc 2686 90be
000002f0: cea8 06be b2d4 c1bd 0a06 65bd 3536 97be
00000300: abb5 443d 0e16 e7bd 07b6 81bd db3c be3d
00000310: 8fe1 3cbe 0452 afbd e67c 8abe 617f 46bd
00000320: aabc 813d 2faf 7fbe 6d39 4a3e 231c 78be
00000330: 2d61 9abd 7811 bdbc 457c 8bbe 77c8 ffbd
00000340: 3975 04be 5b9c 91be 989b 55be 35cf 053d
00000350: 000a 08bc de88 15be a038 b8bc 8f8f 88bd
00000360: 7ad2 bdbc ef9d e1bd 00a6 d0bd b456 67be
00000370: bc1e 6cbc 5a66 c8bd 9d3c 9b3d 3fd2 80be
00000380: 1c94 993d 93cc 54be 964f fabd 8322 14be
00000390: e476 053d 5265 89bd c72f 143d f42a 37be
000003a0: 59cc 98be c155 d0bd b3b9 e2bd 7b92 5bbe
000003b0: 5edd 6fbe f529 43be d414 01bc c11f f1bd
0.12825318 -0.15668815 -0.14053711 -0.1362412 -0.05606893 -0.17624961 -0.06997498 -0.21339943
-0.11488571 -0.017252535 0.022627482 -0.119565144 0.13254695 -0.17538212 -0.10118633 -0.10413206
0.012850061 -0.044122916 -0.16607383 0.05423501 -0.07202276 -0.17033198 -0.031945065 -0.08346317
-0.12742558 -0.13018905 -0.07767358 -0.23412831 -0.24370897 -0.28603294 -0.018777188 -0.049403246
-0.17185673 -0.1666105 -0.11083262 -0.10098819 -0.25012785 -0.09714718 -0.042178795 -0.04827463
-0.0108910315 -0.11907529 0.008243272 -0.20687313 0.062263228 -0.3390153 -0.1589593 -0.22673106
-0.009157759 -0.09251204 -0.06364415 -0.13402483 -0.22029662 -0.050247837 -0.18777163 -0.16325189
-0.13436018 -0.1279485 -0.11703213 -0.026575124 0.1628739 0.00459299 -0.13157912 -0.07806558
-0.19763957 -0.10231676 0.02527123 -0.26433858 -0.22760059 -0.11895222 0.07552193 -0.0623791
0.16690888 -0.012345718 0.030686207 0.018567998 -0.02595846 -0.1816929 -0.06187448 -0.10212027
-0.015659327 -0.11790283 0.16994353 0.005031057 -0.22975814 0.051225074 -0.21143492 -0.10671236
-0.18406528 -0.15937212 -0.2334662 0.09862859 -0.008993776 -0.22377102 -0.03731851 -0.047688782
-0.0782512 -0.005014341 -0.015861537 -0.104846925 -0.04201532 -0.02079266 0.16018374 -0.27065197
-0.006498768 -0.29194856 -0.011586778 -0.007603221 -0.05199547 0.09296035 0.21410899 -0.05421934
-0.31645083 -0.20395607 -0.17911041 -0.26631135 -0.10831393 -0.15172948 0.002724252 -0.08350889
0.021111526 -0.072331145 -0.071202844 0.14765903 0.027405452 0.0074278098 -0.11212704 0.03462857
0.04369989 0.08509078 0.071775705 -0.030368388 0.002690212 0.023384154 0.042981733 0.070132025
0.09829836 0.014292179 -0.077901684 0.08591545 -0.0058123204 0.009737174 -0.026719054 -0.037370954
0.07464144 0.10562456 0.066333435 0.0032045408 -0.0006051635 0.0034903898 -0.048022736 -0.025967378
0.0713657 -0.0743238 0.05525679 -0.03514079 -0.0041555767 0.06816897 0.05010644 0.052779283
-0.064536035 0.0019188864 0.018573625 0.018201154 -0.074891016 -0.0714906 -0.017151393 0.04109241
0.0064978567 0.0033836046 0.079230994 -0.05533455 0.090674594 0.027359797 -0.07545554 0.03705941
0.01824301 -0.02964391 -0.063428074 0.033849813 -0.06411727 -0.21084133 -0.08449812 -0.16145639
-0.08160383 -0.21591836 -0.014315826 -0.28227347 -0.13150331 -0.094643965 -0.055913962 -0.29533544
0.048024815 -0.112835035 -0.06333547 0.09288951 -0.18445419 -0.08560565 -0.27048415 -0.04846132
0.06334813 -0.24969171 0.19748469 -0.24229483 -0.07538066 -0.023079619 -0.27243248 -0.124894075
-0.12935342 -0.28439602 -0.20860136 0.03266831 -0.008303165 -0.14602992 -0.022487938 -0.06668007
-0.023171652 -0.110164516 -0.10187912 -0.22591668 -0.0144116245 -0.09785147 0.075799204 -0.25160405
0.07498953 -0.20781164 -0.12222211 -0.1446629 0.032584086 -0.067087784 0.036178377 -0.17887479
-0.29843405 -0.10172606 -0.110705756 -0.21442597 -0.23424289 -0.19058974 -0.007878501 -0.11773635

weight_ih_l0 f4 [240, 60]
00000000: 3b62 c9bd a88b 41bd 6c1c fa3d 8b8d 3fbe
00000010: c64c 34be 2afb a7bd 6fdc 77bd d70a 2e3d
00000020: eaca 273d 020c 043e 0fba 83be e85f 1cbd
00000030: f627 aabe 8795 4bbd 4fb4 cfbd 81d8 9cbe
00000040: d1dd 0fbe 3d29 97bc 4d03 e6bd 6f87 44bd
00000050: 8996 043e d8b6 273d 0893 023e 98ff f63d
00000060: 5667 e93d 0cef 00bd ed48 b5bd 20f6 09be
00000070: f373 aebd fedb 823d f432 45bd a7b4 803e
00000080: 890e fbbd 644c 18be 9508 eebd 679c 93be
00000090: 89a2 25bc 133c e73a bc3c f23c 7062 06bd
000000a0: cc9e 63be 6825 fa3d e813 bbbd 4563 bcbc
000000b0: 01a6 d23e d917 443e 2eea 9bbd 0083 d1bd
000000c0: 813f 98be b2e0 72be bba8 02be fe42 793c
000000d0: 775e dfbd 944a 6bba e133 79bc 6844 76bd
000000e0: d6d6 973d a90c e93c 6f70 a73c 3cd6 0abe
000000f0: ecb0 23be c341 2cbe 5e78 823e 1dce 89bd
00000100: 034d 06be bc49 e83d af92 acbd dae7 96bd
00000110: 6a38 ab3d 6897 4f3d e31b c7bc 692a 8abd
00000120: 660c 9bbe 2eb8 6cbe 09c9 9bbe e664 c1bd
00000130: eaac a9bd d5b8 1bbd be7f 8e3b 13ad 80be
00000140: b8f9 693e fbf5 1abd 3b5b 073e 26e2 db3b
00000150: bd7f c6bc 5764 fd3c e4e1 173d 4568 cbbb
00000160: f655 af3b 68e5 f53d 0f89 8b3d 5aeb 1c3e
00000170: 23a4 4abe f692 67be fed6 48be 86ce acbd
00000180: 1f00 29be ebb7 babd 275a b93c ff2a 163e
00000190: 28f3 96be 30e2 3ebd 68d8 1ebe 1ca9 40be
000001a0: f7bb 863e 70d1 7d3d a161 523d f20c 8dbd
000001b0: d696 bcbd 0170 69be 69f2 e8bd 97ca 823b
000001c0: 1124 0b3d d9b6 e93c 8de3 a83d 8c75 31be
000001d0: b0a8 e4bb 5757 42be 8005 983d 72a2 f33c
000001e0: 08ec 85bd edce a6bd e676 753e 8acf 8cbe
000001f0: 3f64 52be e5d5 003d 07f2 08be cbbe 11be
00000200: 2f13 b2bd c5b5 2e3e a459 f2bd cdea 10be
00000210: f835 c6be 1b4f cabd d82e aabe fe54 4fbe
00000220: da0a a3be 41b9 e23d 5951 80bc d4bf 39be
00000230: ad65 853e c8fe 1c3c a54b 4d3e 9026 9f3e
00000240: f36e 113e b889 87bd 5cb2 c63d 1c28 ffbc
00000250: efd7 02be 7999 023c 52c1 733d 3257 4f3e
00000260: b7df cebe 9a2f 43bd aa95 2dbe 62c4 09be
00000270: 8ee3 a8bb d384 5abe 78c8 883e 5ebf 103e
00000280: 15f3 9cbd 6b63 943c d306 89be ac81 84be
00000290: a693 923e dc0d 8f3d d972 a6bd e433 563e
000002a0: f543 6dbe fc29 a1be 7a5d 91be df98 71bc
000002b0: 9c72 ca3c ceac dcbd 5e97 3b3e c14c da3b
000002c0: 9492 cb3c f594 113b 82d4 e8bc 7f17 31be
000002d0: 9289 3ebd dd2f ccbc dd0d 533e 093d 34be
000002e0: b716 39be 5f8e 77bd fc66 15be 8b34 9c3d
000002f0: aa8e ab3c 6ce1 0b3e ad10 5fbe 8d7e bfbd
00000300: 2d7a 17be 7296 1cbe 634b 37be c8ff 95be
00000310: 123a a3bd 694f 62bc 878d 56bd 5faa a3bd
00000320: 227e 473e bedd b93c 4746 803e 5ad5 c43c
00000330: 0b76 033e b0b0 f93d 90e2 13be c62d 32be
00000340: 5278 3fbe e00f 2e3d 77f0 19bd 6c15 013e
00000350: 2702 80be 19f0 19bd 7760 76be c460 bfbd
00000360: ffbd b9bd 34ea 90bd dab1 603e 1a0b 22bd
00000370: 10d1 57be 2359 423d a5d5 88be 1e7f 02bd
00000380: 286d b03e 2ca3 203b dee6 abbd 7fd1 843d
00000390: daae 30be 2d9b 9abd b395 14be 39f2 e7bd
000003a0: d6d6 33be 622c 33be 6ce9 a53d 253c 59bd
000003b0: 1d98 f73c aee6 583c 365f b2bd 1ca8 14be
000003c0: 7610 7cbd 84fa 43bd 3f4b 353e 448e a2bc
000003d0: 1a14 60be ddb8 9f3c 72f8 f3bc c683 d7bc
000003e0: cdee ad3c da5e 45bc 229a 7dbe b59f 74be
000003f0: 2fe7 92be 442e 88be 0e52 cabd 1b4e 0fbe
-0.09833189 -0.047252327 0.12212452 -0.18706338 -0.17607412 -0.082022026 -0.060512956 0.042490806
0.040965 0.12895206 -0.2572789 -0.0381774 -0.33233613 -0.049703147 -0.10141813 -0.3063393
-0.1404946 -0.018452281 -0.11231098 -0.047980722 0.1294805 0.040945858 0.127514 0.120604694
0.11396663 -0.031477973 -0.088518 -0.13472795 -0.08518209 0.063896164 -0.048144296 0.25137827
-0.12258632 -0.1487289 -0.11622731 -0.28830263 -0.010109552 0.0017641805 0.029569976 -0.03280872
-0.22228545 0.12214166 -0.09134656 -0.022996554 0.41142276 0.19149722 -0.076130256 -0.102300644
-0.2973595 -0.23718527 -0.12759678 0.015213726 -0.109066896 -0.00089756516 -0.015210123 -0.06012383
0.074140236 0.02844842 0.020439355 -0.13558286 -0.15985459 -0.16821961 0.25482458 -0.06728766
-0.13115315 0.11342189 -0.08426415 -0.07368441 0.083603695 0.0506815 -0.02430529 -0.0674637
-0.30282897 -0.23117134 -0.30426815 -0.09443073 -0.08284934 -0.038018066 0.004348724 -0.25132045
0.22849166 -0.03783224 0.13218395 0.0067103086 -0.024230832 0.030931635 0.03708066 -0.0062074983
0.0053508235 0.120066464 0.06813251 0.15324154 -0.19789176 -0.22614655 -0.19613263 -0.08437829
-0.16503952 -0.09117111 0.022625996 0.14664839 -0.29482388 -0.046602428 -0.1551224 -0.1881451
0.2631528 0.061967313 0.051362637 -0.06887235 -0.09208457 -0.22796632 -0.11374361 0.0039914357
0.033969942 0.028529571 0.08246527 -0.17329997 -0.006978117 -0.1897863 0.07422924 0.029740546
-0.0653916 -0.08144937 0.23971137 -0.2750209 -0.20546053 0.031453986 -0.13373576 -0.14232938
-0.08695065 0.17061527 -0.11833504 -0.1415207 -0.3871305 -0.098783694 -0.33238864 -0.20247266
-0.31844217 0.11070491 -0.01566379 -0.18139583 0.26054135 0.009582229 0.20048387 0.31084108
0.1420248 -0.06618065 0.09701988 -0.031147055 -0.12777685 0.007971161 0.059510536 0.20248106
-0.40405056 -0.04765282 -0.16951624 -0.1345382 -0.0051540798 -0.21339731 0.26715446 0.14135501
-0.07663552 0.018113812 -0.2676302 -0.25880182 0.28628272 0.06985065 -0.08127374 0.20918232
-0.23170455 -0.31477344 -0.2839163 -0.01474592 0.024712853 -0.107751474 0.18319461 0.006661982
0.024850167 0.002221403 -0.028421644 -0.1729412 -0.046517916 -0.024925167 0.20610757 -0.17601408
-0.18075071 -0.06043851 -0.14590067 0.07627209 0.020942051 0.1366021 -0.21783705 -0.093503095
-0.147927 -0.15291765 -0.17899852 -0.29296708 -0.079700604 -0.013812878 -0.052381065 -0.0799148
0.1948171 0.022688743 0.25053617 0.024027515 0.12837999 0.121919036 -0.14441895 -0.17400274
-0.18698242 0.04249561 -0.03758284 0.12605828 -0.25001642 -0.03758249 -0.24060236 -0.093446285
-0.09069442 -0.07075921 0.21942845 -0.03956137 -0.21075845 0.04744829 -0.26725498 -0.03185951
0.3445828 0.002451132 -0.08393644 0.06485271 -0.172542 -0.07549129 -0.1451023 -0.11325497
-0.17562422 -0.174974 0.08101162 -0.053035874 0.0302239 0.013238592 -0.08709566 -0.14517254
-0.061539136 -0.047846332 0.17704485 -0.019843228 -0.21882668 0.01949733 -0.029781554 -0.026307952
0.021232033 -0.01204654 -0.24765828 -0.23889048 -0.28692004 -0.26597798 -0.09878932 -0.13994639

weight_hh_l0 f4 [240, 60]
00000000: 539a 7dbd c2f9 123e 7d39 263d 7cc7 2bbe
00000010: 40a5 a7bd f62c 94be 2946 273e 52bc c9bd
00000020: b06a 183d b849 60be fbe2 2bbe ab43 a33c
00000030: 4e18 86be 648d 133e a6ff 40bd 6f88 ee3b
00000040: dc1c 12be fc68 ee3d 9078 533d 8116 03be
00000050: 06e9 f6bd 4a51 e63d c1f8 313b 0dfb 6abe
00000060: 5b2e 3cbe 8b2a 563d 88a1 2ebe 5f11 fb3d
00000070: e26f 803e ddb8 103e 92ff 1bbe f8f2 f0bd
00000080: b9db 6d3e cca0 15be fbae 903d 454f 8fbe
00000090: bfbe 873c e90b 3ebe 98c5 c73d 1df2 8e3e
000000a0: 5e5d 0fbe bcbf 5ebd 8e57 37be 30bd 0cbc
000000b0: f798 a73b 62ca 41be df8e cbbd 74e1 633d
000000c0: e288 2f3e 5fee 463e 90f2 55bd 0146 c03d
000000d0: fb40 6a3b d3b3 873d c9b7 5dbd d5e0 3b3d
000000e0: cca7 25bd b3e7 bb3d cb91 9f3e ba49 143e
000000f0: 4a2c ef3d ca2e 9bbd 8c92 78bd 40bd 9dbd
00000100: 2a93 8c3d 3130 64be 57ac 8d3d 4449 58ba
00000110: e760 813d 8ecc 93bc 2b85 c7bc 3fec 003e
00000120: f140 3fbe 5fdc f73d 4d13 ad3d aad2 c4bc
00000130: 91b1 20be 8c21 053c c81a 3d3e 0535 46bc
00000140: 1dd7 04be 18b0 a43d 2589 da3d c57e ff3c
00000150: 0c27 bd3d e201 8fbd 70d7 18be 1a98 26bd
00000160: 9d94 2d3e af7a 153e 6938 4b3d 8b09 c1bd
00000170: f440 ca3d c27f 10be 8e7d 8a3d e490 bebd
00000180: f2c0 a0bd 472b 04bd 39fc 873d c7a8 063e
00000190: b25c 51bd 0f15 f0bd 3c23 3abe 4337 c9bc
000001a0: a6eb 9c3c e13d f83c 77e5 d33d 4e8e 20be
000001b0: 0488 183d 10fa 133d 66bb 5dbc 8c69 b93d
000001c0: 8dca 7e3c f570 ef3d d93b 743d 2386 923c
000001d0: 321f ad3d 258d 1ebd 221a 2e3d fa53 22bd
000001e0: e77f 1c3d aa29 ac3d ef30 743d ccf6 93be
000001f0: e724 b4bd 698b 6cbe 0447 b53e 958d a0bd
00000200: 7e30 583e f31f 90be 128a f6bc 9a17 9abd
00000210: c71e abbe d945 983d d9a5 783d 2366 60bd
00000220: 5554 54be 18d5 30bd 55b8 8f3d 88e4 6abe
00000230: 4b68 17be a1bd ca39 3b9b 6c3b 14e8 7abe
00000240: 86a9 b13c 7b67 bcbd cc4a c2bc 79b3 4b3d
00000250: caf8 a53d b638 023e b6dd 9a3d a61b 38be
00000260: d519 543e 6555 413c 3561 ffbd 9b95 bfbe
00000270: a0e0 eb3d e158 22bd c04b 253e 11f1 473e
00000280: 5d68 54be 16d9 12be 6be2 3dbe f5bd 9b3d
00000290: 9685 cf3b 3a2f 67bd a0f8 abbc 6b41 3d3e
000002a0: dd48 133e 2def 833e 81b1 a33c fc7c 793e
000002b0: bc73 013e 9da3 243e 6a7d a1bd cc12 82bd
000002c0: 1ce6 99bd 54fb 2c3d fed4 813e 9030 ad3d
000002d0: eb77 b9bd 5618 3f3d 3170 8dbc d0e7 853b
000002e0: 3a62 253d a01d bcbd d8d0 bc3d 7b8f a8bd
000002f0: ed59 823c 0349 81be e841 37be 7606 b9bc
00000300: b576 1bbe b107 063e 50d5 abbd faff cc3c
00000310: 8722 0ebd c0d1 063e 95af e23c d45e 15bd
00000320: 73f5 84bd 2733 953d fbed 43bd ad71 59bd
00000330: 9351 413c f2dd efbd 39cc a3bd 038d 173d
00000340: d0ee 0b3e ad63 2f3e 8ad1 913d c9d9 c23a
00000350: b28e 05bc 3f92 dcbd dafc 053d b503 65bd
00000360: 1e2e ce3a d0bc 4dbc 0a38 2c3e f9b2 7d3e
00000370: 668e 3fbe e7c7 2b3e 493d c8bd 06f7 96bd
00000380: 060f fc3c 53db bc3c 56e7 fdbd a9ff e33c
00000390: 4d99 01bd 7c8d 1bbd 6013 4abd bc26 073e
000003a0: dcc2 f2bd 857d 8b3c 5036 273d da9b 6e3d
000003b0: 48ac 1fbd 89b8 d9bd 77f0 843e bc4b 5d3e
000003c0: 9df9 45be 747f 3e3d dcd1 bd3c 9f5a 97be
000003d0: 7671 8c3d f3ad d1be 259f c93e 7b16 32bd
000003e0: 31ff 3a3e a736 ecbe cdb0 18be 7d7d 0c3d
000003f0: b83d a1be 7d7c 24bd 1b20 0c3d 28c4 d2bd
-0.061914753 0.14353088 0.04058217 -0.16775316 -0.08185816 -0.28940552 0.16335358 -0.098503724
0.03721112 -0.21903121 -0.16785805 0.019929728 -0.26190418 0.14409405 -0.047118805 0.0072794477
-0.14268821 0.11641118 0.05162865 -0.12801553 -0.120561644 0.112459734 0.0027156326 -0.22947331
-0.18377058 0.052286666 -0.17053807 0.12259173 0.2508536 0.1413302 -0.15234211 -0.117650926
0.23228349 -0.1461212 0.07064625 -0.27990165 0.016570447 -0.18559231 0.09754485 0.27919093
-0.1400046 -0.05438207 -0.17904493 -0.008590028 0.0051146704 -0.18924859 -0.0993936 0.05563493
0.1714206 0.19426869 -0.05223328 0.09388352 0.0035744298 0.066260956 -0.05413035 0.045868713
-0.040443227 0.091750525 0.3116592 0.1448125 0.11678369 -0.07577284 -0.060686633 -0.07702112
0.06864007 -0.22284009 0.06917637 -0.00082506635 0.06317311 -0.018041875 -0.024355492 0.1259012
-0.18677117 0.12102579 0.08450947 -0.024026234 -0.15692736 0.008125674 0.18467247 -0.012097602
-0.12972684 0.080414 0.106706895 0.031188378 0.09235963 -0.06982781 -0.14925933 -0.0406724
0.16951223 0.14597581 0.049614344 -0.09425648 0.0987567 -0.14111236 0.06762229 -0.093049794
-0.078493014 -0.032267835 0.066399045 0.13150321 -0.05111379 -0.117227666 -0.18177503 -0.024562484
0.019155335 0.030302944 0.10346501 -0.15679285 0.03723909 0.03612715 -0.013533449 0.090533346
0.015551222 0.11691467 0.059627388 0.017886227 0.08453216 -0.038708825 0.04250539 -0.039630868
0.038207915 0.08406384 0.05961698 -0.2889923 -0.08796101 -0.23100056 0.35405743 -0.07839505
0.21112248 -0.28149375 -0.030095134 -0.07524033 -0.3342192 0.074351974 0.06070504 -0.054784905
-0.20735295 -0.043171972 0.070175804 -0.2293874 -0.14785878 0.00038669727 0.0036103267 -0.24502593
0.02168728 -0.09199425 -0.023717307 0.049731705 0.081040934 0.12716946 0.07561819 -0.17979297
0.20712979 0.011800145 -0.12469713 -0.37418827 0.11517453 -0.039635543 0.16142178 0.19525553
-0.20742936 -0.14340624 -0.18543403 0.07604591 0.0063330634 -0.056441523 -0.020992577 0.18481986
0.14383264 0.25768414 0.019982101 0.24364084 0.12641805 0.16078039 -0.07885249 -0.063512415
-0.07514593 0.042231873 0.25357813 0.08456528 -0.09056076 0.046654068 -0.017265411 0.004086472
0.04037688 -0.09185338 0.09219521 -0.08230492 0.01591202 -0.25251016 -0.17896235 -0.022586089
-0.15182002 0.13088872 -0.083902955 0.025024403 -0.034700897 0.13165951 0.027671615 -0.03646739
-0.06492128 0.07285147 -0.047834378 -0.053086925 0.011799234 -0.117122546 -0.07997937 0.036999714
0.13665318 0.17127867 0.071200445 0.001486593 -0.008151697 -0.10770082 0.03271184 -0.05591174
0.0015730297 -0.012557223 0.16818252 0.24775304 -0.18706664 0.16775475 -0.09777314 -0.07371335
0.030768882 0.0230538 -0.123976395 0.02783187 -0.03164034 -0.037976727 -0.049334884 0.1319837
-0.11853573 0.017027626 0.04082328 0.0582541 -0.03898266 -0.106309004 0.2596471 0.21610922
-0.19333501 0.046508268 0.023171358 -0.29561326 0.068575785 -0.40953025 0.3937923 -0.04347847
0.1826141 -0.46135446 -0.14911194 0.034299362 -0.314924 -0.040157784 0.034210306 -0.1029132

bias_ih_l0 f4 [240]
00000000: c88e 3fbe 9b1f 9ebe a4c7 5bbe 0c0e 76bd
00000010: 8782 a7be 50e3 34bd 1867 1cbe 24dd 6bbe
00000020: 2aa2 a0be 6e05 d23b a44a aabe 439b a1be
00000030: d88a 823c 3ce3 b4be fe1c 2bbe 28ad 5abe
00000040: 1302 54be c1a7 d5be 33a1 9cbe d936 81be
00000050: 48a7 1ebe c0d3 81be a67c 8cbe d7eb b3be
00000060: bf51 b4be b194 adbe 699d 35be ca08 8ebe
00000070: b435 79bd 1ade 06be 03dc 3abe c42a 10be
00000080: 0190 a0be 52c1 f2bd 5ac8 a2be 49fe 80bd
00000090: 2425 54be bfc7 00be ee3f 45be 5f49 58be
000000a0: e1a7 a8be de03 7dbe 7b20 80be 6810 8bbe
000000b0: 2696 c0be 6c50 57be c469 afbe 4521 d2be
000000c0: 7c56 1fbe 8393 33be dac8 4cbe e55b 0ebe
000000d0: 487f adbe 5abb 88be f29c 86be 6061 b8be
000000e0: 993d a0be 1ba3 82be 5a46 fcbd 93b2 90be
000000f0: e228 bfbd e58e 3e3c 5deb a3be 3304 98bd
00000100: a1b9 1ebe a7c7 2abe b8c8 36be c980 7fbe
00000110: 1d38 d8bd ce4e 053e 3fe7 87be 3fcd 32be
00000120: ce4d 2ebe 667a 96be 047d 4abe 8a4e f7bd
00000130: 4833 56be 05be a2be b2c5 8dbe 2ec6 8cbe
00000140: 6e72 a0be 9081 43be 1fc7 acbe bbff 51bd
00000150: 61d5 85be f09f a6be d81c 09be 5157 a0be
00000160: 54e5 febd 7b07 acbb 6361 fabd 9340 743b
00000170: 6b6f 4bbe 5a46 81bd 4e7d 06be 100b 03be
00000180: 71a6 47be 0aad 1cbc 3db2 50be 8a62 53be
00000190: 8662 6bbe 09ec 96be 6ab4 33bd 57c4 6cbe
000001a0: cb24 9bbe 10d1 92bc 3a6f 01be 4005 47be
000001b0: 6758 7dbe fa12 96bd 912d 89be d0b1 a43c
000001c0: af2a 86be 9a0c 33be f82b 46be bad2 5abe
000001d0: d8cc c4bd 184e 9fbe 83b0 20be 0ef7 1bbe
000001e0: 18db 843d 9624 04bd 4485 e6bd f4de 9f3b
000001f0: f05c 833d 55e3 563d 8cbe b0bd 145a 223d
00000200: 1a6e 52bd ca95 343e 6c18 3b3d 9994 97bd
00000210: 58f9 9bbc 7bc8 49bd 0497 803d 6f5f 8d3d
00000220: 4992 dd3d 2781 99bd 12f8 3ebc 919a eebc
00000230: f338 d93d 1f64 243d 803f b03d f7d8 bd3d
00000240: 8bb8 5d3d c6de 213c b7f8 903d 5318 d1bd
00000250: dae1 a0bd 77b0 1dbd 7150 993d 3abb 8b3d
00000260: 5d5f 89bc 19dd 683d 8423 483d 4455 9a3d
00000270: fb60 e3bd ab7d 54bd f256 6abd bcb1 e4bd
00000280: cf35 833c 07a1 813d aa2e 2abd 17af 093d
00000290: ee1b e73d 22ee 1a3c 892a 7b3d 3596 623d
000002a0: e7fd c3bd db96 e13c 96ed 6c3d 22c5 c9bd
000002b0: e85c 9c3d 8c71 1dbd 10bc ac3c 17b1 0b3c
000002c0: f55e fe3d b327 1fbd b64c 823c c297 df3b
000002d0: ec3f 33be 60d5 e8bd b8e1 b3be 587b 10be
000002e0: 9fdc aabe 80d6 12be f27c 37bd 1648 5bbe
000002f0: d240 a5be 754c b3bd 3637 8fbe 34ae 3dbe
00000300: ca6a 453c 2b98 09be 8c57 2fbe 648e 24be
00000310: 7970 36be 6b9b 2abe 9eae 3dbe e8b8 5cbe
00000320: 3a99 38be a955 b4be 3b7a c0be 3441 edbd
00000330: f17f 2dbe 65c8 2ebe 8b2b 86be 860d 90be
00000340: 7b70 45be bde4 72bd fd08 30be 0e5d 37be
00000350: e972 afbe 4b7d 45be 75ff adbe 8813 89be
00000360: 184a 3cbe 7817 18be c1fa 77be af97 40bd
00000370: 61d0 a2be aece e2be 36a6 9ebe 599b a0be
00000380: e629 6bbe dfc2 39be 25f4 adbe 9cad a3be
00000390: 2438 8bbd ad61 63be ec63 d6be 2f6a 95bd
000003a0: 8b84 9cbe cb6f 66be 40d0 d8be 2826 83be
000003b0: e916 a9be de2a 8cbe 1a52 88be 949e c4be
-0.1870681 -0.30883488 -0.21462876 -0.06007199 -0.32716772 -0.044162095 -0.15273702 -0.23033577
-0.3137372 0.0064093387 -0.3326007 -0.31563768 0.015935346 -0.35329616 -0.16710278 -0.21355116
-0.20703916 -0.4172955 -0.30591735 -0.25237158 -0.154935 -0.25356865 -0.2743885 -0.3514087
-0.35218617 -0.33902505 -0.17735828 -0.2774108 -0.06084223 -0.13170663 -0.1824799 -0.14078814
-0.31359866 -0.11853279 -0.3179348 -0.06298501 -0.20717293 -0.12576197 -0.19262668 -0.21121739
-0.3294058 -0.24708506 -0.2502478 -0.27160954 -0.37614554 -0.21026772 -0.3426038 -0.41041008
-0.15560335 -0.1753674 -0.19998494 -0.13902242 -0.3388617 -0.26705438 -0.26291615 -0.3601179
-0.31296995 -0.25515065 -0.12318106 -0.2826124 -0.0933397 0.011630748 -0.32015505 -0.07422676
-0.155005 -0.16677724 -0.17850006 -0.24951471 -0.10557578 0.13018343 -0.26543614 -0.17461108
-0.17021868 -0.29390258 -0.19774252 -0.12075527 -0.20918 -0.31785598 -0.27689892 -0.2749495
-0.31337303 -0.19092393 -0.33745667 -0.051269274 -0.26139358 -0.32543898 -0.1338991 -0.31316617
-0.124460846 -0.005249915 -0.12225606 0.0037269935 -0.19866721 -0.063122466 -0.13133737 -0.12797189
-0.19497086 -0.00956274 -0.20380493 -0.20643058 -0.22986802 -0.29476956 -0.043873228 -0.23121773
-0.30301508 -0.017921954 -0.12640086 -0.19435596 -0.24740754 -0.07327838 -0.26792577 0.020104319
-0.2620444 -0.17485276 -0.1935271 -0.21369448 -0.09609383 -0.31114268 -0.15692334 -0.15230963
0.06487101 -0.032261454 -0.11255887 0.004878873 0.06414211 0.052462894 -0.08630094 0.039636686
-0.051374532 0.17635265 0.045677587 -0.0740139 -0.019039795 -0.04926346 0.06278804 0.06902968
0.10818917 -0.07495337 -0.011655824 -0.029126437 0.10606565 0.040134545 0.08605862 0.092698984
0.054131072 0.0098797735 0.070786886 -0.102097176 -0.07855578 -0.038498368 0.07486046 0.0682282
-0.016769106 0.05685148 0.048861995 0.075357944 -0.11102482 -0.05187766 -0.057211824 -0.11166713
0.016016869 0.06329542 -0.04154841 0.033614244 0.11284624 0.009456189 0.06131986 0.05531903
-0.095699124 0.027537754 0.057843767 -0.09852053 0.07634908 -0.038438365 0.021085769 0.008526108
0.12420455 -0.03885622 0.01590572 0.006823511 -0.17504853 -0.11368823 -0.35133147 -0.14109552
-0.33371446 -0.14339638 -0.04479689 -0.21414217 -0.32276016 -0.087548174 -0.2797181 -0.18523484
0.012049386 -0.13436954 -0.1712324 -0.16069943 -0.17816342 -0.1666085 -0.18523642 -0.21554911
-0.18027201 -0.35221604 -0.37593254 -0.11584702 -0.16943337 -0.17068632 -0.26205096 -0.28135318
-0.19281189 -0.059300173 -0.17190929 -0.17906591 -0.34267357 -0.19286077 -0.3398396 -0.26772714
-0.1838764 -0.14852703 -0.24216749 -0.047019657 -0.31799605 -0.4429831 -0.30986184 -0.3136852
-0.22965202 -0.18140744 -0.3397533 -0.3196839 -0.06797817 -0.22205229 -0.4187311 -0.072956435
-0.30569872 -0.22503583 -0.42346382 -0.25615048 -0.33025292 -0.27376455 -0.2662514 -0.38402236

bias_hh_l0 f4 [240]
00000000: a46f 55be 9c8e 1dbe 31d0 27be 87b9 6bbe
00000010: 3497 89be bfb0 34be fc27 a1bc 43a1 95be
00000020: 05be 94be cc7f 96bd a1b7 96be b48b c5be
00000030: 8cea 12be a694 4ebe 127f 8dbe 1677 46be
00000040: fce4 9ebd 0fa2 77be 3d31 94be 1482 2dbe
00000050: a7dc 9bbe 6371 b5be 775b aebe e4c0 93be
00000060: 9f13 40be c556 c0be fd32 71be 9b8e cbbe
00000070: bd83 dfbc 69ce 2bbe f9ed 55be 1eba ed3c
00000080: 757c 81be 96d2 2ebe c47e 29be 87b4 5ebe
00000090: 2289 38be 7d21 a4be 93fb 82be 20f9 c7bd
000000a0: 9df0 93be 606e a4be f100 94be db7d c9be
000000b0: dc3a 71be 4e26 b0bd 18c2 9ebe 6048 dbbe
000000c0: 821e c7bd 25ab adbe f4af c6be 118d 55be
000000d0: ce34 58be aaef b4be bc57 9fbe f6be 31be
000000e0: 26fd 72be 452a 7abe f5b3 0abe 5c34 a6be
000000f0: 3a11 2cbe aa54 88bd 522d 8abe edab d53c
00000100: 1e25 8abe f1c5 5fbe 5b86 1bbe 0411 95be
00000110: d111 2cbe 471c a7bc af8a 98be 44f4 a2be
00000120: 2333 97bd ff31 20be 4fa9 4cbe 1584 33be
00000130: 1dfd 75bd 6013 87be 372d 18be accb f1bd
00000140: 1c18 fabd 4121 a8be 8be2 3bbe 3f0f 4abe
00000150: 0a28 8bbe cdfb 47be dbe5 23be cb11 67be
00000160: 7fe2 24be 43a5 69be eb5d 8bbe a54d bebd
00000170: dcdb 98be fdf2 39be fc4e 70be 27ad 95bd
00000180: d143 0dbe 3951 29be 1fdb 1dbe 6171 0fbe
00000190: e312 abbd a46e b2be df83 66be 29d7 8bbe
000001a0: f23e 08be 7599 08be 705b 35be ed8a 19be
000001b0: 04db 03bd 6377 94be bd3e 70be 9792 42be
000001c0: 1bff e1bd 336b 86be cc0e 57be 7603 18be
000001d0: 80bb 16bd d1a7 54be dddc 9fbd 5db5 96be
000001e0: abd9 5d3c b2b4 17bd 0bc6 923d d64d 3a3d
000001f0: 7c91 ad3d 4929 003c cadc 90bd 9ad7 453d
00000200: 2dca bb3c b6ab e83d c207 d0bc 4312 f43c
00000210: 3f39 d53d 377a ac3d 937d 8abd b473 b23d
00000220: 5875 8cbd 31dc 7cbc ebc9 fdbd 1045 a23d
00000230: 1146 72bd 4c82 c1bd 0e2b dabd a607 8dbc
00000240: f214 b9bd d4a5 76bd 2564 1f3d c7c7 9e3d
00000250: be55 03bb ea47 d7bc 2349 1dbc cf89 5f3d
00000260: 520c 7b3d 30bf 7d3d e056 aa3c 58d8 d9bc
00000270: 46d1 473d c465 a33d 514d 83ba afe8 a83d
00000280: 590f 13bd 859a a8bd d4e7 02bd f892 f7bc
00000290: 3e2e e7bd d164 8c3d 1d5c 7bbd eb78 21bb
000002a0: a3c3 8e3d a168 88bc 6baa f23c a4ab 05bc
000002b0: 9775 1fbd b96e 8abd 06ab 8abd 2929 893d
000002c0: 5fe0 afbd fe5a ecbb d4b0 5dbc a727 dfbd
000002d0: b79e bbbe a875 8fbe c798 4abe 9cd1 b0bd
000002e0: 34c8 56be 1d7b 77bc 0695 25be ca33 b1be
000002f0: 88dd b5be 089a 403d 7c75 6fbe 2040 66be
00000300: f662 fbbd 3a7b a3be 2093 2cbe 8ab0 90be
00000310: 4515 83be 52b9 bbbe de7e 6ebe 7d5f 27be
00000320: 9efc 85be 11ad bdbe ae54 e5be 1dde 2ebe
00000330: c503 54be 4a5c 6abe 6788 29be db8c 68be
00000340: c499 52be 8f38 7dbe c241 bdbe a0bb 42bd
00000350: 46cd 9ebe d0c4 b0bd 9fdf 52be 8673 bdbd
00000360: d0d3 8cbe 05d2 0cbe 6f97 c9bd 1957 b5bd
00000370: 13e9 1fbe f571 84be b43c 1cbe bbc0 98be
00000380: 1bdc 90be e3a6 89be 48ba 8fbe 1be2 dabe
00000390: 327b 3dbe 8178 4cbe 0c1a bdbe 4bdb 5abe
000003a0: bae5 91be d7d4 2cbe ce3a d6be 9ac2 88be
000003b0: fe3e 58be 506f afbe 9450 d2bc 67fd b4be
-0.20843369 -0.15386432 -0.16388012 -0.23019992 -0.2687317 -0.17645548 -0.019672386 -0.29224595
-0.29051223 -0.07348594 -0.29436973 -0.38583148 -0.14347285 -0.20173892 -0.2763601 -0.19381365
-0.07758519 -0.24182914 -0.28943816 -0.16944152 -0.30441782 -0.3543807 -0.34054157 -0.288581
-0.18757485 -0.375662 -0.23554607 -0.39757237 -0.027284497 -0.16777958 -0.2089156 0.029019412
-0.25290266 -0.1707252 -0.16552263 -0.21748553 -0.18021062 -0.320568 -0.2558256 -0.09764314
-0.2889451 -0.3211546 -0.28906968 -0.39353833 -0.2355761 -0.08601056 -0.31007457 -0.42828655
-0.09722616 -0.33919635 -0.38806117 -0.20854594 -0.21113893 -0.353391 -0.31121624 -0.17358002
-0.23729381 -0.24430187 -0.1354521 -0.32461822 -0.16803446 -0.066567734 -0.26987702 0.026082957
-0.26981443 -0.21852852 -0.15187971 -0.29114544 -0.16803671 -0.020399226 -0.29793307 -0.31826985
-0.073828004 -0.15644072 -0.19986461 -0.17530854 -0.06005584 -0.2638197 -0.14860998 -0.118064255
-0.1221163 -0.3283787 -0.18348138 -0.19732378 -0.27178985 -0.19529648 -0.16005652 -0.22565381
-0.16102026 -0.22816949 -0.2722009 -0.09292153 -0.2985524 -0.18159099 -0.2346763 -0.07308417
-0.13795401 -0.1653489 -0.1541562 -0.14008094 -0.08353212 -0.34850037 -0.22511242 -0.27312592
-0.13305262 -0.13339789 -0.17710662 -0.14994402 -0.03219129 -0.28997335 -0.23461433 -0.19001232
-0.11034986 -0.26253662 -0.21001738 -0.1484507 -0.036799908 -0.20767142 -0.07805798 -0.29435244
0.013540666 -0.03703756 0.0716668 0.045484386 0.084750146 0.007822343 -0.07073362 0.048301317
0.022923553 0.11360876 -0.025394324 0.029793864 0.104113095 0.08421748 -0.06762233 0.08713475
-0.06858319 -0.015433357 -0.123920284 0.07923329 -0.05914885 -0.0944868 -0.10652743 -0.017215561
-0.09037198 -0.06021674 0.038913865 0.07752948 -0.002004012 -0.026279408 -0.009599957 0.054574784
0.061291046 0.06194991 0.020793378 -0.026592419 0.048783563 0.07978395 -0.0010017549 0.08247506
-0.03590331 -0.08232597 -0.03195937 -0.030221447 -0.11288117 0.06855167 -0.061367143 -0.0024638723
0.069709085 -0.016651453 0.029622277 -0.008158598 -0.0389305 -0.067594 -0.067709014 0.06697304
-0.08587717 -0.0072129956 -0.013530929 -0.10896235 -0.36644527 -0.28019452 -0.19784842 -0.0863373
-0.20974809 -0.015105036 -0.16170129 -0.34609824 -0.35520577 0.047021896 -0.2338466 -0.22485399
-0.12274735 -0.31929952 -0.16852999 -0.2825969 -0.25602165 -0.36664826 -0.23290583 -0.1634502
-0.26169294 -0.37046102 -0.44791168 -0.17076917 -0.20704563 -0.22886768 -0.1655594 -0.22709982
-0.2056647 -0.24728607 -0.36964232 -0.047542214 -0.31015986 -0.08631289 -0.20593117 -0.0925055
-0.2750535 -0.13751991 -0.09843337 -0.08854503 -0.15616255 -0.25868192 -0.15257531 -0.29834542
-0.28292927 -0.26885137 -0.2807181 -0.4275063 -0.18504027 -0.19967844 -0.36933935 -0.21372716
-0.2849558 -0.16878067 -0.4184174 -0.2671097 -0.2111778 -0.34264612 -0.025673188 -0.3534958

weight f4 [1, 60]
00000000: 083a 813d ad88 dcbd 8eba 5c3d 15c4 d63d
00000010: a32a 40be 984c fb3d bbcf ffbc a677 04be
00000020: a313 083d 2eb4 353e a862 163d 0329 37bc
00000030: 16ec f03d 3a54 e9bd 19fc bbbc d9ec 7abd
00000040: a105 dcbc e792 6c3d 06db 573d 784e 2d3d
00000050: 8759 d3bc 9124 cdbc 03b2 acbd ebd0 db3d
00000060: 7fb6 b53d 06ab 113d 0e5b 0a3d d82e e8bc
00000070: 4da8 e0bd 2a99 18bd 01f0 abbc 7d94 353e
00000080: a1cb 00be 376d b5bd 1186 e9bd e32d ad3d
00000090: 1818 783d bc02 fdbc 9700 afbd b5b4 5bbd
000000a0: ff02 853d 555c 8b3d 261f 093e 7e14 a23b
000000b0: 173e 343d c95a b03c 37f2 7d3d 3f19 3eba
000000c0: 02d8 47bd f1ff a4bd ae02 e7bd 67d9 f6bd
000000d0: 1865 87bd 0ab6 4fbb f4f9 ed3c 0869 05be
000000e0: 305a 41bd d5d4 043d cf9a f4bd c0b0 ed3d
0.06309897 -0.10768256 0.05388885 0.104866184 -0.18766265 0.122704685 -0.031226983 -0.12936267
0.033221852 0.17744514 0.03671518 -0.011179212 0.1176378 -0.11393018 -0.022947358 -0.06126103
-0.026858153 0.057757284 0.05269911 0.04231116 -0.025799526 -0.02504185 -0.084323905 0.10733207
0.08872699 0.03556349 0.033778243 -0.02834265 -0.10969601 -0.037255444 -0.020988466 0.17732425
-0.12577678 -0.08858722 -0.11402524 0.08456018 0.060569853 -0.030885093 -0.085450344 -0.053639133
0.06494712 0.0680472 0.13390788 0.0049462905 0.044004526 0.021527665 0.061998572 -0.0007251687
-0.048789985 -0.080566294 -0.11279808 -0.12053185 -0.06611079 -0.0031694197 0.029049851 -0.13028347
-0.04720515 0.032429535 -0.1194359 0.11605978
