models/epoch=1_bestloss=inf.pt (torch, 184855 bytes, 11 tensors)

weight_ih_l0 f4 [240, 1]
0	0x3efad1d8	0.48988223
1	0x3e352d1f	0.17692994
2	0xbdf77092	-0.12082018
3	0x3f2a150a	0.66438353
4	0x3c9e6998	0.01933746
5	0x3e9636bd	0.29338637
6	0x3f14ed42	0.58174527
7	0xbd1675b9	-0.036733363
8	0x3e155d78	0.14586437
9	0xbd0e2d68	-0.03471127
10	0x3e91b2a4	0.28456604
11	0x3dea0c64	0.114281446
12	0x3f01ab43	0.5065195
13	0x3d120c70	0.035656393
14	0x3f39b86d	0.72547036
15	0x3ec437af	0.38323733
16	0xbdd67e1e	-0.10473274
17	0x3dd3dc46	0.10344748
18	0xbc6e2b04	-0.014536623
19	0x3e6ad77e	0.22933766
20	0xbdb95e28	-0.09051162
21	0xbd1ddb28	-0.03853908
22	0x3ef7f10c	0.48426092
23	0x3edf057a	0.43558866
24	0x3e92de59	0.28685263
25	0x3efdc273	0.49562415
26	0x3da89a5c	0.08232567
27	0xbdae2f48	-0.08505112
28	0x3ddd3bca	0.108024195
29	0xbd91d268	-0.0712021
30	0x3e038edf	0.1284747
31	0xbe19b69d	-0.15011068
32	0x3e025099	0.12726058
33	0x3f04a242	0.51810086
34	0x3f2592d8	0.6467719
35	0x3efd024c	0.49415815
36	0x3dddd83c	0.10832259
37	0x3bd5dec3	0.0065267994
38	0x3ea11389	0.31460217
39	0xbd063210	-0.032762587
40	0x3ec3b773	0.38225898
41	0x3db2939a	0.08719559
42	0x3f371666	0.7151855
43	0x3e9c8d94	0.30576766
44	0xbdc51cfb	-0.09624668
45	0x3de50abb	0.11183687
46	0xbd8ba4c7	-0.06818538
47	0x3e79a87a	0.24380675
48	0x3e6647c6	0.22488317
49	0x3e93cfb4	0.28869402
50	0x3ec107b4	0.3770119
51	0x3daff0a6	0.08590822
52	0x3d20d07a	0.03926132
53	0x3ebbae74	0.36656535
54	0x3db4322e	0.087986335
55	0xbc3da6e6	-0.011575436
56	0x3d930f97	0.07180708
57	0x3ec7a02d	0.38989392
58	0xbcb7cc80	-0.02243638
59	0xbb4a3b6d	-0.0030858174
60	0x3e77a93c	0.24185652
61	0xbd71600a	-0.05892948
62	0xbe01119c	-0.12604374
63	0x3ee4290e	0.44562572
64	0xbdc796a1	-0.09745527
65	0xbc61b93e	-0.013777075
66	0x3e6a441e	0.22877547
67	0x3d160a4e	0.03663092
68	0x3e38b4f7	0.18037783
69	0xbd123278	-0.035692662
70	0x3e2bf280	0.16791725
71	0x3dbb0731	0.09132231
72	0x3ebd0644	0.36918843
73	0x3db4860c	0.0881463
74	0x3ec46daf	0.38364932
75	0x3eba777a	0.36419278
76	0xbe2dfe5f	-0.16991566
77	0xbd4a99a0	-0.049462914
78	0xbe0c56bf	-0.13704966
79	0xbb0f451c	-0.002186126
80	0xbd3359f4	-0.043786958
81	0x3dbc89ba	0.09205957
82	0x3e38bf11	0.18041636
83	0x3e657181	0.2240658
84	0x3e21aa0d	0.15787525
85	0xbcaf28d9	-0.021381782
86	0xbd83699f	-0.0641663
87	0x3c57ce14	0.013171691
88	0x3c0913a9	0.008366504
89	0x3b9c271b	0.004765404
90	0x3d2708e8	0.040779978
91	0x3d03be4a	0.032163896
92	0x3e329a8c	0.17441767
93	0x3e92ce99	0.28673247
94	0x3f232317	0.6372542
95	0x3e634890	0.22195649
96	0x3d08bf8c	0.0333858
97	0xbe22a86f	-0.15884565
98	0x3ccf3f53	0.02529875
99	0x3dbb7402	0.09152986
100	0x3eda88b5	0.42682424
101	0x3d80310f	0.06259357
102	0x3eb64d8d	0.35606042
103	0x3ea3d342	0.31997114
104	0xbe1b1589	-0.15144934
105	0x3d3ab761	0.04558504
106	0xbdbb9776	-0.09159748
107	0x3d86c127	0.0657981
108	0xbc6e92a2	-0.014561327
109	0x3e9e63fd	0.3093566
110	0x3e92c107	0.28662893
111	0x3db6b5eb	0.08921417
112	0x3ccd0340	0.025025964
113	0x3e317854	0.17331058
114	0xbd83e594	-0.06440273
115	0xbd5ee623	-0.054418694
116	0x3ddd7192	0.108126774
117	0x3cb4ea4b	0.022084376
118	0xbdcefb44	-0.10106519
119	0xbe0645a6	-0.13112506
120	0x3ed7b60d	0.4213108
121	0x3e86cee6	0.26329726
122	0xbc9222ec	-0.017838918
123	0x3f40207b	0.7504956
124	0xbdab7011	-0.08370984
125	0xbef3cbb5	-0.47616354
126	0x3f0647bf	0.52453226
127	0x3e0c88c9	0.13724054
128	0xbf08e844	-0.5347941
129	0xbe93ab61	-0.2884169
130	0x3ea3bff9	0.319824
131	0x3e51f6b4	0.20504266
132	0x3efd1f69	0.49438027
133	0xbeb78c88	-0.35849404
134	0x3f438cc3	0.7638666
135	0x3eefc456	0.4682948
136	0xbef52e38	-0.47886825
137	0x3dcbea65	0.099568166
138	0xbe871714	-0.26384795
139	0x3e6d93d9	0.2320093
140	0x3e6ce85c	0.23135513
141	0xbe781175	-0.2422541
142	0xbecb5f3c	-0.39721096
143	0xbf212428	-0.62945795
144	0x3efff457	0.49991104
145	0xbf36fa6d	-0.7147587
146	0xbe9de330	-0.30837393
147	0xbdd849bd	-0.105609395
148	0x3e625b03	0.2210503
149	0x3e1ffad5	0.15623029
150	0xbf08b2da	-0.53397906
151	0xbbca76e0	-0.006178722
152	0x3e8f0463	0.27933034
153	0x3f1642c9	0.58695656
154	0x3f42c643	0.76083773
155	0x3f299ba3	0.6625311
156	0x3e0a3e95	0.13500436
157	0xbf0c979b	-0.5491883
158	0xbedbfc30	-0.4296584
159	0xbe861ca1	-0.26193717
160	0x3f27ebe2	0.65594304
161	0x3f0070c9	0.50172096
162	0x3f463df1	0.77438265
163	0x3ec57902	0.38568884
164	0x3e5534f4	0.20820981
165	0xbe163633	-0.14669113
166	0xbdd359a9	-0.10319836
167	0xbea56fb4	-0.32311785
168	0x3e98ef8d	0.29870263
169	0x3f1fdef4	0.62449574
170	0x3f0546f5	0.52061397
171	0xbcbf115d	-0.02332371
172	0x3b856cfd	0.0040718303
173	0x3f0f3734	0.5594361
174	0xbe01126e	-0.12604687
175	0xbdc0a96f	-0.09407317
176	0x3f0e443e	0.5557288
177	0x3ef21757	0.47283432
178	0x3c55e6d0	0.013055518
179	0xbec14a56	-0.37752026
180	0x3d998dca	0.07497747
181	0xbd97c525	-0.07410649
182	0xbd993ad9	-0.074819274
183	0x3eb1e26b	0.34743056
184	0xbda007a7	-0.078139596
185	0x3db52e37	0.088467054
186	0x3de7fd34	0.113275915
187	0x3d8daab4	0.06917325
188	0x3e56d5b2	0.20979956
189	0x3dbf9051	0.09353698
190	0xbd6bd750	-0.057578385
191	0xbd5b928c	-0.053606555
192	0x3e3fcb0b	0.18729798
193	0xbc7d9259	-0.0154767865
194	0x3efb4fc5	0.49084297
195	0x3ddb80e5	0.10717944
196	0x3d8c5ce4	0.06853655
197	0xbd90724b	-0.0705305
198	0x3bf3957a	0.0074335905
199	0xbea89278	-0.32924247
200	0x3d949c8d	0.07256422
201	0x3d087da2	0.033322938
202	0x3e7af792	0.24508503
203	0x3e6ef54c	0.23335761
204	0x3e448acb	0.1919357
205	0x3e411ecc	0.18859404
206	0x3d7acda0	0.061231256
207	0x3b92ef2a	0.004484077
208	0x3d2ceae4	0.042216197
209	0xbda34c90	-0.079735875
210	0x3d989ac2	0.07451393
211	0xbdb46187	-0.08807664
212	0x3dd1f55e	0.10251878
213	0x3e918b92	0.28426796
214	0x3ec1865e	0.37797827
215	0x3e92efbf	0.28698537
216	0x3dd580a9	0.104249306
217	0x3d27e6e2	0.04099167
218	0xbbd2bd6c	-0.0064312723
219	0x3beab93c	0.007163195
220	0x3e9e9344	0.3097173
221	0xbdbee389	-0.09320743
222	0x3e9fe491	0.3122907
223	0x3e68977b	0.22714035
224	0xbd720f32	-0.059096523
225	0x3d4d7e48	0.05016926
226	0xbc444d78	-0.011981361
227	0x3c473476	0.012158504
228	0x3d4a6509	0.04941276
229	0x3e5280b7	0.20556913
230	0x3e9e9a79	0.30977228
231	0x3c20f746	0.00982458
232	0xbbfbcc42	-0.0076842615
233	0x3e7e5b91	0.24839617
234	0xbe20deda	-0.15710011
235	0xbdecde62	-0.11565854
236	0x3d0550eb	0.032547873
237	0x3d7695bd	0.060201395
238	0x3c025e17	0.007957003
239	0x3d702d3e	0.058636896

weight_hh_l0 f4 [240, 60]
0	0x3db0732f	0.086157195
1	0x3dd36629	0.1032222
2	0xbcb52664	-0.022113033
3	0x3d1637f1	0.036674444
4	0xbe0d1cec	-0.13780564
5	0x3dacaeee	0.08431803
6	0x3dd4401e	0.10363792
7	0x3e13fba5	0.14451464
8	0xbd72d150	-0.059281647
9	0xbde4ae9f	-0.11166119
10	0xbc624d62	-0.013812395
11	0x3d8d1062	0.068878904
12	0xbe031dc4	-0.12804323
13	0x3d6e36da	0.05815778
14	0x3dc49e0f	0.0960046
15	0x3d0f8945	0.03504302
16	0xbe25f77d	-0.1620769
17	0xbdb11bf9	-0.086479135
18	0xbd02d932	-0.031945415
19	0xbdf6bdfb	-0.12047955
20	0xbd98c60f	-0.07459652
21	0xbcdb6b0e	-0.026784446
22	0xbd9b07e4	-0.075698644
23	0x3d64fad3	0.055903267
24	0x3dd1f15c	0.10251114
25	0xbdbc5a78	-0.09196943
26	0xbd10f043	-0.03538538
27	0xbd8805af	-0.06641709
28	0xbc5222e0	-0.012825698
29	0x3d2f06e4	0.04273118
30	0xbcb874bd	-0.022516603
31	0x3e0fc703	0.1404076
32	0xbe153e54	-0.14574558
33	0x3db04a5e	0.086079344
34	0x3d8b575b	0.06803771
35	0xbc1b998a	-0.009497056
36	0x3d0592e4	0.03261079
37	0xbdc72155	-0.097231545
38	0xbd3405f8	-0.043951005
39	0xbd6a2058	-0.05715975
40	0x3d2d3e7d	0.04229592
41	0xbd68856b	-0.056767862
42	0x3d801f36	0.06255953
43	0xbd5efed5	-0.054442246
44	0x3cbaf05b	0.022819689
45	0xbe1b4591	-0.15163256
46	0xbd0a35c6	-0.03374269
47	0xbe1bd7cb	-0.15219037
48	0xbc8bfc8d	-0.017088199
49	0x3e0bc4ca	0.13649288
50	0x3db5d8f7	0.088792734
51	0xbe19174a	-0.1495029
52	0xbdd047fe	-0.101699814
53	0x3da96fab	0.08273252
54	0xbaae2804	-0.0013287072
55	0xbd70aeb2	-0.058760352
56	0xbc911c54	-0.017713703
57	0x3e26b878	0.16281307
58	0x3e146077	0.14489923
59	0x3d29566a	0.041342176
60	0xbc965cd4	-0.01835481
61	0x3e0c8395	0.1372207
62	0x3df785b2	0.12086047
63	0xbdbe306b	-0.09286579
64	0xbdc4c1ce	-0.09607278
65	0x3da85cdc	0.082208365
66	0x3c0ad0b4	0.00847261
67	0x3da5ba97	0.0809223
68	0xbd69c8af	-0.057076152
69	0xbd1bd7e1	-0.038047675
70	0xbc950609	-0.018191354
71	0x3c777c1c	0.015105274
72	0x3d1f18ac	0.03884189
73	0xbdbe3bda	-0.092887595
74	0xbd716158	-0.058930725
75	0xbcd67c97	-0.026182456
76	0x3dd21e6b	0.10259708
77	0xbcfa5005	-0.030555734
78	0xbe0e4296	-0.13892588
79	0xbdfa6117	-0.1222555
80	0x3d3298b0	0.043602645
81	0xbc2d25c9	-0.010568091
82	0x3dbb3c29	0.09142334
83	0xbe0cf685	-0.13765915
84	0xbc8b21ac	-0.01698383
85	0x3d7e9549	0.06215409
86	0x3c297acb	0.0103442175
87	0xbb11301c	-0.002215392
88	0xbd9dc0d1	-0.077027924
89	0xbd2afec9	-0.04174689
90	0xbc11c612	-0.008897321
91	0xbc957143	-0.018242484
92	0x3d955297	0.072911434
93	0x3cd84cbc	0.026403777
94	0xba8c285c	-0.001069318
95	0xbdeb2bbb	-0.1148295
96	0xbd8d4fed	-0.0690001
97	0xbcfcb9bf	-0.03085029
98	0x3d50bb4f	0.05095988
99	0x3c03b38a	0.008038411
100	0x3a50008a	0.00079346506
101	0x3e1645f4	0.14675122
102	0x3a76ab07	0.00094096403
103	0x3d0a6729	0.033789787
104	0x3d205f53	0.03915341
105	0x3d0d3c57	0.034481373
106	0x3ca2d02f	0.01987466
107	0xbe1094f3	-0.1411932
108	0x3db2c2f4	0.087285906
109	0xbd733fa0	-0.05938685
110	0x3e2c7db1	0.16844822
111	0xbdf6f74a	-0.120588854
112	0x3dcdf833	0.10057106
113	0x3dad98d6	0.08476417
114	0xbd090b96	-0.033458315
115	0xbe156e6f	-0.14592908
116	0x3d8b96fd	0.06815908
117	0x3c28f50e	0.010312332
118	0x3cda1939	0.026623355
119	0x3cf9247f	0.03041291
120	0xbd8eb3e4	-0.06967905
121	0xbbb03a2e	-0.0053780293
122	0x3d9cd253	0.07657304
123	0x3d7816d8	0.06056866
124	0xbd97e3fb	-0.07416531
125	0x3d335034	0.04377766
126	0xbd75bff2	-0.059997506
127	0x3d4ca138	0.049958438
128	0xbddbe3d5	-0.10736815
129	0xbdf5ea4f	-0.120075814
130	0xbdd4d6e7	-0.10392552
131	0x3e001f18	0.12511861
132	0xbdce3ba4	-0.10069969
133	0x3d41cc79	0.04731414
134	0x3d718687	0.058966186
135	0xbba41de9	-0.0050084484
136	0xbd5a44bc	-0.053288206
137	0xbda8a20d	-0.08234034
138	0x3cf021f6	0.029313069
139	0x3d157e92	0.03649766
140	0x3d89b8a4	0.067246705
141	0x3cc0aecb	0.023520848
142	0x3e32fa35	0.17478259
143	0x3e191600	0.14949799
144	0x3b4d2a6e	0.0031305808
145	0xbd85b76a	-0.06529124
146	0x3db2943a	0.08719678
147	0x3dcfa366	0.10138588
148	0xbcf0235c	-0.029313736
149	0x3de989d1	0.114032395
150	0xbd5e7479	-0.054310296
151	0x3ddeeeea	0.10885413
152	0xbded3328	-0.11582023
153	0xbc623d9f	-0.013808637
154	0xbd9935af	-0.074809425
155	0xbe0789be	-0.13236138
156	0x3b314b37	0.0027052888
157	0xbde2212b	-0.110414825
158	0x3cfd246d	0.030901158
159	0xbe227ed4	-0.15868694
160	0xbcb32a68	-0.021870807
161	0x3d04bedf	0.03240859
162	0x3d242b77	0.040080514
163	0x3d99d3dc	0.07511112
164	0xbd74bc2b	-0.059749763
165	0x3d6b50fe	0.057450287
166	0xbe0269e2	-0.12735704
167	0x3d7dcbc5	0.061961908
168	0xbd747be2	-0.059688456
169	0x3da8fedb	0.08251735
170	0x3e0abea2	0.13549283
171	0xbd7cdfeb	-0.061736982
172	0x3dff2cd0	0.12459719
173	0xbd002581	-0.031285767
174	0x3d28b9b7	0.041192736
175	0xbe1a445d	-0.15065141
176	0x3decc676	0.11561291
177	0x3e040d4c	0.12895697
178	0xbcec19af	-0.02882084
179	0x3d417759	0.04723296
180	0xbd80244a	-0.062569216
181	0x3d8eda66	0.0697525
182	0x3baa7a59	0.0052025733
183	0x3d4911d5	0.04908927
184	0xbde339eb	-0.11095031
185	0x3d79666d	0.060888696
186	0xbd69045d	-0.056888927
187	0xbcc883fe	-0.024477001
188	0x3d23e9f3	0.040018033
189	0xbd915639	-0.07096524
190	0x3dcf3df8	0.101192415
191	0xbd8f6a69	-0.07002718
192	0x3bdc486c	0.0067225005
193	0xbd9f6e5f	-0.077847235
194	0x3df72c2b	0.12068971
195	0x3d2fdea4	0.042936936
196	0x3d44f427	0.048084404
197	0x3e18ad91	0.1490996
198	0xbd9d00d0	-0.076661706
199	0xbe02d0ef	-0.12775014
200	0x3d7c6246	0.06161716
201	0xbe1b1ec9	-0.15148462
202	0xbd9782e9	-0.07398016
203	0xbdb1e1b7	-0.0868563
204	0xbc376832	-0.011194276
205	0xbded2619	-0.11579532
206	0xbd3a4282	-0.045473583
207	0x3d012929	0.031533394
208	0xbdbfa8b8	-0.093583524
209	0xbd5c6545	-0.053807516
210	0x3d94f280	0.07272816
211	0x3de159ce	0.11003457
212	0xbdfbeb67	-0.12300759
213	0x3df3f6dd	0.1191232
214	0xbcfab07e	-0.030601736
215	0xbdcd20cf	-0.10016023
216	0x3dbedc51	0.09319366
217	0x3d04ce9e	0.032423608
218	0xbd742404	-0.05960466
219	0x3c0f624b	0.008751462
220	0x3db65294	0.08902469
221	0x3e1d78d2	0.1537812
222	0x3dd42d18	0.103601635
223	0xbbe4c93c	-0.006981997
224	0xbd916887	-0.07100015
225	0x3db0b9f2	0.08629216
226	0xbcdf5754	-0.027263321
227	0xbd7bbd81	-0.061460022
228	0xbe1845d2	-0.14870384
229	0x3dd8a9ba	0.10579248
230	0x3dcb65ac	0.09931502
231	0x3c926b72	0.0178735
232	0x3db71924	0.08940342
233	0xbc9c7767	-0.019099904
234	0xbd4bdb03	-0.049769413
235	0xbe1aec09	-0.15129103
236	0xbc5eaf07	-0.013591534
237	0x3d68b841	0.056816343
238	0x3d178c4a	0.036999024
239	0xbcd5e624	-0.026110716
240	0x3d7509db	0.059823852
241	0x3da00f86	0.07815461
242	0x3cbf379a	0.023341943
243	0xbdf8c869	-0.121476
244	0xbd56ed4e	-0.052472405
245	0xbbcfb0f6	-0.006338234
246	0x3d00aaf4	0.031413034
247	0x3dc626d1	0.096753724
248	0xbdf9e4d8	-0.122018516
249	0xbdb74d2c	-0.08950266
250	0xbd8846f3	-0.066541575
251	0xbe08876b	-0.13332908
252	0x3d3c1982	0.045922764
253	0xbd0a700b	-0.03379826
254	0xbc3ded2d	-0.011592192
255	0xbdce62ed	-0.10077462

bias_ih_l0 f4 [240]
0	0xbda7e4b0	-0.081979156
1	0xbdef9a27	-0.11699324
2	0xbddbc3ab	-0.1073068
3	0xbe259217	-0.1616901
4	0xbd9d836a	-0.07691081
5	0x3d676535	0.056493003
6	0xbbc6af78	-0.006063398
7	0xbdab862b	-0.083752
8	0x3cc6f34e	0.024285939
9	0xbdf50e9f	-0.119656794
10	0xbd0be721	-0.03415597
11	0xbe06e159	-0.13171901
12	0x3d4152eb	0.047198217
13	0xbda57901	-0.0807972
14	0xbe2244b0	-0.15846515
15	0xbd84b40c	-0.06479654
16	0xbe1aa78d	-0.15102978
17	0xbe054509	-0.13014616
18	0xbe309ed9	-0.17248096
19	0x3d7f3a8e	0.0623117
20	0xbd56002f	-0.05224627
21	0xbe80e3e5	-0.2517387
22	0xbe09856a	-0.134298
23	0xbdd07ba3	-0.10179832
24	0xbd83913a	-0.06424184
25	0xbe01f1b5	-0.1268986
26	0xbde96b5a	-0.11397429
27	0xbdcb1db9	-0.099177785
28	0x3c2a9d0e	0.010413421
29	0xbaf7b842	-0.0018899518
30	0xbb397ff5	-0.0028305028
31	0xbbf5a499	-0.007496428
32	0xbe2a8428	-0.16651976
33	0xbd7eb285	-0.06218197
34	0x3d2d8eb9	0.04237244
35	0xbdf36dbf	-0.11886167
36	0x3da59ce7	0.08086567
37	0x3da473d4	0.08029905
38	0xbe33ccef	-0.17558645
39	0xbddc5f2d	-0.10760341
40	0xbcdf0c72	-0.027227614
41	0xbe1e0181	-0.15430261
42	0xbddf5cd8	-0.109063804
43	0xbe1bfc4b	-0.15232961
44	0x3db50f3e	0.08840798
45	0xbe4f5b57	-0.20249687
46	0xbd4606f4	-0.048346475
47	0xbc77687b	-0.015100594
48	0x3d53a251	0.05166847
49	0xbd7951aa	-0.060868897
50	0xbe5c3b40	-0.21506977
51	0xbdbd522b	-0.09244188
52	0xbc77f1fc	-0.015133377
53	0xbe1a3221	-0.15058185
54	0xbe01ecf1	-0.12688042
55	0xbe855bab	-0.260465
56	0xbd24814e	-0.040162377
57	0x3cea97c6	0.028636824
58	0xbdf3bcaf	-0.11901223
59	0xbd4683b1	-0.048465434
60	0xbdbdd21b	-0.0926859
61	0xbe064bf6	-0.13114914
62	0xbd856248	-0.06512886
63	0xbe1927f9	-0.14956655
64	0xbd0a89eb	-0.033822935
65	0xbdd7916b	-0.10525783
66	0x3d345840	0.044029474
67	0xbe391900	-0.18075943
68	0xbd9ca555	-0.07648722
69	0x3c764f6e	0.015033586
70	0x3cbfc4fd	0.023409361
71	0xbca235d3	-0.019801056
72	0xbd07dfeb	-0.03317253
73	0xbe37dd97	-0.17955624
74	0xbdacef0e	-0.084440336
75	0x3bf1ad45	0.0073753917
76	0xbe0fa1db	-0.14026587
77	0x3c8b1721	0.016978802
78	0xbde9bcb7	-0.114129476
79	0xbd9899bb	-0.07451197
80	0x3dc6281a	0.096756175
81	0xbdd80cf9	-0.10549349
82	0x3c6eeb68	0.014582492
83	0xbe18026c	-0.14844674
84	0xbdd7bc5a	-0.10533972
85	0x3c2c2aa1	0.01050821
86	0xbe34a2fe	-0.17640302
87	0xbd4e9ec3	-0.050444376
88	0x3d0b3270	0.033983648
89	0xbd871904	-0.06596568
90	0xbd8e3e19	-0.06945438
91	0xbc4389ae	-0.011934681
92	0xbe16c02f	-0.1472175
93	0xbe3fe746	-0.18740568
94	0x3d1b2f50	0.037886918
95	0xbe60bc1f	-0.21946763
96	0xbc8c2452	-0.017107163
97	0xbdca5111	-0.098787434
98	0xbd33fd63	-0.04394282
99	0x3b071961	0.0020614492
100	0xbdd013ed	-0.101600505
101	0x3d0e0ee7	0.03468218
102	0x3db4cca9	0.08828098
103	0xbde59656	-0.11210315
104	0xbd011452	-0.03151352
105	0xbdc0cfc4	-0.09414628
106	0x3d76c0db	0.060242515
107	0x3ccb6b79	0.02483152
108	0x3cd38ba8	0.02582343
109	0xbc8422e7	-0.016129924
110	0xbd15210c	-0.03640847
111	0x3d045136	0.03230401
112	0xbe791d0c	-0.24327487
113	0xbe2530e8	-0.16131938
114	0x3dc7b025	0.09750394
115	0xbcead158	-0.028664276
116	0xbe219e7e	-0.15783116
117	0xbd2e26d5	-0.0425175
118	0xbdc08c02	-0.09401704
119	0xbe3722ee	-0.17884418
120	0xbb04ccf7	-0.002026377
121	0x3d0523ed	0.032504965
122	0xbcf527da	-0.02992623
123	0xbde0e350	-0.109808564
124	0x3c1eceb9	0.009692841
125	0x3cd51327	0.02601011
126	0x3e00f987	0.12595187
127	0xbd9b5d68	-0.07586175
128	0xbd250b91	-0.040294234
129	0xbdff2061	-0.12457348
130	0xbc50d092	-0.01274504
131	0x3d422894	0.04740198
132	0x3d608f20	0.054823995
133	0x3c5e8557	0.013581595
134	0x3c2a6a11	0.010401265
135	0x3d239c47	0.03994396
136	0x3d1c23d2	0.0381201
137	0xbc150f73	-0.009097922
138	0x3dad56e2	0.08463837
139	0xbd30bc56	-0.04314836
140	0xbd10ac7b	-0.03532074
141	0x3baf23e2	0.0053448537
142	0xbd925478	-0.071450174
143	0x3ccf4174	0.025299765
144	0xbd6d0cf8	-0.057873696
145	0xbd8a7dd3	-0.0676228
146	0xbd85884b	-0.065201364
147	0xbb359be8	-0.0027711336
148	0xbcdce150	-0.026962906
149	0xbc777bd2	-0.015105205
150	0x3d4776bf	0.04869723
151	0xbd50450e	-0.050847106
152	0x3d033ed6	0.032042347
153	0x3d65a734	0.05606766
154	0x3cf5885b	0.029972246
155	0x3d6c9d3a	0.05776713
156	0xba02d896	-0.000499138
157	0x3dad134c	0.08450946
158	0xbd7608e9	-0.06006709
159	0xbc2f93bd	-0.010716376
160	0x3df334e1	0.1187532
161	0xbd539d2f	-0.051663574
162	0xbcdfd301	-0.027322294
163	0xbbedaf63	-0.0072535737
164	0xbdaddf0e	-0.0848981
165	0x3dbbc199	0.09167785
166	0x3d0ffd60	0.035153747
167	0xbd0b89db	-0.034067016
168	0x3cca650b	0.024706384
169	0x3d172741	0.03690267
170	0xbdacfb39	-0.084463544
171	0x3da0a9e1	0.07844902
172	0xbdafb9e3	-0.08580377
173	0xbd3cc0e5	-0.046082396
174	0x3d9d8603	0.07691576
175	0xbd4fdff3	-0.050750684
176	0xbd53d806	-0.051719688
177	0x3c8bd4ff	0.017069338
178	0xbc2379c5	-0.009977763
179	0x3d26d714	0.04073246
180	0x3d0aa94d	0.033852864
181	0xbbf5cf3d	-0.0075015114
182	0xbe346017	-0.1761478
183	0xbd2d1932	-0.042260356
184	0x3d025a9b	0.03182469
185	0x3c9051ef	0.017617194
186	0xbd9c10ae	-0.07620369
187	0xbd55723a	-0.052110888
188	0xbe1fd8d6	-0.1561006
189	0xbdeb428a	-0.11487301
190	0xbc5f273b	-0.013620193
191	0xbcaa1665	-0.020762632
192	0x3c6c90d2	0.014438825
193	0xbe4362ac	-0.19080609
194	0xbe051664	-0.12996823
195	0xbc096a3a	-0.008387143
196	0x3aba4f3e	0.001421429
197	0xbdb41a7f	-0.08794116
198	0xbdbce21e	-0.09222816
199	0xbdbde383	-0.0927191
200	0x3db130d7	0.086518936
201	0xbc2e0080	-0.010620236
202	0xbdeb0974	-0.114764124
203	0xbd95e9e4	-0.07320002
204	0xbd708e8b	-0.05872969
205	0xbd64bc7d	-0.05584382
206	0x3d4ec569	0.050481234
207	0xbd186529	-0.03720585
208	0xbe0b8f1c	-0.1362881
209	0xbc8b8905	-0.01703311
210	0x3d482af8	0.048869103
211	0x3d00a020	0.031402707
212	0xbe0c00fb	-0.13672249
213	0xbd823580	-0.063578606
214	0x3c9a5a5d	0.018841917
215	0xbe8a6813	-0.27032527
216	0x3da3189e	0.0796368
217	0xbe06738f	-0.1313002
218	0xbd959b4f	-0.073050134
219	0xbcc48112	-0.023987327
220	0xbdd89a6b	-0.10576328
221	0xbca36aea	-0.019948442
222	0xbcc5b4fd	-0.024134154
223	0xbe15056e	-0.14552853
224	0xbcf818da	-0.030285288
225	0xbe1631ea	-0.14667478
226	0x3d8245a7	0.063609414
227	0xbe5c01a7	-0.21485005
228	0xbe12b975	-0.14328559
229	0xbe188423	-0.14894156
230	0xbe0d6238	-0.13806999
231	0xbdf3d7c1	-0.11906386
232	0xbd3bfb71	-0.04589409
233	0x3c0fac12	0.008769052
234	0xbccfc569	-0.025362687
235	0xbe69f051	-0.2284558
236	0x3ca92e76	0.020652037
237	0xbbc626fa	-0.006047127
238	0xbdd2eba7	-0.10298853
239	0xbe3d27f8	-0.18472278

bias_hh_l0 f4 [240]
0	0x3d3bbf23	0.04583658
1	0xbd809cc8	-0.06279904
2	0xbe4a15c3	-0.19734864
3	0xbe0dff6d	-0.13866968
4	0xbd51d2a6	-0.05122628
5	0xbdd6ac08	-0.10482031
6	0x3ca587bb	0.020206323
7	0xbd88f4ed	-0.06687341
8	0xbc6d888b	-0.014497886
9	0xbb299c5b	-0.0025880549
10	0xbc6283da	-0.013825381
11	0xbc59f815	-0.013303776
12	0x3d3628c8	0.044472486
13	0xbe0084df	-0.12550686
14	0xbe4b6c9c	-0.1986565
15	0xbe3926d1	-0.18081214
16	0x3cae4158	0.021271393
17	0x3d3aa188	0.045564204
18	0xbd7cac5e	-0.06168782
19	0x3d8e78f0	0.06956661
20	0xbe005447	-0.1253215
21	0xbdc34516	-0.095346615
22	0xbe2aed29	-0.16692032
23	0xbdcfcb8e	-0.10146247
24	0xbd919ee4	-0.07110384
25	0xbd6ca26a	-0.057772078
26	0x3ceb2624	0.02870471
27	0xbe018bbf	-0.12650965
28	0xbe3cd00e	-0.18438742
29	0xbe49f522	-0.19722417
30	0x3da8d7a9	0.08244259
31	0xbde12fed	-0.10995469
32	0xbe33d0d2	-0.17560127
33	0xbd639c45	-0.055568952
34	0xbdfc10ad	-0.12307868
35	0xbe216cac	-0.15764111
36	0xbe2e3cc8	-0.17015374
37	0xbd58edbe	-0.052961104
38	0xbc9e5f27	-0.019332482
39	0x3c3c7109	0.011501559
40	0xbdfbad34	-0.12288895
41	0xbd9eb0d3	-0.0774857
42	0xbdbf98e7	-0.09355336
43	0xbe4328de	-0.19058558
44	0x3ccd8fe1	0.02509302
45	0xbe79e6f1	-0.24404503
46	0xbd5f0cb1	-0.054455463
47	0xbe1e9a73	-0.15488605
48	0xbdab86a4	-0.0837529
49	0xbe5de25e	-0.21668383
50	0xbe3483eb	-0.17628448
51	0xbd6a7305	-0.057238597
52	0xbdea3975	-0.1143674
53	0x3ca3b013	0.01998142
54	0xbdca7e3d	-0.09887359
55	0xbd7e44fa	-0.0620775
56	0xbd064b37	-0.032786574
57	0xbd970b66	-0.07375221
58	0xbd02be18	-0.03191957
59	0x3d44097f	0.04786062
60	0x3d1d78dc	0.03844534
61	0x3d8204e9	0.06348593
62	0xbe2eccd3	-0.17070322
63	0xbd7a7a3b	-0.061151724
64	0xbe38173b	-0.17977612
65	0xbd8203ff	-0.063484184
66	0x3daa9969	0.08330042
67	0xbe242271	-0.16028763
68	0xbe27eb8b	-0.16398446
69	0xbdc2f1de	-0.09518789
70	0x3d1dd2b4	0.03853102
71	0x3c92bea4	0.01791317
72	0x3d58cd0b	0.05292992
73	0x3d133c83	0.03594638
74	0xbd6c5876	-0.05770155
75	0xbd27274c	-0.04080896
76	0xbb23f2b6	-0.0025016493
77	0xbdf357ab	-0.11881956
78	0x3b8af134	0.0042401794
79	0xbdadb8f1	-0.084825404
80	0xbd8c3be1	-0.068473585
81	0xbd8cc37a	-0.06873222
82	0x3d0ba8bc	0.034096465
83	0x3ba21611	0.004946478
84	0xbe4ba578	-0.1988734
85	0x3dc56901	0.096391685
86	0xbe10e5de	-0.14150187
87	0xbccb1d5b	-0.024794271
88	0xbe0c4c2d	-0.13700934
89	0xbddc1f07	-0.107481055
90	0xbe259b8d	-0.16172619
91	0x3d2e3300	0.042529106
92	0x3bae4037	0.0053177136
93	0xbdffe6c0	-0.12495184
94	0xbd210d6b	-0.039319437
95	0xbdb30d2d	-0.087427475
96	0xbcf314fd	-0.029673094
97	0x3cdbcefc	0.026832096
98	0xbbaf112b	-0.0053426228
99	0xbd57c691	-0.052679602
100	0xbe298c8e	-0.16557524
101	0x3c06b94d	0.00822289
102	0x3cd87b83	0.026426082
103	0xbe79af83	-0.24383359
104	0xbd2a4bc4	-0.041576162
105	0xbe6131e1	-0.21991684
106	0x3d595aa2	0.05306495
107	0x3cfcd78f	0.030864505
108	0xbdef6f1b	-0.116911136
109	0xbd418da2	-0.047254212
110	0x3b3e5a9a	0.0029045702
111	0xb88c0103	-6.675909e-05
112	0xbe6e89d4	-0.23294765
113	0xbe1b7271	-0.15180375
114	0xbe02f8d6	-0.12790236
115	0xbe4debf3	-0.20109539
116	0xbd427cd2	-0.04748232
117	0xbdee7a1c	-0.11644384
118	0x3d82f889	0.063950606
119	0xbd34268d	-0.043982077
120	0xbc494591	-0.012284652
121	0xbdabbc5a	-0.083855346
122	0xbd0628d8	-0.032753795
123	0x3e043e4e	0.12914392
124	0x3c244913	0.010027188
125	0x3c7c77c9	0.015409418
126	0xbdf17b78	-0.11791128
127	0x3d19eccb	0.03757934
128	0x3d482de6	0.048871897
129	0x3de525c3	0.11188843
130	0x3d0385e9	0.03211013
131	0xbd21131e	-0.039324872
132	0xbd0b70f4	-0.034043267
133	0x3c77a762	0.015115591
134	0xbb10b04d	-0.002207774
135	0x3c4eb10a	0.012615452
136	0x3da7f1a3	0.082003854
137	0x3ac4d32b	0.0015016546
138	0xbd955c4f	-0.07292997
139	0x3d8e0238	0.06934017
140	0x3cc1a569	0.023638444
141	0x3becc275	0.0072253295
142	0x3ccf894e	0.025334027
143	0xbb942130	-0.004520558
144	0x3d73610f	0.059418734
145	0x3dce2f89	0.1006766
146	0x3d6c17c8	0.057639867
147	0x3a418f17	0.0007383688
148	0x39e206f8	0.0004311127
149	0x3bc2a635	0.0059402236
150	0xbd18fc28	-0.03734985
151	0x39857885	0.0002545753
152	0x3d50139c	0.05079995
153	0xbda4e760	-0.08051944
154	0x3d118271	0.03552479
155	0xbda10c4b	-0.07863673
156	0xbc85b798	-0.016322896
157	0x3da3127a	0.079625085
158	0x3d78f287	0.060778167
159	0x3d80d9dd	0.06291554
160	0xbde71341	-0.11282969
161	0xbbddfd0f	-0.0067745517
162	0xbbaa2179	-0.0051919785
163	0xbc481b9b	-0.012213613
164	0xbd5a5dea	-0.05331222
165	0xbd93112d	-0.071810104
166	0xbc91da36	-0.017804246
167	0x3d2f8f1b	0.042861085
168	0xbcf28388	-0.029603735
169	0xbd2ce828	-0.04221359
170	0x3da72713	0.0816175
171	0xbd6b6c57	-0.057476368
172	0x3da53a3c	0.08067748
173	0x3c01d5e8	0.007924534
174	0xbdbc4d3c	-0.09194419
175	0x3cde2507	0.027117265
176	0x3c964beb	0.018346747
177	0xbd076fe7	-0.033065703
178	0xbd77229e	-0.060335748
179	0x3d3d357d	0.04619359
180	0xbcfb5bd7	-0.030683441
181	0xbde8ace2	-0.113611
182	0xbe05ab29	-0.13053574
183	0xbe227f51	-0.1586888
184	0xbd87777c	-0.06614587
185	0xbe02f501	-0.12788774
186	0x3d8c42d3	0.06848683
187	0xbe0ce1f7	-0.13758074
188	0xbd1530f7	-0.03642365
189	0xbd9f661c	-0.07783148
190	0xbcc9de8e	-0.024642255
191	0xbe3f60d6	-0.18689284
192	0x3cc0434f	0.023469595
193	0xbd8051f0	-0.06265628
194	0xbcf93323	-0.030419892
195	0x3cd85870	0.026409358
196	0xbe302e2f	-0.17205118
197	0x3b2eca56	0.0026670895
198	0xbe29ea53	-0.16593294
199	0xbc9892f5	-0.018624762
200	0x3ca15eaf	0.019698469
201	0xbe325bf8	-0.17417896
202	0x3d8774ac	0.0661405
203	0xbe653f6f	-0.22387479
204	0xbcb25cf6	-0.021772843
205	0x3d414b23	0.047190797
206	0xbe2a45f1	-0.16628243
207	0xbc461a06	-0.012091165
208	0xbd666037	-0.0562441
209	0xbe46ba5e	-0.19407031
210	0xbde06b0b	-0.10957917
211	0xbbe6bb04	-0.007041337
212	0xbb8b8920	-0.00425829
213	0xbd110888	-0.035408527
214	0xbcb840f9	-0.022491919
215	0xbd4a9b75	-0.04946466
216	0x3d707199	0.058702085
217	0xbd84da76	-0.064869806
218	0xbcb171d8	-0.02166073
219	0xbe0d9b46	-0.13828763
220	0xbc7c00ce	-0.015381051
221	0xbd58072c	-0.052741215
222	0x3d861bfb	0.065483056
223	0xbe438a64	-0.1909576
224	0x3cfe883d	0.031070823
225	0xbde26784	-0.110549
226	0xbc75fba7	-0.015013612
227	0xbd924dc9	-0.071437426
228	0x3ae4828e	0.0017433928
229	0xbdcfb7a5	-0.10142449
230	0xbc78ba9b	-0.015181209
231	0xbdd01da0	-0.101619005
232	0xbe449305	-0.19196709
233	0xbcfd3f2f	-0.030913917
234	0xbc84212a	-0.016129095
235	0xbdeaa24d	-0.11456738
236	0xbe0a2b46	-0.1349307
237	0xbdeac9ca	-0.114642695
238	0x3d8f20b9	0.06988663
239	0xbd42ef7e	-0.04759168

weight_ih_l0 f4 [240, 60]
0	0x3d08759f	0.033315297
1	0x3cb1b84c	0.021694325
2	0xbd310456	-0.043217026
3	0xbda16f40	-0.078825474
4	0xbd1dc557	-0.038518276
5	0xbe1a0994	-0.15042716
6	0xbb0a897e	-0.002113908
7	0x3d9015d6	0.07035415
8	0xbb7f0d90	-0.0038917996
9	0x3d15de8c	0.03658919
10	0xbe16c443	-0.14723305
11	0x3cfcc258	0.03085439
12	0xbe359c44	-0.17735392
13	0x3d04fb1e	0.032466047
14	0x3ce8c436	0.028413873
15	0xbe094ee9	-0.13409008
16	0x3c923f4a	0.017852444
17	0xbbb8651e	-0.0056272885
18	0xbe23d0e3	-0.15997653
19	0x3d700565	0.058598895
20	0xbd34b48c	-0.044117495
21	0xbc41ace7	-0.011821008
22	0xbd45f24b	-0.04832677
23	0x3c7fcf7c	0.015613433
24	0x3e02178c	0.12704295
25	0xbd91f0d0	-0.071260095
26	0xbdeb6e13	-0.11495604
27	0xbdd6c931	-0.10487593
28	0xbc9353aa	-0.01798423
29	0x3d4d2eee	0.050093584
30	0xbd718167	-0.0589613
31	0x3db0db75	0.08635608
32	0x3cd11f5b	0.025527647
33	0xbd1b42b1	-0.0379054
34	0x3ca9aec4	0.020713218
35	0xbe2d4350	-0.16920209
36	0x3d275e6e	0.04086154
37	0xbbeec96b	-0.0072871945
38	0xbd62b245	-0.055345792
39	0xbdee9e3d	-0.11651275
40	0xbdc52f78	-0.096281946
41	0x3e181f4a	0.14855686
42	0x3d6300d1	0.0554207
43	0x3d72fe91	0.059324805
44	0x3e5b573e	0.21419999
45	0x3dcf3aaf	0.10118615
46	0xbdce9c2e	-0.10088383
47	0xbe1c554e	-0.15266916
48	0xbe169e0c	-0.14708728
49	0xbdcbbe96	-0.09948461
50	0x3adcbe59	0.0016841396
51	0x3d4fd218	0.05073747
52	0xbd95eff3	-0.07321157
53	0x3da63b0a	0.081167296
54	0xbc5f14a3	-0.01361576
55	0xbdba332d	-0.09091792
56	0x3e11bd49	0.14232363
57	0x3de04bd0	0.1095196
58	0x3d03e0a3	0.032196652
59	0xbe3c6fd2	-0.18402031
60	0x3c7d6e57	0.015468202
61	0xbd9e0102	-0.07715036
62	0x3d49f576	0.049306355
63	0x3d84ee79	0.064907975
64	0x3d179318	0.037005514
65	0x3cfd1dda	0.030898023
66	0xbc907e9b	-0.017638495
67	0xbcad3db7	-0.021147592
68	0x3cd582b9	0.02606331
69	0xbdc185d7	-0.09449356
70	0x3df9d620	0.12199044
71	0x3c43b779	0.011945599
72	0xbde53df3	-0.111934565
73	0xbdc29a88	-0.09502131
74	0xbe0792f4	-0.13239652
75	0x3dbcb8a3	0.09214904
76	0x3da52f63	0.08065679
77	0xbcc7b35e	-0.024377521
78	0xbd33a992	-0.043862887
79	0xbdfa113c	-0.122103184
80	0x3c9a473a	0.018832792
81	0xbddf0b35	-0.108908094
82	0xbd8c734a	-0.06857927
83	0xbe05c551	-0.13063551
84	0xbc8a2b23	-0.016866272
85	0xbbb84e75	-0.005624587
86	0xbbfa5ad6	-0.007640223
87	0x3d0b2659	0.033972118
88	0x3dd711f6	0.10501473
89	0x3e0045f9	0.12526692
90	0x3d3bd172	0.04585404
91	0xbd60cfe8	-0.054885775
92	0xbc82a226	-0.015946459
93	0xbde9957f	-0.11405467
94	0xbcea9abc	-0.028638236
95	0x3d93cd57	0.072169
96	0xbdc7a5ab	-0.097483955
97	0xbdad586a	-0.08464129
98	0xbdba1f53	-0.09088006
99	0x3d0764ff	0.0330553
100	0xbdf959a3	-0.121753
101	0xbd11ecf9	-0.035626385
102	0x3d0be43b	0.034153204
103	0xbd9cb5cf	-0.07651865
104	0x3d74b2ad	0.05974071
105	0xbcd6c70f	-0.026217965
106	0x3d158c6a	0.036510862
107	0xbe0999e7	-0.13437615
108	0x3dcc1149	0.099642344
109	0xbd1d3c20	-0.038387418
110	0x3dbee182	0.09320356
111	0x3d80fa7a	0.062977746
112	0x3d95064c	0.07276592
113	0x3e001c35	0.1251076
114	0x3d924f6d	0.071440555
115	0xbe26353f	-0.1623125
116	0x3d469d25	0.04848971
117	0xbdaa5d31	-0.08318556
118	0x3dc09eef	0.09405314
119	0x3c9203b8	0.017824039
120	0x3e21a72a	0.15786424
121	0x3d5c0d7f	0.05372381
122	0x3d482d13	0.04887111
123	0xbdfa2384	-0.12213805
124	0x3c4e146c	0.012578111
125	0xbdcb5e9d	-0.099301554
126	0xbc4d6055	-0.012535174
127	0xbd8e80d3	-0.06958165
128	0xbe300ce7	-0.17192422
129	0x3beffbe2	0.007323728
130	0x3d8bc6db	0.06825038
131	0xbd5eb34a	-0.054370202
132	0xbe31b111	-0.17352702
133	0x3c600c8e	0.013674868
134	0xbdfb6702	-0.122755066
135	0xbb032c1a	-0.00200153
136	0xbe16e755	-0.14736684
137	0x3e1c5ce2	0.15269807
138	0xbdc33b13	-0.09532752
139	0xbd01584a	-0.03157834
140	0x3d80d9f1	0.06291569
141	0xbde8605a	-0.113465026
142	0xbcc35029	-0.023841934
143	0x3df71039	0.12063641
144	0x3e41f296	0.18940195
145	0xbe0a02d1	-0.13477637
146	0x3d01e404	0.031711593
147	0xbc0aa50e	-0.008462204
148	0x3cc6a682	0.024249319
149	0xbc53e45a	-0.012932861
150	0x3d41195c	0.047143325
151	0x3a8fd037	0.0010972087
152	0xbe4fbc2f	-0.2028663
153	0x3de5d5a4	0.11222389
154	0x3c19cf82	0.009387853
155	0x3d752dbe	0.059858076
156	0x3df3cadc	0.11903927
157	0xbe478a9d	-0.1948647
158	0x3dcf6256	0.10126178
159	0xbc86ccfc	-0.016455166
160	0x3e12f211	0.14350154
161	0x3cfbd085	0.030739078
162	0xbd408f73	-0.047011804
163	0xbdb922db	-0.09039851
164	0x3de2f13c	0.11081168
165	0xbd11f085	-0.035629768
166	0xbe15d25e	-0.1463103
167	0x3dc39008	0.09548956
168	0xbcaf3002	-0.021385197
169	0xbdb02fbf	-0.08602857
170	0xbd138381	-0.036014084
171	0x3cb53380	0.022119284
172	0x3deeb13c	0.116548985
173	0x3d1b5087	0.037918594
174	0x3e4b7c4a	0.19871631
175	0x3d3f6927	0.04673114
176	0x3de18fd0	0.11013758
177	0x3e25503d	0.1614389
178	0x3a869241	0.0010266976
179	0xbe4b425e	-0.19849536
180	0x3e0b27b5	0.13589366
181	0x3dac36cc	0.08408889
182	0x3d38dafd	0.04513072
183	0x39fe05e5	0.00048451047
184	0xbc014d55	-0.007891973
185	0xbe2108e7	-0.15726052
186	0xbd92ed21	-0.07174135
187	0x3e03a6fd	0.1285667
188	0xbd0c510e	-0.034256987
189	0xbccd15ff	-0.025034903
190	0xbd60cc41	-0.05488229
191	0x3b854be5	0.004067885
192	0x3d319d71	0.04336304
193	0xbd3e47a5	-0.046455044
194	0x3882f054	6.243648e-05
195	0xbdd5359d	-0.104106165
196	0x3d885c1b	0.06658193
197	0x3c914d8e	0.017737176
198	0xbddd490e	-0.1080495
199	0x3d97e9ad	0.07417617
200	0xbbdd0925	-0.006745475
201	0xbd730405	-0.059330005
202	0x3d45bfd3	0.04827864
203	0xbe0454ee	-0.12923023
204	0x3e0ab08c	0.1354391
205	0x3d9f77a1	0.07786489
206	0xbe1caae7	-0.15299569
207	0xbdf2929d	-0.118443705
208	0xbd87129f	-0.065953486
209	0x3ced6a14	0.028981246
210	0xbd8c2388	-0.068427145
211	0xbd7db495	-0.061939795
212	0xbdf4afa9	-0.11947567
213	0x3e064212	0.13111141
214	0xbd620d68	-0.055188566
215	0x3d983a54	0.07433
216	0xbb0e5fac	-0.0021724505
217	0xbd6287e2	-0.05530537
218	0x3da2febc	0.07958743
219	0xbe2d931b	-0.16950648
220	0xbd0287a9	-0.031867657
221	0x3d330972	0.04371018
222	0xbdabf38d	-0.08396063
223	0x3dda5fad	0.1066278
224	0x3e383db0	0.17992282
225	0xbdbf9d42	-0.093561664
226	0xbde219c1	-0.110400684
227	0xbcdb88b3	-0.026798582
228	0x3cbda6fb	0.023150912
229	0x3de38fc5	0.11111406
230	0x3d4de718	0.050269216
231	0xbd5b1bd5	-0.05349334
232	0xbde11468	-0.1099022
233	0xbd7fbb78	-0.062434644
234	0x3d9981b3	0.07495441
235	0xbb480be9	-0.0030524677
236	0x3d9c7b61	0.0764072
237	0x3e127f03	0.14306264
238	0xbd837ea0	-0.06420636
239	0xbe18678b	-0.14883249
240	0x3dc187e6	0.09449749
241	0x3cc0d534	0.023539163
242	0xbc808bf6	-0.015691739
243	0x3daa70d0	0.083222985
244	0xbd85bc9e	-0.065301165
245	0xbd482187	-0.0488601
246	0x3cf0fc6f	0.029417245
247	0x3d03bfbf	0.032165285
248	0xbcad0d3b	-0.021124473
249	0xbdc9c5ac	-0.09852156
250	0xbe00f38a	-0.12592903
251	0xbe19c0ca	-0.1501495
252	0xbddf2221	-0.108951814
253	0xbe168280	-0.1469822
254	0x3d45a054	0.048248604
255	0x3cfcdcb8	0.030866966

weight_hh_l0 f4 [240, 60]
0	0xbd11d882	-0.03560687
1	0x3e006fa8	0.12542593
2	0x3d9c6967	0.076372914
3	0xbddaf425	-0.10691098
4	0xbe11ee08	-0.14250958
5	0xbe3209be	-0.17386529
6	0x3d15b068	0.036545187
7	0xbddad02c	-0.10684237
8	0xbbadf0d8	-0.005308252
9	0xbd66652a	-0.05624882
10	0xbdf683d9	-0.12036867
11	0xbcd438d6	-0.025906008
12	0xbe1eba16	-0.15500674
13	0x3deb038e	0.114752874
14	0xbce5203b	-0.02796947
15	0xbc309e19	-0.010779881
16	0xbdf9d4e5	-0.121988095
17	0x3ddc9cda	0.107721046
18	0x3d310a35	0.043222625
19	0xbdac45bc	-0.08411738
20	0xbd98f2c9	-0.074681826
21	0x3df264ca	0.1183563
22	0x3c95fe8a	0.01830985
23	0xbe1ea80c	-0.15493792
24	0xbe1f93b7	-0.15583692
25	0x3d8293ee	0.063758716
26	0xbe0dc759	-0.13845576
27	0x3dc73044	0.09726003
28	0x3e4597b8	0.19296157
29	0x3d8b4a1d	0.06801245
30	0xbe020623	-0.12697653
31	0x3b353952	0.0027652574
32	0x3e4b99fc	0.19882959
33	0xbe0fe15a	-0.14050809
34	0x3d726da4	0.059186593
35	0xbe597f6c	-0.21240014
36	0x3c8a7118	0.01689963
37	0xbe09b3d2	-0.13447502
38	0x3cd11364	0.025521941
39	0x3e4408ae	0.19143936
40	0xbda4b1a5	-0.080416955
41	0xbda074d3	-0.078347825
42	0xbd9d5999	-0.07683105
43	0x3c9d92cd	0.01923504
44	0xbcab6030	-0.02091989
45	0xbe00fdba	-0.12596789
46	0xbde40380	-0.1113348
47	0x3d3a94a1	0.0455519
48	0x3dfe7d90	0.12426293
49	0x3e1dadff	0.15398405
50	0xbd66e47f	-0.056370255
51	0xbcaa6be0	-0.020803392
52	0xbd730ad6	-0.059336506
53	0x3db59497	0.08866232
54	0xbd17aeba	-0.037031867
55	0x3d27df33	0.040984344
56	0x3bfba5a5	0.0076796585
57	0x3dd8e3cd	0.105903246
58	0x3e483b37	0.19553839
59	0x3dfbdbcb	0.122977816
60	0x3e19fd49	0.15038027
61	0xbda17d5f	-0.07885241
62	0xbd7c2523	-0.061558854
63	0xbd278a21	-0.040903214
64	0x3d7bd2f9	0.061480496
65	0xbdf69114	-0.1203939
66	0xbcf6de85	-0.030135402
67	0xbb25ea43	-0.0025316633
68	0x3c0296f9	0.007970565
69	0x3dc3f054	0.09567323
70	0x3c816a94	0.01579789
71	0x3dfd3cec	0.123651356
72	0xbdd47b9b	-0.10375138
73	0x3da7b6d0	0.081891656
74	0x3df624ff	0.12018775
75	0xbcbec49d	-0.023287112
76	0xbe165322	-0.1468015
77	0x3c5a72b1	0.013333009
78	0x3e2961ff	0.16541289
79	0x3cdede6b	0.027205667
80	0xbdd9d6e7	-0.106366925
81	0x3d8f3f99	0.06994552
82	0x3e05b757	0.1305822
83	0x3da6b916	0.08140771
84	0x3dd85dd5	0.10564772
85	0xbd0195f0	-0.031637132
86	0xbe11f376	-0.14253029
87	0xbd494bfe	-0.049144737
88	0x3e0e8887	0.13919269
89	0x3dc83f06	0.09777646
90	0x3d8a3a86	0.06749444
91	0xbc58b7da	-0.013227427
92	0x3dd7e183	0.1054106
93	0xbe0c3416	-0.13691744
94	0x3dab4b6b	0.08363994
95	0xbca2226a	-0.0197918
96	0xbd963896	-0.07335012
97	0x3c45352d	0.012036604
98	0xbc89df84	-0.016830213
99	0x3d1cce0c	0.03828244
100	0xbb665b70	-0.0035149716
101	0xbdf417c6	-0.11918597
102	0xbdb48969	-0.088152714
103	0xbcdabd35	-0.026701549
104	0x3cdcb0cb	0.02693977
105	0x3d96ee9a	0.073697284
106	0x3dbdfc37	0.09276622
107	0xbe3f3efe	-0.18676373
108	0x3c34a8bc	0.011026558
109	0xbc8545a1	-0.016268553
110	0xbc1f400d	-0.009719861
111	0xbd087a3b	-0.033319693
112	0x3ca1088c	0.019657396
113	0x3e0170f2	0.12640741
114	0x3d991aa0	0.074757814
115	0x3d0cedb6	0.034406386
116	0x3dc10224	0.094242364
117	0xbc616e95	-0.013759275
118	0xbced4ea0	-0.028968155
119	0xbd88dad3	-0.066823624
120	0x3d8ee31b	0.06976911
121	0x3d5d7447	0.05406597
122	0x3db2ea00	0.08736038
123	0xbe677724	-0.22604042
124	0xbe10837e	-0.1411266
125	0xbdb299ba	-0.08720727
126	0x3e4f6c1a	0.20256081
127	0xbdc227a0	-0.09480214
128	0x3e27bf7e	0.16381642
129	0xbe0bb106	-0.13641748
130	0x3d50ea22	0.051004536
131	0xbd9aacdb	-0.07552501
132	0xbe5ad9c5	-0.21372135
133	0xbb76341c	-0.003756768
134	0x3dae5603	0.08512499
135	0xbda0c132	-0.07849349
136	0xbe4c0db3	-0.19927101
137	0xbd348c9c	-0.044079408
138	0x3d1fb811	0.0389939
139	0xbe29396e	-0.16525814
140	0xbda717fd	-0.08158872
141	0x3c03b427	0.008038557
142	0x3cd53492	0.026026044
143	0xbdfa1ac7	-0.122121386
144	0x3cda0dd9	0.026617931
145	0xbd14a3e5	-0.036289115
146	0xbae79f3d	-0.0017671358
147	0x3c4eb204	0.012615684
148	0x3d093b03	0.033503544
149	0x3d6fbd6d	0.05853026
150	0x3dcee54e	0.1010233
151	0xbdd9135f	-0.10599398
152	0x3e317a78	0.17331874
153	0x3c0724d2	0.008248525
154	0xbddc40d7	-0.10754555
155	0xbe61e392	-0.22059467
156	0x3e195892	0.14975193
157	0x3c695473	0.014241326
158	0x3cd23a0a	0.02566244
159	0x3da04185	0.07824997
160	0xbe0e474c	-0.13894385
161	0xbe00adca	-0.12566295
162	0xbd64f6ec	-0.055899546
163	0x3dc38868	0.09547502
164	0xbc8fca5f	-0.017552553
165	0x39959b85	0.00028535366
166	0xbda0acad	-0.07845435
167	0x3e0f68c7	0.14004813
168	0x3db08157	0.086184196
169	0x3e3b9097	0.18316875
170	0x3d0d6fc9	0.034530435
171	0x3db79ee5	0.089658536
172	0x3ddad193	0.10684504
173	0x3e2557ac	0.16146725
174	0xbd3a12e3	-0.045428168
175	0xbd997021	-0.0749209
176	0xbd31c6c0	-0.043402433
177	0x3dbdfd1d	0.09276793
178	0x3e245596	0.16048273
179	0x3d824ab5	0.063619055
180	0xbd24e004	-0.0402527
181	0x3d1de78d	0.038550902
182	0xbc573417	-0.013134978
183	0x3d71f50c	0.059071586
184	0x3c607129	0.0136988545
185	0x3a5353fb	0.00080615253
186	0xba5abf41	-0.0008344539
187	0xbdda9d8f	-0.10674583
188	0xbcd12df7	-0.025534613
189	0xbe21bad8	-0.15793931
190	0xbde1ce92	-0.11025728
191	0xbce6db6c	-0.0281808
192	0xbdcda490	-0.100411534
193	0x3d920e30	0.07131612
194	0xbda20a0a	-0.07912071
195	0x3cc0ae2d	0.023520553
196	0xbc610064	-0.013733003
197	0x3de7d9f0	0.11320865
198	0xbcd2c735	-0.025729755
199	0x3ce76005	0.028244028
200	0xbd099430	-0.03358859
201	0x3d6a056c	0.057134077
202	0xbd2835b0	-0.041066825
203	0x3bf12dac	0.007360181
204	0x3d45508c	0.04817252
205	0xbd982cb2	-0.074304
206	0xbd9d4239	-0.076786466
207	0x3d17e647	0.037084844
208	0x3dc71a71	0.0972184
209	0x3e0a81eb	0.13526122
210	0x3db8121c	0.08987829
211	0x3d8ea53c	0.0696511
212	0xbd18d8bb	-0.037316065
213	0xbdce7324	-0.10080555
214	0x3d41bab6	0.047297202
215	0x3d02ce7e	0.031935208
216	0x3c1ccd36	0.0095704105
217	0x3cc5696d	0.024098122
218	0x3d99b22b	0.07504686
219	0x3e3161df	0.17322491
220	0xbe10deae	-0.14147446
221	0x3e1aff0c	0.15136355
222	0xbcb1d1cd	-0.021706486
223	0xbd879bbd	-0.066215016
224	0x3b749d1e	0.0037325094
225	0x3d6675d9	0.056264732
226	0xbe0981ed	-0.13428469
227	0xbb8c3b5c	-0.004279537
228	0xbd6e9401	-0.058246616
229	0xbdb96209	-0.09051902
230	0xbd4ee22c	-0.050508663
231	0x3d16e11a	0.036835767
232	0xbe03a965	-0.12857588
233	0x3d0389d8	0.03211388
234	0x3d3761dc	0.04477106
235	0x3d9f0804	0.07765201
236	0xbca25f26	-0.019820761
237	0xbd81639c	-0.06317827
238	0x3e43dca2	0.19127133
239	0x3e4525c3	0.19252686
240	0xbe352cda	-0.17692891
241	0x3cf5f52f	0.03002414
242	0x3d4dd312	0.05025012
243	0xbe53df24	-0.2069059
244	0xbbbb7f4e	-0.005721963
245	0xbe87fd05	-0.26560226
246	0x3e7fca56	0.24979529
247	0xbd972fec	-0.07382187
248	0x3e15420e	0.14575979
249	0xbe75d594	-0.24007255
250	0xbddb79c0	-0.10716581
251	0x3c141aed	0.009039623
252	0xbe1d3371	-0.15351655
253	0xbd7cfb96	-0.06176337
254	0x3d6d16ef	0.0578832
255	0xbe083044	-0.13299662

bias_ih_l0 f4 [240]
0	0xbcf96a2e	-0.030446138
1	0xbe32e928	-0.17471755
2	0xbd7c36d6	-0.061575733
3	0x3d68e7fd	0.056861866
4	0xbe0a890f	-0.13528846
5	0x3d36d09b	0.044632535
6	0xbda277d2	-0.0793301
7	0xbd8aa587	-0.06769853
8	0xbe2993a4	-0.16560227
9	0x3ceec993	0.029148852
10	0xbe460c63	-0.19340663
11	0xbe199e6e	-0.15001842
12	0x3dc2405d	0.094849326
13	0xbe463714	-0.19356948
14	0xbc04a8fe	-0.0080969315
15	0xbda9c451	-0.082893975
16	0xbdda7a36	-0.10667841
17	0xbe843854	-0.25824225
18	0xbe13e7df	-0.1444392
19	0xbdecb6c4	-0.11558297
20	0xbcaba8db	-0.02095454
21	0xbdbe61d3	-0.09296002
22	0xbdd29d03	-0.10283854
23	0xbe61c90a	-0.22049347
24	0xbe4c2c4c	-0.19938773
25	0xbe2e9edf	-0.17052792
26	0xbd83a4ac	-0.06427893
27	0xbdfae9c6	-0.1225162
28	0x3d2b8a5d	0.04188
29	0xbc77ae21	-0.015117199
30	0xbad508f8	-0.0016253283
31	0xbd898ea6	-0.06716661
32	0xbe1cf4ab	-0.15327708
33	0xbb782e35	-0.0037869338
34	0xbe1e0c6a	-0.15434423
35	0x3d3cc0b5	0.046082217
36	0xbd51f2ab	-0.051256817
37	0xbad9b233	-0.0016608894
38	0xbdca7e20	-0.09887338
39	0xbdd3248a	-0.10309704
40	0xbe47fa17	-0.19528995
41	0xbd94f91b	-0.072740756
42	0xbe04c33e	-0.12965104
43	0xbddecb6f	-0.10878646
44	0xbe4c1b6c	-0.19932336
45	0xbdc10b22	-0.094259515
46	0xbe451d0d	-0.19249363
47	0xbe8316f8	-0.2560346
48	0xbd26edb2	-0.040754028
49	0xbc8f7ed5	-0.017516533
50	0xbbf91b3e	-0.0076021245
51	0xbd93d277	-0.07217877
52	0xbe5f1aba	-0.21787539
53	0xbdfce057	-0.12347477
54	0xbdcd2b13	-0.100179814
55	0xbe3715ba	-0.17879382
56	0xbe31bbd4	-0.17356807
57	0xbd73fd9a	-0.059568025
58	0xbd080181	-0.03320456
59	0xbdfc0913	-0.12306418
60	0x3c49a860	0.01230821
61	0x3dbe243a	0.092842534
62	0xbe62ddd5	-0.22154935
63	0xbc6f821d	-0.014618424
64	0xbd4a09ea	-0.04932586
65	0xbdc062a1	-0.09393812
66	0xbdbb07b6	-0.0913233
67	0xbe00f089	-0.12591757
68	0xbbefd249	-0.007318769
69	0x3e1928c5	0.14956959
70	0xbe2ca297	-0.16858898
71	0xbda4a914	-0.080400616
72	0xbdd49cc1	-0.10381461
73	0xbe319357	-0.17341362
74	0xbdc134da	-0.09433909
75	0xbd640c4c	-0.05567579
76	0xbe2e5f52	-0.1702855
77	0xbe5c0eaf	-0.21489976
78	0xbe2069aa	-0.15665308
79	0xbe3c23cf	-0.18373035
80	0xbe5ef58e	-0.21773359
81	0xbd9b1d0f	-0.07573902
82	0xbe815e7a	-0.25267392
83	0x3d002f34	0.031295016
84	0xbe2e9dc8	-0.17052376
85	0xbe54bb51	-0.2077458
86	0xbd9df5bc	-0.07712886
87	0xbe66e3d3	-0.22547846
88	0xbd92e11b	-0.07171842
89	0x3d8a0dae	0.067408904
90	0xbd00554e	-0.031331353
91	0x3d87d55a	0.066324905
92	0xbdd4ac53	-0.10384431
93	0xbb15e6ac	-0.0022873087
94	0xbc947441	-0.01812184
95	0xbce31237	-0.027718646
96	0xbdee8209	-0.11645896
97	0x3d459531	0.048237983
98	0xbdefc9db	-0.11708423
99	0xbde00ae8	-0.1093958
100	0xbe133912	-0.1437724
101	0xbe254b8b	-0.16142099
102	0x3d377e55	0.044798214
103	0xbe1d7ae0	-0.15378904
104	0xbe2d2a54	-0.16910678
105	0x3d5ea247	0.05435398
106	0xbcee9e29	-0.029128151
107	0xbdc667f6	-0.09687798
108	0xbe40b19a	-0.1881775
109	0x3d1329a9	0.035928402
110	0xbe11b7be	-0.14230248
111	0x3d9889cb	0.07448157
112	0xbe5a48b7	-0.21316801
113	0xbde18546	-0.11011748
114	0xbdd06d73	-0.10177126
115	0xbdc8c353	-0.0980288
116	0xbcc34d44	-0.023840554
117	0xbe4a98b5	-0.19784816
118	0xbdc3ac5c	-0.09554359
119	0xbd78da85	-0.06075527
120	0x3d5ad845	0.053428907
121	0xbcedf229	-0.029046135
122	0xbddd2397	-0.10797804
123	0x3c780037	0.01513677
124	0x3d391c8a	0.045193233
125	0x3d6b44d5	0.05743869
126	0xbdb92ed6	-0.09042136
127	0x3d1eeac3	0.038798105
128	0xbd50887a	-0.050911404
129	0x3e1bec6b	0.15226905
130	0x3d071fd5	0.03298934
131	0xbd9685c0	-0.073497295
132	0xbc854127	-0.016266419
133	0xbd7fe95e	-0.062478416
134	0x3d728613	0.059209894
135	0x3d39558c	0.0452476
136	0x3dd0c704	0.10194209
137	0xbd91d267	-0.07120209
138	0x3c41f98b	0.011839281
139	0xbd1dfac5	-0.03856923
140	0x3de9207c	0.11383149
141	0x3d6e812e	0.058228664
142	0x3dd811ba	0.10550256
143	0x3dcbbbe2	0.09947945
144	0x3d444c3c	0.047924265
145	0x3c9f1e0c	0.019423507
146	0x3d7d2676	0.061804257
147	0xbdd330c9	-0.103120394
148	0xbd960d55	-0.07326762
149	0xbd2b95fe	-0.04189109
150	0x3d8f8e15	0.07009522
151	0x3d5d559a	0.054036714
152	0xbcee9b71	-0.029126855
153	0x3d52e1a6	0.051484726
154	0x3d504eef	0.050856527
155	0x3db32834	0.087479025
156	0xbdc67df5	-0.09691993
157	0xbd2bd1a5	-0.04194798
158	0xbd714b2e	-0.058909588
159	0xbdf14c1f	-0.11782097
160	0x3ce52d9f	0.027975855
161	0x3d6f7d8f	0.05846935
162	0xbd1887a9	-0.03723875
163	0x3d0f3b49	0.034968648
164	0x3dd49d6b	0.103815876
165	0x3ca40e2c	0.020026289
166	0x3d3c8316	0.04602345
167	0x3d563916	0.052300535
168	0xbdc16665	-0.09443358
169	0x3c8deed4	0.017325796
170	0x3d4f3cb9	0.05059502
171	0xbdc51d6b	-0.09624752
172	0x3d92cfaa	0.07168515
173	0xbce36baf	-0.027761308
174	0x3ccf3702	0.025294784
175	0xbb3d1208	-0.0028849859
176	0x3dfb386e	0.122666225
177	0xbd0c6451	-0.034275357
178	0x3c50c304	0.012741808
179	0x3cce9311	0.025216611
180	0xbca230f6	-0.019798737
181	0x3ca9c91c	0.02072578
182	0xbe4d8242	-0.2006922
183	0xbcc22256	-0.023698013
184	0xbe0d4e75	-0.1379946
185	0xbd5bbde8	-0.053647906
186	0x3d0a31fe	0.033739083
187	0xbd626c0e	-0.05527883
188	0xbe33623e	-0.17517945
189	0xbd5a95af	-0.053365406
190	0xbe0e808d	-0.13916226
191	0xbca43458	-0.02004449
192	0x3db2fae6	0.08739261
193	0x3ccdbbc7	0.025113953
194	0xbc1ac11e	-0.009445457
195	0xbd13152e	-0.03590887
196	0xbd9ed3e1	-0.077552564
197	0xbbcf9b59	-0.0063356576
198	0xbcac046a	-0.020998199
199	0xbda6aaad	-0.081380226
200	0xbd4206f6	-0.04736992
201	0xbe456f4d	-0.19280739
202	0xbe5119ae	-0.20419952
203	0x3c9bde66	0.019026946
204	0xbc7baab4	-0.015360523
205	0xbb9c6df1	-0.004773848
206	0xbe198d02	-0.14995196
207	0xbdffcb45	-0.124899425
208	0xbdc25e31	-0.09490622
209	0x3d69d4db	0.05708776
210	0x3bb0286b	0.005375912
211	0xbdd20957	-0.10255688
212	0xbe3995c7	-0.18123542
213	0xbda8d51e	-0.08243774
214	0xbe364d48	-0.17802918
215	0xbe1b55a9	-0.15169396
216	0xbcf9630e	-0.03044274
217	0xbc966338	-0.018357858
218	0xbe0d7982	-0.13815883
219	0x3d711675	0.058859307
220	0xbe390917	-0.18069874
221	0xbe8a2e42	-0.26988417
222	0xbe409235	-0.18805774
223	0xbe15e960	-0.14639807
224	0xbd48605c	-0.04892002
225	0xbd85256d	-0.06501279
226	0xbe44534d	-0.19172402
227	0xbe2873cc	-0.16450423
228	0x3d3b8859	0.045784328
229	0xbd88b72f	-0.066755645
230	0xbe701011	-0.23443629
231	0xbbce48ab	-0.006295284
232	0xbe3e5e93	-0.18590765
233	0xbd9f3850	-0.07774413
234	0xbe876fed	-0.2645258
235	0xbd9b416c	-0.075808376
236	0xbe446f81	-0.1918316
237	0xbdc1c3e9	-0.09461195
238	0xbe3613eb	-0.17781036
239	0xbe669848	-0.22519028
