models/epoch=3_bestloss=inf.pt (torch, 184855 bytes, 11 tensors)

weight_ih_l0 f4 [240, 1]
0	0x3f4fdc2a	0.8119532
1	0x3edd80be	0.43262285
2	0xbe8e5550	-0.27799463
3	0x3f71c563	0.94441813
4	0x3ea65e91	0.32494023
5	0x3f0d791b	0.5526292
6	0x3f6246a6	0.8838905
7	0xbe3ddfa8	-0.1854235
8	0x3ec4d358	0.38442492
9	0x3e6845f4	0.22682935
10	0x3f12cb46	0.5734142
11	0x3c807868	0.015682414
12	0x3f5d4142	0.864277
13	0x3e8e17c3	0.27752504
14	0x3f7f45f6	0.99716127
15	0x3f1f4bf5	0.62225276
16	0x3d5b302e	0.053512745
17	0x3e9ce242	0.3064137
18	0x3e54d696	0.20784983
19	0x3f1881e3	0.5957319
20	0x3e2978d5	0.1655
21	0x3e0c60af	0.13708757
22	0x3f0b8ffe	0.5451659
23	0x3f2dc719	0.67881924
24	0x3f24ca39	0.6437107
25	0x3f4021d9	0.7505165
26	0x3df6af7b	0.12045189
27	0x3c3eb363	0.011639449
28	0x3eabcec5	0.3355619
29	0xbe37dbf6	-0.17955002
30	0x3e824748	0.25445008
31	0xbe222ca8	-0.15837348
32	0xbdcda3e9	-0.10041029
33	0x3f17e7e1	0.59338194
34	0x3f10523f	0.563755
35	0x3f4461b5	0.7671159
36	0x3ec04a0c	0.37556493
37	0x3e565234	0.20929796
38	0x3f11ee71	0.5700446
39	0x3ca8e5b4	0.020617343
40	0x3f2c1915	0.6722577
41	0x3eb2c4c5	0.34915748
42	0x3f8229dc	1.0169024
43	0x3f0afd50	0.54292774
44	0x3e25a409	0.16175856
45	0x3ed18519	0.40921858
46	0x3e708a68	0.23490298
47	0x3ef55b31	0.47921136
48	0x3ed04a35	0.40681615
49	0x3f1b0760	0.6055813
50	0x3f30f3e1	0.6912213
51	0x3da6d78c	0.08146581
52	0x3e59a4cc	0.21254271
53	0x3f227775	0.63463527
54	0xbd025643	-0.031820547
55	0x3ecee526	0.404092
56	0x3ebaf343	0.3651372
57	0x3f26048a	0.64850676
58	0xbe251c97	-0.16124187
59	0x3e5af1a0	0.21381235
60	0x3f0926ef	0.5357503
61	0x3d82dabc	0.063893765
62	0xbe6cbbc7	-0.23118506
63	0x3f28c3e4	0.65923905
64	0x3e25c13c	0.16186994
65	0x3e304e36	0.17217335
66	0x3ef7f4a2	0.48428828
67	0xbdf785c5	-0.120860614
68	0x3ebf2fa1	0.37341025
69	0x3df77ee7	0.120847516
70	0x3ed882d2	0.42287308
71	0xbc9f4839	-0.019443618
72	0x3f3bdcdf	0.733839
73	0x3e8e25dc	0.2776326
74	0x3f0aa18c	0.5415275
75	0x3efa35ab	0.4886907
76	0xbdbf726a	-0.093479946
77	0x3d8c50ed	0.06851373
78	0x3c43d2c2	0.011952104
79	0x3e85b964	0.26118004
80	0x3d7df29a	0.06199894
81	0x3e55786b	0.20846717
82	0xbd88f6ee	-0.06687723
83	0x3ed0e634	0.4080063
84	0x3eefdc23	0.46847638
85	0x3e378719	0.1792263
86	0xbd1657a8	-0.03670469
87	0x3dadc423	0.08484676
88	0x3e2d8aa3	0.16947417
89	0xbdb314e9	-0.08744223
90	0x3e1110a7	0.14166509
91	0x3dfa61b7	0.12225669
92	0x3dbb8935	0.091570295
93	0x3eaeecf5	0.3416516
94	0x3f123824	0.57116914
95	0x3edfbc28	0.4369824
96	0x3e38df52	0.1805394
97	0xbda8a3c6	-0.08234362
98	0x3e81e20c	0.25367773
99	0x3e012566	0.12611923
100	0x3f29a474	0.6626656
101	0x3e5b888d	0.21438809
102	0x3f21c79a	0.6319519
103	0x3f026b82	0.50945294
104	0xbd9a6f5d	-0.07540772
105	0x3e920c93	0.28525218
106	0x3dafa44c	0.08576259
107	0x3e771975	0.24130805
108	0x3ddc39ba	0.10753198
109	0x3f0abc89	0.5419393
110	0x3f1513fe	0.5823363
111	0x3e529ea2	0.20568326
112	0x3e1a467f	0.15065955
113	0x3ec7c5d2	0.39018112
114	0xbe0c2372	-0.13685396
115	0x3e5847a3	0.21121077
116	0x3eb41550	0.3517251
117	0x3e65fbec	0.22459382
118	0xbe181366	-0.1485115
119	0x3c1e6b86	0.00966919
120	0x3f3a9ac1	0.72892386
121	0x3f0c4083	0.5478594
122	0x3e418966	0.1890007
123	0x3f86354b	1.0485014
124	0xbed571eb	-0.41688475
125	0xbf3d67ca	-0.73986495
126	0x3f524707	0.8213963
127	0x3c92d390	0.017923146
128	0xbf4c30c2	-0.797619
129	0xbf169eb6	-0.58835924
130	0x3f179e4c	0.59225917
131	0x3e3db80b	0.18527238
132	0x3f532486	0.82477605
133	0xbf22a3d7	-0.6353125
134	0x3f861279	1.0474387
135	0x3f3ab927	0.7293877
136	0xbf2a730d	-0.66581804
137	0x3edc7313	0.43056545
138	0xbf06e4fc	-0.5269315
139	0x3f1a7158	0.603292
140	0x3f1c850b	0.6114051
141	0xbef5037b	-0.47854218
142	0xbf086826	-0.5328392
143	0xbf644f97	-0.89183944
144	0x3f68148e	0.90656364
145	0xbf7eeb04	-0.99577355
146	0xbec2896c	-0.3799547
147	0xbe68e4aa	-0.22743478
148	0x3eef1fd3	0.46703967
149	0x3e1d2ef7	0.15349947
150	0xbf30ef34	-0.69114995
151	0x3ea23792	0.31683022
152	0xbd78946a	-0.060688414
153	0x3f32f1da	0.69900286
154	0x3f30873d	0.6895636
155	0x3f6fab14	0.9362042
156	0x3edceefa	0.43151075
157	0xbf46ff98	-0.77733755
158	0xbf2f18ee	-0.68397415
159	0xbeb6c09d	-0.35693827
160	0x3f707a45	0.9393657
161	0x3f4aabc3	0.7916834
162	0x3f888a4c	1.0667205
163	0x3f1dbd9c	0.61617446
164	0x3f10e9ff	0.5660705
165	0xbf035649	-0.51303536
166	0xbef5af07	-0.47985098
167	0xbf16e730	-0.58946514
168	0x3f0225e8	0.5083909
169	0x3f700cd9	0.93769604
170	0x3f55d855	0.8353322
171	0xbf0770bf	-0.5290641
172	0x3ed093a2	0.40737635
173	0x3f5b3350	0.8562517
174	0x3e55062a	0.20803133
175	0xbefc4947	-0.49274656
176	0x3f5eb572	0.86995614
177	0x3f3cced0	0.7375307
178	0x3e26d4a8	0.1629206
179	0xbf22c3d4	-0.6358006
180	0x3eaf0ebd	0.34190932
181	0x3e2a9691	0.16658999
182	0xbe51ab2c	-0.20475453
183	0x3f1a7db7	0.60348076
184	0x3e4c6a29	0.19962372
185	0x3eabe963	0.33576497
186	0x3ec6f1eb	0.38856444
187	0xbdc0620e	-0.093937024
188	0x3eea0a40	0.45710945
189	0x3eb78f9f	0.35851762
190	0x3e32f9b1	0.17478062
191	0xbe16ce11	-0.14727046
192	0x3ee8dbd7	0.45480224
193	0x3e485ef1	0.19567467
194	0x3f3c4203	0.73538226
195	0x3ea9f5fc	0.33195484
196	0x3e4f59dd	0.20249124
197	0x3df7b48b	0.12094983
198	0x3e5560fd	0.2083778
199	0xbd838167	-0.06421166
200	0x3e65f484	0.22456557
201	0x3e4304f6	0.19044861
202	0x3ec1d2a8	0.3785603
203	0x3ee5d3d9	0.4488819
204	0x3f026303	0.5093233
205	0x3ed7c9f0	0.42146254
206	0x3d5fe213	0.05465896
207	0x3d688cc8	0.056774884
208	0x3e6af3ea	0.22944608
209	0xbe4e9765	-0.2017494
210	0x3e3979d8	0.18112886
211	0xbc374589	-0.011186012
212	0xbe003401	-0.12519838
213	0x3ea3ad93	0.31968364
214	0x3e91e967	0.28498384
215	0x3f0ced81	0.550499
216	0x3ead1854	0.33807623
217	0x3e66b934	0.22531587
218	0x3e241010	0.16021752
219	0xbd31ce64	-0.04340972
220	0x3f10d618	0.5657668
221	0x3e213aa4	0.15745026
222	0x3f138f03	0.57640094
223	0x3edec483	0.43509302
224	0x3d432180	0.04763937
225	0x3eaa90be	0.33313555
226	0x3e816e9b	0.25279698
227	0x3e6d7e25	0.23192652
228	0x3e7590d4	0.23981029
229	0x3efcde18	0.49388194
230	0x3f168fe4	0.5881331
231	0x3d3b204b	0.045685094
232	0x3e28999b	0.16464846
233	0x3f015601	0.50521857
234	0xbe7f6145	-0.24939449
235	0x3e8cc752	0.2749582
236	0x3ea64ab3	0.32478866
237	0x3ea05aac	0.31319177
238	0xbdda267b	-0.10651871
239	0x3e89e9da	0.26936227

weight_hh_l0 f4 [240, 60]
0	0x3e55b75a	0.20870724
1	0x3e45a66f	0.1930177
2	0xbdea133a	-0.114294484
3	0x3e33f668	0.17574465
4	0xbd9ff7d4	-0.07810941
5	0xbc7be092	-0.015373366
6	0x3e1bfd1b	0.15233271
7	0x3df0ab03	0.11751368
8	0xbe14dd4c	-0.14537543
9	0xbe706c1d	-0.23478742
10	0x3de4179d	0.111373164
11	0x3ddccdba	0.10781427
12	0x3c395ca4	0.011313591
13	0x3defb631	0.11704672
14	0x3e6f1000	0.23345947
15	0x3e2e5b17	0.17026936
16	0xbdaf13de	-0.08548711
17	0xbd5ebb6f	-0.05437797
18	0xbdbc2352	-0.09186424
19	0x3bc73582	0.0060793767
20	0xbe25e285	-0.16199692
21	0xbdb9fda7	-0.090815835
22	0xbe61553d	-0.22005172
23	0xbd961b08	-0.073293746
24	0x3e400114	0.18750411
25	0xbe30b67c	-0.17257112
26	0xbca86e4a	-0.020560402
27	0xbd4c25dd	-0.049840797
28	0x3d9e4b8a	0.07729252
29	0x3d0b6abb	0.034037333
30	0xbc75e936	-0.015009215
31	0x3d584145	0.05279662
32	0xbd0bb6b4	-0.034109786
33	0x3e1d5c8f	0.1536734
34	0x3e1dd5c4	0.15413576
35	0x3e07d69e	0.13265464
36	0x3de7242d	0.11286197
37	0xbe1fea5e	-0.15616748
38	0xbe149241	-0.14508916
39	0xbe15a2e1	-0.14612915
40	0x3e434d75	0.19072516
41	0x3c86e527	0.01646669
42	0x3e4af6fb	0.19820778
43	0x3da30de3	0.07961633
44	0xbd59851d	-0.053105462
45	0xbe92b84f	-0.2865624
46	0xbd627d44	-0.055295244
47	0xbe73bc79	-0.23802365
48	0x3db1a531	0.08674086
49	0x3e8e312f	0.277719
50	0x3e712ba5	0.23551805
51	0xbe1ad05e	-0.15118548
52	0xbd4fcd24	-0.050732747
53	0x3e47f3f1	0.1952665
54	0x3b0d945c	0.0021603322
55	0xbdc0c80c	-0.09413156
56	0x3d742aec	0.059611246
57	0x3e8a5976	0.27021378
58	0x3e492930	0.19644618
59	0xbcdf620b	-0.02726843
60	0xbdc26eff	-0.09493827
61	0x3da0612c	0.07831034
62	0x3e9036ce	0.28166813
63	0xbe50589b	-0.203463
64	0xbe4fab9d	-0.20280309
65	0x3e0b698f	0.13614486
66	0xbdc180eb	-0.09448417
67	0xbd135d62	-0.03597773
68	0x3c91b5bf	0.017786859
69	0x3d8c3c73	0.06847467
70	0xbdcd5ab9	-0.100270696
71	0xbd5fa7c0	-0.05460334
72	0xbd3a8eff	-0.045546528
73	0xbdede3aa	-0.11615689
74	0xbe236e91	-0.15960146
75	0xbe1d05f9	-0.1533431
76	0x3d8ea38d	0.069647886
77	0xbda0454d	-0.07825718
78	0xbdc124c4	-0.094308406
79	0xbe5a4eac	-0.21319073
80	0x3e0bfc21	0.13670398
81	0x3d70bd36	0.058774196
82	0x3e711a13	0.23545103
83	0xbd0e8085	-0.034790535
84	0xbd76d09f	-0.06025755
85	0x3e046e45	0.1293269
86	0x3df9a0ea	0.12188895
87	0x3d3ad9b5	0.045617778
88	0xbe1e1069	-0.15435947
89	0xbd9241bf	-0.07141446
90	0x3cfd9f5c	0.030959778
91	0x3dd76373	0.10517015
92	0xbd56db9b	-0.052455526
93	0xbdcffdc4	-0.10155824
94	0xbe1f8b9f	-0.15580605
95	0xbe55c357	-0.20875297
96	0xbe049455	-0.12947209
97	0x3d22feaf	0.039793666
98	0x3e07b7cc	0.13253707
99	0x3da39571	0.07987488
100	0xbd95f5ce	-0.07322274
101	0x3de7cbf1	0.113181956
102	0xbd9ab38a	-0.075537756
103	0xbd4cb151	-0.04997379
104	0x3e1d5319	0.1536373
105	0x3d85daf5	0.06535903
106	0x3da40c8e	0.08010207
107	0xbda48b7e	-0.080344185
108	0xbcfc7fee	-0.03082272
109	0xbe112e95	-0.14177926
110	0x3de3b6b0	0.11118829
111	0xbe2ce166	-0.16882858
112	0x3d8c19a1	0.06840826
113	0x3c39c4d4	0.011338431
114	0xbde12451	-0.10993255
115	0xbe3dc5dc	-0.18532509
116	0xbc8b9cb8	-0.017042503
117	0xbd6a4c63	-0.057201754
118	0x3b37021f	0.0027924848
119	0x3dd7aa0b	0.1053048
120	0xbccf50b7	-0.025307043
121	0x3cdb2786	0.026752245
122	0x3da6af77	0.08138936
123	0x3db1e819	0.08686847
124	0xbd4672da	-0.048449375
125	0x3c633987	0.013868696
126	0xbd7cdb03	-0.061732303
127	0x3d8a3a4b	0.067494
128	0xbdd343c4	-0.1031566
129	0xbe1c5271	-0.15265824
130	0xbd7a8283	-0.061159622
131	0x3e14dd77	0.14537607
132	0xbd778eb2	-0.06043882
133	0x3daf23c7	0.08551746
134	0x3dc1fb7c	0.09471795
135	0x3bf7bd02	0.0075603733
136	0xbd1a4f29	-0.03767315
137	0xbdaeded0	-0.08538592
138	0x3c479315	0.012181063
139	0x3d849a88	0.06474787
140	0x3cbb0484	0.022829302
141	0x3c1f5e34	0.00972705
142	0x3e13a12c	0.14416951
143	0x3df6250c	0.12018785
144	0x3a6e804d	0.0009098098
145	0xbd873dd5	-0.066035904
146	0x3ddbadac	0.10726485
147	0x3dd4503d	0.10366867
148	0xbb056d4e	-0.002035934
149	0x3e022489	0.1270925
150	0xbd592e8d	-0.05302291
151	0x3d4b2316	0.049594007
152	0xbdbd26d9	-0.09235925
153	0xbc9384ee	-0.018007722
154	0xbd43cfdd	-0.047805656
155	0xbdc5387c	-0.09629914
156	0x3c9cf48c	0.019159578
157	0xbddddeb4	-0.10833493
158	0xbbc8180d	-0.0061063827
159	0xbe4bb336	-0.19892582
160	0x3c9731a7	0.018456293
161	0x3d2843c7	0.041080263
162	0x3daf8f8c	0.08572301
163	0x3de6ede6	0.11275844
164	0xbdb0081c	-0.08595297
165	0x3d8e75ab	0.06956037
166	0xbdd0f5bb	-0.10203119
167	0x3d09a822	0.03360761
168	0xbbc889ff	-0.006119966
169	0x3e04d4eb	0.12971847
170	0x3e4177e7	0.18893395
171	0xbcf0d61a	-0.029398967
172	0x3dd16b8d	0.10225592
173	0xbc2228e2	-0.009897443
174	0x3c6d95dd	0.014501062
175	0xbe129b9a	-0.1431717
176	0x3df180cf	0.117921464
177	0x3e2272ff	0.1586418
178	0x3b05e0df	0.0020428223
179	0x3d4640dc	0.0484017
180	0xbd380146	-0.04492309
181	0x3d8d4ff1	0.06900013
182	0x3b22118a	0.0024729692
183	0x3d24e765	0.040259738
184	0xbe168dbe	-0.14702508
185	0x3d535ef2	0.05160422
186	0xbda5de82	-0.080990806
187	0xbd639bef	-0.05556863
188	0x3cb51e23	0.022109097
189	0xbdafe66a	-0.0858887
190	0x3deffc71	0.11718071
191	0xbd4fa919	-0.050698373
192	0x3d2807fe	0.041023247
193	0xbd613b97	-0.05498847
194	0x3e0bc8f4	0.13650876
195	0x3d1b8ac8	0.03797415
196	0x3d501c61	0.050808314
197	0x3e0fa161	0.14026405
198	0xbdb815e0	-0.08988547
199	0xbe0cb78c	-0.13741893
200	0x3d79edb9	0.061017726
201	0xbe15509d	-0.14581533
202	0xbda0aacf	-0.07845079
203	0xbdb99b92	-0.09062876
204	0x3d57890c	0.052620932
205	0xbddfd815	-0.10929886
206	0xbc3ad10b	-0.011402379
207	0x3d5a7f35	0.05334397
208	0xbdca62ca	-0.09882124
209	0xbd731182	-0.05934287
210	0x3d935473	0.07193842
211	0x3dd73a29	0.1050914
212	0xbdf86ca2	-0.12130095
213	0x3ddf10b6	0.10891859
214	0xbd1fafb6	-0.03898593
215	0xbd9a02ba	-0.07520051
216	0x3db59f3a	0.08868261
217	0x3d734da8	0.05940023
218	0xbd6f6d9e	-0.05845415
219	0x3c430caa	0.011904875
220	0x3e04eac1	0.12980177
221	0x3e2461c7	0.16052924
222	0x3e0e3482	0.13887218
223	0x3c444f4f	0.011981799
224	0xbd8c356c	-0.06846127
225	0x3d7c04f0	0.061528146
226	0xbc1b0e54	-0.009463865
227	0xbd90a658	-0.070629776
228	0xbe16e30e	-0.14735052
229	0x3e14dfa5	0.14538439
230	0x3e1143da	0.1418604
231	0xbc092a69	-0.008371928
232	0x3dc0b5a1	0.09409643
233	0xbb120623	-0.002228149
234	0xbdc80ecb	-0.097684465
235	0xbe4defe5	-0.20111044
236	0xbc285a41	-0.010275424
237	0x3d854a3e	0.06508301
238	0x3ce9526e	0.028481688
239	0xbcbaec5e	-0.022817787
240	0x3db7fa4b	0.089832865
241	0x3dd92726	0.1060317
242	0x3c329a29	0.010901012
243	0xbd8bc88f	-0.06825363
244	0xbd896d6c	-0.06710324
245	0xbce1f602	-0.027583126
246	0x3d6b31b9	0.057420466
247	0x3ddd753b	0.108133756
248	0xbe0df79f	-0.13863991
249	0xbdf6e04e	-0.120545015
250	0xbc9722d6	-0.018449228
251	0xbe2cb5ab	-0.16866176
252	0x3da1e6a9	0.07905323
253	0xbd0864ba	-0.033299185
254	0x3cc7075b	0.0242955
255	0xbda1756f	-0.07883727

bias_ih_l0 f4 [240]
0	0xbbf82e74	-0.007573897
1	0xbe3b2d02	-0.18278888
2	0xbdb5d97f	-0.08879375
3	0xbdff2d85	-0.12459854
4	0xbdb07e1a	-0.08617802
5	0x3c3c5562	0.011494966
6	0xbd99b5f1	-0.07505406
7	0xbe4498e3	-0.19198947
8	0xbd6076e9	-0.0548009
9	0xbde56305	-0.11200527
10	0xbad3778e	-0.0016133653
11	0xbe56c1c0	-0.20972347
12	0x3dc892b5	0.09793607
13	0xbdf4a7bb	-0.119460545
14	0xbda935c9	-0.08262212
15	0xbc4b738c	-0.012417685
16	0xbe2922ee	-0.16517231
17	0xbe4eae2e	-0.20183632
18	0xbe762304	-0.24036795
19	0x3d9d788c	0.07689008
20	0xbcbc4df8	-0.022986397
21	0xbe98eee7	-0.29869768
22	0xbd2e5a3f	-0.042566534
23	0xbd98dee7	-0.0746439
24	0xbdc61805	-0.0967255
25	0xbe3bbb51	-0.18333174
26	0xbe441157	-0.1914724
27	0xbe3b59f8	-0.18296039
28	0xbd046f2b	-0.03233258
29	0xbd8b3b45	-0.06798414
30	0xbd9e7964	-0.07737997
31	0x3cdd68ac	0.02702745
32	0xbe38eb8a	-0.18058601
33	0xbe24f15e	-0.161077
34	0x3d4e295d	0.050332416
35	0xbd8716a1	-0.06596113
36	0x3cc16877	0.023609383
37	0x3d32b974	0.043633893
38	0xbe3f3929	-0.18674149
39	0xbe24652f	-0.16054223
40	0x3d813897	0.06309622
41	0xbe383276	-0.17988
42	0xbce5e0c3	-0.028061276
43	0xbe1e2adb	-0.15446036
44	0x3dfbcb5f	0.12294649
45	0xbe8c26c5	-0.2737333
46	0xbe05ae70	-0.13054824
47	0xbd642b9b	-0.055705648
48	0x3ddb5a09	0.10710532
49	0x3d24a604	0.040197387
50	0xbdd1eb4d	-0.10249958
51	0xbe113126	-0.14178905
52	0xbdce987e	-0.10087679
53	0xbe453fa4	-0.19262558
54	0xbe419e01	-0.1890793
55	0xbeb09ff8	-0.34497046
56	0xbdf09e64	-0.117489606
57	0xbbdcc820	-0.006737724
58	0xbe35cafd	-0.17753215
59	0xbdd2a51c	-0.10285398
60	0x3c8ed026	0.017433237
61	0xbe2e2cd4	-0.17009288
62	0xbd6cb109	-0.05778602
63	0xbe06b031	-0.13153149
64	0xbd47bae5	-0.04876222
65	0xbe043f9f	-0.12914895
66	0xbabfa10e	-0.0014620142
67	0xbe89d2ed	-0.26918736
68	0xbe060988	-0.13089573
69	0x3c82a73c	0.015948884
70	0x3d872002	0.06597902
71	0xbda90044	-0.08252004
72	0x3d12e04d	0.03585844
73	0xbe5af506	-0.21382532
74	0xbc18f2c3	-0.009335223
75	0x3d54ae54	0.051924065
76	0xbe2650c8	-0.16241753
77	0xbd1720bc	-0.036896452
78	0xbe23c80b	-0.15994279
79	0xbd79dbd0	-0.061000645
80	0x3e0235eb	0.1271588
81	0xbe0fc640	-0.1404047
82	0x3dcec616	0.10096376
83	0xbe0a105d	-0.13482805
84	0xbdfaa28b	-0.12238034
85	0xbcd4a518	-0.02595763
86	0xbe6ce31f	-0.23133515
87	0xbdefd642	-0.11710788
88	0xbaac6128	-0.0013151513
89	0xbddf667e	-0.10908221
90	0xbe0411c7	-0.12897407
91	0x3cc2c6dd	0.023776466
92	0xbe2bfdf9	-0.16796102
93	0xbe8d417e	-0.2758903
94	0x3d166f1f	0.036727067
95	0xbe325b81	-0.17417718
96	0xbd5e7234	-0.05430813
97	0xbe020d17	-0.12700306
98	0xbd2a21d5	-0.04153617
99	0xbd289411	-0.041156832
100	0x3a944c2f	0.0011314208
101	0x3c7ccfb2	0.015430378
102	0x3e450b12	0.19242504
103	0xbdf8306b	-0.1211861
104	0x3b0f0b19	0.0021826683
105	0xbe1d2d5d	-0.15349336
106	0x3b99a8b8	0.0046893023
107	0x3ac076e8	0.0014683874
108	0x3da4046e	0.080086574
109	0x3db9a8a7	0.09065371
110	0x3e32da22	0.17466024
111	0xbb8dbdb6	-0.004325594
112	0xbea35bfc	-0.31906116
113	0xbe43ecf4	-0.19133359
114	0x3d705e79	0.058683846
115	0xbda5fd21	-0.08104921
116	0xbe55019c	-0.20801395
117	0xbd8051b0	-0.06265581
118	0xbe12afca	-0.1432487
119	0xbe57072a	-0.20998827
120	0x3ceb68e1	0.028736534
121	0x3d2cc6fd	0.042181958
122	0xbd2bd00b	-0.041946452
123	0xbda470c1	-0.080293186
124	0x3c7b213d	0.015327749
125	0x3cbc45b7	0.022982461
126	0x3e08eb8e	0.13371107
127	0xbda777cc	-0.08177146
128	0xbd350445	-0.044193525
129	0xbe210ece	-0.15728304
130	0x3c86accd	0.01643982
131	0x3d3cd1c8	0.0460985
132	0x3d9f278e	0.07771216
133	0x3c88d280	0.016701937
134	0x3d482237	0.048860755
135	0x3d9c8ed2	0.07644428
136	0x3d37cf4a	0.04487542
137	0x3c0675d5	0.008206804
138	0x3dab1768	0.08354074
139	0xbca60c31	-0.020269485
140	0xbd55629a	-0.052095987
141	0x3c064486	0.008195048
142	0xbdd513e3	-0.10404184
143	0xba752116	-0.00093509385
144	0xbd23a709	-0.03995422
145	0xbd86ef74	-0.06588641
146	0xbd6d7d54	-0.05798085
147	0xbc192637	-0.00934749
148	0xbd0240ad	-0.03179996
149	0xbcb4b17f	-0.022057293
150	0x3d02bfb3	0.0319211
151	0xbd7b8f71	-0.061416093
152	0x3ce5b64f	0.028041033
153	0x3d7b0d17	0.06129178
154	0x3d1aad5d	0.03776299
155	0x3dc60165	0.09668235
156	0x3bdc1c27	0.006717223
157	0x3d93bb37	0.07213443
158	0xbd8b4fe4	-0.06802347
159	0xbbb936dd	-0.005652292
160	0x3e24c179	0.16089429
161	0xbd587453	-0.05284531
162	0xbc0cc915	-0.008592864
163	0x3c811d8d	0.015761161
164	0xbdd34251	-0.10315383
165	0x3db9a95e	0.09065507
166	0x3cfeb3bd	0.031091565
167	0xbd1375dd	-0.036001075
168	0x3d457b31	0.048213188
169	0x3d9a76d0	0.07542193
170	0xbdb1eba5	-0.08687524
171	0x3d80db31	0.062918074
172	0xbd9a9506	-0.07547955
173	0xbd010e3c	-0.031507716
174	0x3dc99296	0.09842412
175	0xbd2d028b	-0.042238753
176	0xbd44c4e3	-0.04803933
177	0x3c8e9c0e	0.017408397
178	0xbc80e40b	-0.01573374
179	0x3d090a4b	0.03345708
180	0xbc13b3a7	-0.009015
181	0xbd9e6fa1	-0.07736135
182	0xbe27c948	-0.16385376
183	0xbc05221b	-0.008125807
184	0x3c975e5e	0.018477615
185	0xbd3aaf40	-0.045577288
186	0xbe0e1d84	-0.13878447
187	0xbe22eafb	-0.1590995
188	0xbe6b8d22	-0.23003057
189	0xbde051e4	-0.109531194
190	0xbd0f66b5	-0.03501006
191	0xbdce96f0	-0.10087383
192	0x3c0aad71	0.008464203
193	0xbe6affb4	-0.22949106
194	0xbe200a04	-0.1562882
195	0x3d2238ea	0.03960506
196	0xbc78a148	-0.015175171
197	0xbe21f798	-0.15817106
198	0xbe2473d6	-0.16059813
199	0xbdbc51c9	-0.09195287
200	0x3dd87c56	0.1057059
201	0xbd6b1ee6	-0.057402514
202	0xbd262925	-0.040566582
203	0xbd9fc393	-0.07800975
204	0xbdb5d499	-0.088784404
205	0xbde3ced4	-0.11123434
206	0xbcd8e6ef	-0.026477305
207	0xbe002ec3	-0.12517838
208	0xbe46a0ba	-0.1939725
209	0xbdae1b78	-0.08501333
210	0xbcce06a4	-0.02514965
211	0x3d78123d	0.06056427
212	0xbe1ee706	-0.15517816
213	0xbe25e1fc	-0.16199487
214	0x3c9d6724	0.01921422
215	0xbe8e2636	-0.27763528
216	0x3c92dd29	0.017927723
217	0xbe2d959a	-0.169516
218	0xbe0cfdcc	-0.13768691
219	0xbdd0eeef	-0.10201823
220	0xbde15dda	-0.11004229
221	0xbd47a1a4	-0.048738137
222	0xbcfab12c	-0.03060206
223	0xbe4172b3	-0.1889141
224	0x3c2aee41	0.010432781
225	0xbe612246	-0.2198573
226	0xbcb19cbc	-0.021681182
227	0xbe84b300	-0.25917816
228	0xbddfaaf0	-0.109212756
229	0xbe0b8b94	-0.13627464
230	0xbdbd9499	-0.092568584
231	0xbe2d389e	-0.16916129
232	0xbe0722ae	-0.13196823
233	0xbd0a2ce9	-0.033734236
234	0xbdbca9fe	-0.09212111
235	0xbe9f7eab	-0.31151327
236	0xbd5e32e6	-0.05424776
237	0xbd7cad43	-0.061688673
238	0xbe23d902	-0.1600075
239	0xbe71622b	-0.23572604

bias_hh_l0 f4 [240]
0	0x3df64149	0.12024171
1	0xbe03ae65	-0.12859495
2	0xbe3720b6	-0.17883572
3	0xbdd0085e	-0.10157846
4	0xbd77c7d5	-0.06049331
5	0xbe196a05	-0.1498185
6	0xbd47d224	-0.04878439
7	0xbe335045	-0.17511089
8	0xbdbfa936	-0.09358446
9	0x3ba5eadc	0.005063398
10	0x3c9954c6	0.018717181
11	0xbdbb000c	-0.09130868
12	0x3dc2fda3	0.095210336
13	0xbe281c4b	-0.16417043
14	0xbdfb859d	-0.12281344
15	0xbe038402	-0.12843326
16	0x3be998c5	0.0071288073
17	0xbcd60634	-0.026126005
18	0xbe04af1f	-0.12957428
19	0x3dac543d	0.08414505
20	0xbdc4bbf9	-0.096061654
21	0xbe11b849	-0.14230455
22	0xbd99fc97	-0.07518881
23	0xbd982ed1	-0.074308045
24	0xbdd425b1	-0.103587516
25	0xbde9e45a	-0.11420508
26	0xbd47db8c	-0.04879336
27	0xbe5756dc	-0.21029228
28	0xbe689596	-0.22713313
29	0xbe86d1ad	-0.26331845
30	0x3c0151d8	0.007893048
31	0xbd9a7b7a	-0.075430825
32	0xbe423834	-0.18966752
33	0xbe1e2bce	-0.15446398
34	0xbdebc329	-0.11511833
35	0xbdd6825e	-0.10474084
36	0xbe68de2c	-0.22741002
37	0xbdb78e18	-0.08962649
38	0xbcf9c081	-0.0304873
39	0xbd29ba36	-0.04143735
40	0xbd0562f0	-0.032565057
41	0xbdd312b9	-0.103063054
42	0xbc4da271	-0.012550936
43	0xbe45576f	-0.19271635
44	0x3d744058	0.059631675
45	0xbea16ca5	-0.31528202
46	0xbe0befe5	-0.13665731
47	0xbe482ef4	-0.19549161
48	0xbce7f6d0	-0.028315932
49	0xbdecc902	-0.11561777
50	0xbd827c94	-0.06371418
51	0xbdda499a	-0.1065857
52	0xbe4ce9dc	-0.20011085
53	0xbcb4bc87	-0.022062553
54	0xbe24f02d	-0.16107245
55	0xbe1619bf	-0.14658259
56	0xbde18362	-0.110113874
57	0xbddf7ded	-0.1091269
58	0xbdb9382b	-0.09043916
59	0xbbd5e6ac	-0.0065277424
60	0x3e182143	0.14856438
61	0x3cc90d0d	0.024542356
62	0xbe274804	-0.16336066
63	0xbd309b29	-0.043116722
64	0xbe47636f	-0.19471525
65	0xbdb2f1db	-0.087375365
66	0x3d1add99	0.03780899
67	0xbe7eaf4c	-0.24871558
68	0xbe5fa269	-0.21839298
69	0xbdc111ea	-0.09427245
70	0x3da6181a	0.08110066
71	0xbd378656	-0.044805847
72	0x3df9c694	0.12196079
73	0x3adbd200	0.0016770959
74	0x3c8e91f2	0.017403577
75	0x3b75161e	0.0037397216
76	0xbcc9f5d2	-0.02465335
77	0xbe30d6e0	-0.17269468
78	0xbd2a489c	-0.041573152
79	0xbd920d20	-0.0713141
80	0xbd1bf005	-0.038070697
81	0xbdd442e8	-0.10364324
82	0x3df6bd07	0.12047773
83	0x3c98156e	0.018564906
84	0xbe5d1891	-0.21591403
85	0x3d757501	0.059926037
86	0xbe4925ff	-0.196434
87	0xbdbb4e3b	-0.09145781
88	0xbe307178	-0.17230785
89	0xbe1a3644	-0.15059763
90	0xbe628e4d	-0.22124596
91	0x3da03c78	0.078240335
92	0xbc7cbb93	-0.015425581
93	0xbe5a8f39	-0.21343698
94	0xbd25cd93	-0.040479254
95	0xbd2c9852	-0.04213745
96	0xbd88f53b	-0.06687399
97	0xbab55e55	-0.0013837317
98	0xbb4069fe	-0.0029360051
99	0xbdc46638	-0.09589809
100	0xbd80b406	-0.06284337
101	0xbc34b2b9	-0.011028939
102	0x3e05b447	0.13057052
103	0xbe817e44	-0.25291646
104	0xbc011b1a	-0.007879997
105	0xbe8efbc4	-0.27926457
106	0xbb231255	-0.0024882753
107	0x3bf5cd9f	0.0075013186
108	0xbd804d88	-0.06264788
109	0x3d73d50a	0.05952934
110	0x3e5b1bc6	0.21397313
111	0xbd164edb	-0.036696296
112	0xbe9e1264	-0.30873406
113	0xbe3a2e7d	-0.18181796
114	0xbe2ab948	-0.16672242
115	0xbe81c829	-0.25348023
116	0xbdc804f4	-0.0976657
117	0xbe0bdc40	-0.13658237
118	0x3c7127b4	0.014718939
119	0xbd99db93	-0.075125836
120	0x3c975fd6	0.018478315
121	0xbd97eabd	-0.0741782
122	0xbd3764fc	-0.04477404
123	0x3e227786	0.15865907
124	0x3c804dca	0.015662093
125	0x3c4adce0	0.012381762
126	0xbde1976a	-0.11015208
127	0x3d01b80c	0.03166966
128	0x3d38352b	0.04497258
129	0x3da228c6	0.07917933
130	0x3d7b105a	0.06129489
131	0xbd2669e4	-0.04062833
132	0xbc36c432	-0.011155175
133	0x3c956379	0.018235909
134	0x3d147caf	0.03625172
135	0x3d492d76	0.04911562
136	0x3db5c749	0.08875901
137	0x3c9a0fd1	0.01880637
138	0xbd979bc9	-0.074027605
139	0x3dbcdd3a	0.09221883
140	0x3be0e5cf	0.006863333
141	0x3c2513cb	0.01007552
142	0xbbedd2c6	-0.007257792
143	0xbcfbf2e6	-0.030755471
144	0x3d9e6351	0.07733787
145	0x3dd1bde9	0.102413006
146	0x3d84d59e	0.06486057
147	0xbbbf4cb7	-0.0058380025
148	0xbb905fd4	-0.004405955
149	0xba84a1b4	-0.0010118992
150	0xbd5db334	-0.05412598
151	0xbc28fdad	-0.010314387
152	0x3d3faff3	0.046798658
153	0xbd9a345a	-0.075295165
154	0x3d316b9c	0.043315515
155	0xbd22b2eb	-0.03972141
156	0xbc15338e	-0.00910653
157	0x3d89ba65	0.06725005
158	0x3d585b5b	0.0528215
159	0x3d8b38dd	0.06797955
160	0xbd90c50d	-0.070688345
161	0xbc025ab6	-0.0079561975
162	0x3c5dcc2a	0.013537446
163	0x3c30f6e7	0.010801054
164	0xbd929233	-0.071567915
165	0xbd952968	-0.07283288
166	0xbcb32125	-0.02186639
167	0x3d27a315	0.04092701
168	0xbbc7c8b1	-0.0060969223
169	0xbb721ba6	-0.003694275
170	0x3da236a4	0.07920578
171	0xbd9584eb	-0.07300743
172	0x3dba5f19	0.0910017
173	0x3cb85088	0.022499338
174	0xbd9040a9	-0.07043583
175	0x3d11efeb	0.035629194
176	0x3cb4725d	0.022027189
177	0xbd060c74	-0.03272672
178	0xbd875b29	-0.06609184
179	0x3d1f68dc	0.03891836
180	0xbd96a20f	-0.07355129
181	0xbe3bdfc2	-0.18347076
182	0xbdf2289c	-0.11824152
183	0xbdff1664	-0.124554425
184	0xbda2cd12	-0.0794927
185	0xbe43ab0a	-0.19108215
186	0x3bc18572	0.0059058005
187	0xbe7a705c	-0.24456924
188	0xbde20101	-0.11035348
189	0xbd947570	-0.07248962
190	0xbd3c8c1a	-0.04603205
191	0xbe88b4b6	-0.26700372
192	0x3c8f519d	0.017494971
193	0xbdcf8be9	-0.101341076
194	0xbd686800	-0.056739807
195	0x3d985fd8	0.07440156
196	0xbe412cca	-0.18864742
197	0xbd8a5eaa	-0.06756337
198	0xbe6fed1a	-0.23430291
199	0xbc924c4f	-0.017858652
200	0x3d1f463b	0.038885336
201	0xbe624396	-0.22096094
202	0x3e0fb4ae	0.14033768
203	0xbe6a2c37	-0.22868429
204	0xbd544933	-0.05182762
205	0xbc0657b1	-0.008199618
206	0xbe791434	-0.24324113
207	0xbdccee37	-0.100063734
208	0xbde95364	-0.113928586
209	0xbe862b6f	-0.26205012
210	0xbe3c011d	-0.183598
211	0x3cb535aa	0.022120316
212	0xbcba13f1	-0.022714587
213	0xbe090958	-0.1338247
214	0xbcb53456	-0.022119682
215	0xbd688c6d	-0.056774545
216	0xbb451166	-0.0030070185
217	0xbdd31e4b	-0.10308512
218	0xbdb0bc7c	-0.086297005
219	0xbe5d82a0	-0.2163186
220	0xbca10e67	-0.019660188
221	0xbda6f9a7	-0.08153086
222	0x3d71ba01	0.059015278
223	0xbe6ff7a9	-0.23434319
224	0x3d930610	0.07178891
225	0xbe3c2420	-0.18373156
226	0xbdcd6c40	-0.10030413
227	0xbded168b	-0.11576565
228	0x3d12b3f0	0.035816133
229	0xbdb5c697	-0.08875769
230	0x3cf8621a	0.030320216
231	0xbe1b5b91	-0.15171649
232	0xbe8e5b72	-0.27804142
233	0xbd965bd4	-0.073417336
234	0xbda9c0ed	-0.08288751
235	0xbe4a5e24	-0.19762474
236	0xbe56ddc7	-0.20983039
237	0xbe2e5f13	-0.17028455
238	0x3c52d3bb	0.012867863
239	0xbdc9ec63	-0.0985954

weight_ih_l0 f4 [240, 60]
0	0xbd500b83	-0.05079223
1	0xbd0af6ea	-0.03392688
2	0x3d517124	0.05113329
3	0xbe1a5368	-0.1507088
4	0xbdcd6cee	-0.10030542
5	0xbdbac26e	-0.09119116
6	0xbd4fe652	-0.05075676
7	0x3d5c979d	0.053855527
8	0x3d0827e0	0.033241153
9	0x3dca3e1f	0.0987513
10	0xbe64cbfd	-0.2234344
11	0xbcc8317f	-0.024437664
12	0xbe8c27db	-0.27374157
13	0xbcdb3e43	-0.026763087
14	0xbd68d225	-0.056841034
15	0xbe723a12	-0.23654965
16	0xbd90f08a	-0.07077129
17	0xbcba2ed9	-0.022727417
18	0xbdf17341	-0.11789561
19	0xbc92a265	-0.017899701
20	0x3d6e254b	0.058141034
21	0x3ced0a0e	0.028935459
22	0x3d66330b	0.056201022
23	0x3db38ea7	0.08767443
24	0x3de48daa	0.11159833
25	0xbcf10d14	-0.029425181
26	0xbdc7c9e1	-0.09755302
27	0xbdea0521	-0.114267595
28	0xbd8bd131	-0.068270095
29	0x3d859a6c	0.06523594
30	0xbd5a04bc	-0.05322717
31	0x3e3e0022	0.18554738
32	0xbd951b33	-0.072805785
33	0xbde711d7	-0.112826996
34	0xbd3bb9f7	-0.045831647
35	0xbe7ef07f	-0.2489643
36	0xbb8187d9	-0.003952962
37	0x3c835ea9	0.016036348
38	0x3c3a2023	0.011360201
39	0xbd5b2f8f	-0.053512152
40	0xbe370d98	-0.1787628
41	0x3dedf720	0.11619401
42	0xbd1c3ff3	-0.038146924
43	0xbad9bc9e	-0.0016611998
44	0x3ea766b5	0.32695547
45	0x3e33d30c	0.17560977
46	0xbda051d6	-0.07828109
47	0xbde1ed3b	-0.11031576
48	0xbe730475	-0.23732169
49	0xbe3cb3f5	-0.18428023
50	0xbd995f0b	-0.07488831
51	0x3d0b71f5	0.034044225
52	0xbdd32cdb	-0.1031129
53	0x3c8a93b4	0.016916133
54	0xbca6b033	-0.02034769
55	0xbd4ab99b	-0.049493413
56	0x3daa458c	0.08314046
57	0x3d42c6dc	0.04755293
58	0x3c7dd1d2	0.01549192
59	0xbe08b7b8	-0.13351333
60	0xbde40ba0	-0.1113503
61	0xbe1c5a3d	-0.15268798
62	0x3e3c2e10	0.18376946
63	0xbce61a8c	-0.02808883
64	0xbd8ea5d7	-0.06965225
65	0x3dd38a7b	0.103291474
66	0xbd95c5aa	-0.07313092
67	0xbd882b8c	-0.06648931
68	0x3d95cc90	0.07314408
69	0x3b86391a	0.0040961625
70	0x3c5c5930	0.013448998
71	0xbd4d0390	-0.050052226
72	0xbe7af021	-0.24505664
73	0xbe411ecb	-0.18859403
74	0xbe83e2ce	-0.25758976
75	0xbce43b80	-0.027860403
76	0xbc7833bd	-0.015149054
77	0xbd3ae414	-0.04562767
78	0xbb323710	-0.0027193464
79	0xbe5d0b1d	-0.2158627
80	0x3e24bc06	0.1608735
81	0xbd4ff076	-0.05076643
82	0x3d89ecc0	0.067346096
83	0xbcf733b8	-0.030176029
84	0xbd0bcd52	-0.034131356
85	0x3d0d0f16	0.034438215
86	0x3ccb4b77	0.024816258
87	0x3c91a3fd	0.017778391
88	0x3cd9828b	0.026551506
89	0x3dfd2a3e	0.12361573
90	0x3d7fc6a0	0.062445283
91	0x3dbbc8a8	0.091691315
92	0xbe1421e3	-0.14466052
93	0xbe44e5b5	-0.19228251
94	0xbe0b3ac8	-0.13596642
95	0xbd27d357	-0.040973034
96	0xbe22ef87	-0.15911685
97	0xbd9c6f4b	-0.07638415
98	0x39d94216	0.00041438703
99	0x3df6e784	0.12055877
100	0xbe7f6c98	-0.24943769
101	0xbd527f5f	-0.051391
102	0xbdd34208	-0.10315329
103	0xbe2787ee	-0.16360447
104	0x3e45c40e	0.1931307
105	0x3d191839	0.037376616
106	0x3d517894	0.051140383
107	0xbd9c3815	-0.07627884
108	0xbd0f332f	-0.03496092
109	0xbe3466ed	-0.17617388
110	0xbd7e99a8	-0.062158257
111	0x3ca4d424	0.020120688
112	0x3d2a8b0d	0.041636515
113	0x3d487c7b	0.04894684
114	0x3d9ab662	0.07554318
115	0xbe1b2c36	-0.15153584
116	0x3959ee23	0.00020783446
117	0xbe2abcdf	-0.16673611
118	0x3d86c1cb	0.06579932
119	0x3d01f20e	0.031724982
120	0xbbfb2fca	-0.007665609
121	0xbd365f98	-0.04452476
122	0x3e2cc1f8	0.16870868
123	0xbe7386c0	-0.23781872
124	0xbe0ec5a9	-0.13942589
125	0xbb0a49ff	-0.0021101234
126	0xbdd11601	-0.10209275
127	0xbdfeef09	-0.12447936
128	0xbddffc40	-0.10936785
129	0x3dfcdc3a	0.123466924
130	0xbd8af726	-0.06785421
131	0xbde4fd9e	-0.11181186
132	0xbea75c71	-0.32687715
133	0xbd4a4fa6	-0.049392365
134	0xbe8eeb3d	-0.27913848
135	0xbe0f6fda	-0.14007512
136	0xbe7f3b9a	-0.2492508
137	0x3dd760b5	0.10516492
138	0xbd095e7b	-0.03353737
139	0xbe12f181	-0.14349939
140	0x3e4f3e6d	0.20238657
141	0xbccc0e37	-0.024909122
142	0x3e0c6513	0.13710432
143	0x3e855265	0.26039425
144	0x3e0f7478	0.14009273
145	0xbd8de135	-0.069277205
146	0x3da0ae48	0.078457415
147	0xbc49e182	-0.012321832
148	0xbdac67c6	-0.08418231
149	0x3bb040ed	0.0053788335
150	0x3d67ca0f	0.056589182
151	0x3e135c6e	0.14390728
152	0xbeb051e9	-0.34437492
153	0xbb925d49	-0.004466687
154	0xbdfa7579	-0.122294374
155	0xbda7bbf9	-0.0819015
156	0x3cc7ef62	0.024406139
157	0xbe382ca6	-0.17985782
158	0x3e644955	0.22293599
159	0x3dbe4eaf	0.092923515
160	0xbcb3be97	-0.021941466
161	0x3b898055	0.0041962066
162	0xbe55b274	-0.20868856
163	0xbe59c428	-0.21266234
164	0x3e6a69f5	0.22891982
165	0x3d12bd28	0.035824925
166	0xbdbcfe03	-0.092281364
167	0x3e39bce4	0.18138462
168	0xbe326fcb	-0.17425458
169	0xbe836af2	-0.2566753
170	0xbe682f0b	-0.22674195
171	0x3a3638ba	0.0006951202
172	0x3d3e1473	0.04640622
173	0xbd801437	-0.06253856
174	0x3e26b43f	0.16279696
175	0x3d312366	0.04324665
176	0x3d405eb2	0.04696531
177	0x3d437a5a	0.047724105
178	0xbd248015	-0.04016121
179	0xbe310376	-0.17286476
180	0x3b69e7b8	0.0035691094
181	0xbb413381	-0.0029480162
182	0x3e0c2c70	0.13688827
183	0xbde77dbd	-0.113032795
184	0xbdebe4e7	-0.11518269
185	0xbd9a6dc5	-0.07540468
186	0xbe0681f9	-0.13135518
187	0x3db5f23e	0.08884095
188	0x3bdbb378	0.006704744
189	0x3d9a06eb	0.07520851
190	0xbe31cbfa	-0.17362967
191	0xbd9604a3	-0.07325103
192	0xbdb6eb71	-0.08931626
193	0xbde0889a	-0.10963555
194	0xbe0425b5	-0.12905009
195	0xbe656e1a	-0.22405282
196	0xbc643346	-0.01392824
197	0xbc831390	-0.016000539
198	0xbd7e5fc5	-0.06210305
199	0xbce629a4	-0.028096028
200	0x3e00603b	0.12536709
201	0x3b2be691	0.0026229958
202	0x3e38e640	0.18056583
203	0xbca7cee2	-0.020484392
204	0x3e047ce9	0.12938274
205	0x3dff6dad	0.12472091
206	0xbe0d97e1	-0.13827468
207	0xbe1493b0	-0.14509463
208	0xbe2079e5	-0.15671499
209	0x3d37be9a	0.044859506
210	0xbd5a8c42	-0.053356417
211	0x3d716050	0.05892974
212	0xbe4d0813	-0.20022611
213	0x3c18dbc7	0.009329743
214	0xbe30ed32	-0.17277983
215	0xbd3f922f	-0.04677027
216	0xbda6a427	-0.08136778
217	0xbd6ef799	-0.058341596
218	0x3e4340b2	0.19067648
219	0xbd95281b	-0.0728304
220	0xbe257147	-0.16156493
221	0x3d1873a5	0.037219662
222	0xbe5aa7c7	-0.21353064
223	0x349f7ce7	2.9706936e-07
224	0x3e8a48b1	0.27008584
225	0xbcc561bb	-0.024094453
226	0xbdab96d9	-0.08378381
227	0x3d506752	0.050879784
228	0xbddeb37b	-0.10874077
229	0xbca98bfd	-0.020696634
230	0xbdbd17eb	-0.092330776
231	0xbdc5a428	-0.09650451
232	0xbe25f45e	-0.162065
233	0xbe17de4e	-0.14830896
234	0x3d8ce34e	0.068792924
235	0xbc95acb7	-0.018270833
236	0x3d246c8f	0.040142592
237	0x3d2d288b	0.042274993
238	0xbdc33a37	-0.09532588
239	0xbe10dcc1	-0.14146711
240	0xbcb11bbf	-0.021619676
241	0xbd1f97b4	-0.038963035
242	0x3dec46b6	0.115369245
243	0x3a9a0522	0.0011750797
244	0xbe1fceea	-0.15606275
245	0x3c5446bb	0.012956317
246	0xbcbfdd0a	-0.02342083
247	0xbc99ce8a	-0.018775243
248	0x3c8d7f16	0.017272513
249	0xbcefac57	-0.029256983
250	0xbe63a3a4	-0.22230393
251	0xbe63e3be	-0.22254845
252	0xbe70447b	-0.23463623
253	0xbe74d5e5	-0.2390972
254	0xbd833120	-0.06405854
255	0xbdaa5ba3	-0.083182596

weight_hh_l0 f4 [240, 60]
0	0xbd82d0c2	-0.06387474
1	0x3e07fd8a	0.13280311
2	0x3d585111	0.052811686
3	0xbe24780f	-0.16061424
4	0xbdab637a	-0.08368583
5	0xbe88531a	-0.266259
6	0x3df9b112	0.121919766
7	0xbdb3e37c	-0.087836236
8	0x3d142fec	0.036178514
9	0xbe1d7d4e	-0.15379831
10	0xbe29337f	-0.1652355
11	0x3ccbc478	0.024873957
12	0xbe6b5573	-0.22981815
13	0x3e106f79	0.14105023
14	0xbd47e6a9	-0.04880396
15	0x3be613be	0.0070213964
16	0xbe0dc1c4	-0.13843447
17	0x3dea5019	0.11441059
18	0x3d6595a1	0.0560509
19	0xbe01cf1f	-0.12676667
20	0xbddc24f1	-0.107492335
21	0x3df64fb1	0.12026919
22	0x3b043363	0.002017223
23	0xbe611288	-0.21979725
24	0xbe3d0c7d	-0.18461795
25	0x3d64489f	0.05573332
26	0xbe2665f3	-0.16249828
27	0x3dfc5181	0.12320233
28	0x3e771d7b	0.2413234
29	0x3e0636d0	0.13106847
30	0xbe1c67d9	-0.1527399
31	0xbd95d824	-0.07316616
32	0x3e6539f2	0.22385386
33	0xbe153a46	-0.14573011
34	0x3d8cffa4	0.06884697
35	0xbe89c988	-0.2691157
36	0x3ca29d6c	0.019850455
37	0xbe339f40	-0.17541218
38	0x3db76cc6	0.08956294
39	0x3e875dbf	0.2643871
40	0xbe097992	-0.13425282
41	0xbd588ab8	-0.052866668
42	0xbe29c4b5	-0.16578944
43	0xbbde3e30	-0.0067823157
44	0x3b29dfbf	0.0025920717
45	0xbe323c27	-0.17405759
46	0xbdd90b3d	-0.10597847
47	0x3d6a2d16	0.057171904
48	0x3e262aa9	0.16227211
49	0x3e4637f5	0.19357283
50	0xbd60d8a7	-0.054894116
51	0x3d8390a3	0.06424072
52	0x3b9cc268	0.004783917
53	0x3d812440	0.06305742
54	0xbd5dd8ba	-0.054161765
55	0x3d169fca	0.03677348
56	0xbd1ceeb9	-0.0383136
57	0x3db850d4	0.08999792
58	0x3e95735f	0.29189584
59	0x3e16e942	0.14737418
60	0x3df01765	0.11723212
61	0xbdb3dfd3	-0.087829255
62	0xbd74cf8a	-0.059768237
63	0xbd859bc0	-0.065238476
64	0x3d834151	0.064089425
65	0xbe44867e	-0.1919193
66	0x3d00bed0	0.031431973
67	0x3bc7d8b2	0.00609883
68	0x3d6f0548	0.058354646
69	0x3d14f017	0.03636178
70	0xbc9480c9	-0.018127816
71	0x3e001444	0.1250773
72	0xbe1c262c	-0.15248936
73	0x3de4eaa4	0.11177567
74	0x3da4f6bd	0.08054874
75	0xbcc3fac0	-0.023923278
76	0xbe1b0342	-0.15137962
77	0x3b599a08	0.0033203382
78	0x3e3a1533	0.1817215
79	0xbbed9333	-0.0072502135
80	0xbdee9025	-0.11648587
81	0x3da9f233	0.08298149
82	0x3dd891c9	0.10574681
83	0x3d39bb21	0.045344476
84	0x3dc4f82a	0.09617646
85	0xbd6ef5cf	-0.05833989
86	0xbe10f597	-0.14156185
87	0xbd40110f	-0.04689127
88	0x3e22479b	0.15847628
89	0x3e0bdb25	0.13657816
90	0x3d6052b4	0.05476637
91	0xbd6f5bab	-0.05843703
92	0x3db7dead	0.08978019
93	0xbe10fe19	-0.1415943
94	0x3d89ad58	0.06722516
95	0xbd9d832a	-0.07691033
96	0xbda0d3da	-0.078529075
97	0xbcc3fc01	-0.023923876
98	0x3d588be1	0.052867774
99	0x3dde7ab8	0.108632505
100	0xbd1bdc49	-0.038051877
101	0xbdf38751	-0.11891044
102	0xbe21d8ac	-0.1580531
103	0xbce6c87b	-0.028171768
104	0x3c433a14	0.011915702
105	0x3d30149f	0.042988416
106	0x3dccfec6	0.10009532
107	0xbe1f3078	-0.15545833
108	0x3ce0e8c4	0.027454741
109	0x3d099016	0.033584677
110	0xbc802001	-0.01564026
111	0x3d576890	0.052589953
112	0x3c722af4	0.014780749
113	0x3de96a3a	0.11397214
114	0x3d7458cf	0.059655007
115	0x3c2a47dc	0.010393109
116	0x3db8fc3e	0.090324864
117	0xbd1c0e78	-0.038099736
118	0x3c8c4dc4	0.017126925
119	0xbd283c1e	-0.041072957
120	0x3d11af10	0.035567343
121	0x3d7b1679	0.06130073
122	0x3d889f48	0.066710055
123	0xbe8ddcc1	-0.27707484
124	0xbdc1ef36	-0.09469454
125	0xbe3fa29e	-0.18714377
126	0x3e9da1e0	0.30787563
127	0xbd768153	-0.060181927
128	0x3e59690a	0.21231475
129	0xbe65da19	-0.22446479
130	0xbc86db9e	-0.016462144
131	0xbd8e00f7	-0.06933778
132	0xbe961a25	-0.29316822
133	0x3d6b777d	0.057487
134	0x3d5c1521	0.053731088
135	0xbd69e0c7	-0.05709913
136	0xbe51f0a1	-0.20501949
137	0xbd633601	-0.055471424
138	0x3d99329f	0.07480358
139	0xbe652d2e	-0.22380516
140	0xbdf8155e	-0.121134505
141	0x3ca27741	0.019832255
142	0x397ac328	0.0002391456
143	0xbe5918de	-0.21200892
144	0x3c966ce4	0.01836247
145	0xbdacdaaf	-0.08440148
146	0xbc09ec31	-0.008418129
147	0x3d560726	0.05225291
148	0x3d8743d5	0.06604735
149	0x3dd80abb	0.10548922
150	0x3da009fe	0.07814406
151	0xbe15b110	-0.14618325
152	0x3e408d86	0.18803987
153	0x3c57f497	0.013180873
154	0xbe0726d8	-0.13198411
155	0xbeabfd61	-0.3359175
156	0x3dfabbc9	0.122428484
157	0xbcc7286a	-0.024311263
158	0x3e04675f	0.12930058
159	0x3e253c85	0.16136368
160	0xbe4261cd	-0.1898262
161	0xbe15576a	-0.14584127
162	0xbe204aad	-0.15653487
163	0x3d9e87ac	0.07740721
164	0xbc47fd4f	-0.01220639
165	0xbd10ac87	-0.035320785
166	0xbd14c744	-0.036322847
167	0x3e4253d9	0.18977298
168	0x3df9d4cd	0.12198792
169	0x3e827848	0.25482392
170	0x3c97e3cc	0.01854124
171	0x3e4ddba9	0.20103325
172	0x3e029386	0.12751588
173	0x3e212b6d	0.15739222
174	0xbda030cd	-0.07821808
175	0xbdad7663	-0.08469846
176	0xbd8b2d9d	-0.067958094
177	0x3d21448b	0.03937201
178	0x3e63ba44	0.22239023
179	0x3db1da69	0.086842366
180	0xbdb69e46	-0.08916907
181	0x3d2011f7	0.039079633
182	0xbc891bc2	-0.016736869
183	0x3c618ee1	0.013766975
184	0x3d178f49	0.03700188
185	0xbd8492d8	-0.06473321
186	0x3d69e460	0.05710256
187	0xbd9e54d8	-0.077310264
188	0x3c28c0b1	0.010299847
189	0xbe5294b3	-0.20564537
190	0xbe2a8a7d	-0.16654392
191	0xbc9abee0	-0.018889844
192	0xbe0990f9	-0.13434209
193	0x3e00ae34	0.12566453
194	0xbdb3196a	-0.08745082
195	0x3cd94ee8	0.026526883
196	0xbd00b288	-0.03142026
197	0x3e012e82	0.12615398
198	0x3cbc1c25	0.02296264
199	0xbcdc665d	-0.02690428
200	0xbd6eb1ab	-0.058274906
201	0x3d9b2c18	0.075767696
202	0xbd4df9ee	-0.05028718
203	0xbd2d9a37	-0.0423834
204	0x3c8113e1	0.01575655
205	0xbde49577	-0.11161321
206	0xbd9b883b	-0.07594343
207	0x3d0e8555	0.034795124
208	0x3e01bd57	0.12669884
209	0x3e26b3d6	0.1627954
210	0x3d91a13c	0.07110831
211	0x3d1355d6	0.03597053
212	0xbc9ac31d	-0.018891865
213	0xbddaa289	-0.10675532
214	0x3cb4e4e8	0.022081807
215	0xbd21cf08	-0.03950408
216	0x3ae8c854	0.0017759898
217	0xbbb86f69	-0.0056285155
218	0x3e1ca7e6	0.15298423
219	0x3e693a6a	0.2277619
220	0xbe37854c	-0.17921942
221	0x3e2386ef	0.15969442
222	0xbda21161	-0.07913471
223	0xbd9fab46	-0.0779634
224	0x3c99934a	0.01874699
225	0x3cf99cde	0.030470308
226	0xbe002229	-0.12513031
227	0x3cf98a9d	0.030461604
228	0xbd1d406b	-0.038391512
229	0xbd1c844c	-0.038212106
230	0xbd6163e5	-0.055026907
231	0x3dc2ef62	0.09518315
232	0xbdf18c89	-0.11794383
233	0x3c9c0b9e	0.019048508
234	0x3d266922	0.040627606
235	0x3d5d930e	0.05409532
236	0xbd1024b9	-0.03519127
237	0xbdd883fb	-0.10572048
238	0x3e759377	0.23982035
239	0x3e5c809b	0.21533434
240	0xbe45d5fa	-0.19319907
241	0x3d22d220	0.039751172
242	0x3cc3fcd8	0.023924276
243	0xbe931301	-0.28725436
244	0x3d887279	0.06662459
245	0xbec684c2	-0.3877316
246	0x3eb624d9	0.35574988
247	0xbd2be01c	-0.041961774
248	0x3e3902d7	0.1806749
249	0xbeca60b0	-0.39526892
250	0xbe176bd1	-0.14787222
251	0x3d0af14d	0.03392153
252	0xbe8c60b8	-0.2741754
253	0xbd318741	-0.04334188
254	0x3d085509	0.03328422
255	0xbdd3286e	-0.10310446

bias_ih_l0 f4 [240]
0	0xbe013065	-0.12616117
1	0xbe835848	-0.2565329
2	0xbe20921c	-0.15680736
3	0xbc09020f	-0.008362307
4	0xbe8af103	-0.27137002
5	0xbc5cd516	-0.013478538
6	0xbdea3050	-0.11434996
7	0xbe292ba2	-0.16520551
8	0xbe8b2614	-0.2717749
9	0x3c72b6d0	0.014814094
10	0xbe96cfdb	-0.29455456
11	0xbe7cfefc	-0.24706644
12	0x3d2ca83a	0.04215262
13	0xbe9e26cd	-0.30888978
14	0xbdda44ed	-0.10657678
15	0xbe238a62	-0.15970758
16	0xbe2a81df	-0.16651104
17	0xbeb80e13	-0.35948238
18	0xbe849b91	-0.25899938
19	0xbe565897	-0.20932232
20	0xbdd7735b	-0.10520049
21	0xbe40e442	-0.18837073
22	0xbe613c46	-0.21995649
23	0xbe9d3360	-0.3070326
24	0xbe9c6ecc	-0.3055328
25	0xbe92f874	-0.2870518
26	0xbe086fef	-0.1332395
27	0xbe6d9231	-0.23200299
28	0xbc995df1	-0.018721553
29	0xbdafe295	-0.08588139
30	0xbdf80966	-0.121111676
31	0xbddbd9c6	-0.10734896
32	0xbe80fb0b	-0.2519153
33	0xbda47654	-0.08030382
34	0xbe865808	-0.26239038
35	0xbce0abe6	-0.027425718
36	0xbe173233	-0.14765243
37	0xbd9f1167	-0.07766991
38	0xbe29e1ad	-0.16589995
39	0xbe32004f	-0.1738293
40	0xbe8dcfc3	-0.27697572
41	0xbe451885	-0.19247635
42	0xbe591ee2	-0.21203187
43	0xbe58b7da	-0.21163884
44	0xbe9eef95	-0.31042162
45	0xbe1a2365	-0.15052564
46	0xbe8c9e76	-0.27464646
47	0xbeb9a769	-0.36260536
48	0xbdf4f390	-0.11960518
49	0xbe0316c7	-0.12801658
50	0xbe088d2d	-0.13335104
51	0xbde042b7	-0.10950225
52	0xbe9d5562	-0.30729204
53	0xbe60e268	-0.21961367
54	0xbe5c8e3d	-0.21538635
55	0xbe990148	-0.2988379
56	0xbe8a252e	-0.2698149
57	0xbe4db5fe	-0.20088956
58	0xbdba1ec8	-0.09087902
59	0xbe61a270	-0.22034621
60	0xbd77aae5	-0.060465712
61	0x3d21e0fd	0.039521206
62	0xbe8e991b	-0.27851185
63	0xbd536876	-0.051613294
64	0xbe08d811	-0.13363673
65	0xbe116d52	-0.14201859
66	0xbe0b7516	-0.13618883
67	0xbe482a85	-0.1954747
68	0xbdb0da83	-0.08635428
69	0x3e0aa929	0.13541092
70	0xbe77f0a6	-0.24212894
71	0xbe08b023	-0.13348441
72	0xbe1693ad	-0.14704771
73	0xbe896759	-0.2683666
74	0xbe2a4610	-0.16628289
75	0xbdd0d47f	-0.101967804
76	0xbe4a5ca8	-0.19761908
77	0xbe95573a	-0.2916811
78	0xbe7b5434	-0.2454384
79	0xbe7f3609	-0.24922957
80	0xbe90ed1f	-0.2830591
81	0xbe108d43	-0.14116387
82	0xbea1e7aa	-0.31622058
83	0xbce4f8dc	-0.027950697
84	0xbe73f88a	-0.23825279
85	0xbe9748e2	-0.29547793
86	0xbdeeb530	-0.116556525
87	0xbe95594d	-0.29169694
88	0xbdd1a47b	-0.1023645
89	0x3ca2d0fa	0.019875038
90	0xbdc7b5a9	-0.09751446
91	0x3d09bf2f	0.033629593
92	0xbe26dc5f	-0.16295002
93	0xbd4bb635	-0.049734313
94	0xbdcd0bc7	-0.10012012
95	0xbdcbe18f	-0.09955131
96	0xbe2cce1b	-0.16875498
97	0x3bfc9f82	0.0077094445
98	0xbe3bd1b9	-0.18341722
99	0xbe3279c6	-0.17429265
100	0xbe4fe62d	-0.20302649
101	0xbe83ae8c	-0.25719106
102	0xbc9101bf	-0.017701028
103	0xbe52c330	-0.2058227
104	0xbe89d314	-0.26918852
105	0x3c817e04	0.01580716
106	0xbda6a0de	-0.08136152
107	0xbe2dca75	-0.16971762
108	0xbe6df8da	-0.2323946
109	0xbd4a202a	-0.04934708
110	0xbe71a387	-0.23597537
111	0x3d38920d	0.04506116
112	0xbe81cf3e	-0.25353426
113	0xbe200a61	-0.15628959
114	0xbe328b33	-0.17435913
115	0xbe31e181	-0.17371179
116	0xbda164b1	-0.078805335
117	0xbe8f9f94	-0.28051436
118	0xbe0b2cb5	-0.13591273
119	0xbdff5718	-0.12467784
120	0x3d4fced1	0.050734345
121	0xbd09984d	-0.03359251
122	0xbdca9b49	-0.098928995
123	0x3c221068	0.009891607
124	0x3d73182a	0.059349217
125	0x3d68e777	0.056861367
126	0xbdc9ab5e	-0.09847139
127	0x3d7755c5	0.06038453
128	0xbd5ab4b5	-0.053394992
129	0x3e2dbee8	0.16967356
130	0x3d13da09	0.036096606
131	0xbd82ce62	-0.06387021
132	0xbca445f0	-0.02005288
133	0xbd422d81	-0.047406677
134	0x3d7ceccb	0.06174926
135	0x3d875bad	0.06609283
136	0x3ddd96b7	0.10819762
137	0xbd914bb7	-0.070945196
138	0x3c0ca8dd	0.008585182
139	0xbd23eee1	-0.040022735
140	0x3de45263	0.111485265
141	0x3d5b009f	0.05346739
142	0x3db81757	0.08988827
143	0x3db14566	0.08655815
144	0x3d4615c5	0.048360605
145	0x3c568760	0.013093799
146	0x3d8bf671	0.06834114
147	0xbdd32b80	-0.10311031
148	0xbd9ed27e	-0.07754992
149	0xbd3124f4	-0.043248132
150	0x3d878f7e	0.06619166
151	0x3d963887	0.073350005
152	0xbcdcc0de	-0.026947435
153	0x3d6aba70	0.057306707
154	0x3d230624	0.039800778
155	0x3da147b3	0.07875004
156	0xbdd3e936	-0.10347216
157	0xbd4b79b4	-0.049676612
158	0xbd571334	-0.052508548
159	0xbdeff47f	-0.11716556
160	0x3cb32a69	0.021870809
161	0x3d84f1d5	0.06491438
162	0xbd0a418b	-0.033753913
163	0x3d0d53de	0.03450381
164	0x3dd7853c	0.10523459
165	0x3c9495a7	0.018137766
166	0x3d3eadfc	0.046552643
167	0x3d84daa1	0.06487013
168	0xbdc12812	-0.09431471
169	0x3cff91bf	0.031197427
170	0x3d4655a5	0.04842152
171	0xbdd98524	-0.10621098
172	0x3d9b48d8	0.07582253
173	0xbd020e89	-0.031752143
174	0x3cbbcb99	0.022924231
175	0xbad34f15	-0.0016121591
176	0x3df5c081	0.11999608
177	0xbd4768a4	-0.048683777
178	0x3c4fff72	0.01269518
179	0x3c8a2ef4	0.016868092
180	0xbdeb8867	-0.11500626
181	0xbd79bd94	-0.06097181
182	0xbe9679f9	-0.29389933
183	0xbdb6c085	-0.08923439
184	0xbe8d08c4	-0.2754575
185	0xbde69cb3	-0.11260357
186	0xbbbc4481	-0.005745471
187	0xbe18139e	-0.14851233
188	0xbe8fb3db	-0.28066906
189	0xbd97e6a4	-0.07417038
190	0xbe771d7b	-0.2413234
191	0xbdec9710	-0.115522504
192	0x3d1ceb1c	0.038310155
193	0xbdb8d837	-0.09025615
194	0xbde0d530	-0.10978162
195	0xbddf0a75	-0.108906664
196	0xbe0db666	-0.1383911
197	0xbddd7c53	-0.108147286
198	0xbe0d3f71	-0.13793732
199	0xbe303b8f	-0.1721022
200	0xbe057cff	-0.13035963
201	0xbe92de02	-0.28685004
202	0xbea539ce	-0.32270664
203	0xbd90f118	-0.07077235
204	0xbdfb550b	-0.1227208
205	0xbdf58e8e	-0.11990081
206	0xbe5f7650	-0.21822476
207	0xbe717f0b	-0.2358362
208	0xbe1ae353	-0.1512578
209	0xbc5d104c	-0.013492655
210	0xbde757a0	-0.1129601
211	0xbe140454	-0.14454776
212	0xbe902a29	-0.28157166
213	0xbe1f33e0	-0.15547132
214	0xbe91f689	-0.28508404
215	0xbe6de248	-0.2323085
216	0xbdffb5fb	-0.12485882
217	0xbdcc38fa	-0.09971805
218	0xbe5cca6c	-0.21561593
219	0xbc1ea7f9	-0.0096836025
220	0xbe87f1d5	-0.2655169
221	0xbec6fb65	-0.38863674
222	0xbe8b2c6c	-0.2718233
223	0xbe81895d	-0.25300112
224	0xbe2629c2	-0.16226867
225	0xbdfb3779	-0.1226644
226	0xbe8b376d	-0.27190724
227	0xbe8ad353	-0.27114353
228	0xbd034feb	-0.032058638
229	0xbe33ef95	-0.17571862
230	0xbeb67b7d	-0.3564109
231	0xbd2fa152	-0.042878456
232	0xbe8c961b	-0.2745827
233	0xbe353388	-0.17695439
234	0xbec17514	-0.37784636
235	0xbe476c2e	-0.19474861
236	0xbe92e85a	-0.28692895
237	0xbe62c013	-0.22143583
238	0xbe6f73a0	-0.23383951
239	0xbea63984	-0.32465756
