models/epoch=4_bestloss=inf.pt (torch, 184855 bytes, 11 tensors)

weight_ih_l0 f4 [240, 1]
00000000: 0442 4e3f 830c d53e ada8 8ebe 3685 6d3f
00000010: 5ca0 c23e 23d1 073f d8d0 623f fb62 3dbe
00000020: e33c c13e c22e 5a3e 2458 0e3f 92c6 673c
00000030: e056 533f 7dbe 8a3e 0d2c 763f 5723 0f3f
00000040: 256e 3c3d c38a 9b3e c7b1 4e3e ecba 203f
00000050: fe5e 493e 5546 073e 30ef ef3e 2691 273f
00000060: c79b 1f3f c8d4 3b3f 1618 fd3d 4d62 353c
00000070: f579 a33e 18e6 39be 2e28 793e ffc5 bcbd
00000080: 0812 11bd ebb1 173f f148 1e3f cd41 3e3f
00000090: e23d ba3e 4358 533e bdb6 0e3f 925f 95bc
000000a0: d067 273f c040 aa3e e674 803f e62a 053f
000000b0: 3442 8e3e c93d cd3e e561 703e cdcc ee3e
000000c0: 3830 e03e 8c5f 173f 07f6 303f c0ea 9c3d
000000d0: d7df 553e b43a 1e3f 2259 d9bc 7179 cc3e
000000e0: 98bd b63e 2311 233f ccd4 23be 7a07 553e
000000f0: 3a5d fd3e 8268 5f3d f1c5 6cbe 9eba 223f
00000100: b73c 8a3e 93e9 203e 6fa2 f83e ff14 f7bd
00000110: 0843 bd3e 4925 d63d 4168 c73e c25a a5bc
00000120: e400 163f 1a05 8e3e 03e1 cf3e dc34 b93e
00000130: 331e b0bd 0b2b 8a3d b90b 173c 5bcd 993e
00000140: 5d68 ea3d 2b04 533e 212b b2be 69bd bf3e
00000150: 7c9d e83e 1d33 2c3e fad2 11bd e84a ad3d
00000160: d668 213e dc27 b4bd a998 0a3e d867 603e
00000170: f261 2c3e f67f ae3e 1ebf 283f 387a c23e
00000180: 6e9b 313e a727 abbd 7f93 703e 9390 d73d
00000190: 8668 163f e281 513e 3137 0c3f 903d f83e
000001a0: 49c1 3b3e c33f 903e 2f8c af3d 2b5d 6e3e
000001b0: 5fc2 323e 2acc e63e 922c 153f 2e79 513e
000001c0: 3efa 183e 88fb c13e 4665 0bbe 02a3 573e
000001d0: 933b b13e 7603 5c3e 9dbc 18be 3200 e53b
000001e0: 2a17 3a3f dda9 0a3f 6b41 3d3e 86ea 843f
000001f0: 08b7 afbe 029d 3abf d389 523f d2d1 9b3c
00000200: 8d2e 4bbf 4211 15bf def0 153f 0e5f 3c3e
00000210: 46cc 4f3f 4b4b 21bf b5cc 843f 36b2 323f
00000220: f354 25bf a33b db3e b5f8 05bf f6d5 1f3f
00000230: f3ca 173f 5e56 f3be 7325 01bf 34a9 62bf
00000240: 3170 653f 9aa3 7bbf 7ddd c3be 4440 68be
00000250: e59b eb3e a0f4 193e 8763 2fbf f5bf 913e
00000260: 9de0 4abc 4fe2 323f d701 393f 4f30 6e3f
00000270: 2bff d83e df75 46bf 3615 2ebf 65d4 b0be
00000280: 0660 6f3f 9f47 473f b249 883f f550 1c3f
00000290: 0fb8 fa3e 1f25 02bf eaa3 f5be fcf3 14bf
000002a0: 720b 043f 2d32 6f3f b2d8 553f 66d6 06bf
000002b0: b177 cf3e 4691 593f a14d 5c3e 44ab f8be
000002c0: 2db0 5d3f 02ec 3b3f d36b 183e 4cc1 21bf
000002d0: 95a0 8b3e 40b6 1b3e 9e57 1abe a193 163f
000002e0: 433a 833e fa77 9f3e 219a c83e 7e3d bfbd
000002f0: 457e e63e d67e b43e e4d5 263e 6d2f 18be
00000300: b9cf e93e 2716 423e 1f26 323f 899e a13e
00000310: d062 4c3e d283 f33d 7c76 4f3e a733 48bd
00000320: d84b 8d3e 041f 3e3e ce75 de3e 9f37 d93e
00000330: 4a83 f93e add3 d03e 0446 6e3d f0fd 653d
00000340: 0156 5c3e 8c63 50be 5e76 2d3e 0263 183e
00000350: 7708 5fbd 7b81 a33e ea8e a63e 1d88 063f
00000360: d8dd a73e 2da9 633e 03d2 2b3e 9f7d 8cbd
00000370: b99b 033f dc83 113e 67de 043f 4903 d03e
00000380: 3f63 313e 0200 a63e 2458 813e 2f21 603e
00000390: 6ffb 9f3e 0221 e03e 39d4 093f 7ee4 223d
000003a0: 3c0d 253e 42c2 f93e a7e4 7abe ef6e 8a3e
000003b0: 0e66 a13e a5ee 993e 0f43 d9bd df16 873e
0.8056948 0.41611108 -0.27863064 0.9278139 0.3801297 0.5305349 0.8859992 -0.1849479
0.37741765 0.21306899 0.5560324 0.014146464 0.82554436 0.27098456 0.96160966 0.559133
0.04600348 0.30379304 0.20185004 0.6278522 0.19665143 0.13210423 0.46862173 0.65455854
0.6234707 0.73371553 0.1235811 0.0110708 0.31928983 -0.1815418 0.24331734 -0.09217452
-0.035417587 0.59255856 0.6183005 0.74319154 0.36375338 0.20639138 0.55747586 -0.018234048
0.6539278 0.33252525 1.0035675 0.5201858 0.27784884 0.400862 0.23474844 0.46640626
0.43786788 0.5913017 0.6912541 0.076619625 0.2088617 0.61808324 -0.02653176 0.39936402
0.35691524 0.63698024 -0.15999144 0.20803633 0.4948519 0.054543026 -0.23122384 0.63566005
0.26999447 0.15714101 0.48561427 -0.120645516 0.36965203 0.1045633 0.38946727 -0.020184878
0.5859511 0.27738267 0.40601358 0.3617314 -0.0859951 0.06746491 0.0092191035 0.30039486
0.11445687 0.20607059 -0.3479853 0.37449196 0.4543265 0.16816373 -0.035601594 0.08461553
0.15762648 -0.08796665 0.13534798 0.21914613 0.16834238 0.34082 0.6591662 0.3798387
0.17344448 -0.083571725 0.23493765 0.10525622 0.5875324 0.20459703 0.54771715 0.48484468
0.18335451 0.28173646 0.0857166 0.23277728 0.17456959 0.4507764 0.58271134 0.20456383
0.1493921 0.37887216 -0.13612852 0.21058276 0.34615764 0.21485695 -0.149157 0.0069885487
0.72691596 0.5416544 0.18481986 1.0384071 -0.3431933 -0.72895825 0.82241553 0.019020949
-0.79367906 -0.5822946 0.5857066 0.18395635 0.8117107 -0.6300551 1.0374972 0.6980318
-0.6458275 0.42818937 -0.5233262 0.62435853 0.5929405 -0.4752683 -0.5044777 -0.88539433
0.89624316 -0.9829651 -0.3825492 -0.22680765 0.46017376 0.15034723 -0.6851124 0.28466764
-0.012382654 0.6987657 0.7226843 0.93042463 0.42382178 -0.77523607 -0.68001115 -0.34537044
0.93505895 0.7784366 1.064749 0.6106103 0.4896855 -0.5083789 -0.4797662 -0.5818479
0.51579964 0.9343594 0.83533776 -0.52670896 0.40521005 0.84987295 0.21513988 -0.48568165
0.8659695 0.73406994 0.14884882 -0.6318557 0.27270952 0.15206242 -0.15072486 0.58819014
0.25630388 0.31146222 0.3918009 -0.093379006 0.4501821 0.35253018 0.1629253 -0.14861841
0.45666292 0.18953763 0.6958942 0.31566265 0.19959569 0.11890377 0.20260042 -0.048877385
0.27596927 0.18566519 0.43449253 0.42425248 0.48732978 0.40786496 0.05817224 0.056150377
0.21517183 -0.20350474 0.16939685 0.14881518 -0.054451432 0.31934723 0.3253091 0.5255144
0.3278644 0.22232504 0.16779332 -0.06859898 0.5140949 0.14210457 0.5190186 0.40627506
0.17323016 0.3242188 0.25262558 0.21887659 0.31246516 0.43775183 0.5383945 0.03976869
0.1611833 0.4878102 -0.24501286 0.2703776 0.31523174 0.30064884 -0.106084935 0.26384637

weight_hh_l0 f4 [240, 60]
00000000: 0591 5e3e d4fd 473e 1cb2 0abe 6040 413e
00000010: 6f0c 6cbd d475 8abc ad9b 1d3e c429 f23d
00000020: 1da4 17be 9a02 82be 9d7b f13d e4f5 de3d
00000030: 791e bd3c 9376 f53d 4b14 7a3e 8b3c 463e
00000040: 4460 9bbd 25fe 62bd 5d92 bebd 1b69 773c
00000050: 9d7e 32be 1a86 bebd d678 80be e3de a8bd
00000060: 7f7c 3e3e ebfa 2ebe 9e36 bebc 531d 40bd
00000070: 5d8d a53d 8d81 0d3d 143c 77bc b6d2 173d
00000080: d071 a7bc 7840 223e 361a 2b3e 4896 113e
00000090: bf89 e93d 8b3e 1dbe 4379 18be 1a53 19be
000000a0: 6c69 4c3e ea49 793c 4e3d 543e 76bb af3d
000000b0: c787 97bd 316d 94be 2b51 61bd 0e8d 75be
000000c0: 9f9f cf3d 6d0d 943e 50e1 783e efbb 19be
000000d0: a5b7 4dbd 450d 4d3e 33e0 d93a e88d babd
000000e0: 6c65 7b3d effd 8b3e 8a7a 483e 027a d7bc
000000f0: 459a d2bd f812 963d 6cf7 9a3e 11e3 59be
00000100: 0367 5dbe 280a 103e 353e cfbd bf8e 22bd
00000110: f6d3 b83c aebc a53d 2fa0 e5bd c219 7cbd
00000120: 6cd7 6dbd bfd8 01be 39f4 2dbe 5010 2fbe
00000130: 66ce 803d 53c0 a0bd a482 b9bd 7436 65be
00000140: a70c 163e 1d5b 823d 6e05 813e f9a4 bebc
00000150: 4b58 77bd d9ce 063e ee4f fa3d 3225 273d
00000160: ab40 24be 5a5d 94bd a8d0 023d 00d8 fa3d
00000170: f37e 8cbd cdde dfbd 4155 2abe 6309 62be
00000180: b229 08be f31e 2d3d 5776 0e3e 5b2d af3d
00000190: eb61 aabd 1808 e73d 178d aebd 25a8 6ebd
000001a0: c09a 2b3e 89c3 8f3d 4cd6 a73d 9011 9abd
000001b0: 7bb0 45bd 5ecd 1bbe 31ff cf3d ae1b 34be
000001c0: 5a78 863d 361b df3a ea98 dcbd 7630 40be
000001d0: e19b bebc b483 80bd 6d37 ed3a f960 e03d
000001e0: 4d5a 9cbc f637 193d 6feb a63d a622 b93d
000001f0: a3ca 1dbd 9788 9c3b 1109 4cbd e501 903d
00000200: 40f3 d8bd 3702 18be a11a 6abd 65fd 1f3e
00000210: b8c5 69bd 4e31 bb3d a4a1 c73d 313a 6f3c
00000220: 1f3f 0abd 07db b3bd 7fdd 0f3b 491c 813d
00000230: 1787 c53c 8ad4 42bb f9b6 0e3e baaf e43d
00000240: 5094 3eba 8db5 93bd 6300 c73d 97d7 ba3d
00000250: fc75 143b 8c02 053e 9a37 18bd f9d0 453d
00000260: d678 c4bd 954e 8bbc 96e1 5dbd e29c b9bd
00000270: 2d69 f43c 3904 dcbd 9a15 45bc 24ee 51be
00000280: 14c4 b43c 376b 323d c8c5 bc3d ff65 fd3d
00000290: 76cc b4bd 02c8 8c3d 709c d9bd 6bfc 903c
000002a0: 9bf0 3fbb 8423 0b3e acb8 473e 1a9d 03bd
000002b0: 5dd4 e83d 498f 173b 5b6a da3b 1a06 10be
000002c0: 856c fc3d 1c47 2c3e e59f 383b 153c 303d
000002d0: 4e69 72bd 7bb7 873d 83f4 a23c f3d9 873c
000002e0: 8ad8 32be c6c3 5c3d d30b b2bd 570e 4bbd
000002f0: c231 ba3c c03b 8ebd 9d3f dd3d e62e 21bd
00000300: 04e1 ee3c 1bdc 62bd b717 fa3d 9e40 883c
00000310: c6e4 e73c 51a0 103e 02ee bfbd 9959 20be
00000320: b88c 9e3d 9072 0ebe 61af 77bd ce24 9cbd
00000330: 697b 403d 4c65 d8bd 3951 a33c 83cc 943d
00000340: 7108 d5bd 6756 58bd 53f7 993d 4120 ed3d
00000350: 4b2a f6bd 0f67 bd3d 63a9 52bd dac7 b4bd
00000360: 93da b23d a5e8 3d3d b026 5fbd d7d9 653c
00000370: 64ff ed3d 2984 2e3e 8544 fc3d 73c4 a43b
00000380: 152f 3bbd 5db6 9a3d 2876 10bb ab61 8fbd
00000390: 782c 24be bfcd 053e 7774 003e 71b5 bb3c
000003a0: ab4a be3d ce41 aabb 82e0 c9bd b29e 4fbe
000003b0: e9c6 78bc 6e2b 6b3d a05e 093d b4bf bebc
000003c0: 3088 ba3d 75cb e33d ec65 6c3c 7df0 33bd
000003d0: 9ecc 93bd 9ffb f2bc 5545 833d 25d6 dc3d
000003e0: 4841 0cbe ebb8 02be 14e9 c6bb 5834 31be
000003f0: 1aad a93d f8d2 03bd efbb f63c 1cea 9fbd
0.21735008 0.19530421 -0.13544506 0.18872213 -0.057629045 -0.016901888 0.15391417 0.118243724
-0.14808698 -0.2539261 0.117911555 0.10886744 0.02308582 0.11985507 0.24421804 0.19359033
-0.075867206 -0.055418152 -0.0930526 0.015100743 -0.17431112 -0.093029216 -0.2509219 -0.08245637
0.18602179 -0.17087905 -0.023219403 -0.046902966 0.080836035 0.034547377 -0.015090007 0.037066184
-0.020440012 0.15844905 0.16709217 0.14217484 0.11403226 -0.1535589 -0.14890008 -0.14973107
0.1996209 0.015215376 0.20726511 0.08580677 -0.07398944 -0.28989556 -0.05500905 -0.2397959
0.10137867 0.28916493 0.243047 -0.15013097 -0.050223965 0.20024593 0.0016622603 -0.09109098
0.06137602 0.27342173 0.19577995 -0.026303295 -0.10283331 0.07327837 0.30266893 -0.21278025
-0.21621327 0.14066374 -0.10119287 -0.039686915 0.022562008 0.080926284 -0.11212193 -0.061548002
-0.05806677 -0.12680338 -0.16987695 -0.17096066 0.062893674 -0.07849183 -0.09058121 -0.22384053
0.14653264 0.06365035 0.25199455 -0.023272024 -0.060386937 0.13164844 0.12222277 0.040806957
-0.16040294 -0.07244368 0.03193727 0.1224823 -0.06860151 -0.10931168 -0.16634084 -0.22073893
-0.13297155 0.042265844 0.1391233 0.08553573 -0.083194576 0.11280841 -0.085230045 -0.058265824
0.16758251 0.07019717 0.08195171 -0.07522881 -0.048264008 -0.1521506 0.10156096 -0.17588684
0.06565924 0.0017021659 -0.107713535 -0.18768486 -0.023267688 -0.062751204 0.0018098183 0.10955996
-0.019086028 0.037406884 0.08150374 0.09039812 -0.038523328 0.004777025 -0.049813334 0.07031611
-0.10593271 -0.14844595 -0.0571543 0.15624006 -0.057073325 0.091402635 0.097476274 0.014601276
-0.033751603 -0.087820105 0.002195209 0.06304223 0.024112267 -0.0029728734 0.13936986 0.1116633
-0.0007270025 -0.072123624 0.09716871 0.09123152 0.0022653332 0.12989253 -0.0371624 0.048294995
-0.0959336 -0.017005244 -0.054170214 -0.09063126 0.029835308 -0.10742993 -0.012029076 -0.20501
0.022066154 0.04355928 0.09217411 0.1237297 -0.0882806 0.06874086 -0.10625541 0.017698487
-0.00292877 0.13587767 0.1950404 -0.032132246 0.1136863 0.0023126176 0.0066655106 -0.14064828
0.12325386 0.16824001 0.0028171476 0.04302605 -0.059182458 0.06626793 0.019891983 0.016583418
-0.17465416 0.05389764 -0.086936615 -0.049574222 0.022728804 -0.0694499 0.10803149 -0.039351366
0.02916003 -0.05538569 0.122115545 0.016632374 0.02830733 0.14123656 -0.09371568 -0.15659179
0.07741684 -0.1391089 -0.06046999 -0.076242074 0.046992693 -0.10566196 0.01993619 0.0726557
-0.10402001 -0.052816775 0.075178765 0.115784176 -0.120197855 0.092481725 -0.05143107 -0.08827181
0.08733096 0.046364445 -0.054480255 0.014028988 0.116209775 0.17042603 0.123177566 0.0050283014
-0.045699198 0.07554314 -0.0022043083 -0.070010506 -0.16032588 0.13066767 0.12544428 0.022913666
0.092915855 -0.005195833 -0.098572746 -0.20275381 -0.015184143 0.057414465 0.033537507 -0.02328477
0.09108007 0.11122791 0.014428597 -0.04393052 -0.07216762 -0.029660998 0.064097084 0.10783032
-0.13696778 -0.12765853 -0.0060702655 -0.17305124 0.0828497 -0.032183617 0.03011891 -0.07808325

bias_ih_l0 f4 [240]
00000000: a66b 50ba 3cc3 43be 4c34 acbd e3b3 12be
00000010: 89bd a9bd 9eb5 103b 5203 b7bd 6567 55be
00000020: d0c1 8cbd ea55 06be bd18 7c3a 5e29 64be
00000030: 2f2a f63d 618d fcbd a9f5 94bd 2c57 49bc
00000040: 2ad7 2bbe 418f 58be 1d84 83be 2ac4 803d
00000050: f8b0 9bbc 9f96 9fbe b762 90bc de71 95bd
00000060: 310a e7bd 3c0a 46be d8c8 55be e9cf 50be
00000070: fa0c 23bd 28b7 adbd 9cb8 bbbd d87c 1e3d
00000080: d86c 38be f113 2fbe 9243 663d a49d 84bd
00000090: 188a 4c3c a40a 243d 1fd5 42be 5496 22be
000000a0: b331 953d fcfc 43be 6183 58bc 1f33 1abe
000000b0: 744c f03d 3c2a 94be 0cbf 12be c054 86bd
000000c0: ec86 f33d 6488 6d3d a7d7 d1bd 1207 23be
000000d0: 8a95 dfbd b5a8 4ebe 2072 51be 5931 b1be
000000e0: c31b 04be 11b9 47bc 35a8 47be ddf7 eabd
000000f0: 355b ef3c faa5 33be fe2d 68bd 4b13 1bbe
00000100: 5cc7 44bd b0e3 09be 4e77 29bc 1da7 8dbe
00000110: b99c 0cbe 92c3 4cbb eb5c 863d b9a6 b9bd
00000120: 6638 773d 8731 62be 6744 c0bb 30ff 3d3d
00000130: 058c 2cbe 6914 2cbd dfb2 2dbe 2a73 9bbd
00000140: 457e 033e 55f8 16be 5a49 013e cdf9 0abe
00000150: 1557 07be b3d3 01bd 8227 77be c325 05be
00000160: 1185 d8bb ea2e edbd 8f84 0bbe 5c70 053d
00000170: cd93 30be d61a 91be 31d9 2e3d 18c8 35be
00000180: 48d7 76bd 973c 04be faa9 3dbd 38b4 28bd
00000190: aa95 1e3c 855b 053c 1979 593e c9fb f7bd
000001a0: 8158 c6bb 5b82 26be 4971 74ba c102 6bbb
000001b0: 5252 b63d c3b6 eb3d f8ed 323e 79f1 82bc
000001c0: 6432 a5be 48cf 4abe 25cb 503d ca14 abbd
000001d0: 49ae 5abe 7c7a 88bd 611a 1bbe 389e 5cbe
000001e0: 2ff6 fd3c 1978 423d 7bbf 3dbd 47b4 acbd
000001f0: 33a1 a33c 7f5b 883c 8464 0a3e b104 9cbd
00000200: 2765 33bd 4ee1 19be 01b1 ab3c 111e 593d
00000210: da45 b13d ca70 813c 3fd5 563d 91ef 9f3d
00000220: 4b78 373d 6833 013c cbdc 9d3d a06e b4bc
00000230: 2640 5dbd 4330 d33b 2c35 edbd 019a ebbb
00000240: 6176 2cbd e4c5 83bd 3e81 69bd ce6a 9ebb
00000250: 8abf f1bc eccb 9fbc 1dd5 123d c358 8cbd
00000260: f590 103d a855 7a3d 05bc 3f3d 9ad0 ca3d
00000270: 0f18 2c3c 132f 933d ce07 90bd a71b 91bc
00000280: 5de3 273e 4076 3ebd fd92 9cbb 9378 d63c
00000290: 8431 d0bd 927b bd3d 97cd 053d d258 26bd
000002a0: 79ea 633d 9a2c a63d 55e4 b1bd 1621 9b3d
000002b0: dcba 96bd a6ab c7bc 3008 c53d 5ea8 20bd
000002c0: 9782 46bd abca aa3c fb8a 45bc 25a8 e13c
000002d0: c530 3a3b 12b3 aebd b307 25be 4a02 e7bc
000002e0: 7d75 a63c db96 5ebd 6017 1cbe 515d 33be
000002f0: 66b8 79be 6980 02be 6ccc 12bd ee79 e9bd
00000300: 394e c63c 362a 6fbe 0b4a 27be 58d0 183d
00000310: 1d88 95bc eed8 2bbe a424 35be 7e9f d8bd
00000320: 49dd d83d 04f5 90bd fb47 72bc 2a03 a0bd
00000330: c87a d6bd dffe f6bd ec4a 34bd 4983 16be
00000340: cc73 4dbe 680f d0bd d835 1ebd e77c 893d
00000350: 4877 20be 61f1 2fbe b5bb c53c 6adf 90be
00000360: 468e 083c c316 31be 1af6 12be 7194 d0bd
00000370: 9807 d4bd fc82 77bd 500d 6abc ff82 3fbe
00000380: 3190 2a3b 3766 71be df4e 0cbd 9d50 89be
00000390: 994e d2bd 545c eebd c9b4 a8bd dce2 3ebe
000003a0: 19bc 0fbe 9eef 2fbd f3a0 ddbd 521a a0be
000003b0: 46dd 86bd b8f0 8abd d2b0 31be 5b0d 7dbe
-0.0007950611 -0.19117445 -0.08408412 -0.14326434 -0.08288104 0.0022080909 -0.0893618 -0.20840223
-0.06872904 -0.13118711 0.00096167234 -0.22281405 0.12019765 -0.123316534 -0.072734185 -0.01228885
-0.16781297 -0.21148397 -0.25686732 0.06287415 -0.019005284 -0.31169602 -0.017625196 -0.07297109
-0.11281241 -0.19339842 -0.20877397 -0.20391811 -0.039807297 -0.084822 -0.09166071 0.03869328
-0.1801027 -0.17097451 0.056216784 -0.0647538 0.012484096 0.04004921 -0.19026612 -0.15877658
0.0728487 -0.19139475 -0.013214917 -0.15058564 0.11733332 -0.28938472 -0.14330691 -0.065591335
0.11890969 0.0579914 -0.102462105 -0.15920666 -0.10917194 -0.20181544 -0.20453691 -0.34607962
-0.12901215 -0.012190119 -0.1949776 -0.114730574 0.029218296 -0.17543784 -0.056684487 -0.15144078
-0.048041686 -0.13465762 -0.010343386 -0.2766656 -0.1373166 -0.0031244499 0.065606914 -0.09065003
0.06035652 -0.22089206 -0.005867529 0.046385944 -0.16850288 -0.042011652 -0.16962765 -0.07590325
0.12841137 -0.14743169 0.12625638 -0.13571854 -0.13216813 -0.031696033 -0.24136165 -0.13002686
-0.0066076596 -0.11581214 -0.13624786 0.032577857 -0.17243882 -0.28340787 0.0426876 -0.17752111
-0.060263902 -0.12913738 -0.04630468 -0.041187495 0.009679237 0.008139496 0.21237601 -0.12108571
-0.006053031 -0.16260664 -0.0009324742 -0.0035859796 0.0890242 0.115094684 0.1747359 -0.015984284
-0.32265007 -0.19805634 0.050974984 -0.083535746 -0.21355547 -0.06663987 -0.15146782 -0.2154473
0.031001179 0.047477815 -0.046325188 -0.08432823 0.019974327 0.016645191 0.13514906 -0.07618082
-0.04379764 -0.15027353 0.020958425 0.05300719 0.08655901 0.015800852 0.05244946 0.078093655
0.044792455 0.007885791 0.077081285 -0.022025406 -0.054016255 0.006444962 -0.11582407 -0.0071899896
-0.042105082 -0.06434229 -0.05700802 -0.0048345095 -0.029510278 -0.019506417 0.035847772 -0.068528675
0.03529449 0.061116844 0.04681017 0.09903069 0.010503783 0.07186713 -0.070327386 -0.017713381
0.16395326 -0.04649949 -0.0047782646 0.026180541 -0.10165694 0.09252085 0.03266677 -0.04061205
0.055643532 0.08113976 -0.08686129 0.0757467 -0.07359859 -0.02437384 0.09620702 -0.039223067
-0.048464384 0.020848593 -0.012057061 0.027545998 0.0028410417 -0.08530249 -0.16116218 -0.028199334
0.020319695 -0.054343086 -0.15243292 -0.17516066 -0.24386749 -0.12744297 -0.035839483 -0.11400209
0.024207221 -0.23355946 -0.16336839 0.037308067 -0.01825338 -0.16781971 -0.17689759 -0.10577296
0.10589082 -0.07077983 -0.014787669 -0.078131035 -0.104726374 -0.120603316 -0.044016764 -0.14698519
-0.20063704 -0.101591885 -0.03862557 0.06713276 -0.15670502 -0.17181922 0.024137357 -0.2829545
0.008334702 -0.17293839 -0.14351693 -0.10184563 -0.10353011 -0.06042765 -0.0142854005 -0.18702315
0.0026025886 -0.23574148 -0.034254905 -0.26819316 -0.102688976 -0.11638704 -0.08237607 -0.18641227
-0.14036597 -0.042953126 -0.10821714 -0.3127008 -0.06585173 -0.06784195 -0.17352608 -0.24712126

bias_hh_l0 f4 [240]
00000000: a611 023e 9f44 0cbe 074e 32be b242 f6bd
00000010: 7e46 6abd 6dec 22be 7436 81bd c71e 44be
00000020: 862f dcbd 5e52 67bc f66c ae3c 24cf d5bd
00000030: 1d95 f03d ff0e 2cbe 8745 e7bd 2c62 03be
00000040: 3b12 933b 7487 12bd 8e94 15be db9f 8f3d
00000050: c894 bcbd d007 1fbe 59d0 4dbd c8c1 94bd
00000060: dd17 f5bd 6a82 febd cf5c 87bd cdcc 6cbe
00000070: ef3c 70be a270 8fbe 1951 d1bb 3c97 82bd
00000080: 82b9 41be 614e 28be 25b6 dfbd 5209 d4bd
00000090: 8c42 74be a8e5 bebd e74f 0bbd ba7e 22bd
000000a0: 44e1 babc caa7 eabd 676f 163b b35f 41be
000000b0: 7242 5d3d 1c70 a9be 8100 19be 6a4e 52be
000000c0: 3743 87bc e057 c8bd ee68 82bd a2f5 fdbd
000000d0: 6668 55be 9502 00bd 4cc4 34be 543c 17be
000000e0: 8a1c f9bd 8aa8 eabd a3f2 dcbd 97c4 96bc
000000f0: a532 243e e343 9d3c 3c27 26be 8b13 81bd
00000100: 8fa6 46be 1e3a bebd abf9 ec3c d72b 83be
00000110: 9a35 66be d621 e8bd 0555 a53d 6cd3 58bd
00000120: 58f9 153e 329b b0bb 40fa aa3c 5fb7 ebba
00000130: 34cf fbbc c613 36be 05f4 51bd 6092 b0bd
00000140: 7ace 16bd aba6 e2bd c944 153e 64c9 903c
00000150: 5a1e 67be e9f3 5d3d 626a 53be 95c3 d5bd
00000160: dddc 35be 771a 21be 1501 6abe f742 b23d
00000170: 1d0c a3bc eb41 62be 7863 0dbd b54a 3abd
00000180: c627 95bd dc8c 66bb 3076 fcbb 4276 c4bd
00000190: 0065 5ebd 6513 96bc 4e22 1a3e 0c71 81be
000001a0: 0905 84bc 2fa6 93be fddf 04bc fa5c 203b
000001b0: 3eff 5bbd a2f8 ab3d 9c2f 5b3e e30f 46bd
000001c0: cce8 9fbe d110 41be 249e 32be 0c0e 83be
000001d0: 5d5e d3bd aaf0 0fbe d1fd d43b 9809 a5bd
000001e0: 24ed a93c 2c12 8dbd 6354 49bd b855 1e3e
000001f0: 615e a63c d710 c63b 9aa5 debd 6e9e 183d
00000200: 49d4 393d bd83 b03d 29c9 863d 961d 0abd
00000210: 0348 17bb c301 8e3c b72f 233d ceee 4f3d
00000220: f19b b53d 926e 973c 66d6 a4bd b444 b93d
00000230: d5f9 a13b 6867 083c a4f9 9bbc 3298 17bd
00000240: c0fb 993d 66e7 d43d abd3 863d 49ac adba
00000250: 0bb2 0abb e1b7 c93a cb9d 4dbd 25c3 8ebc
00000260: 9865 5d3d 1a90 9abd 457a 563d 6214 19bd
00000270: 2153 aebb 412e 893d 67eb 4e3d bf0a 653d
00000280: 3c81 8abd 8d14 d3ba f025 8e3c 81d6 ad3c
00000290: 6981 8fbd 3457 91bd 8e39 a6bc 1cc0 143d
000002a0: 0cc4 ae3a 299c 043b f43d a23d 147e 76bd
000002b0: 4339 be3d 3fc1 f23c 0fcb 94bd 184a 1e3d
000002c0: ebf6 b03c 4cea efbc fea6 7fbd a032 073d
000002d0: 30b4 7cbd 8501 44be 38a5 ecbd 4c19 14be
000002e0: 5307 9fbd 01a5 4cbe 30ba fdbb 6971 85be
000002f0: 4e57 febd 4424 b9bd c9f1 3fbd 696d 8fbe
00000300: 8524 083d bde0 d7bd 1eb4 82bd 85ab 933d
00000310: df53 44be 6e21 9ebd ef4e 80be 95c1 01bd
00000320: e507 203d 52f6 6fbe 791a 2a3e fa4b 6abe
00000330: c4ca 8abd a0eb 8fbc 0a85 85be 6d97 f9bd
00000340: 7cf9 f6bd 6aa8 8ebe d8cd 49be de04 eb3c
00000350: ee95 c6bc bd18 13be b0df 8cbc b456 7ebd
00000360: 8270 4ebc 8d20 dabd 22ad bcbd 7c55 5dbe
00000370: da6a 57bc 61ea bebd ab47 9a3d f507 6ebe
00000380: d3fc 823d 1168 4cbe 842c e7bd de8c ffbd
00000390: ac6c 2d3d b70b 8dbd 88f0 253d cf05 2dbe
000003a0: 36a8 92be 373d a9bd e2b7 cabd 5195 4bbe
000003b0: c6bf 62be 1cac 34be 909c 2aba a742 e1bd
0.12702045 -0.13698052 -0.17412578 -0.1202444 -0.057196133 -0.15910502 -0.06309214 -0.19152366
-0.10751252 -0.014118759 0.021292191 -0.104398996 0.11747191 -0.16802596 -0.11292558 -0.12830418
0.004488257 -0.03577371 -0.1460745 0.07012912 -0.09208065 -0.15530324 -0.050247524 -0.07263523
-0.11967442 -0.12427218 -0.06609499 -0.23125 -0.23460744 -0.2801562 -0.0063878414 -0.06376502
-0.18918422 -0.16436149 -0.10923413 -0.1035334 -0.2385351 -0.09321147 -0.034011748 -0.039671637
-0.022812493 -0.114577845 0.0022954585 -0.18884163 0.054018445 -0.33093345 -0.14941598 -0.20537725
-0.016511543 -0.09782386 -0.0636767 -0.12400366 -0.20840606 -0.031252462 -0.17653006 -0.14769107
-0.121636465 -0.114579275 -0.10788467 -0.018404288 0.16034944 0.01919741 -0.16225904 -0.06302556
-0.19399475 -0.09288429 0.028927645 -0.25619385 -0.22481385 -0.11334579 0.08072857 -0.052936003
0.14645898 -0.0053895945 0.020871282 -0.0017983726 -0.03073845 -0.1778098 -0.051258106 -0.08621669
-0.036818005 -0.11066946 0.1457702 0.017674156 -0.22570172 0.05418769 -0.2064605 -0.10437695
-0.17760034 -0.15732752 -0.22851975 0.08704179 -0.019903237 -0.22095458 -0.03451869 -0.045481402
-0.07282977 -0.0035179174 -0.0077045187 -0.095928684 -0.05429554 -0.018319795 0.15052149 -0.2528156
-0.016115682 -0.28837726 -0.008110044 0.002446948 -0.053710215 0.08397032 0.2140488 -0.048354995
-0.31232297 -0.18854071 -0.17443138 -0.25596654 -0.10320733 -0.1405665 0.006499984 -0.080584705
0.02074296 -0.06888232 -0.049152743 0.15462387 0.020308675 0.006044488 -0.1087143 0.037260465
0.045368467 0.08618877 0.06581337 -0.03371962 -0.0023083694 0.017334824 0.039840426 0.05076485
0.08867634 0.018485341 -0.08048706 0.09046307 0.0049431124 0.008325435 -0.019039936 -0.03701038
0.075187206 0.10395698 0.06583341 -0.0013250198 -0.002116325 0.0015389883 -0.05019931 -0.017427037
0.054051965 -0.075470164 0.0523627 -0.037372954 -0.0053199683 0.06698275 0.050517466 0.05591845
-0.06762931 -0.0016104147 0.017352074 0.021220447 -0.07007105 -0.07096711 -0.020291116 0.036316022
0.0013333573 0.002023468 0.07921973 -0.06017883 0.092882656 0.029633163 -0.07265293 0.03864488
0.021602115 -0.029286526 -0.062415116 0.033007264 -0.061695278 -0.19141205 -0.115549505 -0.14462775
-0.07765069 -0.19984819 -0.0077431425 -0.26063088 -0.12418996 -0.0904012 -0.046861444 -0.2801316
0.033237953 -0.10540912 -0.06382011 0.07210449 -0.1917262 -0.0772122 -0.25060222 -0.031678755
0.03907003 -0.23433807 0.16611661 -0.22880545 -0.06776956 -0.01756841 -0.26078063 -0.12187085
-0.12059304 -0.27862865 -0.1970743 0.028688844 -0.024241414 -0.14364906 -0.017196506 -0.062094405
-0.012600066 -0.1065074 -0.0921271 -0.21614641 -0.013148034 -0.09322048 0.07533201 -0.23245223
0.06395879 -0.19961573 -0.112877876 -0.1247804 0.042339966 -0.06887 0.04051259 -0.16896747
-0.2864396 -0.08263629 -0.09898354 -0.19881178 -0.22143468 -0.1764378 -0.0006508315 -0.10999041

weight_ih_l0 f4 [240, 60]
00000000: 6ea4 a1bd 3e10 30bd 49fb ae3d da36 2fbe
00000010: 8356 12be be6f adbd a69d 69bd 6909 403d
00000020: d32b 193d 5045 e43d 50a3 79be fa7a 0cbd
00000030: 2d09 9dbe 9116 1dbd 183e a9bd 91f5 89be
00000040: f6a8 dbbd aadf a6bc 24c0 e9bd 5dde 0fbd
00000050: 01d3 c73d 6cc7 113d 30e2 c53d 8f1f d83d
00000060: d1ea e33d a90e ffbc b09e babd a902 03be
00000070: f64d a0bd aecb 833d 0692 4cbd 31ee 643e
00000080: 6309 cabd 9fbb 07be 79e5 adbd 1111 8bbe
00000090: 69a2 01bc 126d 043c 674a be3c 366a 28bd
000000a0: 9129 51be ee79 f73d f4cb 8dbd 265b 7fbc
000000b0: 33d4 c03e f71f 3d3e e4e9 a0bd e886 d5bd
000000c0: ffef 8abe 6789 5cbe cd7c d8bd 27d5 ae3c
000000d0: e8f8 d8bd 09d8 bb3b 895a 92bc 9366 68bd
000000e0: 89a4 9d3d 1c4a 133d 5deb 8d3c da1a 0bbe
000000f0: 2e16 0ebe 8fea 26be 9147 603e c546 40bd
00000100: b709 ccbd effe e03d 6875 a5bd a742 91bd
00000110: f9b0 a33d 869a d03c c4bb cdbb af86 80bd
00000120: f125 8dbe 67bd 53be d8ff 90be 3eda 78bd
00000130: 2257 41bd fecc 27bd 3518 2d3b c926 6fbe
00000140: cee1 483e 82e9 32bd 462c d13d da14 1dbc
00000150: e114 e4bc e161 f83c 319d 093d 4626 883a
00000160: f358 763c 3719 f33d 9526 873d 9158 ff3d
00000170: b169 31be 4473 57be 4d33 2bbe 378c 84bd
00000180: 11e2 26be 6e25 acbd 0e34 633c 1bec 0a3e
00000190: 486d 8cbe 6de9 46bd b72c 07be a31b 37be
000001a0: de85 6b3e f470 523d 5a84 463d 3404 90bd
000001b0: 6985 84bd d8d7 51be 0677 b9bd aa58 073c
000001c0: 6c0d 173d ddf5 143d bda2 9f3d 67e2 29be
000001d0: ed2f afbb 4a8d 38be 7677 903d 570b f73c
000001e0: d6bf 2ebd c2b4 8ebd e190 573e 7d64 84be
000001f0: 6182 33be 0307 b43c d47c febd afd3 0abe
00000200: 4ab8 bbbd c59f 193e f058 cbbd 1fa2 0abe
00000210: c52f b9be 6071 b0bd 5b81 9fbe 55c4 33be
00000220: 6a05 93be 572e e23d f5b4 adbc 8d46 29be
00000230: 2f17 6f3e 0883 f8ba 363e 313e 841b 953e
00000240: 0af6 0f3e 407e 8abd 4c70 be3d 33d0 cabc
00000250: 7037 e8bd 519b b23b 9ef6 793d e483 353e
00000260: 59f1 c2be b19c 00bd d227 15be 3783 ecbd
00000270: fe43 2e3b d58c 4bbe d104 823e 4b0e fd3d
00000280: 378b 60bd 044d 623c ed9f 79be b4e5 78be
00000290: b9f1 843e 74df 763d 9f73 b0bd 478b 4d3e
000002a0: 576e 53be c609 95be f266 85be 870c d5bb
000002b0: d55d fd3c 80e4 bfbd f0b1 373e b32a 8b3c
000002c0: d6c5 f93c ca97 903c 593b 0dbd 44fb 33be
000002d0: a9d1 eabc 2f83 97bc d978 343e 459c 1bbe
000002e0: 6385 1bbe 7eed 84bd 231f 0fbe 33e0 a53d
000002f0: 3cf7 6f3c 2a64 e13d 7e60 4fbe 008d b6bd
00000300: a97c 00be a712 0fbe 4d11 25be 5551 86be
00000310: d506 4fbd d1c7 5abc 7d38 62bd 6caa 73bd
00000320: 2199 2c3e 2f29 613c 1c8d 643e e29a c83b
00000330: b370 033e 87a7 f43d d37e 15be c7c5 2bbe
00000340: 4e49 34be f2c2 2a3d 6aaf 1fbd f3f9 ce3d
00000350: ca6e 6bbe 0814 a1bc e916 5dbe f923 9dbd
00000360: 5983 b1bd 9124 88bd b4e0 573e 886a 50bd
00000370: 5764 45be e1f6 383d e534 7dbe 01d4 b0bc
00000380: 178e a13e fcdd d6bb ee1d b4bd f2e4 7a3d
00000390: ba3a 17be 2296 62bd 0f79 00be 0bae e0bd
000003a0: 9ead 2dbe 3472 29be 31a3 a33d a032 38bd
000003b0: 6029 063d 533c c03c 2f24 b9bd 854a 15be
000003c0: 5a6e 32bd 78fa 35bd 8d11 143e e0e5 e1bb
000003d0: 7c21 3ebe 428b 8c3c 4a4b e1bc 2210 c3bc
000003e0: aa6e a43c 99f9 b8bc 6edf 70be f495 70be
000003f0: 9b16 86be b828 82be 004f a9bd d523 debd
-0.078926906 -0.04298424 0.085440226 -0.17110768 -0.14290814 -0.08468579 -0.05703511 0.046883974
0.03739531 0.11146033 -0.24378705 -0.034296967 -0.30671063 -0.0383516 -0.082637966 -0.26945165
-0.10725586 -0.020370323 -0.11413601 -0.03512417 0.09757043 0.035590574 0.096622825 0.10552894
0.11128772 -0.03113492 -0.091122985 -0.12793984 -0.0782737 0.06435333 -0.049943946 0.22356488
-0.098650716 -0.13255166 -0.08491034 -0.27161458 -0.007912257 0.008082645 0.023228837 -0.041116916
-0.20426013 0.12083803 -0.069236666 -0.015585696 0.37661895 0.18469225 -0.07857111 -0.10426122
-0.27136227 -0.2153679 -0.10570679 0.021341873 -0.1059435 0.0057325405 -0.017865436 -0.056738447
0.07697398 0.035959348 0.017324144 -0.13584462 -0.13875648 -0.16300415 0.219023 -0.04694249
-0.099627905 0.10986125 -0.08079034 -0.07092791 0.07992739 0.025464308 -0.006278487 -0.06275689
-0.2756801 -0.2067772 -0.28320193 -0.060755007 -0.047202237 -0.04096698 0.0026412134 -0.23354639
0.19617388 -0.04367972 0.102135226 -0.009587491 -0.027841987 0.03032011 0.033597175 0.0010387383
0.015035856 0.11870044 0.06599156 0.124680646 -0.17325474 -0.21040064 -0.16718788 -0.06472056
-0.16297175 -0.08405577 0.013867391 0.1356663 -0.27427125 -0.048562456 -0.13200651 -0.17881636
0.23000285 0.05137725 0.048466064 -0.07032052 -0.064707585 -0.20492494 -0.09055905 0.008260885
0.036878034 0.036367286 0.07794712 -0.16590272 -0.0053462894 -0.18022648 0.07054035 0.030156774
-0.042663418 -0.069680706 0.2105136 -0.25857916 -0.17530204 0.021976 -0.12426153 -0.13557313
-0.0916601 0.15002353 -0.09929073 -0.13538407 -0.36169258 -0.086153746 -0.31153378 -0.17555363
-0.28715068 0.11043995 -0.021204451 -0.16530819 0.23348688 -0.0018959949 0.17308888 0.29122555
0.140587 -0.067623615 0.09298763 -0.02475748 -0.11338699 0.005450644 0.061026208 0.17726094
-0.3807476 -0.031399433 -0.14565971 -0.11548465 0.002659082 -0.19877942 0.253943 0.12356242
-0.054820266 0.013812307 -0.24377413 -0.24306375 0.2596567 0.060271695 -0.08615803 0.20072661
-0.2064756 -0.2910902 -0.26055104 -0.0065017375 0.030928532 -0.09369755 0.17938972 0.016988134
0.030489843 0.017650504 -0.034480426 -0.17576319 -0.028664427 -0.01849517 0.17624225 -0.15196331
-0.15187602 -0.064906105 -0.13976721 0.08099403 0.014646348 0.11005433 -0.20251653 -0.08913612
-0.12547554 -0.13971959 -0.16119881 -0.26233926 -0.050543625 -0.013353304 -0.055229653 -0.0594887
0.16855289 0.013742729 0.22319454 0.006121979 0.1283596 0.11946016 -0.14599161 -0.16774665
-0.17606089 0.04168982 -0.038985647 0.10106268 -0.22991481 -0.019662872 -0.21590771 -0.07672877
-0.08667631 -0.066475995 0.21081811 -0.050882846 -0.19276558 0.045157317 -0.24727209 -0.021585466
0.31553718 -0.0065572243 -0.08794771 0.061253496 -0.14768496 -0.05531896 -0.1254618 -0.10970696
-0.16960761 -0.16547471 0.07990111 -0.044970155 0.032754302 0.023466265 -0.090401046 -0.14579208
-0.04356227 -0.04442832 0.1445982 -0.0068938583 -0.18567461 0.017156247 -0.027501721 -0.023811404
0.0200723 -0.022579955 -0.23522732 -0.23494703 -0.26189122 -0.2542169 -0.08267021 -0.10846678

weight_hh_l0 f4 [240, 60]
00000000: 6dd1 81bd 8758 0e3e cf53 343d 5914 29be
00000010: e301 a8bd 2663 90be 67ca 163e 598f c3bd
00000020: b82a 183d 0afb 41be f751 2bbe 62bf ad3c
00000030: 8730 7fbe 2792 123e 3031 47bd 2c85 bb3b
00000040: 4657 11be afea ed3d 8308 583d ef7d 03be
00000050: ad7b ebbd 836b eb3d 17f3 6c3b de6e 68be
00000060: 4d0b 3ebe e7bb 5c3d 1cf7 2cbe c66b f93d
00000070: ac89 7e3e 06a4 0e3e fab5 1bbe 2acb d2bd
00000080: 7079 6b3e 8bd1 15be 56fa 903d f6e6 8dbe
00000090: 355a 963c 4f5b 3abe abb0 c43d a14b 8d3e
000000a0: c721 0ebe 94d8 5cbd 18d0 33be 7cf6 09bc
000000b0: 84d5 913b 9bc8 3dbe d754 d1bd baf1 653d
000000c0: 4de5 2c3e 1220 473e 8829 5fbd 8ad3 ac3d
000000d0: 0671 683b 32a3 833d 9c30 5ebd 676f 323d
000000e0: d281 21bd b643 bb3d 29e6 9c3e 046f 153e
000000f0: 4d50 ee3d 9054 a3bd 4a24 65bd 8fd1 96bd
00000100: 7e8f 893d 624c 57be c53d 523d 25d3 323b
00000110: ab09 803d 58d9 143c ec32 b5bc a131 033e
00000120: 4582 33be cabd f23d b81c ac3d 40e1 c9bc
00000130: 5193 1fbe 4b5f d63b f8e5 3e3e 351e 2ebc
00000140: d786 ffbd 9844 a93d 1980 da3d c5fc 133d
00000150: 59ec bd3d d96d 8abd 3fb3 16be 2853 27bd
00000160: c964 2a3e d033 133e 7522 4a3d cf0b a0bd
00000170: 7b1c c13d 9380 10be f924 893d 3b17 b4bd
00000180: a6cd 9ebd 5a9a f4bc 6b68 7e3d 5fb5 f93d
00000190: 8862 41bd ff2f f0bd fd7a 31be 6e2c c6bc
000001a0: 3db2 853c 5ad6 0a3d 4279 d03d 0fe0 1fbe
000001b0: 1df7 0c3d 5eb2 123d 53e2 87bc dc2c 993d
000001c0: 6e13 7d3c e1e4 ee3d 8393 703d 1878 6d3c
000001d0: 3bce af3d ff6a 21bd 661c 0b3d 0902 21bd
000001e0: 110b 123d 93d6 9f3d c590 823d 9524 92be
000001f0: b8fe b8bd d9b2 5ebe 2096 ac3e 4cc3 91bd
00000200: 3369 563e 4ac5 83be 73c3 eabc e25f 8dbd
00000210: 35c2 a0be 8329 853d bf8e 713d b831 65bd
00000220: cf87 52be 7420 37bd 5df0 973d 17ac 69be
00000230: 9acb 0cbe fb99 093c 2018 923b 4404 6fbe
00000240: bbd7 9e3c 062b aebd a59a 9fbc b3e9 4c3d
00000250: ec1b a03d f171 fa3d e222 983d 909b 29be
00000260: 47ac 4d3e 5152 4c3c 182f ffbd ce0e b7be
00000270: 2336 f03d eb51 16bd b9ea 183e fc2a 3a3e
00000280: 044c 4ebe 4a43 0ebe 750e 34be c023 a03d
00000290: f674 953a 7754 43bd 926a e0bc 0043 3f3e
000002a0: a902 0d3e 7e8a 823e 2408 8f3c 7c20 683e
000002b0: 2140 013e cea4 223e 6a6c a4bd f012 92bd
000002c0: 3adf 99bd 2195 213d 5042 783e fd3e b33d
000002d0: afd4 bbbd 6627 363d 4e1d 7bbc 719e cd3b
000002e0: d9f8 213d f7db acbd 6864 a33d ba66 a2bd
000002f0: e4f5 6e3c 5c27 71be 68f9 34be ae06 aebc
00000300: 7a2c 16be d06c 033e 804a b0bd 832a c53c
00000310: 6a62 0cbd 4bb3 053e 12b9 e13c 1a0c 0fbd
00000320: 5021 7ebd 66db 993d efe1 3fbd 2314 4ebd
00000330: 862d 2e3c 6ad6 e9bd a778 a2bd 7099 123d
00000340: 26e0 093e 0ae4 2d3e 466f 923d f7c7 223c
00000350: ab4b 3bbc 0f88 dcbd 0c0c 073d a390 52bd
00000360: 0eba 313b 3631 2cbc e327 293e 8fb9 783e
00000370: 6252 3dbe 5a22 2b3e 57ba bebd 2375 97bd
00000380: 1398 dd3c 1548 cd3c 7334 01be 1ef9 e93c
00000390: cd24 08bd e552 1cbd d00c 57bd 0c30 f93d
000003a0: 7fc4 f3bd bc59 8b3c 176c 263d 031b 643d
000003b0: 0809 1abd e6a8 dabd 1892 823e 5404 5e3e
000003c0: 87b0 46be 6a2e 353d a79c d93c e428 96be
000003d0: 6580 8b3d 0567 cdbe 2b0e c03e f96c 2cbd
000003e0: 5c5a 3a3e b25b dcbe 2b94 18be 39ad 193d
000003f0: a65d 99be 9259 29bd 8017 0a3d 1466 d3bd
-0.06338773 0.13900958 0.04402524 -0.16511668 -0.08203485 -0.28200644 0.14725648 -0.09548826
0.037150115 -0.1894342 -0.16730486 0.021209422 -0.24920855 0.14313565 -0.048630893 0.0057226624
-0.14193448 0.11617028 0.052742492 -0.12841009 -0.11498199 0.114951156 0.0036155635 -0.22698542
-0.18558998 0.053890135 -0.1689114 0.12178759 0.24857205 0.13929757 -0.15206137 -0.10292657
0.22995543 -0.14630716 0.07078998 -0.27715272 0.018353561 -0.18198894 0.09604009 0.27596763
-0.13880073 -0.053917482 -0.1755985 -0.008420583 0.004450502 -0.18533556 -0.1022126 0.05613873
0.16884346 0.19445828 -0.054482967 0.084387854 0.0035467758 0.064276114 -0.054245576 0.043563273
-0.039430447 0.09143774 0.30644348 0.1459313 0.1163641 -0.079751134 -0.05594281 -0.07364189
0.06716822 -0.21025231 0.05132844 0.0027286496 0.06251844 0.009085022 -0.022119008 0.128119
-0.17530163 0.11852606 0.08403915 -0.02464354 -0.1558354 0.0065421215 0.18642414 -0.010627319
-0.124768905 0.08265036 0.10668964 0.03612973 0.09273595 -0.06759233 -0.14716814 -0.04085079
0.16640009 0.14375234 0.049349267 -0.07814752 0.0942926 -0.14111547 0.06696505 -0.08793493
-0.07754068 -0.029858757 0.0621113 0.12192797 -0.047213107 -0.117279045 -0.17332073 -0.024191108
0.016320342 0.033895828 0.10179378 -0.15612815 0.034415353 0.035814635 -0.016587412 0.07479259
0.015446527 0.11664749 0.05873443 0.014493965 0.08584257 -0.03940868 0.03396263 -0.03930858
0.035655085 0.07804599 0.06375269 -0.28543535 -0.09032959 -0.21747912 0.33708286 -0.07117328
0.20938568 -0.25736457 -0.02865765 -0.06903054 -0.31398168 0.06502058 0.058974024 -0.05595562
-0.2055962 -0.044708684 0.074188925 -0.22819553 -0.13749543 0.008398528 0.0044584423 -0.23341471
0.019389978 -0.085043 -0.01948292 0.05002756 0.07817826 0.12228764 0.07428528 -0.16563249
0.2008525 0.012470798 -0.12460154 -0.35753483 0.11729076 -0.036699217 0.1493329 0.1818046
-0.20146185 -0.13892856 -0.1758364 0.07819319 0.0011402655 -0.047687974 -0.027394567 0.18677902
0.13770546 0.25496286 0.017459936 0.22668642 0.1262212 0.1588318 -0.08028491 -0.07132518
-0.0751328 0.03944886 0.24244046 0.087522484 -0.091714256 0.044471167 -0.015326811 0.006274991
0.03954396 -0.084403925 0.07978135 -0.0792975 0.014584992 -0.2355017 -0.17673266 -0.02124342
-0.14665404 0.12834477 -0.0860796 0.024068123 -0.034273542 0.13056676 0.027554069 -0.03492365
-0.062043488 0.0751255 -0.046846326 -0.050312173 0.010630971 -0.11417849 -0.07933169 0.03579086
0.13464412 0.16981521 0.0715013 0.009935371 -0.011431615 -0.107681386 0.032970473 -0.051407468
0.0027118954 -0.01050978 0.16519122 0.24289535 -0.18488458 0.16712323 -0.09312885 -0.07395389
0.027050054 0.025058785 -0.12617664 0.028561171 -0.03323822 -0.038164992 -0.052502453 0.12167367
-0.11902713 0.017010562 0.040630426 0.055689823 -0.03760627 -0.10676746 0.25502086 0.21681339
-0.19403277 0.044233717 0.026563955 -0.29328072 0.06811599 -0.4011766 0.3751081 -0.042096112
0.18198532 -0.43038708 -0.14900272 0.037518714 -0.2995426 -0.041345187 0.033713818 -0.10322204

bias_ih_l0 f4 [240]
00000000: 6c46 26be e9fc 91be c449 43be 735f 27bd
00000010: cb40 9abe 13c1 19bd 7700 10be e61c 4ebe
00000020: c569 97be 4291 25bb f2fc a3be e12a 90be
00000030: 18bd f83c 1c32 a8be 6dc9 15be 3531 43be
00000040: 12d7 40be ed85 c8be 7567 91be 650c 73be
00000050: 3053 03be 38e5 63be 18f4 7ebe b999 a6be
00000060: a1a1 abbe 13ac a0be 28d2 21be 25bd 85be
00000070: 4c1c 3ebd b45a f4bd b6f9 23be 17f2 01be
00000080: 7c47 8ebe c5df cfbd 6d97 98be 5dc3 13bd
00000090: b4e2 43be 30f1 e5bd fe17 37be dc89 45be
000000a0: 2a54 9abe 2fe9 60be 7b22 73be 74b2 7ebe
000000b0: c4e0 afbe 80a9 36be 0f90 a1be a0ef c6be
000000c0: 7262 11be 3c0a 1dbe da57 31be e176 05be
000000d0: e670 a7be 5aa3 7cbe 3b14 79be f835 a8be
000000e0: a9c8 98be 4beb 6bbe ad26 e4bd 1d4b 85be
000000f0: 3b20 a5bd 13f6 bf3c 1322 9cbe 94ac 89bd
00000100: d056 14be e052 25be 2b57 27be 3ab7 69be
00000110: b177 cabd 1c6b f63d 5e6d 84be b1fe 1fbe
00000120: ca5a 22be 784f 8fbe 97a6 40be 8af6 e9bd
00000130: 4d9c 51be 9afa 9dbe 5f22 87be b4b5 88be
00000140: 30d6 98be 0445 2cbe 7c17 a8be 864d 1cbd
00000150: 11c4 81be 3de7 9fbe cb58 02be 1e43 9dbe
00000160: d01d f0bd 578c 1f3a 99af eabd dc38 833c
00000170: 79ec 37be bcdc 6dbd ef65 f8bd 642f dbbd
00000180: 63ea 41be a48e a7bb fc33 47be a502 45be
00000190: 52e8 5dbe 7fe7 8dbe 442e 12bd e971 63be
000001a0: a28d 93be 08fe acba 5920 dfbd 6cf3 3cbe
000001b0: d12e 78be 399e 81bd d112 84be 5cf7 e13c
000001c0: 26f5 84be cb8d 2bbe 6dff 3ebe 6635 48be
000001d0: b6a4 b8bd 37cc 98be f35e 19be d166 13be
000001e0: 3876 643d c879 fbbc 50bc cebd 0e70 243b
000001f0: 602f 763d 9be2 413d 19d4 acbd 8852 5a3d
00000200: a30f 4ebd 07b5 253e 9a41 0c3d ad3f 80bd
00000210: d197 90bc 25a6 62bd 1f33 873d ee39 8c3d
00000220: d855 e03d 13bb 95bd eedb ee3b 5b6a 10bd
00000230: ed4c e13d e515 4f3d b902 b73d 4352 c43d
00000240: 994d 583d ea41 833c 9b21 8f3d ff83 c6bd
00000250: c322 8abd 6e38 0dbd 92a0 863d d793 8e3d
00000260: 5687 d1bc d888 6d3d cdc4 4b3d 1583 aa3d
00000270: a74f dcbd b181 68bd 0725 6cbd 7692 e8bd
00000280: ac96 a23c 36c3 973d 98ca 2ebd 601a 1b3d
00000290: 0b3d e23d 5533 6d3c 8eda 563d d486 823d
000002a0: f39f c2bd 464f c33c 59fd 5d3d aa27 c8bd
000002b0: 35e0 9a3d 12f9 10bd 3943 903c 88b2 0cbb
000002c0: cd1c f83d b413 52bd 3b98 8b3c 42ea 693c
000002d0: 7c3b 1abe 76cb b7bd c3b8 a7be 7679 f9bd
000002e0: 61f0 9cbe 8806 0cbe eea7 03bd 9449 3dbe
000002f0: edf9 9bbe c49f c0bd c0db 88be 58fd 19be
00000300: a0c7 d83c e1a7 e0bd e3b0 19be a9ca 0dbe
00000310: ecb6 23be 2b05 10be b214 27be 6f2d 4dbe
00000320: 4c11 1dbe 956c a4be 3ad2 b3be ca13 b7bd
00000330: ad25 1cbe 8672 15be 31b4 78be 4dbb 87be
00000340: 23d5 36be fe2e 40bd 9c14 1abe f4ce 28be
00000350: bf63 9dbe 746e 34be 25eb a3be 70c3 76be
00000360: 1d32 2cbe 271c 0abe 6707 6abe 3e38 ecbc
00000370: ee75 94be dcd3 d4be 9623 98be a8c6 94be
00000380: 40d4 48be 01c3 19be 0e20 a0be df4a 98be
00000390: 418f 5ebd 1140 4dbe c08b c9be 366c 83bd
000003a0: a28c 96be 0063 51be a72a cfbe 55c4 65be
000003b0: fb9a a1be b7e2 7fbe 9549 82be 58b9 b9be
-0.16237801 -0.28513268 -0.19071108 -0.04086251 -0.30127558 -0.037537646 -0.14062677 -0.20128211
-0.29572883 -0.0025263582 -0.3202892 -0.28157714 0.030363604 -0.3285073 -0.14627619 -0.1906174
-0.18832043 -0.39164677 -0.28399244 -0.23735197 -0.12824702 -0.22255409 -0.24897802 -0.32539156
-0.3352175 -0.31381282 -0.15802824 -0.26120868 -0.046413705 -0.11931363 -0.16013226 -0.12690006
-0.27788913 -0.101501025 -0.2980303 -0.036074985 -0.19129449 -0.112276435 -0.17880246 -0.1929087
-0.30142337 -0.21963952 -0.23743622 -0.24872762 -0.3435117 -0.17838097 -0.3155522 -0.38854694
-0.1419771 -0.15335935 -0.17318669 -0.1303363 -0.32703322 -0.24671689 -0.24324124 -0.32853675
-0.29840592 -0.23038976 -0.11140189 -0.2603387 -0.08062788 0.023432767 -0.30494747 -0.0672237
-0.14486241 -0.16144896 -0.16341846 -0.22823802 -0.098861106 0.12032148 -0.2586469 -0.15624501
-0.15854946 -0.27990317 -0.18813549 -0.11423977 -0.2046978 -0.30855256 -0.2639341 -0.26701128
-0.29850912 -0.16823202 -0.32830417 -0.03815987 -0.253449 -0.31231108 -0.12729184 -0.3071527
-0.11724436 0.0006086281 -0.11459274 0.016018324 -0.17961301 -0.058071837 -0.12128817 -0.107023984
-0.18937068 -0.0051134396 -0.19453424 -0.1923929 -0.21670654 -0.2771568 -0.035688654 -0.22211422
-0.28818995 -0.0013198266 -0.10894842 -0.18452233 -0.24236609 -0.06329007 -0.25795606 0.02758377
-0.25968283 -0.16753308 -0.18652125 -0.1955162 -0.09015791 -0.29843304 -0.14977627 -0.1439469
0.055776805 -0.030697718 -0.100945115 0.0025091204 0.060103774 0.04733525 -0.08438892 0.053301364
-0.05030788 0.16182338 0.03424225 -0.06262145 -0.017650517 -0.05533423 0.066015474 0.06846987
0.109538734 -0.07311072 0.0072894013 -0.03525768 0.110010006 0.05055799 0.08936066 0.09586003
0.052808378 0.016022641 0.069888316 -0.09693145 -0.067449115 -0.034477644 0.06573595 0.06961792
-0.025577229 0.057991832 0.04974823 0.08325783 -0.1075738 -0.05676431 -0.0576525 -0.1135606
0.019847237 0.074102804 -0.042673677 0.03786695 0.11046799 0.014477571 0.052454524 0.06373373
-0.09503164 0.023841511 0.05419669 -0.0977319 0.07562295 -0.035393782 0.01761018 -0.0021468718
0.12114868 -0.05128832 0.017040363 0.014277043 -0.15061754 -0.08974354 -0.3275815 -0.1218137
-0.30652145 -0.13674366 -0.032142572 -0.18485099 -0.30464116 -0.09405473 -0.26730156 -0.15038049
0.026462376 -0.1096952 -0.15008883 -0.1384684 -0.15987748 -0.14064471 -0.16316488 -0.20036863
-0.1533863 -0.32114092 -0.35121328 -0.08939321 -0.15248747 -0.14594468 -0.24287488 -0.26510087
-0.17854743 -0.046919815 -0.15046924 -0.16485196 -0.30740163 -0.1762026 -0.3201534 -0.24097991
-0.16815992 -0.13487302 -0.22854386 -0.028835412 -0.28996223 -0.41567886 -0.2971465 -0.29057813
-0.19612217 -0.15015794 -0.31274456 -0.29744622 -0.054335836 -0.2004397 -0.39364433 -0.06417124
-0.2940417 -0.20447922 -0.4046223 -0.22438176 -0.31563553 -0.24988829 -0.25446764 -0.3627422

bias_hh_l0 f4 [240]
00000000: 4827 3cbe 1349 05be 5152 0fbe dd0d 58be
00000010: f6aa 78be 32e8 2dbe bbcd f7bb 25c1 86be
00000020: a085 8bbe adcc a8bd ef69 90be 521b b4be
00000030: 4224 04be 7032 35be 56d5 82be 23fb 2ebe
00000040: 201e 71bd 5d5e 5dbe 7ff7 88be d220 1ebe
00000050: a232 8ebe 5090 a5be e458 a1be c66e 86be
00000060: 75b3 2ebe 276e b3be bc67 5dbe f642 c3be
00000070: 31a2 52bc a21d 1fbe ac0b 3fbe c0bf 2f3d
00000080: e967 5ebe cb61 1dbe e21c 15be 1a26 43be
00000090: b246 28be e539 9dbe 27cf 77be 167a a2bd
000000a0: e69c 85be 0a61 96be b071 8dbe aec6 bdbe
000000b0: 2ed0 4fbe dbb0 5dbd 63e8 90be bb16 d0be
000000c0: 6436 abbd 7f66 a2be 8bf7 b8be 0da8 4cbe
000000d0: df17 4cbe ec85 aabe ea44 95be 3768 11be
000000e0: 5813 64be 47cf 60be 2a48 fdbd e6cc 9abe
000000f0: 010d 1fbe 1252 60bd 0864 82be 2d85 073d
00000100: acf3 84be 2a51 5abe ce14 0cbe 322c 8abe
00000110: af31 25be 32e6 f7bc ce10 95be 058d 99be
00000120: 299a 7ebd 28dc 11be e2d2 42be 18d8 2cbe
00000130: faa0 63bd f54f 82be 87e6 0abe 158a e1bd
00000140: 13a7 dbbd f282 9cbe 3683 32be a8a2 3cbe
00000150: b916 87be 608a 3abe ce21 1dbe 1ae9 60be
00000160: c27e 1dbe 6fa5 63be 8a71 87be 6c21 a5bd
00000170: 491a 8fbe 00c7 34be a504 66be ac8c 55bd
00000180: c387 07be e7c2 24be de5c 14be 7c11 01be
00000190: 841e 90bd 1a6a a9be 4b22 5ebe e02d 87be
000001a0: 6b21 f2bd 7a32 efbd 6e7c 23be 1979 0fbe
000001b0: 8e69 debc 2c5a 8fbe 5a09 66be e0e9 3abe
000001c0: ce28 ddbd d9ab 82be 41e2 4fbe 2266 05be
000001d0: 73d6 fcbc cea3 47be b639 91bd 4e6d 92be
000001e0: 92b3 913b 044d 11bd ff8e aa3d fa98 303d
000001f0: 414c a53d e699 303b 59f2 8cbd 0ed0 7d3d
00000200: 0587 c43c 02ea ca3d beda 16bd 01b3 283d
00000210: 9511 d83d 660b a03d 79e1 83bd 2b4e b13d
00000220: c9b1 89bd 29ac 5ebc 20fd d6bd 83b6 953d
00000230: 221e 62bd 6f29 acbd d567 d3bd a644 66bc
00000240: 6dca bbbd b37c 5dbd ddb5 1b3d 1b5c a93d
00000250: f123 153c 9d57 b6bc 5264 99bc f73a 653d
00000260: 5bf8 563d 7735 813d 7099 b13c 1521 99bc
00000270: e8f3 553d bb63 993d 4312 bdba f507 a53d
00000280: 025f 03bd 5578 92bd bd83 07bd 82bc d4bc
00000290: 210d ecbd 72ad 963d 1cd6 8fbd b3ff c23b
000002a0: 9721 903d 3fb0 a6bc e8c9 d43c 437f f1bb
000002b0: 026f 22bd 7632 84bd 31c9 91bd 099b 663d
000002c0: 8822 b6bd e1ee a0bc c919 4bbc dae3 cfbd
000002d0: 691c afbe 1233 83be c846 32be 4e54 89bd
000002e0: cdef 3abe b77a 0abc c29f 18be a434 a2be
000002f0: a396 acbe 83f3 253d bdbe 62be 448f 42be
00000300: 7ede ddbd 28d9 96be 77ec 16be a64e 85be
00000310: 1571 73be 1e6e aebe f2e4 57be 04d4 17be
00000320: 5971 70be fdc3 adbe adac d8be 6ec7 13be
00000330: 81a9 42be 6b06 51be 89e5 15be 4fe8 57be
00000340: 6cfe 43be 168b 70be 7d47 b2be 9a83 08bd
00000350: 1cbe 8cbe 43a7 8ebd dcb6 3ebe 84ac 86bd
00000360: e3c7 84be 6fad fdbd bfb0 adbd 4319 90bd
00000370: 3934 03be 4eee 6cbe 5c37 0fbe 0aec 8cbe
00000380: 7162 7fbe e14d 73be 2ee6 81be 5e7f cfbe
00000390: f682 2fbe e556 36be e041 b0be 52dc 51be
000003a0: d1ed 8bbe 0cc8 17be 3595 ccbe 31fd 70be
000003b0: 2047 49be ce35 a3be 108f 63bc 2b18 aabe
-0.1837436 -0.13016157 -0.13996245 -0.21099038 -0.24283966 -0.16983107 -0.007562367 -0.26319233
-0.27250385 -0.08242164 -0.2820582 -0.35177094 -0.12904456 -0.17695022 -0.25553387 -0.17087989
-0.05886662 -0.21618028 -0.26751325 -0.15442207 -0.27773005 -0.32336664 -0.3151313 -0.26256388
-0.17060645 -0.35044977 -0.21621603 -0.38137025 -0.012856052 -0.15538648 -0.18656796 0.042907476
-0.21719326 -0.15369336 -0.14561799 -0.19057503 -0.16433218 -0.30708233 -0.24200116 -0.07933442
-0.26096267 -0.2937091 -0.276258 -0.37065643 -0.20294258 -0.05412374 -0.28302297 -0.40642342
-0.083599836 -0.31718823 -0.3612636 -0.19985981 -0.19930981 -0.333053 -0.2915414 -0.14199911
-0.22273004 -0.2195407 -0.1236728 -0.3023445 -0.15532304 -0.05476577 -0.25466943 0.03308599
-0.25967157 -0.21320024 -0.13679811 -0.26986843 -0.16132234 -0.030261133 -0.29114383 -0.29990402
-0.062158737 -0.14244139 -0.19025758 -0.16879308 -0.05557344 -0.25451627 -0.13564502 -0.11012665
-0.10725226 -0.30568653 -0.17432866 -0.18421423 -0.26384524 -0.18216848 -0.15344927 -0.21963921
-0.15380386 -0.22231077 -0.2645381 -0.08063015 -0.2794974 -0.17654037 -0.22462709 -0.05213611
-0.13235383 -0.16089974 -0.14488551 -0.12604326 -0.070370704 -0.33088762 -0.21692769 -0.26402187
-0.1182278 -0.116795495 -0.15965435 -0.14011039 -0.027149942 -0.27998483 -0.22464505 -0.18253279
-0.107987985 -0.25521734 -0.20301153 -0.13027242 -0.030863976 -0.1949608 -0.070910856 -0.28599018
0.0044464553 -0.03547384 0.083280556 0.04311464 0.08071185 0.00269472 -0.06882162 0.061965995
0.023990164 0.09907915 -0.036829703 0.041186336 0.105502285 0.07814674 -0.0643949 0.086574875
-0.06723363 -0.013590851 -0.104974985 0.07310202 -0.05520452 -0.0840634 -0.10322539 -0.014054453
-0.09169469 -0.054074 0.038015235 0.08269521 0.009102807 -0.022258574 -0.018724594 0.055964436
0.052482944 0.06309026 0.02167961 -0.018692533 0.05223456 0.07489725 -0.0014424998 0.08058158
-0.03207303 -0.07151858 -0.03308462 -0.025968794 -0.11525942 0.07357301 -0.0702326 0.005950892
0.07037657 -0.020347713 0.025975183 -0.007369907 -0.039656647 -0.06454937 -0.07118452 0.056300197
-0.08893305 -0.019645156 -0.012396284 -0.10150881 -0.34201363 -0.256249 -0.17409813 -0.06705533
-0.18255539 -0.008452109 -0.14904693 -0.31680787 -0.33708677 0.040515434 -0.22143073 -0.18999964
-0.10833453 -0.29462552 -0.14738642 -0.26036566 -0.23773606 -0.34068388 -0.2108343 -0.14826971
-0.23480739 -0.3393859 -0.4231924 -0.14431545 -0.19009973 -0.20412605 -0.14638342 -0.21084712
-0.19140023 -0.23490557 -0.34820166 -0.03332863 -0.27488792 -0.069654964 -0.18624443 -0.065758735
-0.2593375 -0.123865955 -0.08480977 -0.07036068 -0.1281289 -0.23137781 -0.13985962 -0.27523834
-0.24939896 -0.23760177 -0.25370926 -0.4052686 -0.17139801 -0.17806585 -0.3442526 -0.20494202
-0.27329877 -0.14822406 -0.39957586 -0.23534085 -0.19656038 -0.31876987 -0.013889089 -0.33221564

weight f4 [1, 60]
00000000: 544b 843d d48b 04be 5031 2d3d d762 f73d
00000010: d8ce 51be d8b8 063e 70d1 cabc e1be 0bbe
00000020: b38f d43c e113 283e baf3 203d 9065 a7bc
00000030: 3925 f43d 855e e1bd 7a6c e8bc f5bf 4dbd
00000040: 7964 99bc 4353 4e3d 06b0 0c3d f69b 643d
00000050: d6e9 e4bc 300c dabc 9e1d b1bd fefb ec3d
00000060: 2ee1 b83d 2f70 293d 7181 3c3d d511 13bd
00000070: cbb4 02be 0967 4bbd 1ae3 2bbc 5a99 363e
00000080: 3d6d 08be d0c7 bebd 6139 08be 10e4 a43d
00000090: 25bf 6b3d 8499 5bbc f9cd 9dbd 1686 63bd
000000a0: 5b08 963d d4e5 623d 0c1c 113e 71c0 62ba
000000b0: 31af 293d df50 053d d71b 8b3d fdea 113b
000000c0: af96 6fbd 42cc a3bd e793 efbd 8ef5 05be
000000d0: 4712 84bd 8199 7cbc 11b8 0b3d 7339 04be
000000e0: f868 eabc 8ca0 1d3d 0e62 06be e70d de3d
0.0645968 -0.12943965 0.042283356 0.12079399 -0.20489061 0.1315645 -0.02475807 -0.13647033
0.025947427 0.16413833 0.039294936 -0.020434171 0.11921162 -0.11004356 -0.028372038 -0.050231893
-0.018724667 0.050372373 0.034347557 0.0558128 -0.027943533 -0.02661714 -0.08648227 0.11571501
0.090273246 0.041366752 0.046021882 -0.035905678 -0.1276428 -0.04965881 -0.010491157 0.17831936
-0.13322921 -0.09315455 -0.13303138 0.08051312 0.057555337 -0.0134033 -0.07705302 -0.055547796
0.073258124 0.055394962 0.14170855 -0.0008649892 0.04142684 0.032547828 0.067924194 0.0022265308
-0.058493312 -0.079979435 -0.11698132 -0.13081953 -0.064487986 -0.015417458 0.034111086 -0.1291254
-0.028614506 0.038483188 -0.13123342 0.108424954
